server/model/agua_viva.onnx (onnx, 301496 bytes, 16 tensors)

fc.weight f4 [2, 256]
000000 bf 3f a8 bc 99 61 1d 3c 16 5c 0f be 17 81 04 be
       -0.020538209 0.009605789 -0.13999972 -0.12939869
000010 d0 68 ad bd a9 c2 e4 bd 2d ee a1 bd fb 9c ae bd
       -0.08467257 -0.11169941 -0.079067566 -0.085260354
000020 ad 52 8a 83 75 61 0e 83 a7 30 89 83 b2 ee 0c 03
       -8.1298924e-37 -4.1841925e-37 -8.063306e-37 4.141631e-37
000030 ad f8 4c bc 2c 8a 88 3c 50 00 d9 bd a6 6b e1 bd
       -0.012510461 0.016667448 -0.10595763 -0.110068604
000040 d9 59 c7 3d 2f c3 c0 3d f3 9e 80 3d b8 05 af 3d
       0.09733934 0.09412228 0.06280317 0.08546013
000050 e6 21 82 3d e9 6f 0b 3e 6d 82 c3 3d c4 92 da 3d
       0.06354122 0.13616909 0.09546361 0.106725246
000060 4c 04 de 3c 42 26 f5 bb 82 32 9c bd 3f 97 e1 bd
       0.027101658 -0.0074813673 -0.07626821 -0.11015176
000070 5f 8e ef 03 40 9b 6c 83 76 f6 e5 03 a5 81 f1 03
       1.4079844e-36 -6.9532385e-37 1.3515995e-36 1.4194472e-36
000080 36 92 2c 3d b2 e5 d0 3c 68 5a b8 3d ed 67 c0 3d
       0.042131625 0.025500152 0.090016186 0.09394822
000090 d6 0f 00 bd 32 b2 28 bd 2a 10 fe 3c a9 04 f1 3c
       -0.031265102 -0.041185565 0.031013567 0.029421167
0000a0 f4 60 40 bc 50 58 c8 bc 4c 78 85 3c 75 09 7e 3c
       -0.011741865 -0.024456173 0.016292714 0.015505184
0000b0 2a 64 87 83 7e 7a 87 83 93 43 82 03 aa 32 82 83
       -7.957583e-37 -7.96271e-37 7.656228e-37 -7.652345e-37
0000c0 da 0a ed 3d 88 3f d9 3d e2 7b ff 3d 27 f9 96 3d
       0.115743354 0.10607821 0.12474801 0.07371741
0000d0 d4 60 b4 3c 4d 23 b3 3c 80 3e d4 bc 51 7e be bc
       0.022018827 0.021867419 -0.025908709 -0.023253592
0000e0 f0 ba b8 3d dd d6 8b 3d 68 bb a9 3d e6 a5 c2 3d
       0.090200305 0.06828091 0.08287698 0.09504299
0000f0 3d 15 87 83 c0 6e 85 83 be c6 7c 83 2e 78 77 03
       -7.939463e-37 -7.842464e-37 -7.428429e-37 7.2724736e-37
000100 14 36 96 3c c9 f1 c0 3c 67 b0 a5 bc 31 db 7f bc
       0.018336333 0.023552792 -0.020225717 -0.015616224
000110 03 d6 7c 83 70 8f 7b 83 1a e7 78 03 d3 5b 76 03
       -7.4301818e-37 -7.392693e-37 7.314594e-37 7.239831e-37
000120 25 b7 83 03 c5 d7 7a 03 a0 fd 7b 83 ea ce 77 03
       7.741536e-37 7.371609e-37 -7.4053418e-37 7.28243e-37
000130 96 f8 0f bb 46 68 17 bd c8 f0 f6 bd b6 de d5 bd
       -0.0021968237 -0.036964677 -0.12057644 -0.10442869
000140 e7 f2 4d 3d eb 32 98 3d df 39 e9 3c af 5f 7a 3d
       0.050280478 0.07431587 0.028469978 0.061126407
000150 1e 79 0e 83 1e dd 11 03 a1 3f 0d 03 73 9f 14 83
       -4.1869085e-37 4.28655e-37 4.150922e-37 -4.367633e-37
000160 84 17 13 3d f1 7c 48 bd 99 9e 65 3b 11 af 5d bd
       0.035911098 -0.04894728 0.0035037159 -0.054122034
000170 bd 8b 23 bd af da 95 bd 53 b4 1b bd df 4a bb bd
       -0.039928187 -0.07317101 -0.038013767 -0.0914514
000180 af 8f b0 3c 33 62 37 ba b4 6f 9c bc 7e 0d ce bc
       0.021552889 -0.0006995529 -0.019096233 -0.025152918
000190 ae 94 7d 03 c7 01 7f 83 b8 ac 8a 83 90 4a 8c 03
       7.4520694e-37 -7.4939805e-37 -8.150565e-37 8.245579e-37
0001a0 3e 50 42 3c a7 38 16 3c bd 59 54 bd 4e c2 87 bd
       0.011859952 0.00916878 -0.051843394 -0.066288576
0001b0 06 c1 4a bb 02 c4 18 bb 42 cc 30 3b f2 37 1b 3a
       -0.0030937805 -0.002331019 0.0026977216 0.0005921117
0001c0 dc 10 1b 3a b6 07 d8 3b 41 d5 4e bc ac 10 61 bc
       0.0005915293 0.006592716 -0.012624086 -0.013736885
0001d0 6c 8e 77 bd ea 74 d6 bd 3c 4d 21 bd 0b 9c b7 bd
       -0.06043856 -0.10471518 -0.039380297 -0.0896531
0001e0 fc 42 da 3d 74 18 ba 3d 79 36 f6 3d 15 ca b3 3d
       0.106573075 0.09086695 0.120221086 0.087787785
0001f0 88 b7 c1 a5 c8 13 0c a6 be 56 70 1b c8 e5 38 1b
       -3.360453e-16 -4.8599066e-16 1.9880363e-22 1.529437e-22
000200 67 d0 73 9c f8 31 72 9d 60 bd d7 9c 48 fc d8 9c
       -8.067131e-22 -3.2054267e-21 -1.4276459e-21 -1.4358894e-21
000210 60 bb fc 3c e4 57 b2 3d 0e 60 b8 3d e4 63 e1 3d
       0.030851066 0.0870817 0.09002696 0.11005381
000220 c9 b1 33 9d 6c c0 04 9f 24 f8 c6 9d 77 60 b2 9e
       -2.3782366e-21 -2.8111255e-20 -5.2666735e-21 -1.888638e-20
000230 16 73 b5 3d 89 8d b0 3d 7b 56 76 bd d9 36 26 bb
       0.088598415 0.08620746 -0.060141068 -0.0025362282
000240 8b a3 84 83 3c 8a 87 03 2a ea 8a 03 32 ac 89 83
       -7.79581e-37 7.966324e-37 8.1646725e-37 -8.09167e-37
000250 f6 cb 33 3b cc 9b 8f 3a d5 fa e6 bd c8 0d f9 bd
       0.0027434803 0.0010956465 -0.11278311 -0.12160832
000260 eb a4 14 83 d3 59 1a 03 d1 ae 18 03 1a 8b 16 03
       -4.3682608e-37 4.5359646e-37 4.4869465e-37 4.424072e-37
000270 0b 82 27 3d 43 5b 6a 3d 46 1e 81 3d 2b e0 84 3d
       0.040895503 0.05721594 0.06304602 0.06488069
000280 80 69 da 3d 0f 48 fa 3d 26 67 07 3e 99 63 fd 3d
       0.10664654 0.12220775 0.13222942 0.12372512
000290 a8 1e 22 3d 5a 31 0a 3d 7e fd d7 bb f9 e7 eb bc
       0.039580017 0.03373847 -0.006591498 -0.028797137
0002a0 60 f0 4c bd c4 3f 50 bd c3 bb 30 3d cd 3a 13 3d
       -0.050033927 -0.05084206 0.043147814 0.03594475
0002b0 2b 95 c3 96 f1 c7 14 97 aa 0a e5 95 b5 e6 97 95
       -3.1598087e-25 -4.807374e-25 -9.250919e-26 -6.1352406e-26
0002c0 4e 07 49 04 8c a3 4d 84 a9 28 de 03 a8 ff db 83
       2.363079e-36 -2.4172731e-36 1.3057322e-36 -1.2930359e-36
0002d0 0a aa 38 3d b6 05 9a 3d a3 ab 27 3d 54 0d a2 3d
       0.045084037 0.075206205 0.04093517 0.079126984
0002e0 3b 1a 40 bd 27 1c 5f 3c 39 b8 44 be 13 8c 1d be
       -0.046900015 0.013617552 -0.192109 -0.15385465
0002f0 65 39 81 b7 0c e1 39 b8 d2 4a b4 36 69 ef e9 36
       -1.5404725e-05 -4.431703e-05 5.3731283e-06 6.971812e-06
000300 d6 9d 32 3c 5e 53 0d 3d 21 4a 1b 3a 28 b9 36 3c
       0.010901889 0.034503333 0.0005923827 0.011152543
000310 a6 a3 87 3d 4e 34 b6 3d 52 7f 80 bc 47 91 37 bc
       0.0662301 0.08896695 -0.015685711 -0.01120407
000320 87 fe d6 3d 6a 03 a3 3d 7d 35 ec 3d c9 b8 fd 3d
       0.10497766 0.079596356 0.115336396 0.123887606
000330 b3 0d b9 3c 13 ff 76 3c dd e4 30 bd 3d 49 1d bd
       0.02258954 0.015075463 -0.04318701 -0.038399924
000340 6c ee a1 bd 81 b2 fc bd fe 7a e3 bd 81 69 8e bd
       -0.079068035 -0.123387344 -0.11107443 -0.06953717
000350 bc 8a 9e bc a4 dd e0 bc 24 0f 52 3c 4b f6 dc 3c
       -0.019353263 -0.027449436 0.012820993 0.02697291
000360 3e c5 a1 bc a4 6d 95 bd 46 98 ea bd 9b 5b ca bd
       -0.019747373 -0.07296303 -0.11454825 -0.098807536
000370 1a 1e 8c 83 a4 ab 29 83 08 38 7a 03 f6 cb 83 03
       -8.235371e-37 -4.986167e-37 7.3532718e-37 7.746315e-37
000380 4e a3 88 03 64 70 82 83 f3 90 81 83 f4 83 82 03
       8.0308545e-37 -7.666517e-37 -7.615217e-37 7.671008e-37
000390 67 49 c2 bc 53 95 99 3c 47 67 0e be f5 4f 19 be
       -0.023716642 0.018747961 -0.13906585 -0.14971907
0003a0 ed 6f ed 83 18 3f f0 83 68 85 71 03 56 f7 79 03
       -1.3955305e-36 -1.4120418e-36 7.0976678e-37 7.345845e-37
0003b0 fe 2b 0d 83 f7 3a 18 03 08 83 20 83 1a e5 a2 82
       -4.1486676e-37 4.4736474e-37 -4.717019e-37 -2.3935258e-37
0003c0 7f 8a 24 3d d7 5e 81 3d 3a ff ae 3d 89 5c cc 3d
       0.040171143 0.063169174 0.08544774 0.09978587
0003d0 58 58 af 3d 77 2a 76 3d 3b 59 a7 3d c6 bf 21 3d
       0.08561772 0.06009909 0.08171316 0.03948953
0003e0 fd 3a 4f bd 9b 54 05 be fd 0d bd bc b1 9b b2 bd
       -0.050593365 -0.13020556 -0.02307796 -0.08721102
0003f0 b7 d5 b7 3c 65 cf a9 bc 85 ae 04 be 88 ad 16 be
       0.022440774 -0.020728776 -0.12957199 -0.14714634

fc.bias f4 [2]
000000 d6 e6 b0 3c e6 ed 4a 3d
       0.021594446 0.049543284

79 f4 [16, 3, 7, 7]
000000 22 c0 63 be 96 61 91 be c6 e0 17 be 44 ab 89 3c
       -0.22241262 -0.28394765 -0.14831838 0.016805299
000010 9d 52 1a be 80 b3 f1 3d 04 5b 00 be e4 5e 56 be
       -0.15070577 0.11801815 -0.1253472 -0.20934635
000020 0f d5 08 be b7 58 0a 3e 4a 2b 3a 3e b7 a8 a8 3c
       -0.13362525 0.13510405 0.18180576 0.020588262
000030 92 e3 2f bd e7 bb ba 3d 13 91 e6 bd 90 06 1a 3e
       -0.042941637 0.09117871 -0.112581395 0.15041566
000040 d8 d6 14 3e b0 5f 8e bd 3f ff 8a 3e 73 a0 6c 3e
       0.14535081 -0.06951845 0.27147862 0.23108082
000050 f3 45 68 3e 8e f2 55 3e 5f ef 3c 3e bc 7d 31 3e
       0.22682934 0.20893309 0.18450688 0.1733312
000060 38 d0 a8 3d 8e b1 1d 3d d5 48 0a 3e f1 81 82 3e
       0.082428396 0.038499407 0.13504346 0.25489762
000070 4c 3e 6e 3d 92 dd 52 bd 6d b7 31 3e d3 6a a6 bd
       0.05816488 -0.051480837 0.17355128 -0.08125844
000080 e8 1f 23 3e d6 3a 14 3e fb 5f 1e 3e 90 70 ef bd
       0.1593014 0.14475569 0.15466301 -0.116913915
000090 56 7c 95 bc 44 91 04 3e 47 b1 37 be 39 15 07 be
       -0.018247765 0.1294604 -0.1793872 -0.1319169
0000a0 cc 15 3a be 13 6a 1a 3d 4d 56 05 be 30 4a 8e 3d
       -0.18172377 0.037698817 -0.13021202 0.06947744
0000b0 a0 78 83 be ac 6e 3f be db a2 4c be 04 2c 6e be
       -0.25677967 -0.18694562 -0.19984 -0.23258978
0000c0 d0 d5 83 bd b9 35 35 bd e3 cf 2b be 95 0f 80 be
       -0.06437266 -0.044240687 -0.16778521 -0.25011888
0000d0 b7 7c 68 bd 77 27 0d be 54 a9 89 bd 3c 0d 1a be
       -0.056759562 -0.13784586 -0.0672175 -0.15044111
0000e0 0e b0 7b be f9 76 ca bd f0 07 8e 3d e8 64 34 be
       -0.24578878 -0.098859735 0.06935108 -0.17616618
0000f0 2a 7f e0 3d 70 4a 8e bd 08 57 68 3e 11 10 d8 bd
       0.109617546 -0.069477916 0.2268945 -0.105499394
000100 3c 85 2d bd 8b a5 09 be a8 2c 2b 3d 0b 88 b9 bd
       -0.04236339 -0.13442056 0.041790634 -0.09059151
000110 4f 0c b0 bd 23 de 3f 3e 03 f4 01 bc de 6f af bd
       -0.08596098 0.18737082 -0.007931712 -0.08566259
000120 89 5d b7 3d f9 32 12 bd f2 72 83 bd 32 e3 e1 3d
       0.08953387 -0.035693143 -0.064184085 0.11029662
000130 f0 7a 2a bd c6 43 41 3d f8 61 ec 3d b3 46 1a bd
       -0.04162115 0.047183774 0.115421236 -0.03766508
000140 3e b9 4a 3e a0 e7 62 3e f6 24 28 bd 0a 83 c6 3d
       0.19797227 0.2215867 -0.041050874 0.096929625
000150 a5 78 93 3d ab c3 12 bd d2 66 99 bc a0 02 cf bc
       0.072007455 -0.035831135 -0.018725786 -0.025269806
000160 dc ce e0 bd cb e3 ba bd d3 61 0b be 26 f4 de bd
       -0.10976955 -0.09125479 -0.13611536 -0.10886411
000170 b4 9a 11 bc df 21 8c bd e3 76 4b 3d e6 2d 02 3e
       -0.008886982 -0.06842398 0.049673926 0.12712821
000180 cf 01 11 3e 43 4a 17 3e 7d cb c2 be 97 e8 6f be
       0.14160846 0.14774422 -0.38045874 -0.2342857
000190 63 64 8c be 29 b9 9f bd 62 96 13 be 03 35 7d be
       -0.2742034 -0.07798988 -0.14412835 -0.24727254
0001a0 de 05 38 bb 29 f4 46 be 50 8e 9a bd b0 bc 28 be
       -0.002807967 -0.19429077 -0.07546675 -0.16478229
0001b0 19 de 79 3c 5d 1e 0d 3c 4f 09 02 bd e8 ea 09 be
       0.015250706 0.008613196 -0.03174716 -0.13468516
0001c0 0e 16 51 be e6 da 8e bd ed 9f 3e be 64 24 08 be
       -0.2041857 -0.06975345 -0.18615694 -0.13295132
0001d0 88 d1 00 3e c0 a7 20 3e c4 ac 9a bc 7e 34 9b bd
       0.1257993 0.15688992 -0.01888121 -0.075783715
0001e0 41 57 e0 3c de 36 66 bd 23 c2 9c 3d 56 00 f4 3c
       0.027385356 -0.05620467 0.07654216 0.029785316
0001f0 4c 4f 18 bc c9 d8 80 3e 50 be 09 bd de 8b 17 3e
       -0.00929625 0.25165394 -0.03362876 0.14799449
000200 a9 6a ca 3d 27 d2 d7 3d 88 e0 da 3d ec 46 0f 3e
       0.09883625 0.1053813 0.10687357 0.13991898
000210 1d 9b 4a 3e f5 b8 df 3d 86 df 1e be d7 92 32 be
       0.19785734 0.1092395 -0.15514955 -0.17438827
000220 3e 3b 32 3e 4e 90 96 bd 21 ae 20 be 58 2a e7 3b
       0.17405412 -0.07351743 -0.15691425 0.0070546083
000230 f9 2e 10 bd cb 9c 03 3e 93 d7 3d 3d b2 ff 0f be
       -0.035201047 0.1285278 0.046348166 -0.14062384
000240 bc 17 09 ba 7d b4 9b 3d e4 a8 1a 3e 48 b3 f5 3d
       -0.0005229672 0.07602785 0.15103489 0.11997086
000250 05 fd eb 3d d5 8d 29 3e 1e 19 12 3d 42 68 77 3d
       0.11522869 0.16558011 0.035668485 0.060402162
000260 98 b2 cf bb f5 13 0b 3d ff 56 20 bd 75 47 82 3d
       -0.0063384287 0.03395458 -0.039145466 0.063612856
000270 b8 32 81 3c 1a 50 64 3d e4 14 e1 3d 7f 95 2b 3e
       0.015771255 0.055740453 0.10990313 0.16756247
000280 dc 13 1d 3e 49 80 4c bd 65 f4 bc bd 9a 06 9a 3c
       0.15339607 -0.04992703 -0.09226302 0.018801976
000290 ca 7e f4 3d dd 4d 49 3e 50 4e 60 3e a5 c6 70 3e
       0.119382456 0.19658609 0.21904874 0.23513277
0002a0 08 94 b0 bd f5 3f 06 be 6f e4 13 be 3f 7a da bd
       -0.08621985 -0.13110335 -0.14442609 -0.10667848
0002b0 67 cc 28 bd 97 4b 0f 3e a1 5d 05 3e ac 3d 44 be
       -0.04121056 0.13993679 0.13023998 -0.19164151
0002c0 23 15 f7 bd 91 87 9a bd a8 62 26 3c ad f5 87 3c
       -0.120645784 -0.075453885 0.010155357 0.01659664
0002d0 a3 03 9a 3d 54 e2 6c 3c e1 c0 4b be 16 aa 15 be
       0.07520225 0.014458258 -0.19897796 -0.14615664
0002e0 ae ff 25 be fe 45 04 be c5 4c 7e bd 6d 36 03 bd
       -0.16210815 -0.12917325 -0.062084932 -0.032034326
0002f0 08 ef 97 bd 44 89 15 be 1f 1f 80 bd a0 2f a6 3c
       -0.074186385 -0.14603144 -0.06255936 0.020286381
000300 b3 00 8a bd 80 d1 0e 3b 76 d1 9a bd e2 f7 ee 3d
       -0.067384146 0.0021792352 -0.07559483 0.11668374
000310 f8 58 bc 3b 4d e1 69 3d 86 86 88 3c c1 54 f2 bd
       0.0057479106 0.05709963 0.016665708 -0.11832572
000320 cb b2 7e 3c 5b 49 9e bd 61 9c 34 bd a6 7f 82 bd
       0.015545557 -0.07728835 -0.044094447 -0.06372003
000330 a3 eb db 3d 22 30 29 3d d6 f5 e2 3d 82 cc 27 3d
       0.107383035 0.04130567 0.11082046 0.04096652
000340 bb bf e4 3d bd fb 56 3d 9b b1 c0 bd 4b 63 53 3d
       0.11169382 0.05248617 -0.094088756 0.051608365
000350 89 3c d0 bc 92 cb c6 3d a1 d2 1b 3e d1 f8 58 3e
       -0.02541949 0.09706797 0.15217067 0.21188666
000360 a3 4c 60 3d 3f 38 37 be 85 35 1a be b4 3c 02 be
       0.054760586 -0.1789255 -0.15059479 -0.12718469
000370 e0 9c 57 3d bf 30 b3 3c 1c 03 ee 3d 6b 4e b5 3c
       0.052639842 0.02187383 0.11621687 0.02213212
000380 5a b5 d5 bd 64 82 82 bc 47 d4 df bd 7e ab a2 bc
       -0.10434981 -0.015931316 -0.109291606 -0.019857164
000390 7d 83 dd bc 40 28 66 3d e9 ea 95 3d ce a6 a2 bd
       -0.027040238 0.05619073 0.07320196 -0.07941972
0003a0 79 b5 94 3d 5b c3 cb 3d db 49 9e 3d af 1d a3 bd
       0.07261176 0.099493705 0.077289306 -0.07964646
0003b0 9b 0a 48 bd 34 1b 89 3d f2 3c d7 3d e4 19 b0 3d
       -0.04883824 0.06694642 0.10509671 0.08598688
0003c0 1a 29 10 bd 6b 88 5a 3c 4c c5 e8 3d 4b e2 c1 3c
       -0.035195448 0.013338189 0.113657564 0.023667475
0003d0 cc 2d 99 bd 5b e7 4b bd a3 cf 04 3e 3f 5a 0b be
       -0.07479438 -0.049781185 0.12969832 -0.13608645
0003e0 d8 ef 22 3e f3 95 01 3e 6c c8 f6 3d 36 73 df 3c
       0.15911806 0.12654857 0.12049946 0.027276617
0003f0 46 12 09 be 4f 76 9b 3d ac 16 ae 3c 56 a9 5b 3d
       -0.13385877 0.07590925 0.021251045 0.05362829

80 f4 [16]
000000 73 d0 4e 3f 3c b4 5d 3c 81 d8 4f bf 9a 86 dc be
       0.8078682 0.013531741 -0.81189734 -0.43071443
000010 f1 05 ff bd 7b 23 2f 3f f9 05 c5 3e e8 11 62 bf
       -0.12452305 0.68413514 0.3848112 -0.8830857
000020 d5 a6 0d 3f 76 73 f8 3d 4b a0 76 3f 74 e8 0b bf
       0.5533269 0.121313974 0.9633834 -0.5465157
000030 ac 8e b3 be 2a 4c 62 3f 9c 05 8a bf 81 b5 2f 3e
       -0.35069788 0.8839747 -1.0782962 0.17159082

82 f4 [32, 16, 3, 3]
000000 46 16 79 bc 1b 4f aa bb f0 18 16 bc 43 e7 84 3b
       -0.015203064 -0.0051974184 -0.009161219 0.004055889
000010 bb 26 b5 3b ae 81 b3 bb 89 73 a1 bb 36 7e 84 3a
       0.0055282987 -0.0054781055 -0.004927103 0.0010108415
000020 5b 8e a8 bc 97 04 1a 3d 61 93 2d 3d 13 cf ac ba
       -0.020575693 0.037602033 0.04237688 -0.0013184272
000030 2f f4 10 3b 96 38 e0 bb 29 a6 40 bc 82 1e 28 bc
       0.00221182 -0.006842683 -0.011758366 -0.01026118
000040 b3 46 62 bb 52 8f b7 bc 81 a0 47 39 0d 1b 35 bb
       -0.0034527003 -0.022407208 0.00019037911 -0.0027634532
000050 2d 33 9e bb eb 1f 74 3a 29 02 d4 ba 36 01 6a ba
       -0.004827878 0.00093126175 -0.001617496 -0.0008926572
000060 56 f5 13 bc 24 5c 9d bb de 5d 74 39 64 6d a9 bc
       -0.009030661 -0.004802244 0.00023304622 -0.020682044
000070 19 ee eb bc 30 28 a1 bc 8c 80 1d bd b2 32 17 bd
       -0.028800057 -0.019672483 -0.03845267 -0.03691358
000080 3f b7 10 3c ef df 04 bd fa 1e f0 bb 54 cd b0 3c
       0.008832752 -0.032440122 -0.0073279114 0.021582283
000090 aa 44 08 3c b6 4f 41 3b 62 a6 69 b9 41 d0 2d 3b
       0.008317152 0.0029496974 -0.00022282594 0.0026521834
0000a0 66 72 5b 3b 13 40 87 3b 95 86 51 bb 91 58 9e ba
       0.0033484935 0.0041275113 -0.0031971086 -0.0012080838
0000b0 30 a4 92 3b 28 d9 08 3d d2 7c 34 3d ee 7f f8 3c
       0.004475139 0.03341022 0.04406435 0.03033444
0000c0 81 b8 4e 3c ab ad 5f 3c 9a 65 34 3b 45 f3 e2 bb
       0.012617231 0.0136522455 0.002752638 -0.0069259726
0000d0 a3 ab 1d 3b ca bc 3f bc 7a 00 2a 3c 7c bd 19 bc
       0.0024058602 -0.011702726 0.01037609 -0.0093835555
0000e0 db bd 85 3c bd 65 5e bc fd 88 de bb c6 2d 14 bc
       0.016325882 -0.013574061 -0.0067912326 -0.009044116
0000f0 97 d0 ef bc 22 c5 f4 bc 19 d5 82 bc 06 67 ee bc
       -0.029274268 -0.029879157 -0.015970754 -0.02910186
000100 65 78 22 bc 2e b4 9d bc 68 0a 93 bc 1b d3 50 bb
       -0.0099164 -0.019250955 -0.017949298 -0.003186411
000110 8c 64 a3 bb e7 a5 1f 3b f8 e5 c5 3c e9 86 2c 3c
       -0.0049863514 0.002436036 0.02415751 0.010530212
000120 ff c5 39 bc f6 39 2a 3b e0 14 b8 3b 42 90 d3 bb
       -0.01133871 0.0025974489 0.005617723 -0.006456406
000130 f1 4e d9 bb 14 a2 97 bb eb 9b 18 bc 0c 78 ac bb
       -0.006631725 -0.0046274755 -0.0093145175 -0.005263334
000140 f8 51 a9 bb 26 07 17 bc f3 97 d2 bc 2d 61 23 3c
       -0.005167242 -0.009218013 -0.02570722 0.009971899
000150 95 ae 8b bc 1c f9 e5 bb ba 77 55 3d 38 17 c6 3c
       -0.01705102 -0.0070182215 0.052116133 0.024180993
000160 1e aa 2b 3d 08 82 55 3d 28 9d 40 3c 6c c5 97 3c
       0.041910283 0.05212596 0.011756219 0.018526755
000170 10 b3 06 3c f0 aa 30 3b 30 54 35 3c 0b 7b 85 3b
       0.008221403 0.0026957355 0.011067435 0.0040735058
000180 cd 8e a3 bc 8b 9b 3f bb 68 b8 13 bc f0 e0 65 3b
       -0.019965554 -0.0029236998 -0.009016134 0.00350767
000190 e5 cd 12 ba 98 79 06 bc 79 96 dd bb a5 b9 33 bc
       -0.00056001387 -0.008207701 -0.0067623225 -0.010969554
0001a0 ff 93 60 3b 0f c6 dc bb 73 79 84 bb 46 db 16 3c
       0.00342679 -0.0067374776 -0.004042798 0.009207552
0001b0 55 fe 0b 3d 1f 23 b1 3c 31 52 94 3b 73 51 ba bb
       0.034178097 0.021623192 0.0045263995 -0.005685979
0001c0 27 3f 85 bb 04 2f 87 bb 8a b2 32 bb 5f 66 84 3b
       -0.0040663662 -0.0041254777 -0.0027267062 0.004040524
0001d0 d9 29 48 3c 37 82 02 bb dc 9d 20 3b 7d 6e ef 3b
       0.0122170085 -0.001991404 0.0024508154 0.0073068724
0001e0 48 d4 ec 3b 3c 38 35 3c 85 f8 2b bb 28 30 0d bc
       0.0072274543 0.011060771 -0.0026240658 -0.008617438
0001f0 a6 70 85 3b 7b 65 f7 bb ff 60 0a bc 59 26 83 bc
       0.0040722666 -0.007549939 -0.008445977 -0.016009497
000200 b0 7e d3 bb 17 52 50 bc 3e ed 29 bc 67 0f f4 3a
       -0.0064543113 -0.012714884 -0.010371504 0.0018620313
000210 ce d9 cd bb 47 f5 ff ba 97 99 28 3c 8f 18 25 3b
       -0.006282068 -0.0019528054 0.010290525 0.002519164
000220 35 37 65 3c 10 44 4b 3c 85 63 e0 ba e7 ae f6 bb
       0.013990213 0.012406364 -0.0017119503 -0.007528174
000230 e2 a7 3c 3b 81 36 97 bb 29 42 38 bc 0b 2a c1 bb
       0.002878659 -0.0046146517 -0.011246243 -0.0058949045
000240 d9 e8 91 bc 78 53 93 3d 80 2a 8c 3d 6a 54 a9 3c
       -0.017811226 0.07193655 0.06844044 0.020670135
000250 50 d4 a0 3b 77 88 2f 3d 43 28 e7 3a ab 67 da bc
       0.004908122 0.042854752 0.00176359 -0.02666076
000260 29 39 13 bd 07 8c b4 3d 15 de cb 3d ca 1b 02 bd
       -0.035943184 0.088157706 0.09954468 -0.031764783
000270 7e b7 8c b9 74 a6 af bb 3b b8 e1 bc d8 50 03 3c
       -0.00026839593 -0.005360419 -0.027553668 0.00801488
000280 1e 29 9d bd 19 96 93 bd 27 f1 b4 bc 53 e6 17 bd
       -0.07673858 -0.07206363 -0.022087647 -0.03708489
000290 d1 45 e8 bc 8d 60 68 bd eb 71 fd 3c 32 2e 53 3d
       -0.028353604 -0.056732703 0.03093811 0.051557727
0002a0 16 ff d6 bc 94 af c2 bc 99 4b 89 3d 7b 28 2e 3d
       -0.026244681 -0.023765363 0.06703872 0.042519074
0002b0 c9 28 c6 3d 25 e2 cc bc e9 1d 31 bd 1a 17 8d bd
       0.09675748 -0.025010178 -0.043241415 -0.06889172
0002c0 99 ea f2 bc 6f 88 11 bd 13 eb 89 bd 85 ce 81 bd
       -0.02965288 -0.035530504 -0.0673429 -0.063382186
0002d0 00 4c eb 3b de a9 99 bd b6 4e 29 3c 2e a5 7a bd
       0.0071806908 -0.07503103 0.010333708 -0.061192684
0002e0 5f b0 9d 3c 5b 64 bf bc 46 72 e0 3c 1c d6 ac 3c
       0.01924914 -0.023363283 0.02739824 0.021098189
0002f0 41 35 e9 3b 98 32 12 bd e9 6d 2d bd 3d 7f a6 3c
       0.007116944 -0.03569278 -0.042341147 0.020324344
000300 1f 16 f2 bb 95 1e 43 bd 5e 5b 9d 3c 29 44 de bd
       -0.007387891 -0.047636587 0.019208606 -0.10852844
000310 8b 11 3a bd d6 60 bc bd e0 dd d9 3c 0b 18 ca 3d
       -0.045426887 -0.091981575 0.026595056 0.09867867
000320 3d aa 7f ba 42 52 bd 3d e8 ba 00 3d 80 3e 91 bd
       -0.00097528455 0.09244205 0.031428248 -0.07091999
000330 d6 ac 96 3d e6 6a a0 bd 43 7e f3 bd d3 54 06 bc
       0.073571846 -0.07832889 -0.11889317 -0.008198935
000340 3a fd 06 bd 95 c8 1f bd dd 15 3d bd 01 10 62 bc
       -0.03295634 -0.03900965 -0.04616343 -0.013797761
000350 25 61 28 bd da ad d7 3c 7e 74 1b bc 51 3e 78 3c
       -0.04110827 0.026328016 -0.009488223 0.015151576
000360 64 7c b3 3c 5a f4 ca 3c 60 6c 01 3d 03 94 16 3d
       0.0219099 0.024774719 0.031597495 0.03676225
000370 37 ab 0c 3d b1 3c 94 3b a6 12 84 bb d0 54 cf bc
       0.03434297 0.0045238365 -0.0040305434 -0.025308996
000380 f0 57 f1 bc ce 4e f6 bc 32 c8 14 bd b1 52 8d 3d
       -0.029460877 -0.030066874 -0.036323734 0.06900538
000390 05 14 67 3d 21 6d 7c 3d df 32 b7 bc 7e 03 5f 3d
       0.056415576 0.06162751 -0.022363124 0.05444669
0003a0 a6 3c d9 3c df 06 49 3d aa 4e 5e 3d fd 7b f7 3c
       0.026518177 0.04907882 0.05427424 0.03021049
0003b0 76 ea 90 3d 86 e0 01 3d 58 e4 ec bc 77 9d 0e bd
       0.0707597 0.031708263 -0.028917477 -0.03481814
0003c0 70 db 0f bd fd f1 03 bd 96 52 bf 3a d8 39 de 39
       -0.03512138 -0.0322132 0.0014596756 0.00042386237
0003d0 d7 42 a1 bd bd 8f 09 bd 02 a7 81 bd ae 7a d4 3c
       -0.07874077 -0.033584345 -0.06330682 0.025937404
0003e0 d2 a9 62 3d 52 02 56 3d c8 00 82 3d 9b 43 21 3d
       0.055337735 0.052248307 0.06347805 0.039371114
0003f0 85 84 27 bc 09 ae a4 bd f8 34 a1 bd cc 8a 50 bc
       -0.010224466 -0.08041007 -0.07871431 -0.012728404

83 f4 [32]
000000 a7 37 9c bc 5d 99 58 bd 38 00 28 be b2 4d dc bd
       -0.019069506 -0.052880634 -0.16406333 -0.10757007
000010 cb 9f 1d 3e ec 24 b6 bd 12 36 4b bf de ad b0 bd
       0.15392987 -0.08893761 -0.7937938 -0.086269125
000020 39 1b b6 3e f6 ca 69 3d 38 e9 2b bf 6a 22 4e 3e
       0.35567644 0.057078324 -0.6715274 0.20130315
000030 e6 1e a6 be 4a 20 9f be 15 60 5c bc 7a 8e fc bd
       -0.3244545 -0.31079322 -0.013450642 -0.12331863
000040 d5 9f 9d bd f5 e3 8e 3d cd 73 8d 3e 90 41 94 3d
       -0.07696501 0.06977073 0.2762741 0.072390676
000050 d5 79 86 be d7 63 0a bf fd 2d 6f 3e 65 a2 7d 3d
       -0.26264825 -0.54058594 0.23357387 0.06192245
000060 90 da a8 3e da 66 af be 88 17 30 bb e7 b8 a4 bd
       0.3297925 -0.34258157 -0.0026869494 -0.0804308
000070 83 71 b4 3d 5c 5c de 3d 03 59 0d bd e4 86 03 3e
       0.08810713 0.1085746 -0.034508716 0.12844425

85 f4 [32, 32, 3, 3]
000000 70 34 6c b9 f0 d0 4b 3b 67 ed 05 3b c6 07 44 ba
       -0.00022526248 0.0031099878 0.0020435692 -0.0007477965
000010 0b e0 45 3b 30 d4 f5 3a 3e 82 26 3b b3 ed bf 3b
       0.0030193354 0.0018755253 0.002540722 0.0058571934
000020 aa bc 8e 3b f1 6a ed 3b 89 41 1c 3c 38 58 55 3c
       0.0043559866 0.0072454144 0.009537109 0.013021521
000030 14 9d a3 ba 69 4c 12 bb c0 d3 9e bb fa da fe 3b
       -0.0012482726 -0.0022323376 -0.00484702 0.007777569
000040 3d e8 c2 3b 57 54 c1 3b fe d6 86 bb c8 78 e5 bb
       0.005948095 0.0058999467 -0.0041149845 -0.0070029236
000050 fe 5e 25 bb 11 d5 71 3a d8 2b ca ba 5c 24 90 3b
       -0.0025233622 0.000922517 -0.0015424443 0.0043988656
000060 7b 50 27 ba fd 95 a0 ba 73 aa 5e 3b 03 cb 1e bb
       -0.0006382537 -0.0012251731 0.0033976107 -0.002422989
000070 b1 57 af ba 8e 85 a9 ba 05 b7 2e bb 8c 9f 58 bb
       -0.0013377575 -0.0012933479 -0.002665938 -0.0033054082
000080 7f 8a 98 bb e4 b5 2b bb 3a 54 08 bb 01 81 08 ba
       -0.004655182 -0.0026200945 -0.0020802156 -0.00052072114
000090 a7 c9 2d bb 1d 77 d5 ba d5 98 a3 ba d9 3d 18 bb
       -0.00265179 -0.0016286109 -0.001248146 -0.0023230223
0000a0 0c 01 44 bb 29 c9 1f ba 8a ce fb 3a 70 43 24 3b
       -0.002990785 -0.0006095344 0.0019211334 0.002506461
0000b0 7e af 37 3b 99 ee 83 bb f8 35 80 bb 51 f1 04 bb
       0.0028028185 -0.004026246 -0.0039126836 -0.0020285437
0000c0 9d 46 69 ba e9 26 cf ba 98 a3 95 b9 d9 a0 b4 3a
       -0.0008898767 -0.0015804443 -0.00028541381 0.0013780846
0000d0 7b d4 37 ba 45 38 cd 38 47 b7 0e bc fd 7b 1b bc
       -0.0007012558 9.785643e-05 -0.008710689 -0.00949001
0000e0 4d ee 13 bb 16 ca 85 bc e7 00 94 bc 4d dd 41 bc
       -0.0022572458 -0.016331714 -0.018066837 -0.011832547
0000f0 18 60 6e 3c f7 79 a0 3c 17 fd 51 3c 02 e8 38 ba
       0.014549278 0.019589407 0.012816689 -0.0007053615
000100 e7 70 e5 3a 7c 8e 04 bb 2e 1b 74 b9 17 ab 7a 3b
       0.0017504961 -0.002022653 -0.00023279779 0.003824895
000110 0e 9e 30 ba 3b fa d5 ba 57 bd 5f 3b 06 06 fe ba
       -0.0006737419 -0.0016325185 0.0034139955 -0.0019380457
000120 69 d8 f7 bb de 44 5e bb 6e 25 da bb da 54 9a 3b
       -0.00756364 -0.003391556 -0.006657294 0.004709822
000130 8f d0 fe 3b d3 8e b9 3b 59 4e 0d bb 3d 9c 40 ba
       0.007776327 0.005662778 -0.0021561591 -0.00073475
000140 a2 23 2b bb 38 cc f3 b9 28 18 5c 3c 6b c4 85 3c
       -0.0026113768 -0.00046500727 0.013433494 0.016329011
000150 16 16 f8 bb ec fc bc 3b 5a 21 23 3c e1 21 45 bc
       -0.007570992 0.0057674553 0.009956682 -0.012032003
000160 78 0f 9b 39 3d 6b 50 3b 6f 86 60 bb a7 02 55 bb
       0.0002957543 0.00318022 -0.0034259816 -0.0032502802
000170 12 ae be bb 5f f1 f9 39 b8 df 85 bb 2f db ad bb
       -0.0058190906 0.00047672816 -0.0040855072 -0.0053056697
000180 04 db 59 3c 4f 53 f4 3b 8c 82 b0 3b 64 5d de bb
       0.013296846 0.00745622 0.005386656 -0.0067860354
000190 e8 e9 57 ba 69 f6 6b bb 96 37 8b bb d5 db ac 3a
       -0.0008236454 -0.0036005026 -0.0042485697 0.0013188074
0001a0 76 1e 05 bb 95 5c df bb 69 83 00 b9 3f 7f 4f bb
       -0.0020312346 -0.0068164566 -0.00012255985 -0.0031661538
0001b0 3f 79 3a bb 0b a8 0e bb 27 77 c8 ba 89 9b 75 bb
       -0.0028453616 -0.0021767642 -0.0015294299 -0.003747674
0001c0 9d fe 32 bb af 7a f4 b9 ea fa 0a bb df 13 1d bb
       -0.0027312406 -0.00046630713 -0.0021206685 -0.0023968143
0001d0 36 01 82 ba 56 61 3d bb d8 80 01 3b 21 73 34 3b
       -0.0009918574 -0.0028897128 0.0019760635 0.0027534442
0001e0 4f 9e b3 bb 6c 11 9b bb 3a 40 32 bb 40 48 44 3b
       -0.0054815183 -0.0047323015 -0.0027198927 0.002995029
0001f0 1b 97 c9 3b 73 00 ac 3b 60 8b 18 ba 9e 7a 33 ba
       0.0061520464 0.005249077 -0.00058191083 -0.00068465795
000200 9e 02 69 b9 bd a1 9a b8 44 19 b2 38 22 82 09 3a
       -0.00022221587 -7.373418e-05 8.4924075e-05 0.00052455266
000210 94 ba 70 3a 81 aa a4 3a 5b 36 bc 3a a6 c2 cf ba
       0.0009183076 0.0012563021 0.0014359461 -0.0015850856
000220 0c 6d 53 3a 6f b8 cc ba 4a c7 20 bb 91 d6 60 39
       0.00080652605 -0.001561893 -0.0024532848 0.00021442237
000230 56 2a 07 bb 12 4e 5d ba 9e ba c3 3a 72 7d 9a ba
       -0.00206246 -0.00084421143 0.0014932936 -0.0011786653
000240 60 29 12 39 02 50 a7 39 53 53 ab 3a 28 fa de ba
       0.00013939058 0.00031912333 0.0013071097 -0.0017011808
000250 23 7b f1 38 a0 c9 79 3a 48 c2 1f ba 04 8f 6e b7
       0.000115147115 0.00095286407 -0.0006094319 -1.4219204e-05
000260 53 6e 9d 39 aa 5f 42 bb eb a7 5d bb 3b d7 0f bb
       0.00030027571 -0.002965907 -0.003382201 -0.0021948356
000270 88 d1 b8 ba a1 af e5 ba f4 63 16 39 74 63 f6 b9
       -0.0014100531 -0.0017523655 0.0001434235 -0.00046994875
000280 b3 81 67 ba f7 54 a4 3a 05 f1 2d bc 71 9a 06 bc
       -0.00088312774 0.0012537529 -0.010616546 -0.008215533
000290 86 a9 18 bc 42 98 e4 ba 97 27 8d 3b c0 a0 5c b9
       -0.009317761 -0.0017440396 0.004307698 -0.00021040719
0002a0 8a a7 b2 bb 08 f3 73 3b f0 d7 f4 ba 43 9f ec ba
       -0.005452101 0.0037223715 -0.0018680077 -0.0018052835
0002b0 cd c7 ea ba 32 50 32 3a 3d 4b b9 3a 83 41 5f 3a
       -0.0017912328 0.0006802111 0.0014136803 0.0008516537
0002c0 5d aa 56 3b 08 8d f5 3a e5 c4 3c 3a cf e1 70 3b
       0.0032755353 0.0018734047 0.00072009704 0.0036755686
0002d0 51 63 84 bb 65 61 59 bb a2 52 24 bb 75 f1 01 bb
       -0.0040401598 -0.0033169624 -0.0025073667 -0.0019827757
0002e0 7d 02 79 ba cc 0b 4a 38 30 82 00 bb 14 93 22 bb
       -0.0009498967 4.817154e-05 -0.0019608848 -0.0024806904
0002f0 a2 6d b1 ba d4 4f b8 bb 3c 58 4a bb a9 53 d4 3a
       -0.0013536701 -0.0056247506 -0.0030875346 0.0016199249
000300 e6 47 30 3a 55 04 41 bb fe 7d 11 3b f5 1e 0a 3c
       0.0006724581 -0.0029452045 0.0022200341 0.008430232
000310 ee 85 a5 3b 1a c2 d6 3b a5 d0 fe bb de 0e eb bb
       0.005051366 0.0065539004 -0.007776337 -0.007173403
000320 8f 86 e7 bb 3e 51 9c bb 0b ca 4d bb e4 69 7b bb
       -0.007065601 -0.004770427 -0.0031400945 -0.0038362676
000330 9d 55 a1 bb 36 66 17 ba 0d 54 07 bb 1e c4 55 bb
       -0.004923536 -0.00057754235 -0.0020649463 -0.0032618116
000340 c2 35 6e bb 11 ad a0 ba 42 47 56 b8 66 16 32 ba
       -0.003634796 -0.0012258609 -5.108794e-05 -0.0006793499
000350 6e e6 88 ba f7 40 ae ba 60 a5 90 ba c8 24 7f ba
       -0.001044465 -0.0013294508 -0.0011035614 -0.0009732959
000360 4d 25 0b bc 46 a8 d4 bb a1 68 d4 bb 64 93 c6 b9
       -0.00849278 -0.0064897863 -0.0064821993 -0.00037875318
000370 3a b7 41 3b be 24 07 3a d4 97 d2 3a a6 b8 9b 3b
       0.0029558674 0.00051553163 0.0016066977 0.0047522364
000380 b5 65 b4 3a 35 b9 32 bc d1 45 2a bc 48 0d a5 bb
       0.0013763221 -0.010908415 -0.010392622 -0.0050369836
000390 74 91 3d 3b 7f 92 d9 3b b5 43 23 3c 1b cc b8 bb
       0.0028925808 0.006639778 0.009964873 -0.0056395656
0003a0 ba 9f 25 bb 75 75 44 3b 8f 4e 17 ba 72 30 ce 3a
       -0.0025272206 0.0029977236 -0.0005771899 0.001573099
0003b0 cc 74 a2 b9 bc a7 e9 ba c6 0e 00 3a e0 eb af ba
       -0.00030986068 -0.0017826478 0.0004885014 -0.0013421737
0003c0 c1 a8 3b bb 60 a7 98 3a fb 52 f3 ba bd d3 7e bb
       -0.002863452 0.0011646561 -0.0018564159 -0.003888353
0003d0 60 40 36 bb 14 9c 74 3a 93 90 58 b9 f0 d1 27 bb
       -0.0027809367 0.0009331119 -0.00020653223 -0.002560731
0003e0 52 75 af bb f0 a1 23 3c b0 e7 22 3c 53 bc 6e 3a
       -0.005354562 0.009987339 0.009942934 0.0009107042
0003f0 e8 2a 9f bb f3 66 99 3b 9c c9 5b ba f3 b9 62 3a
       -0.0048574097 0.004681462 -0.0008384229 0.00086489244

86 f4 [32]
000000 be 3c 42 3b 82 2d 5a 82 43 b3 f6 bd 0e bd 91 bd
       0.0029638256 -1.6029171e-37 -0.1204591 -0.071161374
000010 b3 fa 96 3c 2e 47 1d 3d 42 2a 0a 3e e0 c6 22 3c
       0.01843009 0.03839796 0.13492683 0.009935111
000020 e8 d9 b0 bd 2b 81 72 3d 2a 56 84 3d a2 5d 9b bd
       -0.08635312 0.059205215 0.06461747 -0.075862184
000030 b4 f6 85 bb 38 16 1e bf 96 02 ae 3d 6b 48 50 be
       -0.004088247 -0.61752653 0.08496587 -0.20340125
000040 c7 e8 87 3e 9b 08 25 be 0c d0 26 3b c8 f2 ce 3b
       0.26544783 -0.16116564 0.0025453595 0.006315563
000050 a7 cf 6d be be 48 02 3f 71 de dc 3d c3 d2 3a bd
       -0.23223744 0.50892246 0.10784615 -0.045611154
000060 47 97 50 3e 22 a8 b2 3d 87 ff e8 bd f2 ae 37 3e
       0.20370208 0.08723475 -0.11376863 0.1793783
000070 56 c6 1e 3d 7b a1 a8 3b a4 77 cb 3d f2 0f fe bd
       0.038763367 0.005146203 0.09934929 -0.12405385

88 f4 [32, 16, 1, 1]
000000 ec 84 4d 3b 61 7d 82 3b e6 87 46 ba bc 83 93 ba
       0.0031359745 0.0039822315 -0.0007573351 -0.001125447
000010 8c 54 b3 ba 73 57 50 3b 74 38 ee 3b d9 cf 1a 3a
       -0.0013681813 0.0031790405 0.0072699133 0.00059056055
000020 52 e2 ef b8 65 40 0d bc dc d1 9b b9 8f be 0a ba
       -0.000114385635 -0.00862131 -0.0002972026 -0.00052926777
000030 df 88 16 bb 05 42 9d 3a 2a 20 e9 ba 34 72 85 ba
       -0.0022969765 0.0011997825 -0.0017786075 -0.001018113
000040 00 00 00 80 00 00 00 00 00 00 00 80 00 00 00 00
       -0.0 0.0 -0.0 0.0
000050 00 00 00 80 00 00 00 00 00 00 00 00 00 00 00 00
       -0.0 0.0 0.0 0.0
000060 00 00 00 80 00 00 00 00 00 00 00 00 00 00 00 80
       -0.0 0.0 0.0 -0.0
000070 00 00 00 80 00 00 00 00 00 00 00 80 00 00 00 80
       -0.0 0.0 -0.0 -0.0
000080 e9 19 94 bd 2e ba 97 3d 00 00 fb bc 5b 88 3b 3d
       -0.072315045 0.07408558 -0.030639648 0.045784336
000090 83 19 5e bd 64 b6 8f bd c3 6a 8f 3d e4 24 b5 bd
       -0.05422355 -0.0701721 0.07002785 -0.08844927
0000a0 c7 6c 39 bd 4a d0 0a be ff a2 a9 bd cb 60 27 bd
       -0.045269754 -0.13556018 -0.08283042 -0.040863793
0000b0 43 49 a0 bd 7d 5d 93 3c 11 79 d4 bc bc 10 41 bd
       -0.078264736 0.017988915 -0.025936635 -0.0471351
0000c0 5e 7f 94 3d bc a2 22 3c a4 1e 2c bd 0e 05 d7 3d
       0.07250856 0.009926494 -0.04202141 0.10499011
0000d0 4c 44 e0 bc ec db d2 bc 52 f0 e2 bd 29 49 6e 3a
       -0.027376316 -0.025739633 -0.11080994 0.0009089881
0000e0 08 54 2a bb 6f f0 85 3c 93 32 7d 3d f3 d0 ae bc
       -0.0025990028 0.01635 0.06181581 -0.02133987
0000f0 af 68 50 bd 8d 16 a5 bc fa 08 6c bc c8 8f 01 3d
       -0.050881084 -0.020152355 -0.014406437 0.03163126
000100 16 c6 04 bc 9b 45 a5 bb bb 10 19 bc e7 79 e4 3c
       -0.008103868 -0.005043698 -0.009342368 0.027890159
000110 ef 81 55 3d eb a9 c0 3b ce df dd bd 0c e0 d2 3c
       0.052125867 0.005879631 -0.10833703 0.0257416
000120 e9 eb b5 3c bf 73 86 bd 3c a9 22 bb 0f 67 8b 3d
       0.022207217 -0.065650456 -0.002482011 0.06806766
000130 a2 99 54 3c f6 79 f4 bc 54 e7 7d bd 58 41 63 3d
       0.012976082 -0.029843312 -0.06198819 0.05548224
000140 6c 68 9d 3c 7d d4 90 bd 34 d8 94 bc 81 50 a7 3d
       0.019214831 -0.07071779 -0.0181695 0.08169652
000150 53 0b 23 bd fb 7f 16 3d 19 52 68 bd 4f 40 74 bc
       -0.03980572 0.036743145 -0.05671892 -0.0149079105
000160 65 b1 56 3c 63 a0 d3 3d 7e 8a fa b9 91 29 90 3d
       0.013103818 0.10333326 -0.000477869 0.07039178
000170 bd bd 9d bb e1 8a 89 3c 80 6d 07 3d a1 1b 71 bc
       -0.0048138783 0.016789855 0.03306341 -0.01471606
000180 49 48 0e 3e 1a b9 4c 3e b2 aa b8 3d 2e c9 4a 3e
       0.13894762 0.19992486 0.090169325 0.19803306
000190 06 b2 e1 bd a1 49 75 3e 1e de c9 3d d6 4f 1e be
       -0.110202834 0.23953868 0.098568186 -0.15460142
0001a0 5e ed 64 3d 76 06 29 3e 0a d1 5c 3e 5b 69 c8 3d
       0.055890433 0.16506371 0.21564117 0.0978572
0001b0 f8 9f 75 3d e5 d8 bc 3d a2 1f a4 3d 14 9b c9 3b
       0.05996701 0.09221057 0.08013846 0.00615252
0001c0 af 9a ad 3d 70 5c 78 bd e6 84 8c 3b ba 11 2a bc
       0.08476769 -0.06063503 0.0042883037 -0.010380203
0001d0 2b f1 49 3b fa 55 cd 3d 7b e9 33 bd 91 95 09 bd
       0.0030813913 0.10026164 -0.043923836 -0.033589903
0001e0 03 65 35 3b 89 53 0e bd 2b 77 3c bd 22 60 19 3d
       0.0027678616 -0.034747634 -0.046012085 0.037445195
0001f0 2c ac 74 3b 7c 88 b1 bc bd bc 67 3c 5c 89 51 bc
       0.0037334068 -0.021671526 0.01414412 -0.012789097
000200 c0 09 c0 bd 0d fe f6 bd ee 24 32 bd 2b c5 d9 3c
       -0.0937686 -0.12060175 -0.04349225 0.026583275
000210 f9 69 f4 bd 07 4d 7f bd b7 cf b2 3d c2 bd 88 3c
       -0.11934275 -0.06232932 0.08731025 0.016692046
000220 38 3f 45 bd 2a 05 1c be 1d c0 a3 3d 48 6c 1b 3d
       -0.048155993 -0.15236345 0.07995627 0.037945062
000230 c9 5f 61 3b 38 34 09 3e c5 06 a2 bd 0c 82 d6 bb
       0.0034389368 0.13398826 -0.079114474 -0.0065462645
000240 e7 f7 73 3e 82 33 36 3e e5 34 6f 3d e1 ea 51 3e
       0.23825036 0.17793086 0.058400054 0.20499755
000250 13 22 16 bd 38 ab 36 3e 07 2d 51 3d 6e 54 8f bd
       -0.03665359 0.17838752 0.051068332 -0.069985256
000260 13 a5 4b bc ec 7e fd 3d 96 b2 78 3d dc 80 42 3d
       -0.0124294935 0.12377724 0.060717188 0.04748617
000270 ed 92 36 be c7 87 1d 3e 85 56 78 be 37 6d 11 be
       -0.17829485 0.15383826 -0.24251755 -0.14201818
000280 11 77 07 3d be ac 8b 3d a7 ee 5a 3d 94 c8 06 bd
       0.033072535 0.06820057 0.053450253 -0.03290613
000290 0d 4b 86 bd e5 0a f8 3d 7c 88 cf 3d 62 a2 0d bb
       -0.065572836 0.12111453 0.10133454 -0.002161168
0002a0 e0 de a2 3d 46 70 6c 3d 75 41 e2 3b ab b7 a8 3c
       0.07952666 0.05772426 0.0069047757 0.020595392
0002b0 27 d3 c8 3d 69 73 ff 3d 78 5f 2c be 26 e0 11 bd
       0.09805899 0.124731846 -0.16833293 -0.035614155
0002c0 a2 c0 a9 bd 56 ab e1 3b 74 fe 36 bd 80 2f 89 bd
       -0.08288695 0.00688688 -0.04467626 -0.06698513
0002d0 c1 6c 99 3c 3c ba 0b bd 92 10 b3 3c 98 ad 4a 3a
       0.018728616 -0.034113154 0.021858487 0.0007731556
0002e0 50 ae 92 3b 28 34 92 bd 50 86 87 3d 02 9d 02 3c
       0.004476346 -0.07138854 0.06617415 0.007972004
0002f0 48 07 79 3d d4 25 73 3d d0 8b 29 bd 2f 61 4e 3c
       0.06079796 0.059362248 -0.0413931 0.012596413
000300 ec 7d 26 3c 84 00 0a 3b ec 74 c4 37 c4 dd 7a 3c
       0.010161858 0.0021057436 2.3419467e-05 0.015311662
000310 c6 17 1a bb 35 ba a1 3b a8 40 8b 3a 43 e8 93 3a
       -0.0023512705 0.0049355277 0.0010624127 0.0011284429
000320 8f 44 6f b8 00 7d 5a 3c 0f 19 9f 3c 45 29 64 b9
       -5.704589e-05 0.013335466 0.019421129 -0.00021759149
000330 aa 95 ea 3b ad f1 ab 3b f9 81 10 3a 79 3f 75 bb
       0.0071589546 0.005247316 0.00055125315 -0.0037421866
000340 7a 03 82 3c c4 47 92 3d 49 58 b7 bd 3c bf 50 3e
       0.015870798 0.071425945 -0.08952386 0.2038545
000350 68 4c 41 be ae f9 1a be 6d 23 4c be 69 9b 68 3d
       -0.18876803 -0.15134308 -0.19935389 0.056788836
000360 ad ac 94 bd ff ce 33 bd c9 d9 c4 bd b3 b1 84 3e
       -0.07259498 -0.04389858 -0.09611852 0.25916824
000370 f5 a3 93 3e 0e 33 59 bd 32 ae 7e 3e af 98 7b be
       0.28836027 -0.053027205 0.24871138 -0.24569963
000380 69 ac ef 3d 6c 06 99 3d 02 94 09 be f7 91 9f bd
       0.117028065 0.07471928 -0.13435367 -0.077915125
000390 55 52 0a be d0 a5 ef bd 98 30 22 3e 38 00 96 3b
       -0.1350797 -0.11701548 0.1583885 0.004577663
0003a0 c5 be 11 3d 08 ec 2d ba e7 0c 3f 3d 1d 7e c8 3d
       0.035582323 -0.00066345977 0.046643164 0.09789679
0003b0 c3 15 cf bd 34 a8 3d 3c 07 e4 99 3d c4 c9 c2 3d
       -0.101115726 0.011575747 0.07514196 0.0951114
0003c0 9c f3 cc 3d aa c0 10 bd 24 3b 13 3d 13 be 78 3e
       0.10007402 -0.03533999 0.035945073 0.24291258
0003d0 be 7e 40 bd 49 7f f0 bd d1 c8 d1 bc 81 4e ef 3d
       -0.04699587 -0.11743028 -0.025608452 0.11684895
0003e0 85 e3 7f bd bb cb 31 3e f5 9b ea 3d a4 c3 17 be
       -0.06247284 0.17362873 0.11455528 -0.14820725
0003f0 77 48 52 3e 13 b3 8d bd e1 33 1f 3b 47 6f b0 bd
       0.20535456 -0.06918921 0.0024292397 -0.086149745

89 f4 [32]
000000 5b 69 83 bb 82 2d 5a 82 92 7b 47 3e 34 0e 80 bd
       -0.004010362 -1.6029171e-37 0.19480732 -0.06252709
000010 55 10 1e 3d d6 74 cf bd 18 2a 3f bf a2 e4 d1 bb
       0.038589794 -0.101297066 -0.74673605 -0.006405429
000020 6e 02 2a 3e a8 2a d9 be a2 5d 5d be 50 2f 82 3d
       0.1660249 -0.42415357 -0.2161775 0.063566804
000030 07 23 18 bd b3 48 8d bd ea 9b f7 bd 21 7c 87 be
       -0.03714278 -0.06898632 -0.12090285 -0.2646189
000040 e5 cf e3 3e 68 b8 e7 be 20 e0 aa 3a 74 9c c5 bc
       0.44494548 -0.45257878 0.0013036765 -0.024122454
000050 00 3f c0 3d 11 53 13 bf 83 24 22 be 10 94 68 be
       0.09387016 -0.57548624 -0.1583424 -0.22712731
000060 f2 2b 61 3d d8 f7 00 be 62 66 57 bd b3 36 2b 3e
       0.05497355 -0.12594545 -0.052587874 0.16720085
000070 88 f6 8f bd 82 57 02 bc 9a a1 ae 3d 6d 35 4f 3e
       -0.07029444 -0.007955434 0.08526917 0.20235224

91 f4 [64, 32, 3, 3]
000000 00 00 00 80 00 00 00 80 00 00 00 80 00 00 00 00
       -0.0 -0.0 -0.0 0.0
000010 00 00 00 80 00 00 00 80 00 00 00 80 00 00 00 80
       -0.0 -0.0 -0.0 -0.0
000020 00 00 00 80 00 00 00 00 00 00 00 80 00 00 00 00
       -0.0 0.0 -0.0 0.0
000030 00 00 00 80 00 00 00 80 00 00 00 80 00 00 00 80
       -0.0 -0.0 -0.0 -0.0
000040 00 00 00 00 00 00 00 80 00 00 00 00 00 00 00 00
       0.0 -0.0 0.0 0.0
000050 00 00 00 00 00 00 00 00 00 00 00 00 00 00 00 00
       0.0 0.0 0.0 0.0
000060 00 00 00 80 00 00 00 00 00 00 00 00 00 00 00 80
       -0.0 0.0 0.0 -0.0
000070 00 00 00 80 00 00 00 00 00 00 00 80 00 00 00 80
       -0.0 0.0 -0.0 -0.0
000080 00 00 00 80 00 00 00 80 00 00 00 80 00 00 00 80
       -0.0 -0.0 -0.0 -0.0
000090 00 00 00 80 00 00 00 80 00 00 00 80 00 00 00 80
       -0.0 -0.0 -0.0 -0.0
0000a0 00 00 00 80 00 00 00 80 00 00 00 80 00 00 00 80
       -0.0 -0.0 -0.0 -0.0
0000b0 00 00 00 80 00 00 00 80 00 00 00 00 00 00 00 80
       -0.0 -0.0 0.0 -0.0
0000c0 00 00 00 00 00 00 00 00 00 00 00 00 00 00 00 80
       0.0 0.0 0.0 -0.0
0000d0 00 00 00 00 00 00 00 00 00 00 00 00 00 00 00 00
       0.0 0.0 0.0 0.0
0000e0 00 00 00 00 00 00 00 80 00 00 00 00 00 00 00 80
       0.0 -0.0 0.0 -0.0
0000f0 00 00 00 80 00 00 00 00 00 00 00 80 00 00 00 00
       -0.0 0.0 -0.0 0.0
000100 00 00 00 00 00 00 00 00 00 00 00 00 00 00 00 00
       0.0 0.0 0.0 0.0
000110 00 00 00 00 00 00 00 80 00 00 00 80 00 00 00 80
       0.0 -0.0 -0.0 -0.0
000120 00 00 00 80 00 00 00 00 00 00 00 00 00 00 00 80
       -0.0 0.0 0.0 -0.0
000130 00 00 00 80 00 00 00 80 00 00 00 00 00 00 00 00
       -0.0 -0.0 0.0 0.0
000140 00 00 00 00 00 00 00 00 00 00 00 00 00 00 00 00
       0.0 0.0 0.0 0.0
000150 00 00 00 00 00 00 00 00 00 00 00 00 00 00 00 80
       0.0 0.0 0.0 -0.0
000160 00 00 00 00 00 00 00 80 00 00 00 00 00 00 00 00
       0.0 -0.0 0.0 0.0
000170 00 00 00 00 00 00 00 00 00 00 00 00 00 00 00 00
       0.0 0.0 0.0 0.0
000180 00 00 00 80 00 00 00 80 00 00 00 80 00 00 00 80
       -0.0 -0.0 -0.0 -0.0
000190 00 00 00 00 00 00 00 00 00 00 00 80 00 00 00 80
       0.0 0.0 -0.0 -0.0
0001a0 00 00 00 80 00 00 00 80 00 00 00 80 00 00 00 80
       -0.0 -0.0 -0.0 -0.0
0001b0 00 00 00 00 00 00 00 80 00 00 00 80 00 00 00 80
       0.0 -0.0 -0.0 -0.0
0001c0 00 00 00 80 00 00 00 80 00 00 00 80 00 00 00 80
       -0.0 -0.0 -0.0 -0.0
0001d0 00 00 00 80 00 00 00 00 00 00 00 80 00 00 00 80
       -0.0 0.0 -0.0 -0.0
0001e0 00 00 00 00 00 00 00 80 00 00 00 00 00 00 00 00
       0.0 -0.0 0.0 0.0
0001f0 00 00 00 00 00 00 00 00 00 00 00 00 00 00 00 00
       0.0 0.0 0.0 0.0
000200 00 00 00 00 00 00 00 80 00 00 00 80 00 00 00 80
       0.0 -0.0 -0.0 -0.0
000210 00 00 00 00 00 00 00 80 00 00 00 80 00 00 00 00
       0.0 -0.0 -0.0 0.0
000220 00 00 00 00 00 00 00 80 00 00 00 00 00 00 00 00
       0.0 -0.0 0.0 0.0
000230 00 00 00 00 00 00 00 00 00 00 00 00 00 00 00 00
       0.0 0.0 0.0 0.0
000240 00 00 00 80 00 00 00 80 00 00 00 80 00 00 00 00
       -0.0 -0.0 -0.0 0.0
000250 00 00 00 00 00 00 00 00 00 00 00 00 00 00 00 00
       0.0 0.0 0.0 0.0
000260 00 00 00 00 00 00 00 80 00 00 00 80 00 00 00 00
       0.0 -0.0 -0.0 0.0
000270 00 00 00 80 00 00 00 80 00 00 00 80 00 00 00 80
       -0.0 -0.0 -0.0 -0.0
000280 00 00 00 80 00 00 00 80 00 00 00 00 00 00 00 00
       -0.0 -0.0 0.0 0.0
000290 00 00 00 00 00 00 00 00 00 00 00 00 00 00 00 00
       0.0 0.0 0.0 0.0
0002a0 00 00 00 80 00 00 00 00 00 00 00 80 00 00 00 80
       -0.0 0.0 -0.0 -0.0
0002b0 00 00 00 00 00 00 00 80 00 00 00 80 00 00 00 00
       0.0 -0.0 -0.0 0.0
0002c0 00 00 00 00 00 00 00 80 00 00 00 80 00 00 00 80
       0.0 -0.0 -0.0 -0.0
0002d0 00 00 00 80 00 00 00 00 00 00 00 00 00 00 00 80
       -0.0 0.0 0.0 -0.0
0002e0 00 00 00 00 00 00 00 00 00 00 00 80 00 00 00 00
       0.0 0.0 -0.0 0.0
0002f0 00 00 00 00 00 00 00 00 00 00 00 00 00 00 00 00
       0.0 0.0 0.0 0.0
000300 00 00 00 00 00 00 00 00 00 00 00 80 00 00 00 80
       0.0 0.0 -0.0 -0.0
000310 00 00 00 80 00 00 00 80 00 00 00 00 00 00 00 00
       -0.0 -0.0 0.0 0.0
000320 00 00 00 00 00 00 00 80 00 00 00 80 00 00 00 80
       0.0 -0.0 -0.0 -0.0
000330 00 00 00 80 00 00 00 00 00 00 00 80 00 00 00 80
       -0.0 0.0 -0.0 -0.0
000340 00 00 00 80 00 00 00 80 00 00 00 80 00 00 00 80
       -0.0 -0.0 -0.0 -0.0
000350 00 00 00 80 00 00 00 80 00 00 00 80 00 00 00 80
       -0.0 -0.0 -0.0 -0.0
000360 00 00 00 80 00 00 00 80 00 00 00 80 00 00 00 00
       -0.0 -0.0 -0.0 0.0
000370 00 00 00 00 00 00 00 00 00 00 00 00 00 00 00 00
       0.0 0.0 0.0 0.0
000380 00 00 00 00 00 00 00 00 00 00 00 00 00 00 00 00
       0.0 0.0 0.0 0.0
000390 00 00 00 00 00 00 00 00 00 00 00 00 00 00 00 80
       0.0 0.0 0.0 -0.0
0003a0 00 00 00 80 00 00 00 80 00 00 00 00 00 00 00 80
       -0.0 -0.0 0.0 -0.0
0003b0 00 00 00 80 00 00 00 00 00 00 00 00 00 00 00 00
       -0.0 0.0 0.0 0.0
0003c0 00 00 00 00 00 00 00 00 00 00 00 00 00 00 00 80
       0.0 0.0 0.0 -0.0
0003d0 00 00 00 80 00 00 00 80 00 00 00 80 00 00 00 80
       -0.0 -0.0 -0.0 -0.0
0003e0 00 00 00 80 00 00 00 00 00 00 00 00 00 00 00 00
       -0.0 0.0 0.0 0.0
0003f0 00 00 00 00 00 00 00 00 00 00 00 00 00 00 00 00
       0.0 0.0 0.0 0.0

92 f4 [64]
000000 ef 1b 83 81 20 36 c4 bc 59 d4 a8 82 d9 5c 88 3e
       -4.816188e-38 -0.02395159 -2.4807263e-37 0.26633337
000010 13 bb 7c bd b9 05 c0 bc 6c 6a eb 3d f0 ce 61 3e
       -0.061701845 -0.023440229 0.11494908 0.22051597
000020 0b b2 b3 82 3a 29 f1 bc 5a 80 44 bd 41 8b e0 83
       -2.6403878e-37 -0.029438604 -0.047973968 -1.3197508e-36
000030 38 87 fe 81 3d eb 04 3e 19 22 36 bd 43 91 d5 bd
       -9.3498893e-38 0.12980361 -0.04446611 -0.10428097
000040 e0 fd a5 82 f2 3d e6 bc f8 82 55 bc 0c 62 38 be
       -2.4390288e-37 -0.02810571 -0.013031714 -0.18006152
000050 c8 ba 85 83 59 c3 ba bb 92 00 0f 83 d6 c7 1f 83
       -7.85992e-37 -0.005699557 -4.2024578e-37 -4.69553e-37
000060 a8 49 47 be 18 e1 51 bc f7 15 7e bd ae 39 96 ad
       -0.19461691 -0.012810014 -0.062032666 -1.707864e-11
000070 dd 7a e7 83 bf 45 fe 81 49 11 0a 83 90 43 0a 3b
       -1.3605168e-36 -9.3404945e-38 -4.0574397e-37 0.00210974
000080 68 9c 3e bc 33 62 36 3d 16 2b a0 81 34 43 ea bc
       -0.01163397 0.044527244 -5.8836543e-38 -0.028596498
000090 04 43 65 bd 83 0c 30 83 cb ae 88 83 e4 11 00 bb
       -0.055972114 -5.1736114e-37 -8.033492e-37 -0.0019541914
0000a0 1c 27 8a 83 7c 79 07 83 80 91 00 3d a4 0a 6f bd
       -8.11989e-37 -3.981239e-37 0.03138876 -0.058359757
0000b0 19 72 76 3d 22 31 51 84 00 d4 86 81 42 7a 1f bc
       0.060167406 -2.4590393e-36 -4.952803e-38 -0.009733738
0000c0 35 f0 34 bd 53 01 ae b5 cb 66 0d 83 b4 af 71 83
       -0.04417439 -1.2964396e-06 -4.1554176e-37 -7.102523e-37
0000d0 46 53 ac 84 99 b8 fa bc 9c 07 1b bd ae 58 9e 3b
       -4.051348e-36 -0.030605601 -0.037849054 0.004832349
0000e0 1d b0 7b bd d7 6d c4 bc e2 74 0c 83 70 c1 92 bd
       -0.06144725 -0.023978157 -4.1276477e-37 -0.071658015
0000f0 e4 0e 19 3c ca 9e e2 81 ca 60 1b bc ba 0c 89 bd
       0.009341929 -8.324714e-38 -0.0094835255 -0.066918805
