server/model/bebida_gelada.onnx (onnx, 302121 bytes, 16 tensors)

fc.weight f4 [2, 256]
0	0x3c634458	0.013871275
1	0xbcb9fe7c	-0.022704355
2	0x3cc1ce2f	0.023657886
3	0x3d91b895	0.07115284
4	0xbd48c5c9	-0.049016748
5	0x3d0b2e30	0.033979595
6	0xbdec13e3	-0.115272306
7	0xbd778e8e	-0.060438685
8	0x3d360bf2	0.044444986
9	0x3dd56945	0.10420469
10	0x3c85857c	0.016299002
11	0x3d2980ff	0.041382786
12	0x3d21ed83	0.03953315
13	0x3bab188a	0.005221431
14	0x3ccf291f	0.025288163
15	0x3d42194c	0.047387406
16	0xbdb98be2	-0.09059884
17	0xbd557c80	-0.052120686
18	0x3b9bb122	0.0047513405
19	0x3d80cebd	0.06289432
20	0xbdcb2e73	-0.09920969
21	0xbddc00d3	-0.10742345
22	0xbdcdd596	-0.10050504
23	0xbde1f37b	-0.11032768
24	0x3d655b14	0.055995062
25	0x3d851ecd	0.065000154
26	0x3d1ea8a2	0.03873504
27	0x3d513511	0.051076
28	0x3d301ec4	0.04299809
29	0x3de3e1e3	0.11127069
30	0x3d8892dc	0.06668636
31	0x3db82af3	0.08992567
32	0x3df3a689	0.118969984
33	0x3d9c6c6f	0.076378696
34	0x3deafd89	0.11474139
35	0x3c8c34e8	0.017115071
36	0xbe1e0131	-0.15430142
37	0xbded8f5c	-0.11599609
38	0x3c9c43b7	0.019075258
39	0xbdbfce5c	-0.09365532
40	0x3c396ac2	0.011316957
41	0x3c20fd1b	0.00982597
42	0x3cc740fb	0.024322977
43	0xbd359e22	-0.04434026
44	0x3d24249d	0.04007398
45	0x3c8d426b	0.017243585
46	0x3d7e7ab9	0.062128756
47	0x3d81944c	0.063271135
48	0xbd284326	-0.041079663
49	0x3da63158	0.0811488
50	0xbcd056d6	-0.025432032
51	0x3d576e27	0.052595284
52	0xbbd4cfca	-0.006494497
53	0x3d7e3669	0.06206361
54	0xbd73853b	-0.05945323
55	0xbd4eb508	-0.050465614
56	0xbd9ebc35	-0.077507414
57	0xbd7708b6	-0.06031104
58	0xbd721b39	-0.059107993
59	0xbd447de7	-0.047971632
60	0xbd1aa9aa	-0.03775946
61	0x3d032db6	0.032026015
62	0xbd023f2a	-0.03179852
63	0x3d6916be	0.056906454
64	0x3d390af1	0.04517645
65	0x3dbad568	0.09122735
66	0x3dc08116	0.09399621
67	0x3e00302d	0.12518378
68	0x3ccee867	0.025257302
69	0x3da6b993	0.08140864
70	0x3d4f781c	0.050651655
71	0x3c81edf4	0.015860535
72	0xbdc0ffd7	-0.094237976
73	0xbd9d7fd6	-0.076903984
74	0x3d91f0ee	0.07126032
75	0x3d8ac840	0.06776476
76	0x3c23f2a9	0.010006585
77	0x3ceb73cc	0.02874174
78	0xbd17472b	-0.036933105
79	0x3ce5a8a0	0.028034508
80	0x3d8b7f89	0.06811435
81	0x3cbdb111	0.02315572
82	0x3d14f1ed	0.03636353
83	0x3d902106	0.07037549
84	0x3cf0920a	0.029366512
85	0x3d5056e3	0.05086411
86	0x3d40458a	0.046941318
87	0xbb469e4f	-0.0030306762
88	0xbda6b3a2	-0.08139731
89	0xbd6404f7	-0.055668797
90	0x3d17cdc6	0.037061475
91	0x3d46add5	0.048505623
92	0xbd26002e	-0.040527515
93	0xbca162c0	-0.019700408
94	0x3d59c5c1	0.05316711
95	0x3bb96ccb	0.005658721
96	0xbd527962	-0.05138529
97	0xbd57e00c	-0.052703902
98	0x3d980560	0.074229
99	0x3ca3c457	0.019991083
100	0xbd212f46	-0.039351724
101	0xbd909b92	-0.07060923
102	0x3ce8edd1	0.028433712
103	0x3d7bb4c7	0.0614517
104	0xbdb8784e	-0.09007321
105	0xbde67b42	-0.11253978
106	0x3d0a8d78	0.03382632
107	0x3cd64074	0.02615378
108	0x3d2719b7	0.040796008
109	0xbcad9d8e	-0.021193292
110	0xbb181882	-0.0023207967
111	0xbbb85617	-0.005625497
112	0x3ca44654	0.020053066
113	0xbaaaee28	-0.0013040947
114	0x3d3359b3	0.043786716
115	0xbcb240e4	-0.021759458
116	0x3c89aec1	0.016806962
117	0x3d07f4f1	0.03319258
118	0xbce232d7	-0.027612133
119	0x3c98acf8	0.018637165
120	0xbb5a84dd	-0.0033343353
121	0xbda95dbd	-0.08269832
122	0x3ddf6d26	0.1090949
123	0xbbaeceb1	-0.005334698
124	0x3da43778	0.08018392
125	0x3df08a68	0.11745149
126	0x3ddb1253	0.106968544
127	0x3db160aa	0.08661015
128	0x3c4c2c8f	0.0124617955
129	0x3c8f2278	0.01747249
130	0x3c515ec1	0.012778939
131	0xbbd0cecb	-0.006372308
132	0xbdc4dd21	-0.096124895
133	0x3bdafb31	0.0066827764
134	0xbd3ed009	-0.046585117
135	0x3d4da9c5	0.050210733
136	0xbd4a91b0	-0.049455345
137	0xbce3285c	-0.027729206
138	0x3cd94ebb	0.0265268
139	0x3de952c2	0.11392738
140	0xbd5b3d5f	-0.053525325
141	0x3d72536a	0.05916158
142	0xbe10212f	-0.14075159
143	0xbca988db	-0.02069514
144	0xbc568a7a	-0.013094539
145	0xbd45919a	-0.04823456
146	0x3d1ebc13	0.03875358
147	0x3ce1463a	0.027499307
148	0xbbbdf7ba	-0.0057973536
149	0x3d2c2ba8	0.04203382
150	0xbd990e1e	-0.07473396
151	0xbd46bbeb	-0.048519056
152	0xbd7c7095	-0.061630804
153	0xbdf7903a	-0.12088056
154	0xbd5b1852	-0.05348999
155	0xbdcce9af	-0.10005509
156	0xbbe0d667	-0.0068614963
157	0x3d18326a	0.037157454
158	0xbd26bca8	-0.04070726
159	0x3cf8572b	0.030315002
160	0xbc11fde0	-0.008910626
161	0x3c95a38d	0.018266464
162	0xbcd565af	-0.026049463
163	0xbcf61746	-0.030040395
164	0xbd925cc4	-0.071466
165	0xbdb4deea	-0.0883158
166	0x3d217b24	0.039424077
167	0x3cad995d	0.021191293
168	0xbbe2a3b4	-0.0069164876
169	0xbc035909	-0.008016833
170	0xbd006242	-0.031343706
171	0xbbcb0f49	-0.0061968905
172	0x3dbcdba2	0.09221579
173	0xbd2c6c1e	-0.042095296
174	0x3d59b907	0.05315497
175	0xbbd9bfd2	-0.006645181
176	0x3e1c50b9	0.15265168
177	0x3d43a7e0	0.04776752
178	0x3de2aaa4	0.11067703
179	0x3d1918bc	0.037377104
180	0xbdbdff57	-0.09277218
181	0xbd8bb321	-0.068212755
182	0xbd90dbd1	-0.07073177
183	0xbdc3c0a0	-0.09558225
184	0x3cdc7012	0.026908908
185	0x3d5d8ce0	0.054089427
186	0xbc75ac4e	-0.014994694
187	0x3ddca72a	0.107740715
188	0xbde234d9	-0.11045236
189	0xbdc53ea3	-0.09631088
190	0x3db2b530	0.08725965
191	0x3d837333	0.06418457
192	0x3cc88ce1	0.024481239
193	0xbcd3ac63	-0.025839036
194	0x3cc64945	0.02420486
195	0xbc2828ef	-0.010263666
196	0xbd2379d8	-0.03991112
197	0xbdbd9588	-0.092570364
198	0x3cdd085e	0.026981529
199	0x3da30e8f	0.07961761
200	0xbdada589	-0.08478839
201	0xbdb8f6d3	-0.09031453
202	0x3da85bd7	0.08220642
203	0x3d7d8ff7	0.061904874
204	0xbd4d40cf	-0.050110634
205	0x3daa9deb	0.08330902
206	0xbcf8930f	-0.03034356
207	0x3d844652	0.06458725
208	0x3d16d1c9	0.03682116
209	0x3d7c0aad	0.06153362
210	0xbb8cb6a4	-0.0042942334
211	0x3cf9ae6b	0.030478677
212	0xbb701ac5	-0.003663705
213	0x3dbcb96a	0.092150524
214	0x3d824b85	0.063620605
215	0x3e0ff8e8	0.14059794
216	0x3d82e525	0.06391362
217	0x3d60d09a	0.054886438
218	0x3b8f18fb	0.0043669916
219	0xbd5b6abc	-0.053568587
220	0x3cb4d84b	0.022075793
221	0x3c53e814	0.01293375
222	0x3d72a600	0.05924034
223	0xbcf1f302	-0.02953482
224	0xbc84061e	-0.016116198
225	0xbd68ffb6	-0.05688449
226	0xbdd502c4	-0.10400918
227	0xbe17f272	-0.1483858
228	0x3d7be0c5	0.061493654
229	0x3d45c3b9	0.04828236
230	0x3db30378	0.08740896
231	0x3cbc1da1	0.022963347
232	0x3da3956c	0.07987484
233	0x3e01ac7b	0.12663452
234	0x3d75d986	0.0600219
235	0x3d2193a3	0.039447438
236	0x3d42bbfd	0.04754256
237	0xbd82b09d	-0.063813426
238	0x3d9fd2a1	0.07803846
239	0xbd891d49	-0.06695039
240	0xbdac9cfd	-0.08428381
241	0xbddb47eb	-0.10707077
242	0x3d612807	0.054969814
243	0xbd21961b	-0.039449792
244	0x3d92a8f3	0.07161131
245	0x3d7cf84e	0.06176024
246	0x3db85119	0.08999843
247	0x3dfb93a9	0.12284023
248	0x3dbdc21d	0.0926554
249	0xbd660cb0	-0.056164443
250	0x3dec5bbe	0.11540936
251	0xbd281171	-0.04103226
252	0xbd462939	-0.048379157
253	0xbdf0c11f	-0.11755585
254	0xbd9a3a96	-0.07530706
255	0xbd6659d6	-0.056238018

fc.bias f4 [2]
0	0xbc69bc77	-0.014266125
1	0x3bfd83dc	0.007736666

onnx::Conv_80 f4 [16, 3, 7, 7]
0	0x3dc3ec00	0.09566498
1	0x3e06a4e8	0.13148844
2	0xbb9a6ceb	-0.004712691
3	0x3d2fa93c	0.042886004
4	0xbcaa5ad7	-0.020795269
5	0x3d1c5d1d	0.038174737
6	0x3e11eff0	0.14251685
7	0x3d9579e1	0.07298637
8	0xbe146121	-0.14490177
9	0xbe7d5c16	-0.24742159
10	0x3c201989	0.009771713
11	0xbc92f3dd	-0.017938549
12	0xbdf72d5f	-0.12069201
13	0xbc027835	-0.00796323
14	0xbe2008b1	-0.15628316
15	0xbda03730	-0.07823026
16	0xbda80c78	-0.08205503
17	0xbdd8fee0	-0.105954885
18	0x3e4fe156	0.20300803
19	0x3daf7924	0.085680276
20	0x3df425a8	0.11921245
21	0xbe1a11a2	-0.15045789
22	0x3dda3b5b	0.106558524
23	0xbdf615b8	-0.12015861
24	0x3da2cdfd	0.079494454
25	0x3e0cfb2f	0.13767694
26	0xbe204530	-0.15651393
27	0xbe2ef82d	-0.17086859
28	0xbe3bc351	-0.18336226
29	0x3ddf4f9c	0.10903856
30	0x3cb20d21	0.021734776
31	0xbd96918c	-0.073519796
32	0x3e1c46f7	0.15261446
33	0xbe152049	-0.14563097
34	0xbdfe93d4	-0.1243054
35	0x3d5e2083	0.054230224
36	0xbddb3da9	-0.1070512
37	0x3dcf18d5	0.10112158
38	0xbd35a132	-0.04434318
39	0x3dbc1900	0.09184456
40	0xbe642530	-0.22279811
41	0xbd9b0031	-0.07568396
42	0xbe3d2715	-0.1847194
43	0x3dd238c7	0.10264736
44	0xbd71a756	-0.058997475
45	0x3db72c0b	0.089439474
46	0xbde087ac	-0.10963377
47	0x3d7b4a18	0.06134996
48	0x3dd39507	0.10331159
49	0xbda96b4b	-0.08272418
50	0xbe2c1f6e	-0.16808864
51	0xbdcc538b	-0.09976872
52	0xbe38258e	-0.17983076
53	0xbe13e38f	-0.14442275
54	0x3e494696	0.19655833
55	0x3e44f5b9	0.19234361
56	0x3d6aec18	0.057354063
57	0x3d8e5287	0.069493346
58	0x3d856259	0.06512899
59	0xbc563ced	-0.013076049
60	0x3cc1f719	0.023677396
61	0xbd43f660	-0.047842383
62	0xb9a026a7	-0.00030546376
63	0x3ddca631	0.10773886
64	0x3d53dfae	0.05172699
65	0x3c6a6e51	0.014308528
66	0xbd27792d	-0.040887047
67	0x3e314f9a	0.17315522
68	0x3e38b099	0.18036117
69	0x3dae1897	0.08500784
70	0xbe0e2b5f	-0.13883732
71	0xbd573afd	-0.05254649
72	0x3d62c3ac	0.05536239
73	0xbd6a08e2	-0.057137378
74	0x3cf9927f	0.030465363
75	0x3d514913	0.05109508
76	0xbdc6d73c	-0.097090214
77	0xbe0febb9	-0.14054765
78	0x3db69891	0.089158185
79	0x3e75463f	0.23952578
80	0x3e512c30	0.20427012
81	0x3e1a7c1b	0.15086405
82	0x3d149b13	0.036280703
83	0xbe003e80	-0.12523842
84	0x3dc95016	0.09829728
85	0x3e53d257	0.20685707
86	0x3e150250	0.14551663
87	0x3e4fd414	0.20295745
88	0x3dbe4b44	0.092916995
89	0xbdc72b2c	-0.09725031
90	0xbd23e3f1	-0.040012304
91	0x3e6e617d	0.23279376
92	0x3d202b25	0.039103646
93	0x3e3363b2	0.175185
94	0xbd17dec3	-0.037077677
95	0x3dfba73b	0.12287756
96	0xbd3a28ba	-0.045448996
97	0xbdd96789	-0.10615451
98	0x3dcd250f	0.10016834
99	0xbe23b850	-0.15988278
100	0xbde10fa1	-0.10989309
101	0xbe2091b6	-0.15680584
102	0xbdd3f5db	-0.103496276
103	0xbdb72166	-0.08941917
104	0x3e1b572d	0.15169974
105	0xbe805fc2	-0.25073057
106	0xbe44f01f	-0.19232224
107	0xbdd80e5e	-0.10549615
108	0xbe5ae570	-0.21376586
109	0xbdecea08	-0.115680754
110	0xbdd5adeb	-0.10433563
111	0x3beed1aa	0.0072881775
112	0xbe1120bd	-0.14172645
113	0xbe8d0f2d	-0.2755064
114	0xbe8f18c2	-0.27948576
115	0xbe1430a9	-0.14471687
116	0xbdcf91bd	-0.10135219
117	0x3cf114ca	0.029428858
118	0xbdc3648a	-0.09540661
119	0xbe5a833c	-0.21339124
120	0x3985dad9	0.0002553079
121	0xbdaf5e26	-0.08562879
122	0x3d8eac1d	0.06966422
123	0x3d6cdf08	0.057829887
124	0x3d304edc	0.043043956
125	0xbe26cbce	-0.16288683
126	0xbe0bc5c9	-0.13649668
127	0xbbf181d4	-0.007370213
128	0x3d89c5d3	0.06727185
129	0x3e410317	0.18848835
130	0x3cf2b276	0.029626112
131	0x3d181a83	0.03713466
132	0xbd9b8cf9	-0.07595248
133	0xbd7913ce	-0.060809903
134	0x3dd3eefb	0.10348316
135	0x3a1ea456	0.00060517096
136	0xbd969084	-0.07351783
137	0xbe11290a	-0.14175811
138	0xbe3ec1b9	-0.18628587
139	0xbdd1774d	-0.10227833
140	0xbc15107d	-0.009098169
141	0xbd0d3efc	-0.034483895
142	0xbe276cd2	-0.16350105
143	0xbe0d4ae6	-0.13798103
144	0xbe107e6a	-0.14110723
145	0x3d0abd92	0.033872195
146	0xbdb5747a	-0.08860107
147	0xbd76df4e	-0.060271554
148	0xbb47adcb	-0.003046858
149	0x3d92fa8d	0.07176695
150	0x3d5924b2	0.05301351
151	0xbbb07b7c	-0.0053858142
152	0x3d5bb813	0.053642344
153	0xbce39c90	-0.027784616
154	0x3c6c7e8e	0.01443447
155	0xbca4b870	-0.020107478
156	0xbc214c31	-0.009844826
157	0x3c9519df	0.018200813
158	0x3d55b24a	0.052171983
159	0xbd724358	-0.059146255
160	0x3cba72cc	0.022759818
161	0x3dbcafd3	0.09213223
162	0xbd3ab000	-0.045578003
163	0x3d28ae84	0.041182056
164	0x3d7a27f0	0.061073244
165	0x3caacf63	0.020850843
166	0xbd15f082	-0.03660632
167	0xbd225787	-0.039634254
168	0x3d7d739a	0.061877824
169	0x3daf1c03	0.08550265
170	0x3d40276b	0.046912592
171	0x3d01d40d	0.031696368
172	0x3d7819cb	0.060571473
173	0x3d61e08a	0.055145778
174	0x3c30f9a2	0.010801705
175	0x3dca8e93	0.09890475
176	0x3dbc6277	0.09198468
177	0x3cf0ad08	0.029379383
178	0x3dbaa1f4	0.09112921
179	0x3e0b2603	0.13588719
180	0x3d04cd55	0.032422382
181	0x3d20cb64	0.03925647
182	0xbd7ee2ac	-0.06222789
183	0x3db82901	0.08992196
184	0x3df04154	0.1173121
185	0x3ba09da9	0.004901607
186	0x3df01690	0.117230535
187	0x3c47bac7	0.012190527
188	0xbcd008d5	-0.025394836
189	0xbdd027f8	-0.101638734
190	0x3d78728d	0.06065612
191	0x3b4346c9	0.002979683
192	0x3d911d6c	0.0708569
193	0x3dbe3476	0.0928735
194	0xbd200ecf	-0.039076623
195	0x3d9940c7	0.074830584
196	0xbc839a3e	-0.01606476
197	0xbd302c1b	-0.043010812
198	0x3d16c1a5	0.036805768
199	0xbcd93d6e	-0.02651855
200	0x3cb78d5f	0.022406278
201	0xbd24c6b7	-0.04022857
202	0xbdbd2de6	-0.0923727
203	0xbcb48fec	-0.022041284
204	0x3d476ada	0.048685886
205	0x3b4e5f14	0.0031489776
206	0xbce9beb8	-0.028533325
207	0x3d8ce351	0.06879295
208	0xbc0aaf1a	-0.008464599
209	0xbd790ba7	-0.06080213
210	0xbd157a82	-0.036493786
211	0x3d28b27e	0.04118585
212	0x3c36035b	0.011109198
213	0xba7e8dca	-0.0009710459
214	0x3d10c830	0.035347164
215	0x3d720189	0.059083495
216	0xbd607dec	-0.05480759
217	0x3d1e2390	0.038608134
218	0x3cfe7c3a	0.031065095
219	0x3d578197	0.05261382
220	0x3d89369c	0.06699869
221	0x3c5be217	0.013420603
222	0x3d3ffc93	0.046871733
223	0x3d6a8a88	0.05726102
224	0x3900c817	0.0001228157
225	0x3da05218	0.07828158
226	0x3dac9e33	0.084286116
227	0x3dc9e6d3	0.09858479
228	0x3d6ad971	0.057336275
229	0x3d964788	0.07337862
230	0x3c06e186	0.00823248
231	0xbbe3929e	-0.0069449684
232	0x3d65a694	0.056067064
233	0x3d589c0c	0.052883193
234	0x3d04f6a5	0.03246178
235	0x3ddfb0d0	0.10922396
236	0x3caa8717	0.020816369
237	0x3c9784a0	0.018495858
238	0xbddc4de4	-0.10757044
239	0xbcea4fed	-0.028602565
240	0xbcab4b53	-0.02090994
241	0x3ca38128	0.019959047
242	0x3d8c957c	0.068644494
243	0x3dc7c2a3	0.09753921
244	0x3dc6a4b3	0.09699383
245	0xbd650232	-0.055910297
246	0x3d960b0f	0.07326328
247	0xbc7215ee	-0.014775736
248	0x3c98de7c	0.018660776
249	0xbd15a467	-0.03653374
250	0xbc150ca1	-0.009097249
251	0x3da684ba	0.08130784
252	0x3ce6fc51	0.028196486
253	0x3d643980	0.0557189
254	0x3d32d5cc	0.043660924
255	0xbd4f6999	-0.050637815

onnx::Conv_81 f4 [16]
0	0x3f6566de	0.8961009
1	0xbfa6870d	-1.3009964
2	0xbf20d27e	-0.62821186
3	0x3ea8dc5c	0.3298062
4	0x3b8db19c	0.004324151
5	0x3f15321e	0.582796
6	0xbf12fd56	-0.5741781
7	0x3e8f69ad	0.28010312
8	0x3f2ab740	0.6668587
9	0x3ed2c72d	0.41167584
10	0x3f90b66b	1.130567
11	0xbf57c1df	-0.842802
12	0xbec3ae5d	-0.38218966
13	0x3f7d506b	0.98950833
14	0x3c69eb80	0.014277339
15	0x3f247d0f	0.64253324

onnx::Conv_83 f4 [32, 16, 3, 3]
0	0x3d0b6115	0.03402813
1	0x3cac2314	0.02101282
2	0x3c90aa7e	0.017659422
3	0x3d1d4aaa	0.038401283
4	0xba6973aa	-0.000890548
5	0x3cc1a1e3	0.023636764
6	0xbcd79777	-0.026317341
7	0xbce98430	-0.028505415
8	0xbd020032	-0.031738468
9	0xbc481cf9	-0.012213939
10	0xbc5d2c47	-0.013499326
11	0xbc972766	-0.018451404
12	0x3c6c761f	0.014432459
13	0xbaa9bbeb	-0.0012949681
14	0x3c37753c	0.011197384
15	0x3c2d64fe	0.01058316
16	0x3cae921d	0.021309907
17	0x3b80356e	0.0039126193
18	0xbc380ea9	-0.011233964
19	0xbbb923b0	-0.0056500062
20	0x3c89ebcc	0.01683607
21	0x3c547a00	0.01296854
22	0xbb289883	-0.002572567
23	0x3c190012	0.009338396
24	0x3d5d5f45	0.054045934
25	0xba50d6f0	-0.00079665985
26	0x3d4b4ddc	0.0496348
27	0x3c972f9d	0.018455321
28	0x3b0a206d	0.0021076456
29	0x3cf5602e	0.029953089
30	0xbc88afd7	-0.01668541
31	0x3cb97b7f	0.022641895
32	0x3c843f7b	0.016143551
33	0xbc7e18de	-0.0155088585
34	0x3c1f4153	0.009720164
35	0x3bcfe10f	0.0063439677
36	0x3c953779	0.018214928
37	0xbce7fca5	-0.028318712
38	0xbcd39e4f	-0.025832323
39	0x3c93ec5f	0.018057046
40	0x3d1cc482	0.038273342
41	0x3c531f99	0.012885951
42	0x3d6894e1	0.056782607
43	0x3d05365f	0.032522555
44	0x3d28e216	0.041231237
45	0x3c15f53d	0.009152708
46	0x3c349ce5	0.011023735
47	0xbbb8dea6	-0.005641776
48	0x3b5ff1ef	0.0034171303
49	0x3c784287	0.01515258
50	0x3bd8227c	0.0065959077
51	0xbc811d64	-0.015761085
52	0xbc3455f7	-0.011006824
53	0xbc5ee72e	-0.013604922
54	0xbb2cc511	-0.0026362578
55	0x3d0094b4	0.031391814
56	0x3c15fe12	0.009154813
57	0xbc3bb4d8	-0.011456691
58	0x3cc2dc78	0.023786768
59	0x3ca00bc4	0.01953686
60	0x3c9fb4dc	0.01949542
61	0x3c99c2fd	0.018769735
62	0x3cb84adb	0.022496631
63	0x3bf1b5f5	0.0073764273
64	0x3bac870e	0.005265123
65	0xbc1edf36	-0.009696772
66	0x3b81664e	0.0039489632
67	0x3b7056b3	0.003667277
68	0x3c08bc0e	0.008345617
69	0xbc649881	-0.013952375
70	0xbc7aa475	-0.015297999
71	0x3972b393	0.00023145815
72	0x3c683c7f	0.01417458
73	0xbc168802	-0.0091877
74	0x3a1401f2	0.0005646042
75	0xbc266946	-0.010156935
76	0xbb961874	-0.0045805518
77	0xbc3ffd50	-0.011718109
78	0xbca23fc6	-0.0198058
79	0xbc865e27	-0.016402317
80	0xbc1ad8fb	-0.009451146
81	0xbac40d55	-0.0014957587
82	0x399b4505	0.00029615327
83	0xbc2f4912	-0.010698574
84	0x3c71ba58	0.0147539005
85	0x3cfc0b7d	0.030767197
86	0x3c538046	0.012909001
87	0x397239fe	0.00023100522
88	0xba9737c7	-0.0011537009
89	0xbbad99d9	-0.005297881
90	0x3ca824b9	0.020525323
91	0x3d05ff29	0.032714043
92	0x3ce010f5	0.027351836
93	0xba5f8244	-0.0008526186
94	0x3c29d16e	0.010364873
95	0x3c979331	0.018502804
96	0xbd08d80b	-0.03340916
97	0xbcd23717	-0.025661035
98	0xbbf9e381	-0.0076259975
99	0xbccee44e	-0.025255349
100	0x3be1b7b8	0.006888356
101	0x3ba7a08d	0.0051155747
102	0x3bc50232	0.0060122246
103	0xbc436907	-0.011926896
104	0xbc624a39	-0.013811641
105	0x3b705c8a	0.0036676251
106	0xbb4faa37	-0.003168715
107	0xbc66ab9c	-0.014079001
108	0xbc3c4947	-0.01149208
109	0xbc709fd0	-0.01468654
110	0x3cacb8ca	0.021084208
111	0xbc0f5c37	-0.008750013
112	0xbc876cdc	-0.0165314
113	0x3c822341	0.015885951
114	0xbb626bb9	-0.003454907
115	0xb9b93efa	-0.0003533287
116	0xbc59077a	-0.013246411
117	0x3aa67d3b	0.0012702117
118	0x3bae04a6	0.0053106127
119	0xbb4da7cd	-0.0031380535
120	0xbb0a86cf	-0.002113748
121	0xbb810258	-0.003937047
122	0x3bc49ea5	0.006000357
123	0xbce90522	-0.02844483
124	0xbc8f2497	-0.017473502
125	0xbc9aba02	-0.018887524
126	0x3c3bfa8f	0.011473312
127	0x3c1f2620	0.00971368
128	0x3c309a39	0.010778957
129	0xbbcb7e19	-0.0062101004
130	0x396171ff	0.00021500139
131	0xbbf03e30	-0.007331632
132	0xba6eb98a	-0.0009106627
133	0x3aed6a6e	0.0018113384
134	0xbb39c8fc	-0.0028348556
135	0x3c1d95a4	0.009618197
136	0x3c6eccb6	0.014575174
137	0x3c44620b	0.011986266
138	0x3ca379fb	0.019955626
139	0x3b992cc4	0.004674526
140	0x3c1e7ead	0.009673757
141	0xbc93ea19	-0.018055962
142	0xbca10bd4	-0.01965896
143	0xbc53930c	-0.012913477
144	0x3854392b	5.059798e-05
145	0x3c8e31d6	0.017357748
146	0x3cbc0698	0.022952363
147	0xbcd52205	-0.026017198
148	0x3d0f82a3	0.035036694
149	0x3d278666	0.040899657
150	0x3c7e738f	0.015530481
151	0xbb7b5f4e	-0.0038356367
152	0x3c2bad82	0.010478379
153	0xbc4c5b17	-0.012472889
154	0xbca00f0e	-0.019538429
155	0xbcada4b0	-0.021196693
156	0xbb70cdf8	-0.003674386
157	0x3b6a8525	0.0035784927
158	0xbc64cff5	-0.013965596
159	0x3c27c698	0.0102402195
160	0xbcc711ea	-0.024300534
161	0xbb0e89ec	-0.0021749688
162	0xbd166df3	-0.03672595
163	0xbcb98388	-0.022645727
164	0xbd18aefa	-0.037276246
165	0x3bc2a95d	0.0059406
166	0xbce843da	-0.028352667
167	0xbd1179d4	-0.035516575
168	0x3c4a9dd3	0.01236673
169	0xbaaae941	-0.0013039486
170	0xbd21cde3	-0.03950299
171	0x3d1274ee	0.035756044
172	0x3c69b26e	0.014263732
173	0x3c44c10b	0.012008916
174	0xbc1ba647	-0.009500093
175	0xbd0ddf0b	-0.03463654
176	0xbc772d36	-0.015086463
177	0x3b16d4d6	0.0023015044
178	0xbc4b174a	-0.012395689
179	0xbb8dae76	-0.004323776
180	0xbc854a66	-0.016270828
181	0xbabdd8b9	-0.0014484144
182	0x3bcb13e6	0.0061974404
183	0xbc08a62a	-0.008340398
184	0xbd071bba	-0.032985426
185	0xbc2822c5	-0.010262196
186	0xbc8f5cca	-0.0175003
187	0xbc0518a5	-0.0081235515
188	0xbd004bfe	-0.03132247
189	0xbc7cb36e	-0.015423639
190	0x3b14cdcc	0.0022705672
191	0x3b487de2	0.003059261
192	0xbc92ff11	-0.01794389
193	0xbc6667af	-0.014062806
194	0xbaba6c36	-0.0014222923
195	0xbbb2cf9b	-0.0054568774
196	0xbc53315a	-0.012890184
197	0xbb4b483b	-0.0031018395
198	0x3b926ffd	0.0044689164
199	0xbc88733c	-0.01665651
200	0x3c14be33	0.00907855
201	0xbbca6eca	-0.006177758
202	0xbca8cad9	-0.020604538
203	0x3b77e4c2	0.003782556
204	0xbc8c5222	-0.017129008
205	0xbce66ef1	-0.028129073
206	0xbcee9498	-0.02912359
207	0xbd0b9f62	-0.034087546
208	0xb90900c2	-0.0001306562
209	0xbd14ec5d	-0.036358226
210	0xbcc1a1fe	-0.023636814
211	0x3b92c576	0.0044791056
212	0xbb4076fe	-0.00293678
213	0xbae5b78f	-0.0017526018
214	0xbc861de2	-0.016371671
215	0xbc991d59	-0.018690752
216	0xbc1b244a	-0.009469101
217	0xba85a101	-0.0010195078
218	0x3b281ccc	0.002565193
219	0xbb535514	-0.0032246755
220	0xbb6fbc8b	-0.0036580886
221	0xbcb18c09	-0.02167322
222	0xbc22ec58	-0.009944044
223	0xb7837c0f	-1.5674186e-05
224	0xba2459a1	-0.0006269459
225	0xbbb73e5b	-0.00559215
226	0x3b1d016e	0.002395715
227	0xba6c9299	-0.00090245303
228	0xbc24462a	-0.010026494
229	0xbc05576a	-0.008138517
230	0xbcd242a0	-0.025666535
231	0xbce00923	-0.027348107
232	0xbc60d61b	-0.013722922
233	0x3b852b76	0.004064019
234	0xba4e9c3d	-0.00078815577
235	0x3bc3149f	0.005953386
236	0xbc5de7fb	-0.013544078
237	0xbc86631c	-0.01640468
238	0xbc4b0a10	-0.012392536
239	0xbd22a22f	-0.03970545
240	0xbcdd59a1	-0.027020277
241	0xbc2361a6	-0.009972012
242	0xbbb625cd	-0.0055587054
243	0xbc934be9	-0.017980533
244	0xbbdf9b91	-0.006823965
245	0xbcd4401b	-0.025909474
246	0x3be75d68	0.0070606954
247	0x3c658801	0.014009477
248	0xbc962ef2	-0.018332932
249	0xbc8c605b	-0.01713579
250	0xbc296299	-0.010338449
251	0xbcc0f520	-0.023554385
252	0x3c81834e	0.015809681
253	0x3c08b5fd	0.008344171
254	0xbbb36dec	-0.00547575
255	0xbcadcc89	-0.021215694

onnx::Conv_84 f4 [32]
0	0xbe83856a	-0.25687724
1	0x3ec13e31	0.3774276
2	0x3ebe5c2f	0.37179706
3	0x3d8eebd3	0.06978574
4	0xbe69f69e	-0.22847983
5	0x3e74869e	0.23879477
6	0xbe25eaf2	-0.16202906
7	0x3e277aef	0.16355489
8	0x3ee49cf2	0.4465099
9	0xbe61a8e3	-0.22037081
10	0x3df7b1cb	0.12094458
11	0xbd765994	-0.060144022
12	0xbdda3ccf	-0.106561296
13	0x3ec67a35	0.38765112
14	0x3d90d420	0.0707171
15	0xbd92d874	-0.071701914
16	0xbe46064b	-0.19338338
17	0x3dbe39ac	0.09288344
18	0xbf0edc82	-0.5580522
19	0x3e5a9725	0.2134672
20	0x3e4b14b0	0.1983211
21	0xbd67704a	-0.05650357
22	0x3ebcbde8	0.36863637
23	0x3d626acd	0.055277634
24	0x3ef5cb0a	0.4800647
25	0x3dfe2f6e	0.1241139
26	0x3d4812c1	0.04884601
27	0x3e1de868	0.15420687
28	0xbe09c210	-0.13452935
29	0x3ea9e086	0.3317911
30	0x3ec14a39	0.3775194
31	0x3e942cea	0.28940517

onnx::Conv_86 f4 [32, 32, 3, 3]
0	0xbb007224	-0.0019599283
1	0xbd5755bf	-0.05257201
2	0xbc7fbd5b	-0.015609111
3	0xbb712b32	-0.0036799428
4	0xbcc7fb99	-0.024411963
5	0xbab98a19	-0.0014155536
6	0x3c9a70f3	0.018852687
7	0xbc423b04	-0.011854891
8	0xbc844907	-0.016148103
9	0xbc79e357	-0.015251956
10	0x3c4aca94	0.0123774
11	0xbc30ab93	-0.010783094
12	0xbbd7465c	-0.006569667
13	0xba995243	-0.001169749
14	0xbb835116	-0.004007469
15	0xbc627677	-0.0138221895
16	0xbc3f73e9	-0.01168535
17	0xbb38c136	-0.0028191335
18	0xbcd63e8e	-0.026152875
19	0xbcd7bac1	-0.026334168
20	0xbddcfcb1	-0.107903846
21	0x3d03c973	0.03217454
22	0xbd07e26a	-0.03317491
23	0xbdb204db	-0.08692332
24	0x3d705e87	0.0586839
25	0x3cf28d58	0.029608414
26	0xbd17a24a	-0.037020005
27	0xbcaeb8b7	-0.021328313
28	0x3db396fc	0.08769032
29	0xbbd65c9f	-0.006541803
30	0x3d60a536	0.054845057
31	0x3daa4d59	0.08315534
32	0x3d93bda8	0.072139084
33	0xbc46fd95	-0.01214542
34	0x3d8dcb99	0.06923599
35	0x3d17e71a	0.03708563
36	0xbcd51693	-0.02601174
37	0xbdd1a738	-0.102369726
38	0xbd735b42	-0.059413202
39	0xbcad315a	-0.021141697
40	0xbd3efda8	-0.046628624
41	0xbcedd6a8	-0.02903302
42	0xbccb87bf	-0.024845002
43	0xbb6e1950	-0.0036331005
44	0xbd540e0a	-0.0517712
45	0x3cac7eae	0.0210565
46	0xbba61c00	-0.005069256
47	0xbd7d886e	-0.061897688
48	0xbd3e7a2c	-0.04650323
49	0x3c91da9d	0.017804438
50	0xbb78606f	-0.0037899276
51	0xbd48d910	-0.049035132
52	0xbd0f7c7b	-0.035030823
53	0xbd6c8a9d	-0.05774938
54	0x3c602b4e	0.0136822
55	0xbd56f08a	-0.05247549
56	0xbd2899f6	-0.041162454
57	0x3c3a4bea	0.011370638
58	0xbd3389c5	-0.04383256
59	0xbd136429	-0.035984192
60	0xb9a39f21	-0.00031208343
61	0xbd95c508	-0.07312971
62	0xbd02db04	-0.03194715
63	0xbd80507e	-0.06265353
64	0xbd2b1ecf	-0.04177743
65	0x3e07e372	0.13270357
66	0xbd95d63c	-0.073162526
67	0xbc4ddf6f	-0.012565478
68	0x3e3b28b5	0.18277247
69	0xbdb938d5	-0.09044043
70	0x3bd1ecd4	0.006406406
71	0x3e3ccb21	0.18436863
72	0x3c49f960	0.012327522
73	0x3cc0c2ed	0.023530448
74	0xbad51277	-0.0016256113
75	0xbcc8e81e	-0.024524745
76	0xbc3a202b	-0.0113602085
77	0xbd2fb417	-0.042896356
78	0x3d7d6899	0.06186733
79	0x3d61d942	0.055138834
80	0xbd2a5dd5	-0.04159339
81	0x3c3adfb6	0.011405876
82	0x3c7a78ed	0.01528762
83	0xbd37e3a6	-0.044894837
84	0x3d345825	0.044029374
85	0x3d61dddd	0.055143226
86	0xbd16fca4	-0.03686203
87	0x39a2db62	0.000310625
88	0x3d506bfc	0.050884232
89	0xbd105005	-0.035232563
90	0x3c8b9d69	0.017042832
91	0x3c0ad14c	0.008472752
92	0xbc83c681	-0.016085865
93	0x3c5e1893	0.013555664
94	0x3c750efd	0.014957187
95	0xbc133dd4	-0.008986909
96	0x3c97dc76	0.018537741
97	0x3c7d4253	0.015457707
98	0xbbac39c2	-0.0052559087
99	0xbcd58fb7	-0.026069505
100	0xbd669eff	-0.056303974
101	0xbce81980	-0.028332472
102	0x3cc25dd6	0.023726385
103	0x3ca62ad9	0.020284103
104	0xbccaf958	-0.0247771
105	0x3c892d61	0.016745271
106	0x3d12e264	0.035860434
107	0xb9644a4e	-0.00021771455
108	0xbb84b2a2	-0.004049615
109	0xbdb3e25c	-0.08783409
110	0xbd3340fc	-0.043763146
111	0xbb24c55c	-0.002514205
112	0xbd09a9c8	-0.03360918
113	0xbd8d6517	-0.06904047
114	0xbd3ce71a	-0.046118833
115	0xbe031323	-0.12800269
116	0xbcf4c609	-0.029879587
117	0x3d6bbd3d	0.05755352
118	0x3d476c2c	0.048687145
119	0xbd442060	-0.047882438
120	0x3c55b357	0.013043246
121	0xbcc30210	-0.023804694
122	0xbd9234c3	-0.0713897
123	0x3d43450e	0.047673278
124	0x3ccfb96b	0.025356969
125	0xbc76b5c1	-0.015057982
126	0xbc048b7c	-0.008089896
127	0x3c039aff	0.008032559
128	0x3c8bb4d2	0.017053995
129	0xbc454244	-0.012039725
130	0x3cc7db53	0.024396574
131	0x3d525fb4	0.0513608
132	0x3bee1b78	0.007266458
133	0x3d55c8d3	0.052193474
134	0x3d9abf91	0.0755607
135	0xbd66d944	-0.056359544
136	0xbcc72a15	-0.024312058
137	0xbd70805f	-0.058716174
138	0xbd1fdec5	-0.03903081
139	0xbd21ffe1	-0.039550666
140	0xbd67c61f	-0.056585427
141	0xbcff7ec9	-0.031188386
142	0xbd0f8cf3	-0.03504653
143	0xbcc67c96	-0.02422933
144	0xbaa6e813	-0.0012733958
145	0xbd6b94c9	-0.05751494
146	0xbb6b563c	-0.0035909554
147	0xbbe96ccb	-0.007123565
148	0xbd40726f	-0.046984132
149	0x3c791f5f	0.015205233
150	0x3c11d23a	0.00890022
151	0x3cd6c854	0.02621857
152	0x3d5331e4	0.05156125
153	0xbd164e70	-0.036695898
154	0xbc9d0de7	-0.019171668
155	0xbdd94fd8	-0.10610932
156	0x3d868714	0.06568733
157	0x3d3a280d	0.04544835
158	0xbe01fa0e	-0.12693045
159	0x3e259dde	0.16173503
160	0x3d9b1bcc	0.07573661
161	0xbe064dad	-0.13115568
162	0xbd1962bc	-0.037447676
163	0xbbf1f72e	-0.0073842024
164	0xbc8e837c	-0.017396681
165	0xbdb48ca2	-0.08815886
166	0xbc876e7c	-0.016532175
167	0xbd2cd272	-0.042192884
168	0xbd9f981d	-0.07792685
169	0xbb7985c0	-0.0038074106
170	0x3cd3cf0f	0.02585557
171	0xbd0e012d	-0.03466909
172	0xbc571615	-0.013127823
173	0x3ca338b1	0.019924494
174	0x3b59206b	0.0033130895
175	0x3b38ede0	0.0028217956
176	0x3aa588cf	0.0012629273
177	0x3c9c6a09	0.01909353
178	0x3cb3506d	0.021888936
179	0xbc9c5ff4	-0.019088723
180	0x3c929a46	0.017895829
181	0x3cb00460	0.021486461
182	0xbcc16e60	-0.023612201
183	0xbae501d6	-0.0017471861
184	0x3ca20034	0.019775487
185	0xbd77a2e4	-0.06045808
186	0x3d36a470	0.044590414
187	0x3d4b2442	0.049595125
188	0xbdb7ea38	-0.089802206
189	0xbd55e101	-0.052216534
190	0xbcc5f0ff	-0.024162767
191	0x3b3f8f8e	0.0029229852
192	0xbd0dbce2	-0.03460396
193	0x3d6fc66f	0.05853885
194	0x3d5b396a	0.05352155
195	0xbc3bff66	-0.011474466
196	0x3d38b238	0.045091838
197	0x3dc02b98	0.09383315
198	0xbd221939	-0.039574835
199	0xbc7a4c73	-0.015277016
200	0xbdb6878b	-0.089125715
201	0x3c838952	0.01605669
202	0xbd0dc38a	-0.03461031
203	0xbd812001	-0.063049324
204	0xbd5258d7	-0.051354256
205	0xbcee52dd	-0.029092247
206	0xbd47319c	-0.048631296
207	0x3b0899fe	0.002084374
208	0x3c4361d6	0.011925181
209	0x3b574648	0.0032848287
210	0x3b078d8b	0.0020683731
211	0x3bfafc5b	0.0076594776
212	0xbbf65c89	-0.0075183553
213	0x3b0e3bd2	0.0021703136
214	0x3ad6af31	0.0016379115
215	0xbbc5af3e	-0.0060328534
216	0x3b953173	0.004553014
217	0x3b64dd79	0.0034922047
218	0xbd006b2d	-0.03135221
219	0x3bfb71b7	0.007673468
220	0x3bac6061	0.0052605127
221	0xbce04a23	-0.027379101
222	0x3c772824	0.015085254
223	0xbc26f2bb	-0.010189707
224	0xbd4ccb44	-0.049998537
225	0x3c01cdb5	0.00792258
226	0x3cb4e5bc	0.022082202
227	0xbd3014a9	-0.042988453
228	0x3c63fec1	0.0139157185
229	0xbc1ee1a4	-0.009697352
230	0xbdba3461	-0.09092022
231	0x3db4c8c8	0.088273585
232	0x3c7ad2ba	0.01530903
233	0xbd9f765b	-0.077862464
234	0x3c0de217	0.008659861
235	0xbb3cff1d	-0.0028838583
236	0xbcfb548e	-0.030679967
237	0xbc0fc50f	-0.00877501
238	0xbc00e313	-0.007866639
239	0xbd6b5645	-0.05745532
240	0xbc49d1f1	-0.01231812
241	0x3b24932e	0.002511214
242	0xb7bf5057	-2.2806385e-05
243	0xbca4b5a3	-0.020106142
244	0xbcde12ca	-0.027108569
245	0xbca0226f	-0.01954767
246	0xbd5209be	-0.051278822
247	0xbd73b8d8	-0.059502453
248	0xbd1476f6	-0.036246262
249	0xbd2cc77d	-0.042182434
250	0xbcf3706a	-0.02971669
251	0xbc9ec2fb	-0.019380083
252	0x3d51b3ab	0.051196735
253	0x3b234eee	0.0024918872
254	0xbd43c6b0	-0.047796905
255	0x3aaf0185	0.0013351893

onnx::Conv_87 f4 [32]
0	0x3e6ce5f9	0.23134603
1	0x3d81511a	0.06314297
2	0xbcce68ed	-0.025196517
3	0x3d7a6237	0.06112882
4	0x3e713b69	0.2355782
5	0x3da0718a	0.07834156
6	0x3e0461f2	0.12927988
7	0xbdd12fbf	-0.10214185
8	0x3eb23119	0.34803084
9	0x3cd83986	0.026394617
10	0xbda2effd	-0.079559304
11	0xbe46fe98	-0.19433057
12	0x3d074ae9	0.033030424
13	0xbda2bab4	-0.07945767
14	0x3ef54be7	0.4790947
15	0x3e0fc3db	0.14039557
16	0xbdbd8272	-0.09253396
17	0x3e3ac78f	0.18240188
18	0x3e72265c	0.23647445
19	0x3db0d1a6	0.08633737
20	0x3f0d974e	0.55309
21	0x3eff06b8	0.49809813
22	0x3df0f336	0.11765139
23	0xbd532679	-0.051550362
24	0x3e0f11d4	0.13971645
25	0x3e780a94	0.24222785
26	0xbd7d6cd6	-0.061871372
27	0x3ebb953d	0.36637297
28	0x3e1490aa	0.1450831
29	0xbb9cbb26	-0.004783052
30	0x3ec24401	0.37942508
31	0x3db7c26c	0.0897263

onnx::Conv_89 f4 [32, 16, 1, 1]
0	0x3e0bdca3	0.13658385
1	0x3d9afa93	0.075673245
2	0xbdb7e1ab	-0.089785896
3	0xbcda6404	-0.02665902
4	0xbddf657f	-0.10908031
5	0x3d463a25	0.048395295
6	0x3da86647	0.08222633
7	0x3d87bd66	0.06627922
8	0x3d97d2c3	0.074132465
9	0x3ccbb900	0.024868488
10	0x3c414bcb	0.011797856
11	0x3d81e3d1	0.06342281
12	0xbbc6a2df	-0.006061896
13	0x3c806ba8	0.015676335
14	0x3d77e980	0.060525417
15	0x3e224f48	0.15850556
16	0x3d059e4b	0.032621663
17	0x3c17e20f	0.009270205
18	0x39ec1cf0	0.00045034988
19	0x3d27369a	0.040823556
20	0xbd3dc35b	-0.046328884
21	0x3ca90f62	0.020637218
22	0x3b3d0b9a	0.0028846026
23	0x3dac5345	0.0841432
24	0x3b839a63	0.004016207
25	0x3d59676e	0.053077154
26	0xbca81f00	-0.020522594
27	0x3d26507d	0.040604103
28	0x3dcf9be9	0.101371594
29	0x3cbc9d87	0.023024334
30	0x3d7c0f20	0.06153786
31	0xbd60549a	-0.054768182
32	0x3d83906b	0.0642403
33	0xbdc44ded	-0.09585176
34	0x3da252de	0.07925962
35	0x3da4d3e2	0.08048226
36	0x3d650337	0.05591127
37	0xbd0484e4	-0.032353297
38	0x3d3be87e	0.04587602
39	0xbdd9f98f	-0.10643303
40	0xbd7df484	-0.062000766
41	0xbd09a61a	-0.033605672
42	0xbd8a6f07	-0.06759458
43	0x3d61298a	0.054971255
44	0x3df53c96	0.119744465
45	0xbd830cfb	-0.0639896
46	0xbca1fda7	-0.019774271
47	0xbc5bf178	-0.01342427
48	0x3d245ea0	0.040129304
49	0xbe3a698c	-0.18204325
50	0xbe63f56e	-0.22261593
51	0xbe50e7c1	-0.20400907
52	0x3e168e1e	0.14702651
53	0xbbc17a39	-0.0059044627
54	0x3de1fd7f	0.11034679
55	0x3e1950e1	0.14972259
56	0x3bbfb4d8	0.0058504157
57	0x3ddbf654	0.10740343
58	0x3d7eb296	0.06218203
59	0x3caa5cb2	0.020796154
60	0x3c11143f	0.008854925
61	0x3d75c38b	0.060000937
62	0xbd968c4e	-0.0735098
63	0xbd1fd591	-0.039022032
64	0x3eb16f88	0.34655404
65	0x3e3a5e4e	0.18200037
66	0xbdc12800	-0.094314575
67	0xbdd1c3fe	-0.10242461
68	0xbd1ad9da	-0.037805416
69	0xbdd1c76d	-0.102431156
70	0x3e10a754	0.1412633
71	0x3de7fe74	0.1132783
72	0x3d26c9b0	0.040719688
73	0x3dce01f8	0.10058969
74	0xbe9181b1	-0.2841926
75	0x3e00d11f	0.12579773
76	0x3e7c583b	0.24643032
77	0xbd49dc5c	-0.049282417
78	0x3c3672a6	0.011135733
79	0xbe41b2dd	-0.18915887
80	0xbe737a41	-0.23777105
81	0x3e3897fd	0.18026729
82	0x3bf0262f	0.0073287706
83	0xbdfd31ca	-0.12363012
84	0xbe476be0	-0.19474745
85	0xbd0380de	-0.03210532
86	0xbe1773fc	-0.14790338
87	0xbd95d4c2	-0.07315971
88	0xbd136f6e	-0.03599494
89	0xbdc4c7c4	-0.09608415
90	0x3e891fc3	0.26782045
91	0x3e7c5642	0.2464228
92	0xbe4f9f0c	-0.20275515
93	0x3db0fe8f	0.08642303
94	0xbcfab5c5	-0.030604253
95	0x3d67a961	0.056558017
96	0x3d07f9f6	0.033197366
97	0xbc965f59	-0.018356012
98	0xbc545ee7	-0.01296208
99	0xbcfa0504	-0.03051997
100	0xbcc34ddb	-0.023840835
101	0xbb9d2fbf	-0.0047969515
102	0x3b73f1b3	0.0037222921
103	0xbd8119ff	-0.063037865
104	0x3b764ffd	0.0037584298
105	0xbd6caf7d	-0.057784546
106	0xbd41de78	-0.047331303
107	0x3aa30462	0.0012437219
108	0x3d9e24cf	0.077218644
109	0xbce581b3	-0.028015947
110	0xbbc234b8	-0.0059266947
111	0xbc195d7c	-0.009360667
112	0x3db8282d	0.08992038
113	0xbd43816e	-0.047730856
114	0x3e06688f	0.13125823
115	0xbd762538	-0.06009409
116	0xbd243101	-0.040085796
117	0xbcf351dc	-0.02970212
118	0xbc65d861	-0.0140286395
119	0x3d0fa1a6	0.03506627
120	0x3c73ab49	0.0148723805
121	0xbc88366d	-0.016627515
122	0x3c20128d	0.009770048
123	0x3df2bef8	0.11852831
124	0x3e36a704	0.17837149
125	0xbce93fb4	-0.028472759
126	0xbd1865a8	-0.037206322
127	0x3cb352d9	0.02189009
128	0xbe16fb3b	-0.14744274
129	0xbdef17b8	-0.11674446
130	0x3e141c8c	0.14464015
131	0xbe185a4c	-0.14878196
132	0x3dc0fd9b	0.094233714
133	0x3d9103e0	0.07080817
134	0xbe3ab599	-0.18233337
135	0xbcc18a97	-0.023625655
136	0xbdddf59c	-0.10837862
137	0xbb787292	-0.0037910086
138	0xbaed802b	-0.0018119862
139	0x3e161935	0.14658053
140	0x3eb1e61a	0.34745866
141	0x3dc3e18e	0.095645055
142	0xbdc1ff6c	-0.09472546
143	0xbe09fc8a	-0.13475242
144	0xbd1950ee	-0.037430696
145	0x3e4f4044	0.20239359
146	0xbdd582c5	-0.10425333
147	0xbe0995bc	-0.13436025
148	0x3d5102d4	0.051028088
149	0xbdb4e8e5	-0.088334836
150	0xbe4018a0	-0.18759394
151	0xbb9fdb60	-0.0048784465
152	0xbcef0ab9	-0.029179918
153	0xbdf18f2f	-0.11794888
154	0xbd406159	-0.046967838
155	0x3d919603	0.071086906
156	0x3dd3e7ab	0.103469215
157	0xbda81c29	-0.08208496
158	0xbcbb569c	-0.022868447
159	0xbcbbea65	-0.022938916
160	0x3d325747	0.043540265
161	0xbd1aa60a	-0.037756003
162	0xbc0b6cbf	-0.008509814
163	0xbd52ca22	-0.0514623
164	0xbd6a8aac	-0.057261154
165	0x3c481804	0.012212757
166	0xbd0824e9	-0.033238325
167	0x3cbf596f	0.023358075
168	0xbb92f05e	-0.0044842204
169	0x3bd7d66c	0.0065868404
170	0x3cef19b9	0.02918707
171	0xbd5e6957	-0.05429968
172	0xbdaa831a	-0.08325787
173	0xbd32aa21	-0.04361928
174	0xbc28c1af	-0.010300084
175	0x3c9477e8	0.018123582
176	0xbd38ac06	-0.04508593
177	0x3d2f76eb	0.04283802
178	0x3daafb0a	0.08348663
179	0xbd7ceb5a	-0.061747886
180	0x3d95468d	0.07288847
181	0xbcbcd89c	-0.023052506
182	0xbe0e8e44	-0.13921458
183	0x3e2e527b	0.17023651
184	0xbd14a879	-0.03629348
185	0xbd46a4e9	-0.048497114
186	0xbd84b91f	-0.064806215
187	0xbd285775	-0.04109903
188	0xbe015921	-0.12631656
189	0x3d83980d	0.06425486
190	0x3d1c7127	0.038193848
191	0x3d8e5813	0.069503926
192	0xbd3e5b3c	-0.046473727
193	0xbd278281	-0.040895943
194	0x3daeae81	0.08529378
195	0xbdbadc3c	-0.091240376
196	0x3d2b0be6	0.041759394
197	0x3ae1978d	0.0017211303
198	0x3d8b043d	0.06787918
199	0x3b42d033	0.0029726147
200	0x3d5efe87	0.054441955
201	0xbcd44e49	-0.025916236
202	0xbd102dda	-0.035199977
203	0xbd82bcaf	-0.06383645
204	0x3daab4ac	0.08335242
205	0xbd3b11ec	-0.04567139
206	0x3d8177a4	0.06321648
207	0xbb9b6cb1	-0.0047431816
208	0x3dec6265	0.11542205
209	0x3d94ea92	0.07271303
210	0xbd70be33	-0.058775138
211	0xbb2511e1	-0.0025187659
212	0xbdce640c	-0.10077676
213	0x3d6a114c	0.0571454
214	0xbd6d5876	-0.05794569
215	0x3c587dce	0.013213588
216	0x3cf86a22	0.030324046
217	0x3df317d7	0.118697815
218	0xbd0c3fb8	-0.034240454
219	0xbced1084	-0.02893854
220	0xbdfd12e5	-0.123571195
221	0x3ce703ac	0.028199993
222	0x3d8fd17c	0.07022378
223	0xbdad53d5	-0.08463255
224	0xbe96c21b	-0.29444966
225	0xbeb6eb9d	-0.35726634
226	0x3d21fcaf	0.03954762
227	0x3df2cadd	0.11855099
228	0xbe5fd28b	-0.2185766
229	0xbe8abed3	-0.27098712
230	0xbe0b333b	-0.13593762
231	0x3e489a32	0.19590071
232	0xbe85dbc3	-0.26144227
233	0xbe8b4524	-0.27201188
234	0xbe9a65fc	-0.30155933
235	0x3e1acdb5	0.15117534
236	0x3eb6af1a	0.35680467
237	0x3eb5ab64	0.35482323
238	0xbd92d6cb	-0.07169875
239	0xbe80297e	-0.25031656
240	0x3dc15065	0.09439162
241	0x3be188e7	0.006882775
242	0xbdb0ab82	-0.086264625
243	0x3d83cc75	0.064354815
244	0x3c6bf447	0.014401502
245	0x3d0944eb	0.03351299
246	0x3e0fddd7	0.14049469
247	0x3df8ca5d	0.12147973
248	0x3d13ebad	0.03611343
249	0x3e00b3b5	0.12568553
250	0x3df5aabf	0.11995458
251	0x3af0614e	0.0018339546
252	0x3da5d499	0.080971904
253	0x3bbbe0d2	0.005733588
254	0x3c943444	0.018091328
255	0x3b60d82a	0.0034308531

onnx::Conv_90 f4 [32]
0	0xbe3ab3b5	-0.18232615
1	0xbe22e850	-0.15908933
2	0xbe0787c8	-0.1323539
3	0x3c049c30	0.008093879
4	0xbe7bca62	-0.24588922
5	0x3e83f441	0.25772288
6	0x3d31bf42	0.04339529
7	0xbe3e3bf1	-0.18577553
8	0xbdb73176	-0.08944981
9	0x3e037241	0.12836553
10	0x3e143b5c	0.14475769
11	0x3cfc4f62	0.030799571
12	0xbd16acc8	-0.03678587
13	0x3d81f69d	0.06345866
14	0x3e952eed	0.29137364
15	0xbeadaf96	-0.33923024
16	0xbda3a01a	-0.07989521
17	0x3ec7f969	0.39057472
18	0xbde42ff7	-0.11141961
19	0x3e90810e	0.2822346
20	0xbe7d18d1	-0.24716498
21	0xbf0b1922	-0.54335225
22	0xbef86050	-0.4851098
23	0x3d159742	0.036521204
24	0xbf1512a2	-0.58231556
25	0x3a83e480	0.0010062605
26	0x3e0c00ab	0.1367213
27	0xbe6eec17	-0.23332249
28	0x3dcf3d31	0.10119093
29	0x3b9b9b0c	0.0047487076
30	0xbe94b631	-0.2904525
31	0x3d372f15	0.044722635

onnx::Conv_92 f4 [64, 32, 3, 3]
0	0x3c9cadea	0.019125897
1	0xbc4a2fdf	-0.012340515
2	0xbcded2e1	-0.027200164
3	0x3d4249d3	0.047433686
4	0xbb191a6c	-0.0023361696
5	0xbcb62d96	-0.022238534
6	0x3caad4fd	0.020853514
7	0x3d19bd9d	0.037534345
8	0x3cb49d4f	0.022047667
9	0x3b4e9e31	0.0031527395
10	0x3ca8074f	0.020511298
11	0x3cd4d186	0.025978815
12	0x3c57ef92	0.013179677
13	0x3cfe2b33	0.031026458
14	0x3c2afa67	0.010435677
15	0x3ba7686e	0.0051088845
16	0xbb2e2af8	-0.0026575904
17	0x3c2b4438	0.010453276
18	0x3cc9105f	0.02454394
19	0xbc5d9554	-0.013524372
20	0xbc9afc99	-0.018919276
21	0x3d42be06	0.0475445
22	0x3d514ec3	0.051100504
23	0x3ccd6e87	0.025077118
24	0xbc258f68	-0.0101049915
25	0xbc038901	-0.00802827
26	0xbd1a765f	-0.037710544
27	0xbcfafe1c	-0.030638747
28	0xbcc1ef3e	-0.02367365
29	0xbbfb1075	-0.007661874
30	0xbd72414c	-0.059144303
31	0xbd167bf6	-0.036739312
32	0x3ca08eaf	0.019599287
33	0x3c087de6	0.008330798
34	0xbc16aeaa	-0.009196917
35	0x3d5f7526	0.05455508
36	0x3d441b7f	0.047877785
37	0xbc291dd4	-0.010322053
38	0xbe226c2a	-0.15861574
39	0x3dcde5ac	0.10053572
40	0x3c8594da	0.01630633
41	0xbe124f2d	-0.14288016
42	0x3dd94aa9	0.106099434
43	0x3d4c7f79	0.049926255
44	0xbda23dd4	-0.07921949
45	0x3c9770ee	0.018486466
46	0x3d81f74d	0.06345997
47	0x3dea8688	0.11451441
48	0xbc31f985	-0.010862713
49	0x3c63e25a	0.013908947
50	0x3d9abd11	0.07555593
51	0x3b91c575	0.0044485875
52	0x3bd1300b	0.006383901
53	0x3d99f300	0.07517052
54	0xbc825121	-0.015907826
55	0x3ace88d2	0.0015757328
56	0x3c1f403a	0.009719903
57	0xbca6c5a0	-0.020357907
58	0xbb13bc09	-0.0022542498
59	0x3c920b61	0.017827692
60	0xbd020f4c	-0.03175287
61	0xbcb2aaff	-0.021810053
62	0xbca2f245	-0.019890914
63	0xbca59308	-0.020211712
64	0xbac529b6	-0.0015042338
65	0x3c87264c	0.016497754
66	0x3aceb18d	0.0015769467
67	0x3c0e70a8	0.0086938515
68	0x3c8ffb31	0.017575832
69	0xbd014acb	-0.03156547
70	0xbc98233d	-0.01857149
71	0x3d0779cc	0.03307514
72	0xb9e35559	-0.00043360403
73	0x3d3ed99c	0.046594247
74	0x3c3e6010	0.011619583
75	0x3d7409be	0.059579603
76	0x3d49f478	0.04930541
77	0x3c20aa39	0.009806209
78	0x3d2d2426	0.042270802
79	0x3d3eb8bb	0.04656289
80	0xbb01b52e	-0.001979183
81	0x3c143115	0.009044905
82	0x3c9b60dd	0.018967086
83	0x3d888323	0.06665637
84	0xbd180479	-0.03711364
85	0x3d2b1a4d	0.04177313
86	0x3d389cbc	0.04507135
87	0xbd300b07	-0.042979266
88	0xbc1af448	-0.009457655
89	0x3c6f91a9	0.01462213
90	0x3c675c10	0.0141210705
91	0xbb91e9a4	-0.004452901
92	0x3cf0ab95	0.029378692
93	0xbb6459ff	-0.003484368
94	0xbc573010	-0.013134018
95	0x3c4f5b38	0.012656026
96	0x3d00a3e8	0.031406313
97	0x3ba5c460	0.00505881
98	0x3cedac75	0.029012898
99	0xbd4ba74a	-0.049720086
100	0xbc869b4a	-0.01643147
101	0xbc3ada60	-0.011404604
102	0xbc3aa207	-0.011391169
103	0x3b25fdbd	0.0025328242
104	0xbb9a370b	-0.0047062687
105	0xbca675c6	-0.02031983
106	0x3b610379	0.0034334345
107	0xbcc6e27e	-0.024277922
108	0x3bb20c7b	0.0054336167
109	0x3bde7ace	0.006789542
110	0x3b42ec20	0.0029742792
111	0x3ccfef4c	0.02538266
112	0x3ccab308	0.024743572
113	0x3cc84985	0.02444912
114	0xbbb36ddd	-0.005475743
115	0x3c564af9	0.013079398
116	0x3c98cb16	0.018651526
117	0xbd00990c	-0.031395957
118	0xbcc2e5da	-0.023791242
119	0x3c38edb4	0.011287142
120	0xbcc78720	-0.024356425
121	0xbd049d1b	-0.03237639
122	0x3d32d99a	0.043664552
123	0xbca52bbc	-0.020162456
124	0xbd126f3d	-0.035750616
125	0x3d22adf1	0.039716665
126	0x3d9e1a5d	0.07719872
127	0x3d392737	0.045203414
128	0xbd65f272	-0.056139417
129	0x3d63959e	0.055562608
130	0x3d0b3cf4	0.033993676
131	0xbca04fcd	-0.019569302
132	0x3d842f91	0.06454385
133	0x3bccd39e	0.0062508127
134	0xbdd9b44a	-0.106300905
135	0x3d925e60	0.07146907
136	0x3ccfd895	0.025371829
137	0x3b9863d4	0.0046505723
138	0x3d90eb93	0.07076182
139	0x3cd6f8dc	0.026241712
140	0x3be132eb	0.006872525
141	0x3d798a89	0.060923133
142	0x3cbd4ff0	0.023109406
143	0x3c281789	0.0102595175
144	0x3c1a644e	0.009423329
145	0x3d2e1d2c	0.04250829
146	0xbbd47fa3	-0.006484942
147	0xbb3a318f	-0.0028410887
148	0x3d1e3e3f	0.03863358
149	0xb942f858	-0.00018593797
150	0x3c0b69e6	0.008509135
151	0x3d0f7fca	0.03503398
152	0x3b81d71d	0.003962411
153	0xbcbd20c9	-0.023086922
154	0x3ab76314	0.001399132
155	0xbd98ff96	-0.07470624
156	0xbcb84c35	-0.022497276
157	0xbc39e2b7	-0.011345557
158	0xbdabbfcd	-0.083861925
159	0xbc00764e	-0.007840706
160	0xbcde9003	-0.02716828
161	0xbd68de52	-0.056852646
162	0xbcc6392c	-0.024197184
163	0xbce32c73	-0.027731156
164	0xbcd6a4de	-0.026201662
165	0x3bb8a3f2	0.005634778
166	0xbc8861c9	-0.01664819
167	0x3bcf8ba8	0.006333787
168	0xbd165f0b	-0.036711734
169	0xbd6432e4	-0.055712596
170	0xbd65503c	-0.05598472
171	0xbda81854	-0.08207765
172	0xbd79e6d3	-0.061011147
173	0x3cfc77a3	0.030818766
174	0xbdc66056	-0.09686343
175	0xbd99312f	-0.07480084
176	0x3d333cd6	0.04375919
177	0xbdaddad2	-0.08489002
178	0xbd15d7f7	-0.036582913
179	0x3d5505da	0.052007534
180	0x3d9ff5c2	0.078105465
181	0x3d1944e6	0.037419222
182	0xbce74528	-0.028231218
183	0x3da7a7de	0.08186315
184	0x3c94ad11	0.01814893
185	0xbd638405	-0.055545826
186	0x3e135b52	0.14390305
187	0x3d980d3a	0.07424398
188	0xbd152c5b	-0.036419254
189	0xbd2bfec8	-0.041991025
190	0xbb04ae38	-0.0020245444
191	0xbc9f88b4	-0.019474365
192	0x3c40d30b	0.011769067
193	0xbbfccb97	-0.0077146995
194	0xbc937216	-0.017998736
195	0x3c1e8781	0.009675861
196	0x3ce10333	0.027467346
197	0x3ba8c127	0.0051499787
198	0x3d185456	0.037189804
199	0x3c945a57	0.018109484
200	0x3cbd7880	0.023128748
201	0xbd58c7f8	-0.05292508
202	0xbc2cc99a	-0.010546112
203	0x3d6e0659	0.058111522
204	0x3d1b44c9	0.037907396
205	0xbd73a2f2	-0.05948157
206	0x3d15bf00	0.036559105
207	0x3b94322b	0.004522582
208	0x3d7bde70	0.06149143
209	0x3cf568e7	0.029957248
210	0x3bcc7a16	0.0062401397
211	0x3d455cbf	0.048184153
212	0x3d0523c2	0.032504804
213	0xbcf5b12e	-0.029991712
214	0x3ce47836	0.027889352
215	0x3cb0417b	0.021515599
216	0xbd655fcd	-0.055999566
217	0xbd904614	-0.07044616
218	0xbd4f4834	-0.050605968
219	0xbcebb5a0	-0.028773129
220	0xbce5b9ce	-0.0280427
221	0xbcfb7bf7	-0.03069876
222	0x3cace227	0.021103932
223	0x39d996b3	0.00041501745
224	0xbc67a296	-0.014137885
225	0x3b193e8a	0.0023383223
226	0x39a07d22	0.0003061081
227	0xbcb05a59	-0.021527456
228	0x3cbd6a7a	0.023122061
229	0x3cd7e532	0.026354406
230	0xbc86ffcf	-0.0164794
231	0xbd13d793	-0.03609426
232	0xbbf1d798	-0.007380437
233	0xbcd78671	-0.026309224
234	0xbc764553	-0.015031177
235	0x3c3336c3	0.010938349
236	0x3ccfc8c3	0.025364285
237	0xbd036409	-0.032077823
238	0xbcbf9273	-0.023385262
239	0xbc04e4e0	-0.008111209
240	0xbcae0cae	-0.02124628
241	0xbb9b1daf	-0.004733763
242	0x3c8db915	0.017300168
243	0x3d7acb1b	0.061228853
244	0x3caffc5c	0.021482639
245	0xb9c0b4a8	-0.00036755693
246	0x3d7958ee	0.060875826
247	0x3c2992d2	0.010349946
248	0xbca7200a	-0.02040102
249	0x3d29448e	0.041325144
250	0x3d5be3dc	0.0536841
251	0x3c3056b6	0.010762861
252	0x3c367581	0.011136414
253	0x3c4f3c5d	0.012648669
254	0xbc209988	-0.00980223
255	0x3d581562	0.052754767

onnx::Conv_93 f4 [64]
0	0xbe4cae78	-0.1998843
1	0x39c3bb00	0.00037332624
2	0xbb937026	-0.004499453
3	0xbe2a9903	-0.16659932
4	0x3dc036fc	0.093854874
5	0xbbc171db	-0.005903465
6	0x3df4bef2	0.119504824
7	0xbd98435e	-0.07434724
8	0xbcf6c337	-0.030122383
9	0xba807214	-0.0009799623
10	0xbac1898a	-0.0014765721
11	0xbe0406a3	-0.12893157
12	0x3c0c94a4	0.008580361
13	0xbe4a3a1e	-0.19748732
14	0xb93cd639	-0.00018008881
15	0xbba33073	-0.004980141
16	0xbb853b2e	-0.0040658927
17	0xbdab6bdb	-0.08370181
18	0xbcbc4a90	-0.022984773
19	0xbdc885ae	-0.097911224
20	0xbbf08732	-0.0073403353
21	0xb9180fdb	-0.00014501756
22	0xbbb794d9	-0.005602461
23	0xbb06e6e6	-0.0020584404
24	0xbd462a43	-0.048380148
25	0xbd561ed5	-0.052275497
26	0xbd906478	-0.07050413
27	0x3dc41af2	0.09575452
28	0xbd371fab	-0.044707935
29	0x3dd299c1	0.102832325
30	0xbbe2b166	-0.00691812
31	0xbb1f228c	-0.0024282066
32	0xbd5be3a0	-0.053683877
33	0x3dc1241f	0.09430718
34	0xbe21fbf5	-0.1581877
35	0xbd172a1a	-0.036905386
36	0xbd593981	-0.053033356
37	0xbd963280	-0.07333851
38	0xbdaa71bf	-0.083224766
39	0xbbe5ab90	-0.0070089772
40	0x3aa420f4	0.0012522028
41	0xbd7d86de	-0.061896197
42	0xbd1fcfe4	-0.03901662
43	0xbd5dddac	-0.05416648
44	0xbcc8ec58	-0.02452676
45	0xbd84fc68	-0.06493455
46	0xbc2efec2	-0.010680856
47	0xbe5ed8bd	-0.21762367
48	0xbacb55a9	-0.00155132
49	0xbcc78e61	-0.024359884
50	0x3d607cde	0.054806583
51	0xbb484645	-0.0030559462
52	0xbdab329f	-0.083592646
53	0x3c97f2d2	0.018548403
54	0xbca5c159	-0.020233797
55	0x3d993412	0.07480635
56	0x3c2483d4	0.010041196
57	0xbdb0976e	-0.08622633
58	0x3d0613e2	0.032733805
59	0x3da058c5	0.078294314
60	0x3cf8607a	0.030319441
61	0xbaf100f8	-0.001838713
62	0xbde9a9a7	-0.11409312
63	0xbc347326	-0.011013782
