server/model/beija-flor_em_galho_de_arvore.onnx (onnx, 302121 bytes, 16 tensors)

fc.weight f4 [2, 256]
-0.019119866 -0.07285899 0.006230023 0.05541295 -0.12484594 -0.024043307 -0.12807338 -0.068036444
0.042774748 0.07471428 0.018552456 0.01296035 0.046324305 0.0017818657 0.018427601 0.053547747
-0.09629856 -0.042916484 -0.03526944 0.05659006 -0.07242018 -0.15314661 -0.07482478 -0.12526794
0.0723116 0.070596315 0.044131894 0.049639072 0.020506483 0.13465452 0.020952791 0.08348886
0.13454524 0.09266029 0.08742534 -0.011324301 -0.13888675 -0.08170653 0.027732942 -0.08100619
0.00024285277 0.024497887 0.02435381 -0.08679418 0.027335567 0.0075960443 0.016629232 0.0026698883
-0.01710869 0.05599565 -0.01335565 -0.0047548683 -0.016897244 0.08337635 -0.048299994 -0.05554805
-0.08243717 -0.049484085 -0.04628827 -0.025367714 -0.03198331 0.0040950296 -0.03484449 0.030203043
0.03621836 0.07665399 0.0880937 0.124104746 0.048659056 0.1269124 0.059523433 0.024906928
-0.049647447 -0.009167227 0.022990625 0.034868088 0.012415342 0.025141424 -0.058902185 0.02919333
0.01478054 -0.04431911 -0.0135252755 0.030595975 -0.002064647 0.015735433 0.032496564 -0.01881123
-0.12798715 -0.07131666 -0.0077245063 0.020662438 -0.04014404 0.0016219155 0.037574444 -0.0022043257
-0.0868303 -0.062091574 0.058468796 0.015855215 -0.070506394 -0.10660054 -0.009843075 0.049077723
-0.09899523 -0.1384359 0.0045846156 -0.0010272568 0.057328172 0.0038413508 -0.04142149 0.0037156267
0.016022976 0.020857105 -0.011007442 -0.07706268 0.03497756 0.021174492 -0.018078422 -9.121781e-05
0.045458056 -0.041496586 0.106561735 -0.020743692 0.07009659 0.12938781 0.10706603 0.11364136
0.017167777 0.031687316 0.034116503 -0.006708206 -0.1233991 -0.038655113 -0.038454633 0.03561432
0.043048564 0.009039964 0.05404481 0.10949636 -0.08981827 0.0036341944 -0.124868155 -0.01507841
-0.023166485 -0.087801136 0.050009884 0.03656746 -0.030133711 0.035584383 -0.076955356 -0.042634502
-0.0906651 -0.16681847 -0.05745989 -0.10820525 -0.010060372 -0.0123885935 -0.023446772 0.010680834
-0.009994093 0.029747343 -0.02835556 -0.048860427 -0.092193976 -0.108188406 -0.03351046 -0.048784178
-0.056997504 -0.090732396 -0.012700493 -0.0018579899 0.08096742 -0.06264529 0.008356495 -0.029155545
0.10805816 -0.042053714 0.06812212 -0.04041304 -0.07854526 -0.033810288 -0.081125565 -0.09087684
0.011888211 -0.029163098 0.012649315 0.08577372 -0.13151114 -0.08731658 0.059136245 0.056776352
0.027372207 -0.035420936 0.022490585 -0.015431683 -0.08022451 -0.16606276 -0.03187845 0.047583185
-0.098963894 -0.09333862 0.036760457 0.017608812 -0.053143263 0.046115283 -0.03373683 0.01647897
0.057768263 0.05980846 0.0038422479 0.01628223 -0.0037037793 0.0621826 0.06878053 0.103716835
0.08623053 0.04914202 0.057588182 -0.04792215 0.049138796 0.060968358 0.077641904 -0.02301288
-0.029825944 -0.121374995 -0.070118174 -0.15661003 0.048115525 0.049737778 0.095530316 0.034032445
0.071209155 0.112020224 0.063866004 0.021766406 -0.016878892 -0.14509086 0.03641798 -0.13281445
-0.11643537 -0.13544819 0.030163344 -0.05097482 0.081272386 0.03101021 0.10086656 0.10443331
0.114377595 0.012754823 0.12381883 0.018127086 -0.025234226 -0.13389516 -0.06496187 -0.06390369
00000000: 44a1 9cbc 1837 95bd 3925 cc3b b1f8 623d
00000010: 3aaf ffbd 78f6 c4bc ab25 03be b156 8bbd
00000020: 9334 2f3d cd03 993d 52fb 973c a657 543c
00000030: 8ebe 3d3d 7e8d e93a 7bf5 963c e254 5b3d
00000040: 2e38 c5bd 32c9 2fbd b076 10bd fbca 673d
00000050: 0851 94bd 77d2 1cbe bc3d 99bd 3d46 00be
00000060: 1b18 943d cd94 903d a5c3 343d 5752 4b3d
00000070: 36fd a73c e0e2 093e 30a5 ab3c 35fc aa3d
00000080: 3ac6 093e aec4 bd3d 0f0c b33d 9089 39bc
00000090: 5438 0ebe c155 a7bd 3230 e33c 93e6 a5bd
000000a0: 4ba6 7e39 cbaf c83c a481 c73c 26c1 b1bd
000000b0: d7ee df3c 3de8 f83b 073a 883c 4bf9 2e3b
000000c0: 8627 8cbc b25b 653d a8d1 5abc bace 9bbb
000000d0: 176c 8abc 38c1 aa3d 37d6 45bd 5a86 63bd
000000e0: d2d4 a8bd d3af 4abd c598 3dbd f4cf cfbc
000000f0: ee00 03bd 992f 863b 19b9 0ebd 5f6c f73c
00000100: b459 143d c4fc 9c3d 786a b43d a12a fe3d
00000110: b84e 473d 53f5 013e d8ce 733d 9d09 cc3c
00000120: 1f5b 4bbd 2332 16bc d656 bc3c d7d1 0e3d
00000130: b869 4b3c 63f5 cd3c 6b43 71bd da26 ef3c
00000140: 142a 723c f587 35bd 1e99 5dbc 69a4 fa3c
00000150: 074f 07bb 98e7 803c 1e1b 053d 021a 9abc
00000160: 100f 03be 780e 92bd db1d fdbb 4644 a93c
00000170: 146e 24bd 7496 d43a a9e7 193d 7376 10bb
00000180: 16d4 b1bd bc53 7ebd fa7c 6f3d cce2 813c
00000190: a865 90bd 6251 dabd d944 21bc b905 493d
000001a0: 03be cabd 24c2 0dbe 8b3a 963b 05a5 86ba
000001b0: f2d0 6a3d 2cbf 7b3b 95a9 29bd df81 733b
000001c0: 9e42 833c 85dc aa3c 8f58 34bc 0ad3 9dbd
000001d0: a144 0f3d 2176 ad3c 3319 94bc 304c bfb8
000001e0: 3a32 3a3d 53f8 29bd 0a3d da3d adee a9bc
000001f0: cd8e 8f3d 3d7e 043e 6f45 db3d cdbc e83d
00000200: 70a3 8c3c 8fca 013d bfbd 0b3d 83d0 dbbb
00000210: abb8 fcbd d354 1ebd 9b82 1dbd 52e0 113d
00000220: b153 303d 5b1c 143c 175e 5d3d a13f e03d
00000230: a4f2 b7bd aa2b 6e3b e0ba ffbd 6f0b 77bc
00000240: a4c7 bdbc 15d1 b3bd 2ad7 4c3d c3c7 153d
00000250: f9da f6bc eec0 113d c59a 9dbd 84a1 2ebd
00000260: a0ae b9bd 76d2 2abe 105b 6bbd b79a ddbd
00000270: 42d4 24bc 87f9 4abc 7213 c0bc aafe 2e3c
00000280: 44be 23bc b3b0 f33c eb49 e8bc df21 48bd
00000290: 32d0 bcbd e291 ddbd 4442 09bd ebd1 47bd
000002a0: 3776 69bd e8d1 b9bd bb15 50bc cc87 f3ba
000002b0: 3fd2 a53d 2c4c 80bd aee9 083c 9cd7 eebc
000002c0: 994d dd3d 8440 2cbd 9c83 8b3d 2588 25bd
000002d0: 56dc a0bd a87c 0abd 2925 a6bd a31d babd
000002e0: c5c6 423c 73e7 eebc 133f 4f3c 22aa af3d
000002f0: dbaa 06be 09d3 b2bd d938 723d 528e 683d
00000300: ae3b e03c 8b15 11bd 2d3e b83c 2bd5 7cbc
00000310: bf4c a4bd 5b0c 2abe fa92 02bd 96e6 423d
00000320: 95ad cabd 5228 bfbd 2292 163d 5b40 903c
00000330: c0ac 59bd 61e3 3c3d a12f 0abd e8fe 863c
00000340: 6a9e 6c3d b7f9 743d 39ce 7b3b 5062 853c
00000350: 1bbb 72bb 2fb3 7e3d cedc 8c3d 7e69 d43d
00000360: a299 b03d 2549 493d 96e1 6b3d 044a 44bd
00000370: c345 493d f5b9 793d b802 9f3d 8285 bcbc
00000380: 8a55 f4bc 7493 f8bd 1e9a 8fbd 615e 20be
00000390: c914 453d d7b9 4b3d 66a5 c33d 9b65 0b3d
000003a0: 1bd6 913d dc6a e53d 2ecc 823d 764f b23c
000003b0: 9a45 8abc b392 14be 052b 153d 8300 08be
000003c0: ab75 eebd eeb2 0abe 1e19 f73c f9ca 50bd
000003d0: 2372 a63d 2009 fe3c 2193 ce3d 22e1 d53d
000003e0: cd3e ea3d 9bf9 503c ba94 fd3d 417f 943c
000003f0: 02b8 cebc d01b 09be bb0a 85bd f0df 82bd

fc.bias f4 [2]
-0.023279522 0.016328972
00000000: b2b4 bebc 56c4 853c

onnx::Conv_80 f4 [16, 3, 7, 7]
0.07170821 0.07908606 -0.031941373 0.11748387 0.08615674 0.04068496 0.0046359426 0.12175752
-0.30027038 -0.35794392 0.072679885 0.1410868 -0.13023278 -0.118897006 -0.23376948 -0.06555664
-0.07068948 -0.14337088 0.38459042 0.14868994 0.084368326 -0.1762958 0.5018294 0.042573396
0.20222388 0.26022243 -0.31312016 -0.36187196 -0.22486599 0.6459783 0.5383393 0.0774972
0.33503824 -0.17204133 -0.111855306 0.1817944 0.12904488 0.66984427 0.48628488 0.6016604
-0.13492471 0.029529704 -0.33748433 0.2766461 0.2757224 0.68831885 0.3250167 0.36789253
0.28458524 -0.21110514 -0.30758286 -0.1602204 -0.30199587 -0.17677405 0.26716337 0.055835284
0.16772214 0.19897294 0.18158591 -0.024686744 0.1305984 -0.10406474 -0.22307071 0.27999482
0.2338116 0.07646252 -0.12294128 0.2560233 0.23560779 -0.04927841 -0.22633402 0.080410026
0.085838504 -0.33287764 -0.15983942 -0.097583696 -0.36198723 -0.28101915 0.29027462 0.47676727
0.13621593 0.014490324 -0.04576446 -0.26257893 0.07336286 0.23050454 0.23689213 0.40689674
0.2019842 -0.2147492 -0.12481735 0.20231405 -0.22301252 0.16362189 -0.037265126 0.24059886
-0.19676043 -0.3474525 0.31324074 -0.25574797 0.038198918 -0.115140766 0.083473876 -0.16660474
0.2511975 -0.2922225 -0.14996374 0.17570928 -0.25333154 0.044641584 -0.15133409 -0.0018531674
0.036053002 -0.34366295 -0.3912212 -0.2737148 -0.18406834 0.11293796 -0.22787543 -0.30068257
0.20339015 -0.22194509 -0.08791133 -0.044310294 0.012546572 -0.39625996 -0.12535927 0.084893875
0.1625752 0.209497 -0.11222117 0.13090086 -0.004297545 -0.09826318 0.0883033 -0.0043383744
-0.05252635 -0.11303837 -0.31354627 -0.07135077 -0.18045557 -0.37161833 -0.4025383 -0.09845639
-0.040172875 0.24749613 -0.13784128 -0.28890616 -0.02412527 0.25072372 0.20834748 0.039745845
0.32342616 0.16751263 -0.10212492 -0.062086616 -0.081111126 0.03676954 0.20719425 -0.07685843
0.13209409 0.10431661 -0.2135124 -0.053033073 0.026141196 0.007833534 -0.13683534 -0.18463856
-0.009540413 0.10963723 -0.080135204 -0.14183065 -0.021412747 0.037018344 -0.070637725 0.09664548
0.17497496 -0.09366931 0.038808763 0.14463781 -0.036475096 0.07027768 -0.3235186 0.26352698
0.23342898 -0.12588741 0.16777326 -0.10073015 -0.1415813 -0.25296736 0.34507033 0.14564314
0.21610719 0.25407436 -0.14098099 0.17402096 -0.22140768 -0.17844625 0.13652475 -0.11174262
0.004732946 -0.1414284 -0.21023363 -0.20966832 0.3098687 0.13380136 0.0190628 0.2699084
-0.039269626 -0.21875013 -0.28612584 0.2705994 0.11524291 0.07095527 0.13385095 0.13546526
-0.34042406 -0.012955193 0.22374943 0.2316233 0.2191583 -0.052216005 0.07440015 0.04819274
-0.21035253 0.30689228 0.18851086 0.1634364 -0.0680227 0.086033136 -0.12096892 -0.16381338
0.2144002 0.020044783 -0.19574068 0.050007287 -0.2450137 -0.20723476 -0.3039126 0.07205161
-0.03439998 -0.06586197 0.021506395 0.06496295 0.04022141 -0.3152755 0.22634988 0.02906301
0.042859267 -0.23224738 -0.18433347 0.08053894 0.05380935 0.47410297 0.41491964 0.13896872
00000000: c1db 923d dff7 a13d f5d4 02bd 629b f03d
00000010: f272 b03d 46a5 263d 1be9 973b 025c f93d
00000020: 0abd 99be 6d44 b7be 31d9 943d 0f79 103e
00000030: be5b 05be 4680 f3bd 4461 6fbe 8f42 86bd
00000040: a5c5 90bd d1cf 12be 09e9 c43e 2d42 183e
00000050: 4dc9 ac3d e386 34be e477 003f 7161 2e3d
00000060: c713 4f3e e03b 853e 4951 a0be 4847 b9be
00000070: 4543 66be d55e 253f 9bd0 093f dab6 9e3d
00000080: 228a ab3e 9a2b 30be 6514 e5bd 5028 3a3e
00000090: 5724 043e ea7a 2b3f 55fa f83e 6a06 1a3f
000000a0: b429 0abe 47e8 f13c bfca acbe 8fa4 8d3e
000000b0: 7d2b 8d3e aa35 303f 9768 a63e 695c bc3e
000000c0: 28b5 913e f22b 58be 807b 9dbe d110 24be
000000d0: 349f 9abe 4204 35be a3c9 883e 8ab3 643d
000000e0: 5abf 2b3e 90bf 4b3e a8f1 393e db3b cabc
000000f0: 96bb 053e e51f d5bd a66c 64be 7b5b 8f3e
00000100: 4f6c 6f3e 6298 9c3d a3c8 fbbd 7c15 833e
00000110: 2b43 713e 28d8 49bd 1bc4 67be 03ae a43d
00000120: 19cc af3d f06e aabe f2ac 23be f6d9 c7bd
00000130: 6456 b9be bee1 8fbe e09e 943e d71a f43e
00000140: 307c 0b3e d368 6d3c 8473 3bbd bf70 86be
00000150: 443f 963d 6209 6c3e da93 723e c554 d03e
00000160: f2d4 4e3e 37e7 5bbe 3da0 ffbd 6a2b 4f3e
00000170: 655d 64be 7f8c 273e 51a3 18bd 8c5f 763e
00000180: 917b 49be 4be5 b1be 1761 a03e 66f1 82be
00000190: 7876 1c3d ecce ebbd 5af4 aa3d 6f9a 2abe
000001a0: f59c 803e 309e 95be 1890 19be 22ed 333e
000001b0: acb4 81be 18da 363d 53f7 1abe fbe5 f2ba
000001c0: 50ac 133d 97f4 afbe 254e c8be 5924 8cbe
000001d0: 697c 3cbe 044c e73d 2d58 69be 11f3 99be
000001e0: 8245 503e 9345 63be db0a b4bd b67e 35bd
000001f0: 2390 4d3c 96e2 cabe 2e5e 00be d7dc ad3d
00000200: 1d7a 263e 6286 563e 36d4 e5bd e00a 063e
00000210: 6cd2 8cbb 353e c9bd 5cd8 b43d ec28 8ebb
00000220: df25 57bd a980 e7bd 2389 a0be 5a20 92bd
00000230: 58c9 38be c244 bebe 8019 cebe 81a3 c9bd
00000240: 508c 24bd a06f 7d3e 4426 0dbe 82eb 93be
00000250: 5ca2 c5bc dc5e 803e 0b59 553e 8acc 223d
00000260: 1d98 a53e 6e88 2b3e df26 d1bd 894e 7ebd
00000270: 971d a6bd a89b 163d bb2a 543e f467 9dbd
00000280: ac43 073e f2a3 d53d ffa2 5abe 3539 59bd
00000290: 1026 d63c 3958 003c 901e 0cbe e411 3dbe
000002a0: 644f 1cbc 7c89 e03d ed1d a4bd 0e3c 11be
000002b0: c969 afbc 8ca0 173d 83aa 90bd 11ee c53d
000002c0: a32c 333e b2d5 bfbd f0f5 1e3d ef1b 143e
000002d0: e966 15bd bfed 8f3d 3ba4 a5be 02ed 863e
000002e0: 0208 6f3e a1e8 00be c1cc 2b3e 9c4b cebd
000002f0: b0fa 10be f084 81be 0fad b03e 7a23 153e
00000300: 344b 5d3e 0916 823e 525d 10be 8d32 323e
00000310: b2b8 62be 9dba 36be 25cd 0b3e 51d9 e4bd
00000320: d416 9b3b 9bd2 10be 7c47 57be 4bb3 56be
00000330: 1ca7 9e3e 3903 093e 9729 9c3c 6f31 8a3e
00000340: 30d9 20bd 0900 60be 167f 92be 018c 8a3e
00000350: 7a04 ec3d ff50 913d 3910 093e 68b7 0a3e
00000360: 104c aebe 0542 54bc 921e 653e a92e 6d3e
00000370: 096b 603e 73e0 55bd 1b5f 983d c065 453d
00000380: a766 57be fc20 9d3e fe08 413e df5b 273e
00000390: 7c4f 8bbd 2432 b03d 8ebe f7bd b2be 27be
000003a0: ba8b 5b3e f534 a43c 3f70 48be 71d4 4c3d
000003b0: dfe4 7abe 5935 54be 6f9a 9bbe cb8f 933d
000003c0: fee6 0cbd a4e2 86bd 2e2e b03c 4c0b 853d
000003d0: 35bf 243d ca6b a1be 43c8 673e 8d15 ee3c
000003e0: 338d 2f3d 42d2 6dbe eac1 3cbe 9af1 a43d
000003f0: 3167 5c3d a0bd f23e 5970 d43e d14d 0e3e

onnx::Conv_81 f4 [16]
-0.47352666 -1.4393607 -0.43174672 1.2305539 0.19687548 0.84500396 0.97380835 0.6308914
0.81962305 -0.097700536 0.8271776 -1.2330409 1.0204903 -0.33547756 1.3298308 -1.5289773
00000000: 1672 f2be f93c b8bf e80d ddbe ca82 9d3f
00000010: ba99 493e 2e52 583f 814b 793f 1982 213f
00000020: d1d2 513f 3817 c8bd e9c1 533f 49d4 9dbf
00000030: 6d9f 823f b7c3 abbe e537 aa3f 87b5 c3bf

onnx::Conv_83 f4 [32, 16, 3, 3]
-0.005759229 -0.027842632 -0.01647962 0.06878959 -0.037101302 0.04559321 -0.017259102 -0.020382114
-0.009049049 -0.028394807 -0.035205293 -0.10169656 0.0344273 0.008369501 0.015847877 -0.01831504
0.037933752 -0.05870057 0.033051208 0.038166054 0.0643647 -0.009818208 -0.035854053 -0.03639335
0.014663504 -0.071866006 0.032298166 0.012714254 -0.01350202 -0.018447584 -0.07487635 0.027501574
-0.017776286 -0.030681228 0.023229245 -0.016408876 0.07636757 -0.01976348 -0.004498843 -0.03893898
0.038101457 0.021145446 -0.019867625 -0.029124534 0.054577116 0.051501054 0.071497194 0.06954505
-0.053043276 0.010678749 0.07614325 -0.024504598 -0.029998576 -0.012008259 -0.0068528894 0.02083166
-0.007214233 -0.08881891 -0.0062087732 -0.024922607 -0.05391075 -0.037324596 -0.006986985 -0.0038818263
0.018728897 0.025985612 -0.11055657 -0.0717399 0.014046527 -0.09569428 -0.096765436 -0.037041023
0.053102646 -0.031033013 0.08653442 -0.051505014 -0.033659358 -0.004048354 -0.07753935 -0.06544116
0.017846594 0.055437997 0.08564423 0.07347164 -0.032583125 0.06162879 0.04219441 -0.06395453
-0.037825137 -0.057590574 -0.0128688365 0.043488935 0.050763886 -0.14148416 -0.10800118 -0.032198183
-0.09285728 -0.065693624 0.027392352 -0.07790133 -0.00925268 -0.012294653 -0.018730277 -0.05928863
-0.05397479 -0.01890633 -0.030766763 -0.04378769 0.036974907 -0.017640768 0.031957604 0.011349439
-0.032939088 0.009090654 -0.01926652 0.0068407953 -0.034413874 0.027751576 -0.007902066 -0.041428626
0.044096272 -0.04139525 0.019517988 -0.04994679 0.01495089 -0.06392304 -0.039141778 -0.033809815
0.052977357 -0.091326304 -0.037744142 -0.018966362 -0.041127004 0.008314315 -0.022137508 -0.012915225
-0.01740497 -0.10864362 0.06907371 -0.010307963 -0.06404482 -0.011936241 -0.0035519588 -0.04633023
-0.0050472156 0.0020915656 -0.0029370338 -0.009937581 0.047643878 0.062974796 0.06323577 -0.0079427315
-0.002172471 -0.04631965 -0.04932671 -0.05525434 -0.03424345 -0.011007047 -0.043740883 0.048992913
-0.045706242 0.041518737 -0.08086227 -0.03581503 -0.0513923 0.030134346 -0.015483328 -0.017875317
0.052553393 0.04983735 -0.03206741 0.033695746 -0.0019033401 0.030812267 0.020430498 -0.04584916
0.014625296 0.019857274 -0.033013258 0.0062532434 -0.04600464 -0.0023693356 0.049827445 0.015597124
-0.026218254 0.06563577 0.013402439 0.032465428 0.014742249 -0.08859512 0.015223689 0.05925344
-0.019330382 0.029307406 0.070288874 0.044259477 0.031443194 0.07685941 -0.010987266 -0.04724005
-0.008266587 -0.027276777 -0.04246716 -0.0124066835 -0.0476933 -0.059112187 -0.035584006 -0.049500138
-0.03705375 -0.070934094 -0.01753113 -0.0005965383 0.012878998 0.052663032 -0.023166714 -0.038204167
-0.04947876 -0.017783651 0.06384073 0.029442774 0.028146647 0.018193342 0.0032213598 0.03850003
0.04474563 0.008450758 -0.018812725 -0.065036155 0.0152949765 -0.028712025 -0.08825407 -0.04773549
-0.064179376 -0.021588964 0.022929491 -0.0018315844 -0.041756157 0.010115228 0.00038739544 -0.050138894
-0.0175957 -0.0065783085 -0.010898955 -0.051593903 -0.018638907 -0.024795637 0.0012333526 0.018094812
-0.027246505 -0.008175021 0.008077081 -0.010329313 0.032795977 0.0043532527 -0.011764117 -0.0015982597
00000000: eab7 bcbb 3b16 e4bc 4500 87bc 8ee1 8c3d
00000010: 89f7 17bd f2bf 3a3d f662 8dbc 64f8 a6bc
00000020: 7642 14bc 3a9c e8bc 6d33 10bd 4946 d0bd
00000030: a403 0d3d 3b20 093c 68d3 813c 6c09 96bc
00000040: 6c60 1b3d 0270 70bd b460 073d 0254 1c3d
00000050: a4d1 833d 8ddc 20bc b3db 12bd 3211 15bd
00000060: 323f 703c 7c2e 93bd 154b 043d 724f 503c
00000070: 9437 5dbc 631f 97bc c658 99bd fb4a e13c
00000080: 939f 91bc 3357 fbbc 424b be3c e86b 86bc
00000090: 9a66 9c3d 06e7 a1bc 086b 93bb 7b7e 1fbd
000000a0: 4610 1c3d 3739 ad3c 6ec1 a2bc 9396 eebc
000000b0: 418c 5f3d c5f2 523d 1f6d 923d a36d 8e3d
000000c0: e843 59bd ebf5 2e3c fef0 9b3d debd c8bc
000000d0: 93bf f5bc 4abe 44bc 348e e0bb 28a7 aa3c
000000e0: 5f65 ecbb b0e6 b5bd f772 cbbb 7f2a ccbc
000000f0: 85d1 5cbd ade1 18bd 14f3 e4bb 3d66 7ebb
00000100: 586d 993c c7df d43c 7c6b e2bd 5eec 92bd
00000110: 6823 663c 5dfb c3bd f52c c6bd 54b8 17bd
00000120: 2982 593d f238 febc f538 b13d ecf6 52bd
00000130: 65de 09bd 0ea8 84bb f3cc 9ebd 0406 86bd
00000140: 0533 923c f412 633d 3e66 af3d 4d78 963d
00000150: e275 05bd 786e 7c3d 0cd4 2c3d 98fa 82bd
00000160: 88ee 1abd 18e4 6bbd d0d7 52bc 7421 323d
00000170: cbed 4f3d 39e1 10be b92f ddbd 3ee2 03bd
00000180: f52b bebd 618a 86bd ed65 e03c bc8a 9fbd
00000190: 8e98 17bc 836f 49bc 3d70 99bc a2d8 72bd
000001a0: ab14 5dbd 73e1 9abc 940a fcbc b95a 33bd
000001b0: 0073 173d 5f83 90bc fae5 023d fff2 393c
000001c0: 23eb 06bd f7f0 143c d2d4 9dbc c028 e03b
000001d0: 90f5 0cbd 4657 e33c ab77 01bc 10b1 29bd
000001e0: 4b9e 343d 118e 29bd 30e4 9f3c 0195 4cbd
000001f0: 94f4 743c 15ea 82bd 2153 20bd 297c 0abd
00000200: c9fe 583d 4909 bbbd 9a99 1abd 585f 9bbc
00000210: ca74 28bd c438 083c b859 b5bc 619a 53bc
00000220: de94 8ebc 8c80 debd 8476 8d3d bbe2 28bc
00000230: ee29 83bd 3990 43bc fbc7 68bb c4c4 3dbd
00000240: 1d63 a5bb a612 093b 407b 40bb 3cd1 22bc
00000250: 3a26 433d eef8 803d c181 813d 3b22 02bc
00000260: 0460 0ebb acb9 3dbd ce0a 4abd 6052 62bd
00000270: dc42 0cbd e756 34bc a429 33bd cbac 483d
00000280: 7836 3bbd 8d0f 2a3d 1e9b a5bd c8b2 12bd
00000290: bb80 52bd 4edc f63c c9ad 7dbc 426f 92bc
000002a0: 3a42 573d 4022 4c3d 1e59 03bd 8d04 0a3d
000002b0: 7f79 f9ba 026a fc3c dc5d a73c 54cc 3bbd
000002c0: f09e 6f3c b9ab a23c e938 07bd 02e8 cc3b
000002d0: 5d6f 3cbd db46 1bbb dd17 4c3d 148b 7f3c
000002e0: aac7 d6bc 0c6c 863d e795 5b3c 78fa 043d
000002f0: 7989 713c 5c71 b5bd c86c 793c bcb3 723d
00000300: c05a 9ebc 1616 f03c 9df3 8f3d 6d49 353d
00000310: 94ca 003d 7768 9d3d ef03 34bc c87e 41bd
00000320: 9470 07bc 8c73 dfbc 0bf2 2dbd 6745 4bbc
00000330: 0d5a 43bd 9f1f 72bd 89c0 11bd a8c0 4abd
00000340: acc5 17bd e545 91bd 729d 8fbc 0261 1cba
00000350: 6f02 533c 31b5 573d 1fc8 bdbc f97b 1cbd
00000360: 3eaa 4abd 05af 91bc eebe 823d f931 f13c
00000370: cc93 e63c 340a 953c 731d 533b 35b2 1d3d
00000380: 3247 373d 0c75 0a3c 251d 9abc ad31 85bd
00000390: c897 7a3c 7b35 ebbc 8dbe b4bd 4a86 43bd
000003a0: 7a70 83bd 57db b0bc a1d6 bb3c c611 f0ba
000003b0: 8108 2bbd 57ba 253c 561b cb39 715e 4dbd
000003c0: dc24 90bc da8e d7bb 8891 32bc 2154 53bd
000003d0: 9fb0 98bc 3820 cbbc 72a8 a13a 923b 943c
000003e0: 1034 dfbc 86f0 05bc bc55 043c 473c 29bc
000003f0: 1355 063d bba5 8e3b 48be 40bc b27c d1ba

onnx::Conv_84 f4 [32]
0.8950374 0.2130891 0.55448484 0.28697088 0.6243569 0.04994931 -0.008583117 -0.7656742
-0.32503468 0.33361292 0.33341908 0.1733609 0.17878598 0.009515524 0.05893939 -0.047931734
-0.3540855 0.6449752 0.51318085 -0.016542785 0.025230348 -0.7976897 -0.01887218 0.08612417
0.6585631 0.2902934 0.039185394 0.18401274 0.17965758 0.5894972 0.030038416 0.22284982
00000000: 2c21 653f 0734 5a3e b8f2 0d3f d9ed 923e
00000010: dbd5 1f3f a697 4c3d 34a0 0cbc 3903 44bf
00000020: f26a a6be 50cf aa3e e8b5 aa3e 8585 313e
00000030: ac13 373e 00e7 1b3c 6e6a 713d 1154 44bd
00000040: b24a b5be 181d 253f d25f 033f bc84 87bc
00000050: e0af ce3c 6435 4cbf d499 9abc de61 b03d
00000060: 9797 283f 56a1 943e dd80 203d d66d 3c3e
00000070: 28f8 373e 4ae9 163f 2013 f63c be32 643e

onnx::Conv_86 f4 [32, 32, 3, 3]
0.27900797 0.08931655 0.20100886 0.082872845 0.031035217 0.07451221 0.17671546 0.04836492
-0.001404533 -0.03896779 -0.10181624 -0.20018159 0.042530205 -0.03151703 -0.027794354 0.056837138
-0.0074346038 0.060651746 -0.013826326 0.048223656 0.075890765 0.06350303 0.0008391442 0.13603024
0.035444327 0.06983422 0.1601127 -0.028200986 0.008911141 -0.09900714 -0.0030552987 -0.0018193487
-0.076556444 -0.008902135 0.01053412 -0.08882366 0.020279158 -0.14986983 -0.14908995 -0.0054863896
-0.040286537 0.04273129 0.001680673 -0.054877035 -0.0707324 -0.030029133 0.055156462 0.026796423
-0.17258987 -0.047425535 0.0007259799 0.00878209 0.06216648 0.06502733 0.036024068 0.010787653
-0.11424219 -0.010739979 -0.021401325 -0.12406249 -0.027220698 -0.09770523 -0.038640615 0.13785227
-0.0740735 -0.059258092 0.1355219 -0.049758427 0.0065899314 -0.014067038 -0.040481783 0.073774904
-0.028005013 0.04635751 0.0004951148 -0.01317938 0.055473637 0.0043536522 -0.15446909 0.0070185456
-0.13069645 0.052113753 0.041764487 0.0009111812 0.044317625 0.013368639 -0.0049984953 -0.051024653
-0.015990281 -0.028342988 0.029591748 0.011922225 -0.038876895 0.030874282 0.035836983 0.020138249
0.036390677 0.02733934 0.052925903 -0.090292 -0.108340465 -0.111745745 0.039120078 0.028387697
-0.023789318 0.027117591 0.01660057 0.017678484 -0.13295376 -0.1830022 -0.09701908 -0.082187265
0.0062479908 -0.13944809 -0.085744545 -0.08129898 0.072384335 0.00947335 0.010988433 -0.020169174
0.046079833 0.058513902 -0.070431285 -0.019799875 -0.06391644 -0.13861609 0.0975059 -0.0012291388
0.20386207 -0.0546975 -0.10706694 0.026235525 0.08675724 0.017336408 0.09840597 0.11976713
0.072886296 -0.008184104 -0.04055399 -0.020387799 0.02673195 -0.070592955 -0.09603447 0.0928091
-0.20089504 -0.1542994 -0.1678965 -0.053635232 -0.049794324 -0.07586922 -0.17569616 -0.0137084555
-0.09521868 -0.056797758 0.06701842 -0.046427634 0.023877755 0.027281696 -0.13034584 0.06452096
0.01653196 -0.044046655 -0.036851928 -0.04718871 -0.0151902195 -0.082122676 -0.012664592 -0.059686348
-0.0011053925 0.042694446 0.03174031 0.053773392 0.05656349 0.1018438 0.171406 0.06858778
0.12063701 0.044309177 0.01947552 -0.049600683 -0.0774784 -0.06916532 -0.057270583 -0.065124586
-0.083798856 -0.16452923 0.026146267 0.084870376 -0.093789816 0.053726237 -0.006551504 0.048009735
0.05766209 0.055843126 -0.006213766 0.2056431 0.04754778 0.08793791 -0.058727264 -0.08970306
-0.017995706 -0.016979897 -0.099145725 0.022750322 0.015893081 0.021763626 0.10296276 0.05945519
-0.018740878 0.08716953 0.034315966 -0.057868198 -0.08674362 0.15656255 0.012747318 -0.037112646
-0.039906405 -0.0326424 -0.019379564 -0.06645867 0.028840039 0.027910832 0.02807318 0.032422543
-0.038631354 -0.041554634 0.11730568 0.114972875 -0.15353625 0.033725526 -0.050948944 -0.14198872
0.0028239724 0.0033101882 -0.021154461 -0.054271385 0.048986364 -0.050414797 -0.01808334 -0.056584578
0.003182745 -0.026020672 -0.022822684 -0.06247857 -0.05759685 -0.17991617 -0.008290864 0.01744537
-0.061543077 -0.075097576 0.09379533 -0.0702226 -0.03026529 -0.07240285 -0.113374785 -0.102392726
00000000: 22da 8e3e 98eb b63d 44d5 4d3e 3db9 a93d
00000010: 913d fe3c dc99 983d e6f4 343e 4b1a 463d
00000020: 4f18 b8ba b09c 1fbd 0885 d0bd 67fc 4cbe
00000030: 2734 2e3d 0018 01bd fcb0 e3bc 0fce 683d
00000040: fa9d f3bb f76d 783d d087 62bc 2b86 453d
00000050: 9e6c 9b3d e00d 823d 04fa 5b3a 834b 0b3e
00000060: 122e 113d 3e05 8f3d 95f4 233e c105 e7bc
00000070: 0900 123c 41c4 cabd 683b 48bb 3677 eeba
00000080: a0c9 9cbd 43da 11bc 4d97 2c3c 2ee9 b5bd
00000090: 7a20 a63c 7a77 19be 09ab 18be 2cc7 b3bb
000000a0: 7f03 25bd 0107 2f3d 074a dc3a bec6 60bd
000000b0: 26dc 90bd a8ff f5bc beeb 613d 2c84 db3c
000000c0: 66bb 30be 4741 42bd b04f 3e3a c1e2 0f3c
000000d0: 47a2 7e3d 0c2d 853d f98d 133d b2be 303c
000000e0: cff7 e9bd bdf6 2fbc d551 afbc 7a14 febd
000000f0: f1fd debc ae19 c8bd 9f45 1ebd 2529 0d3e
00000100: d9b3 97bd 9db8 72bd 41c6 0a3e 7ecf 4bbd
00000110: 5af0 d73b 6f79 66bc 3ad0 25bd 4c17 973d
00000120: c56a e5bc 5fe1 3d3d 97ca 013a 54ee 57bc
00000130: 5338 633d 15a9 8e3b 252d 1ebe d4fb e53b
00000140: 4ad5 05be 3b75 553d 3d11 2b3d 56dc 6e3a
00000150: 6686 353d 2308 5b3c 6bca a3bb 3aff 50bd
00000160: 0dfe 82bc 8e2f e8bc 656a f23c 7055 433c
00000170: 613d 1fbd 10ec fc3c cdc9 123d f8f8 a43c
00000180: 640e 153d c0f6 df3c d5c8 583d 03eb b8bd
00000190: 9be1 ddbd f4da e4bd 603c 203d 518d e83c
000001a0: d1e1 c2bc b625 de3c ebfd 873c 78d2 903c
000001b0: 0825 08be ee64 3bbe f0b1 c6bd cc51 a8bd
000001c0: f2bb cc3b 7bcb 0ebe d69a afbd 1480 a6bd
000001d0: 3d3e 943d 1c36 1b3c d408 343c d339 a5bc
000001e0: 35be 3c3d 46ac 6f3d 473e 90bd 5933 a2bc
000001f0: 9fe6 82bd 60f1 0dbe 2cb1 c73d 0e1b a1ba
00000200: 38c1 503e 7c0a 60bd e945 dbbd e2eb d63c
00000210: c8ad b13d 1505 8e3c 1289 c93d 7848 f53d
00000220: 6945 953d 9f16 06bc f11b 26bd 5004 a7bc
00000230: f6fc da3c 0a93 90bd b8ad c4bd b312 be3d
00000240: 6eb7 4dbe a900 1ebe 0fed 2bbe 9eb0 5bbd
00000250: 22f5 4bbd 5261 9bbd b2e9 33be 6e99 60bc
00000260: 0302 c3bd c4a4 68bd f440 893d e72a 3ebd
00000270: 489b c33c dd7d df3c 6179 05be 9123 843d
00000280: 086e 873c 446a 34bd 0cf2 16bd f348 41bd
00000290: 66e0 78bc ef2f a8bd 267f 4fbc ac79 74bd
000002a0: d1e2 90ba 5fe0 2e3d 2102 023d 7d41 5c3d
000002b0: 1eaf 673d 7b93 d03d 0e85 2f3e c077 8c3d
000002c0: 8910 f73d 8a7d 353d 208b 9f3c 162a 4bbd
000002d0: ffac 9ebd 8ca6 8dbd 8f94 6abd 0a60 85bd
000002e0: bc9e abbd 5a7a 28be b230 d63c 85d0 ad3d
000002f0: e014 c0bd 0b10 5c3d 00ae d6bb dba5 443d
00000300: 152f 6c3d c3bb 643d d99c cbbb 1b94 523e
00000310: 76c1 423d ca18 b43d 008c 70bd 3db6 b7bd
00000320: bb6b 93bc 6d19 8bbc ea0c cbbd e25e ba3c
00000330: 3532 823c a249 b23c 24de d23d 4987 733d
00000340: 7886 99bc f085 b23d e68e 0c3d 3407 6dbd
00000350: a4a6 b1bd ef51 203e 20da 503c 6e03 18bd
00000360: e674 23bd 0ab4 05bd e4c1 9ebc 7c1b 88bd
00000370: f241 ec3c 42a5 e43c baf9 e53c 80cd 043d
00000380: e93b 1ebd 3135 2abd f63d f03d e676 eb3d
00000390: 9b38 1dbe c723 0a3d d7af 50bd 7e65 11be
000003a0: 6512 393b beef 583b 1f4c adbc ac4b 5ebd
000003b0: eda5 483d bf7f 4ebd 8323 94bc 3bc5 67bd
000003c0: 9a95 503b 4e29 d5bc a3f6 babc 87e9 7fbd
000003d0: adea 6bbd f23b 38be 67d6 07bc 98e9 8e3c
000003e0: 9814 7cbd c2cc 99bd c417 c03d ded0 8fbd
000003f0: eaee f7bc f247 94bd 0a31 e8bd 47b3 d1bd

onnx::Conv_87 f4 [32]
0.1760774 0.54147744 0.6031748 0.7455191 -0.015477918 0.40236476 -0.03129884 -0.2696906
0.4265752 0.0673966 -0.30614036 0.022098232 -0.17083836 0.2753799 0.39852408 -0.0077394247
0.543869 0.053359393 0.06879716 -0.39918917 0.2695376 0.4533078 0.39273658 -0.19550024
-0.0389305 0.29515392 0.50659406 0.078314394 -0.027844142 -0.21664742 -0.19315743 0.29674056
00000000: a24d 343e 449e 0a3f aa69 1a3f 57da 3e3f
00000010: 1897 7dbc c102 ce3e 3633 00bd e314 8abe
00000020: 1168 da3e 3b07 8a3d 6ebe 9cbe 5a07 b53c
00000030: 40f0 2ebe 98fe 8c3e 590b cc3e 009b fdbb
00000040: 003b 0b3f 618f 5a3d 87e5 8c3d 8662 ccbe
00000050: d500 8a3e f617 e83e c514 c93e 3731 48be
00000060: 9775 1fbd 6a1e 973e 26b0 013f 4c63 a03d
00000070: 6619 e4bc d2d8 5dbe 10cb 45be 61ee 973e

onnx::Conv_89 f4 [32, 16, 1, 1]
0.17809264 0.028122986 -0.12570365 -0.015210793 -0.14987883 0.19499691 0.13044895 0.10036056
0.2577388 0.08770793 0.13024665 0.06327889 0.027055677 0.05123317 0.12437538 0.1274857
0.15130813 0.17951933 0.05811063 0.03585182 -0.013723187 0.0873021 -0.04830965 0.07894711
0.11059914 0.09746199 -0.12132621 0.117449656 0.13636935 -0.026489967 0.1575932 0.028500352
0.24912634 -0.33027548 0.1492614 0.21302748 0.24074839 -0.021030683 0.20103866 -0.23037815
-0.3274027 -0.01851049 -0.08052766 0.17933938 0.096287325 -0.25334236 -0.031722773 0.010802547
0.13488889 -0.015946683 -0.32235473 -0.3193154 0.09099352 -0.10542123 0.16593556 0.32537496
0.13440087 0.1480872 0.1498597 0.18709332 0.18387099 0.1213161 -0.1588308 0.10189463
0.41842356 0.14979127 -0.17470238 -0.16356567 -0.09698807 0.05255624 0.19853172 0.11989339
0.22111858 0.08606531 -0.25723234 0.08206341 0.49954185 0.17686234 -0.051060267 -0.47631317
-0.16609128 0.076291494 -0.08425431 -0.10300922 -0.16637102 -0.12830934 -0.06839555 -0.24927172
-0.11881528 -0.16783631 0.111399874 0.14931245 -0.1313897 0.099592514 -0.03685054 0.0843953
0.08520179 -0.07812828 -0.03201075 -0.052078344 -0.069126345 0.035090283 0.021214006 -0.04084615
0.0057506734 -0.15238647 -0.09969561 -0.004491477 0.089494176 -0.14656872 -0.11585679 -0.019946406
0.23860268 -0.19507352 0.24756546 0.010105637 -0.13565876 -0.49126646 0.061798204 -0.012552635
0.052511167 -0.17423435 -0.025621964 0.27463874 0.3498287 -0.21677426 -0.25199118 0.23208208
-0.29351565 -0.20798182 0.36503345 -0.43394414 0.15749538 0.33327815 -0.2697298 -0.13134217
-0.3209487 0.18138187 -0.11797226 0.20790926 0.4131971 0.19952366 -0.5113452 -0.25903714
0.07111342 0.1728705 -0.054900337 -0.08884555 0.015159367 -0.11324746 -0.063584395 -0.018777752
0.033922557 -0.15668899 -0.060684264 0.10516117 -0.010903794 -0.079435684 -0.066201076 0.037402056
0.12884595 -0.23832083 -0.03362141 -0.096440725 -0.2474318 0.16223373 -0.20651855 0.10077136
0.014464081 0.088654056 0.2315635 -0.11613649 -0.18644643 -0.07152337 -0.05565993 0.26896834
-0.0549538 0.020918583 0.17602335 -0.13902315 0.08059395 -0.18524529 -0.23239414 0.14202634
-0.12200231 -0.2072186 -0.13641591 -0.07881745 -0.19197173 0.16659996 0.06272275 0.103025414
-0.105815366 -0.25703195 0.3766787 -0.32537457 0.0619962 -0.06766131 0.1540487 0.090947166
0.2506806 -0.22435582 -0.29318878 -0.25853682 0.28409898 -0.26906776 0.19922885 0.15523288
0.06334613 0.3391788 -0.13126959 0.0376274 -0.23869187 0.14539008 -0.00705762 -0.03806232
-0.045996785 0.22040951 -0.011888719 0.04488187 -0.13284595 0.0021102894 0.16037442 -0.2687149
-0.08394218 -0.081648245 0.022159291 0.0016835723 -0.091749884 -0.1301664 -0.026435489 0.048837338
-0.08948942 -0.09523614 -0.13162892 0.052123852 0.09772741 0.11296132 -0.072241746 -0.03339775
0.17110352 0.022286618 -0.19441918 0.1257097 0.05586927 0.14829981 0.19278437 0.07039175
0.03277667 0.106162526 0.09528109 0.014787655 0.11811175 -0.070056744 0.0041261134 0.04663389
00000000: eb5d 363e 2d62 e63c 75b8 00be b136 79bc
00000010: d679 19be 45ad 473e 6994 053e d689 cd3d
00000020: 57f6 833e 37a0 b33d 615f 053e 5d98 813d
00000030: dea3 dd3c dfd9 513d 85b8 fe3d 9d8b 023e
00000040: 85f0 1a3e ead3 373e 6905 6e3d 5cd9 123d
00000050: 38d7 60bc 72cb b23d 57e0 45bd 06af a13d
00000060: cd81 e23d 279a c73d e079 f8bd 7289 f03d
00000070: 68a4 0b3e 7d01 d9bc 1d60 213e 9279 e93c
00000080: fa1a 7f3e de19 a9be fbd7 183e e023 5a3e
00000090: bf86 763e 8a48 acbc 14dd 4d3e 40e8 6bbe
000000a0: 54a1 a7be 50a3 97bc b0eb a4bd bea4 373e
000000b0: 4a32 c53d 17b6 81be bdef 01bd 2bfd 303c
000000c0: 5020 0a3e 9ea2 82bc ae0b a5be 4f7d a3be
000000d0: d05a ba3d 16e7 d7bd 03eb 293e 8c97 a63e
000000e0: 62a0 093e 2ca4 173e d274 193e 6495 3f3e
000000f0: ad48 3c3e 9374 f83d 8ba4 22be 22ae d03d
00000100: 9d3b d63e e262 193e 2ee5 32be c27d 27be
00000110: aea1 c6bd 3645 573d e64b 4b3e aa8a f53d
00000120: e96c 623e 0243 b03d f5b3 83be dc10 a83d
00000130: f3c3 ff3e 671b 353e 9224 51bd 52df f3be
00000140: d513 2abe b73e 9c3d 868d acbd 7ff6 d2bd
00000150: 2a5d 2abe 8663 03be f712 8cbd 1641 7fbe
00000160: 6d55 f3bd 48dd 2bbe 9e25 e43d 5de5 183e
00000170: 068b 06be 29f7 cb3d 98f0 16bd 71d7 ac3d
00000180: 477e ae3d b801 a0bd b41d 03bd 1a50 55bd
00000190: 1d92 8dbd d4ba 0f3d ffc8 ad3c 4b4e 27bd
000001a0: 2570 bc3b 330b 1cbe 362d ccbd 3d2d 93bb
000001b0: b948 b73d 1c16 16be 5346 edbd a566 a3bc
000001c0: 4354 743e 5ac1 47be cd81 7d3e 1d92 253c
000001d0: 21ea 0abe 4787 fbbe 1d20 7d3d 91a9 4dbc
000001e0: f315 573d 7d6a 32be 27e5 d1bc 739d 8c3e
000001f0: bf1c b33e 12fa 5dbe fd04 81be eda6 6d3e
00000200: af47 96be 30f9 54be aae5 ba3e ed2d debe
00000210: 7846 213e 6fa3 aa3e 061a 8abe 907e 06be
00000220: 6353 a4be 2bbc 393e 719b f1bd 2ae6 543e
00000230: 928e d33e ee4f 4c3e 85e7 02bf 84a0 84be
00000240: eaa3 913d f704 313e 2ddf 60bd a8f4 b5bd
00000250: fe5e 783c 49ee e7bd 8938 82bd cdd3 99bc
00000260: 61f2 0a3d 1473 20be 1090 78bd bd5e d73d
00000270: d4a5 32bc 2daf a2bd 6e94 87bd e632 193d
00000280: 31f0 033e 600a 74be 9bb6 09bd b782 c5bd
00000290: c35e 7dbe 9920 263e 9979 53be 3761 ce3d
000002a0: c1fa 6c3c 4290 b53d fb1e 6d3e f8d8 edbd
000002b0: d0eb 3ebe d87a 92bd abfb 63bd 38b6 893e
000002c0: 3c17 61bd 735d ab3c 773f 343e 165c 0ebe
000002d0: 710e a53d f1b0 3dbe bbf8 6dbe 5a6f 113e
000002e0: 59dc f9bd 1d31 54be 9db0 0bbe 0b6b a1bd
000002f0: 3d94 44be 2e99 2a3e c974 803d fdfe d23d
00000300: bab5 d8bd b199 83be 08dc c03e 7f97 a6be
00000310: baef 7d3d 0392 8abd f1be 1d3e 8242 ba3d
00000320: 3559 803e 88bd 65be d71c 96be f05e 84be
00000330: 6c75 913e 40c3 89be a602 4c3e 5ef5 1e3e
00000340: 9ebb 813d d8a8 ad3e 896b 06be 301f 1a3d
00000350: a46b 74be 23e1 143e 9c43 e7bb 3ce7 1bbd
00000360: 2067 3cbd 08b3 613e e7c8 42bc 0dd6 373d
00000370: c508 08be c84c 0a3b 3139 243e 0095 89be
00000380: e1e9 abbd 3237 a7bd 6787 b53c 50ab dc3a
00000390: 5de7 bbbd 574a 05be 3d8f d8bc a909 483d
000003a0: 3b46 b7bd 2a0b c3bd bbc9 06be d27f 553d
000003b0: 4f25 c83d 4458 e73d 7bf3 93bd 14cc 08bd
000003c0: c335 2f3e 6d92 b63c d215 47be 0bba 003e
000003d0: 2dd7 643d e8db 173e 4469 453e 8d29 903d
000003e0: d440 063d bd6b d93d bb22 c33d ec47 723c
000003f0: 93e4 f13d e979 8fbd 5934 873b 2e03 3f3d

onnx::Conv_90 f4 [32]
-0.73738563 -0.5989624 0.003808396 -0.5085143 -0.5114161 0.61450326 0.2907949 0.038995758
0.1806048 0.12239037 -0.049350835 0.28848293 0.024612103 -0.13918296 0.32175595 -0.62713414
-0.27914664 0.34305373 -0.853125 0.40458244 -0.5388398 -0.7261809 -0.30787396 -0.12252209
-0.102538176 -0.2885512 0.2644424 -0.56792283 0.24234378 0.24387297 -0.24350499 -0.09800917
00000000: 4ec5 3cbf 9a55 19bf 4896 793b fe2d 02bf
00000010: 2aec 02bf 1650 1d3f 12e3 943e 04ba 1f3d
00000020: 77f0 383e cda7 fa3d 1a24 4abd 09b4 933e
00000030: 529f c93c fa85 0ebe 32bd a43e dd8b 20bf
00000040: 4fec 8ebe bda4 af3e 6666 5abf 6e25 cf3e
00000050: 68f1 09bf fee6 39bf a8a1 9dbe ddec fabd
00000060: 89ff d1bd fcbc 93be ff64 873e 6463 11bf
00000070: f828 783e d6b9 793e 5f59 79be 08b9 c8bd

onnx::Conv_92 f4 [64, 32, 3, 3]
-0.01902687 0.020617656 0.019708404 -0.01805609 0.009876884 0.029395035 -0.046286337 -0.017118633
0.005691191 -0.060516365 0.011130774 0.01090145 -0.05722695 -0.0035625503 -0.011684624 -0.03130236
-0.005523299 0.017566908 0.028595079 -0.026118618 -0.028945839 0.019853655 -0.010713685 -0.020819042
0.052477416 -0.008192072 -0.0072449143 0.019369699 -0.016476132 -0.015871111 0.010754176 -0.009810545
-0.00084358454 0.06328988 0.016275734 0.003737558 0.010573564 0.0036207223 -0.031142365 -0.01993807
-0.00077795825 -0.03180166 0.013365987 -0.0036991683 -0.011927732 0.05500334 0.024036296 0.0057613472
0.061430786 0.020423086 0.0069020856 0.04234276 0.0035000998 -0.009166207 -0.016451273 0.014069909
-0.019604905 -0.0134568205 0.0156865 0.014787966 -0.01627616 0.0029536095 -0.003706986 0.005572025
-0.039846554 -0.015496646 0.01767741 -0.010511628 0.011597348 0.008022075 -0.02333862 -0.010974672
0.026056772 0.0014563253 -0.017614817 0.02192941 0.0029103786 -0.008281652 0.035389785 -0.0061188983
-0.027024955 -0.028443567 -0.011989005 -0.016733821 -0.023046678 -0.006938309 -0.0047735902 -0.034089874
-0.016028324 -0.027744677 0.0012119716 0.009525146 -0.015159246 -0.019453842 0.0035638916 -0.022907797
0.00012347073 0.008091756 -0.011455512 -0.00905023 -0.025582805 0.004388635 0.01563548 -0.0060780407
-0.008367244 -0.0015023013 -0.018790735 -0.013543863 -0.0016714982 -0.02901221 -0.0016532774 0.022019349
-0.013523451 -0.0010791193 -0.010417591 -0.023122352 -0.009081394 0.01229803 0.007508156 -0.03655451
0.021231262 0.02741299 -0.038938623 0.00951308 0.031447597 -0.027187955 0.02342919 -0.008513318
-0.0076003056 0.025632963 0.002084752 -0.007368195 0.046418443 0.014119103 0.003672567 0.0033169219
0.010566743 -0.036570337 0.03400281 0.020443033 -0.019575277 0.024534052 0.003625764 -0.020780481
0.06588349 0.009857871 -0.011756731 0.040368408 0.008955068 -0.025020443 0.07746202 0.019505197
-0.014385078 -0.006256471 0.018470868 0.021458626 -0.019932661 0.006914004 0.001140263 -0.013849364
-0.0069059045 0.011458499 -0.013429111 -0.015091192 -0.0295302 -0.023378514 -0.025504043 -0.019849155
-0.012837926 -0.012912583 -0.028128602 -0.044038184 -0.027111473 0.018412676 -0.012446394 -0.010161216
0.04509783 -0.013202608 0.0019613935 0.02996551 0.0434778 0.027462706 0.032388467 0.029123275
0.022625446 0.02494111 0.012148029 -0.008138313 0.0059809717 0.0016276948 0.043564223 0.04040664
-0.020558445 0.00998449 0.038701735 0.01586576 0.014561384 0.007988819 -0.0031025058 0.0029457659
-0.023742659 -0.017938945 -0.01318069 1.015367e-05 0.029916156 0.0038847206 -0.0019896647 -0.03231204
-0.017328605 -0.025956238 -0.0177624 -0.016872542 -0.016219288 -0.026709065 -0.004083428 0.0025514043
-0.0052063097 0.020177651 0.0145886075 -0.0029160904 0.008202048 0.0069403285 0.0011886087 0.02833622
0.026836755 0.022585534 0.017895536 0.013443452 0.01922764 -0.009954439 0.0016677503 0.016590228
0.0026394113 0.0055691106 -0.0030013314 0.012246751 -0.014988509 0.014965564 0.010940493 -0.01412652
0.019973436 0.016781371 -0.013318106 0.009666906 0.015884174 0.056747362 -0.01674429 -0.019651255
0.022526141 -0.015094787 -0.015469613 0.019870693 -0.013802564 -0.0010232856 0.0010871704 0.014842166
00000000: 3dde 9bbc 5ce6 a83c 8573 a13c 5eea 93bc
00000010: a7d2 213c dbcd f03c be96 3dbd 603c 8cbc
00000020: 2c7d ba3b 02e0 77bd da5d 363c ff9b 323c
00000030: ce66 6abd ad79 69bb dd70 3fbc e736 00bd
00000040: cafc b4bb 7ae8 8f3c 3a40 ea3c b6f6 d5bc
00000050: d31f edbc 22a4 a23c 7488 2fbc b28c aabc
00000060: 8ff2 563d 0a38 06bc bf66 edbb 34ad 9e3c
00000070: f4f8 86bc 2204 82bc 4932 303c 68bc 20bc
00000080: 0024 5dba 209e 813d b054 853c d1f1 743b
00000090: be3c 2d3c a449 6d3b 461e ffbc 2a55 a3bc
000000a0: e5ef 4bba 7542 02bd 03fd 5a3c bf6d 72bb
000000b0: 896c 43bc 2f4b 613d c4e7 c43c afc9 bc3b
000000c0: d99e 7b3d 514e a73c e42a e23b 9a6f 2d3d
000000d0: ee61 653b dc2d 16bc d2c4 86bc 7a85 663c
000000e0: 779a a0bc ff79 5cbc fa80 803c 3a49 723c
000000f0: 9555 85bc 5891 413b e8f0 72bb 8995 b63b
00000100: 2436 23bd a5e5 7dbc 37d0 903c f738 2cbc
00000110: ce02 3e3c 056f 033c a230 bfbc 1ccf 33bc
00000120: 0375 d53c 2be2 be3a f34c 90bc 4ea5 b33c
00000130: 0dbc 3e3b c4af 07bc e1f4 103d 0a81 c8bb
00000140: 7063 ddbc 7c02 e9bc 886d 44bc 5e15 89bc
00000150: 63cc bcbc c15a e3bb c76b 9cbb d3a1 0bbd
00000160: d54d 83bc ce48 e3bc 05db 9e3a 5c0f 1c3c
00000170: 7c5e 78bc aa5d 9fbc 2e90 693b 22a9 bbbc
00000180: ec77 0139 4993 043c e6af 3bbc 6a47 14bc
00000190: 0893 d1bc 8ace 8f3b fa15 803c 4d2a c7bb
000001a0: c416 09bc dee8 c4ba 07ef 99bc 14e7 5dbc
000001b0: 2c16 dbba 04ab edbc c9b2 d8ba ec61 b43c
000001c0: 7791 5dbc 3c71 8dba 8bae 2abc 166b bdbc
000001d0: 21ca 14bc ad7d 493c fa06 f63b 2fba 15bd
000001e0: 2fed ad3c 3591 e03c 1b7e 1fbd c0dc 1b3c
000001f0: 32cf 003d 46b9 debc 93ee bf3c 727b 0bbc
00000200: fc0b f9bb 38fc d13c 56a0 083b e670 f1bb
00000210: 4421 3e3d cf53 673c 73af 703b b760 593b
00000220: 2220 2d3c c7ca 15bd 8846 0b3d 2678 a73c
00000230: 555c a0bc a3fb c83c 3a9e 6d3b d43b aabc
00000240: eced 863d e882 213c 4e9f 40bc 5859 253d
00000250: 47b8 123c acf7 ccbc 68a4 9e3d 5dc9 9f3c
00000260: 64af 6bbc 1503 cdbb 3850 973c 00ca af3c
00000270: d249 a3bc df8e e23b e174 953a 71e8 62bc
00000280: ed4a e2bb 6ebc 3b3c c605 5cbc 0c41 77bc
00000290: 51e9 f1bc 4c84 bfbc dbed d0bc b29a a2bc
000002a0: 2a56 52bc 4c8f 53bc f46d e6bc 6261 34bd
000002b0: e118 debc 2ed6 963c f6eb 4bbc 3b7b 26bc
000002c0: 81b8 383d c04f 58bc b98a 003b 3b7a f53c
000002d0: c715 323d 78f9 e03c c5a9 043d ef93 ee3c
000002e0: 0059 b93c 4c51 cc3c 8708 473c 8f56 05bc
000002f0: 07fc c33b 6058 d53a 6670 323d 6f81 253d
00000300: 2f6a a8bc fd95 233c b685 1e3d e9f8 813c
00000310: df92 6e3c 89e3 023c 6953 4bbb c00d 413b
00000320: f77f c2bc b2f4 92bc d2f3 57bc ae59 2a37
00000330: ba12 f53c cc96 7e3b 0965 02bb a159 04bd
00000340: b8f4 8dbc 2da2 d4bc 7482 91bc 4938 8abc
00000350: 50de 84bc f8cc dabc 47ce 85bb 7635 273b
00000360: b199 aabb 9a4b a53c 0e05 6f3c e11b 3fbb
00000370: e261 063c b26b e33b 17cb 9b3a 5c21 e83c
00000380: c1d8 db3c 4c05 b93c a999 923c ed41 5c3c
00000390: 4983 9d3c f117 23bc 6a98 da3a 3be8 873c
000003a0: f9f9 2c3b 167d b63b fcb1 44bb 99a6 483c
000003b0: 5d92 75bc 2032 753c c13f 333c eb72 67bc
000003c0: 559f a33c 1679 893c 2f34 5abc f161 1e3c
000003d0: 871f 823c ec6f 683d 522b 89bc abfb a0bc
000003e0: be88 b83c 2050 77bc 4274 7dbc ddc7 a23c
000003f0: 2624 62bc c41f 86ba 637f 8e3a 8e2c 733c

onnx::Conv_93 f4 [64]
-0.12122507 -0.1018475 0.18898773 -0.33841613 -0.34169912 -0.03469167 -0.09471619 0.021629784
-0.029844211 0.18915829 -0.044398006 0.14322963 0.098201424 -0.0628511 -0.0491738 -0.086697824
-0.08690479 0.14894566 0.059728555 -0.5089879 0.020500764 0.019254442 0.07176554 -0.1028476
-0.14715688 -0.271556 0.04061415 -0.0032252409 0.14158757 0.0910653 -0.1959883 -0.013062235
-0.0049103554 0.028469272 -0.24340633 -0.07437131 -0.09495138 0.0035803393 0.044107206 0.47734463
-0.25260776 -0.0037284947 0.0089595 0.12558861 -0.09573308 0.0077736937 -0.27836955 -0.19549392
0.2393436 -0.34717992 0.014426045 -4.772842e-05 -0.028550394 -0.37107745 0.1121964 0.04326863
0.17302187 -0.24260554 0.0045932196 0.009278685 -0.23417114 0.13532043 -0.017798703 -0.057406463
00000000: d944 f8bd 6c95 d0bd 0086 413e e144 adbe
00000010: 30f3 aebe da18 0ebd 90fa c1bd f230 b13c
00000020: d97b f4bc b6b2 413e afda 35bd caaa 123e
00000030: d41d c93d 14b8 80bd 776a 49bd a18e b1bd
00000040: 23fb b1bd 3685 183e eea5 743d 084d 02bf
00000050: 38f1 a73c 7ebb 9d3c d0f9 923d c3a1 d2bd
00000060: 4bb0 16be 6309 8bbe 065b 263d 905e 53bb
00000070: 55fc 103e 7280 ba3d 28b1 48be fc02 56bc
00000080: 0ce7 a0bb 6438 e93c 823f 79be fc4f 98bd
00000090: de75 c2bd 20a4 6a3b c2a9 343d 8466 f43e
000000a0: ce55 81be c359 74bb deca 123c 4d9a 003e
000000b0: b40f c4bd 78ba fe3b 7486 8ebe 8f2f 48be
000000c0: 7d16 753e 91c1 b1be 385b 6c3c 0030 48b8
000000d0: 84e2 e9bc ddfd bdbe 3ac7 e53d 723a 313d
000000e0: a52c 313e 966d 78be b882 963b a005 183c
000000f0: 8fca 6fbe 7091 0a3e 96ce 91bc 0a23 6bbd

onnx::Conv_95 f4 [64, 64, 3, 3]
-0.0010827971 0.00757551 0.0017414418 -0.0045412425 0.0012878076 0.00033359122 0.008409072 0.0104184095
-0.0029210267 -0.0012837853 -0.010032295 -0.012845905 -0.00046136754 -0.0018382999 -0.009540014 0.0042029903
0.0022815673 0.0011069535 0.039398417 0.037312128 0.044720735 -0.017506566 -0.01189998 -0.013525454
-0.012382703 -0.009987453 -0.010876854 0.0010368655 -0.003667322 0.001880757 -0.012789237 -0.007825691
-0.0060471175 -0.0034860328 -0.0031054693 0.0048580035 0.016902328 0.005014721 0.0028665613 0.0052435957
0.0007870469 -0.0039451816 -0.015112667 -0.019390257 -0.0136266295 0.0015575968 0.002138792 0.0012210176
0.00044986795 -0.00078781665 -0.0028833277 0.0014251013 0.0008311132 -0.0004110703 -0.003366012 0.0062580826
-0.0028885012 -0.008250421 -0.0034569232 -0.0038158924 -0.00789041 -0.0004870861 0.0022802248 -0.0004959043
-0.0067821355 -0.0026509666 -0.0010678769 -0.010003258 -0.0022144115 -0.0025672012 -0.010899206 -0.0027608585
0.0009644676 0.0032199677 -0.0031269104 0.008699197 0.0071766074 0.0017069168 0.0037780146 0.0060627395
0.0007944529 -0.00070676376 0.00475942 0.0069255126 0.0064197797 0.00039657307 0.013801796 0.00019308327
0.00068305415 0.01465781 0.0063170837 0.008806609 0.0019391841 -0.0004954787 -0.0021596681 0.008024349
-0.0018829253 -0.0061209067 0.008071785 0.003331815 0.0058093714 -0.0016274997 0.00063136406 0.0015783221
-0.0036163009 -0.0008902014 -0.00058366277 0.0023967386 -0.00839429 0.007137061 0.00416509 -0.0150918
-0.005621175 -0.011040132 -0.025029324 -0.009104893 -0.0062301923 -0.004409821 -0.0063023902 -0.0036567785
-0.018890284 -0.027223486 -0.023449741 0.00037156878 0.0009193488 -0.0011623935 0.0231323 0.012598048
0.025570452 0.019085953 0.020479137 0.018149447 -0.0071734465 -0.0026529804 0.0065088714 -0.0071308804
-0.0069914795 -0.005019194 0.012062608 0.0074287164 0.00074642623 -0.014725917 -0.009938027 -0.003967807
0.0030506134 0.003748545 0.003987166 0.009439964 0.008033702 0.010037317 -0.005403962 -0.0037834037
-0.0013984919 0.006094707 0.0024952572 -0.0018982867 0.003682742 0.0040267133 0.0045283022 0.0015973719
0.0051714503 0.009206107 -0.0009356767 -0.002142544 0.00058719993 -0.0015060937 0.0031133597 0.008639845
-0.0013562982 -0.0022167757 0.0074512823 -0.0071050455 -0.011729963 -0.0005704772 -0.020503787 -0.03797008
-0.007149131 -0.01154239 -0.015020053 0.016796103 0.0027454607 -0.000826238 -0.0012619996 0.0055390378
0.0022478271 0.013379194 0.006625559 0.0059884656 -0.00074593356 0.01483822 0.015685676 -0.0012807742
-0.021498542 -0.015024939 -0.023590842 0.006778352 0.014199958 0.00920428 -0.011650754 -0.018744523
-0.019911246 -0.032088816 -0.031655893 -0.0257621 -0.00056719745 0.0008132329 -0.00071101537 -0.0014244937
-0.0047919196 -0.0017264832 0.0334293 0.025591835 0.01452748 0.0024488564 0.0021808888 -0.0019033549
0.0004292148 -0.0084187165 0.003930783 -0.0053362204 -0.009408176 0.0044966512 0.00046155226 0.0020001691
0.011710107 0.036302593 0.015395631 0.024382977 -0.005307747 -0.015025556 -0.017963683 -0.003500367
0.0002815559 -0.0034585167 -0.0014377992 -0.0015895896 -0.004022698 0.008790785 0.007284083 0.007677323
-0.002780828 0.0029083581 0.011235169 0.019921448 0.014867995 0.006035282 0.017180819 0.013633601
0.018068178 0.0017311691 0.0074603725 0.018513978 -0.008593343 0.00775932 0.009391302 -0.018943507
00000000: a4ec 8dba fc3b f83b 1741 e43a b4ce 94bb
00000010: a7cb a83a dbe5 ae39 34c6 093c fab1 2a3c
00000020: b26e 3fbb b044 a8ba 7f5e 24bc a177 52bc
00000030: b4e3 f1b9 1cf3 f0ba b84d 1cbc 3db9 893b
00000040: 5986 153b 3217 913a 3c60 213d 9ad4 183d
00000050: 172d 373d ee69 8fbc 22f8 42bc de99 5dbc
00000060: d2e0 4abc 6aa2 23bc d534 32bc 6fe7 873a
00000070: 7457 70bb bc83 f63a f389 51bc 5437 00bc
00000080: e626 c6bb ed75 64bb 2185 4bbb e32f 9f3b
00000090: c076 8a3c 8752 a43b ebdc 3b3b 78d2 ab3b
000000a0: d351 4e3a 9546 81bb 1f9b 77bc 51d8 9ebc
000000b0: 3a42 5fbc 4728 cc3a fa2a 0c3b 8d0a a03a
000000c0: 41dc eb39 7b85 4eba 36f6 3cbb 77ca ba3a
000000d0: 10df 593a ec84 d7b9 4f98 5cbb 9a10 cd3b
000000e0: 024d 3dbb c62c 07bc 8c8d 62bb 0d14 7abb
000000f0: c746 01bc 975f ffb9 d36f 153b 93ff 01ba
00000100: ad3c debb d7bb 2dbb 01f8 8bba b4e4 23bc
00000110: a91f 11bb 7d3e 28bb 9592 32bc 85ef 34bb
00000120: 53d4 7c3a 1806 533b daec 4cbb 1487 0e3c
00000130: bf29 eb3b a0ba df3a 9198 773b f2a9 c63b
00000140: d542 503a 1d46 39ba e9f4 9b3b 69ef e23b
00000150: 045d d23b 23eb cf39 ee20 623c 6576 4a39
00000160: fd0e 333a 5027 703c 8aff ce3b 9849 103c
00000170: 392c fe3a 03e3 01ba 3889 0dbb 8f78 033c
00000180: 7dcc f6ba e391 c8bb 853f 043c 945a 5a3b
00000190: 8a5c be3b d451 d5ba 2082 253a b4df ce3a
000001a0: 76ff 6cbb 685c 69ba f200 19ba 9a12 1d3b
000001b0: 3488 09bc 02de e93b 4f7b 883b 9943 77bc
000001c0: d531 b8bb abe1 34bc 4c0a cdbc b02c 15bc
000001d0: a426 ccbb 4280 90bb 4884 cebb 90a6 6fbb
000001e0: ccbf 9abc ca03 dfbc ac19 c0bc 1ecf c239
000001f0: 7400 713a 745b 98ba f37f bd3c 0b68 4e3c
00000200: 2079 d13c 255a 9c3c ddc3 a73c 26ae 943c
00000210: 3b0f ebbb a0dd 2dbb 5f48 d53b 29aa e9bb
00000220: c818 e5bb 0d78 a4bb 3fa2 453c 976c f33b
00000230: d1ab 433a f944 71bc 1bd3 22bc 6104 82bb
00000240: cdec 473b 26aa 753b c6a6 823b 14aa 1a3c
00000250: ca9f 033c 8f73 243c b813 b1bb fbf2 77bb
00000260: 9a4d b7ba 1cb6 c73b 7887 233b efcf f8ba
00000270: 285a 713b 85f2 833b 2762 943b e85e d13a
00000280: 4575 a93b 36d5 163c 3348 75ba ec69 0cbb
00000290: 52ee 193a 1e68 c5ba 8209 4c3b 238e 0d3c
000002a0: d1c5 b1ba 5347 11bb e329 f43b 71d1 e8bb
000002b0: 082f 40bc 148c 15ba 8ff7 a7bc 8486 1bbd
000002c0: 4243 eabb 4b1c 3dbc ab16 76bc fb97 893c
000002d0: 30ed 333b e597 58ba ae69 a5ba d180 b53b
000002e0: 4850 133b 6834 5b3c 381b d93b e43a c43b
000002f0: c18a 43ba 011c 733c 3f7f 803c a7df a7ba
00000300: b61d b0bc 292b 76bc 9541 c1bc f01c de3b
00000310: f1a6 683c 8ccd 163c cee2 3ebc 1d8e 99bc
00000320: e91c a3bc 906f 03bd 9ca9 01bd 0a0b d3bc
00000330: faaf 14ba 232f 553a 6f63 3aba 14b6 baba
00000340: 8905 9dbb 2a4b e2ba 29ed 083d f8a5 d13c
00000350: ab04 6e3c fe7c 203b 3eed 0e3b fe79 f9ba
00000360: 3c08 e139 a8ee 09bc cccd 803b 76db aebb
00000370: c024 1abc a558 933b 7ffc f139 4515 033b
00000380: c0db 3f3c 07b2 143d f53d 7c3c cfbe c73c
00000390: 9cec adbb c02d 76bc 9328 93bc 6a66 65bb
000003a0: cb9d 9339 48a8 62bb 8974 bcba c759 d0ba
000003b0: d6d0 83bb 3a07 103c 51af ee3b 0e92 fb3b
000003c0: 8d3e 36bb 279a 3e3b b713 383c 4e32 a33c
000003d0: e498 733c 9dc3 c53b cabe 8c3c 785f 5f3c
000003e0: b703 943c 65e8 e23a 2476 f43b a0aa 973c
000003f0: 18cb 0cbc e541 fe3b fadd 193c 6a2f 9bbc
