server/model/bolo.onnx (onnx, 301496 bytes, 16 tensors)

fc.weight f4 [2, 256]
-0.008075265 0.0377612 -0.04106652 0.010732943 -0.21470648 -0.19146357 -0.06402132 -0.02733674
0.0022888784 0.009453635 -0.011316604 0.0034929581 0.03104268 0.0501677 -0.030263815 -0.025360908
0.07255433 0.10516489 0.093251616 0.15745941 0.04434369 0.16717555 -0.0061456286 0.05271303
0.015428004 0.0117916055 0.0030181056 -0.011984283 -2.7492618e-38 -2.4108866e-38 2.6614492e-38 2.4953163e-38
0.14541495 0.13260321 0.14730158 0.15073252 -0.03406254 -0.050803196 0.085385695 0.098895974
-0.044299018 -0.06576307 0.031521033 0.037326053 -1.6135215e-38 -1.4898018e-38 1.4893604e-38 -1.3598808e-38
-0.0075719007 -0.03174479 0.18561123 0.13779062 0.057761073 0.059375532 0.16939443 0.19908738
-0.0039197956 -0.029090459 0.07635082 0.08703855 -6.134193e-38 6.423142e-38 -5.8267313e-38 6.412865e-38
0.13469462 0.18416396 -0.082505636 -0.050998323 -0.024441646 -0.048006102 0.10708067 0.10229007
5.6197606e-38 5.6333555e-38 -4.1023013e-38 -4.0706078e-38 1.2151716e-38 -1.2133382e-38 -3.307744e-38 3.026577e-38
1.9371435e-38 1.9303199e-38 -4.9194774e-38 -4.9888854e-38 -1.1617531e-38 1.2508691e-38 1.4447826e-38 -1.4870726e-38
0.086224936 -0.102999076 0.13308372 -0.03024748 -0.19000493 -0.20988208 -0.036623266 -0.08807175
1.3641747e-38 -1.4942907e-38 1.3869406e-38 1.2820597e-38 1.1451104e-38 -1.0663178e-38 -1.3502109e-38 1.248027e-38
9.018507e-39 1.158343e-38 -3.1018958e-38 -3.2975983e-38 -0.036163546 -0.03143399 0.08540337 0.050561875
0.041109227 0.045023907 -0.0074017057 -0.015516336 -0.1489604 -0.23401995 -0.062581204 -0.15744264
0.05852663 0.0050626267 0.14243525 0.07447408 -0.057221483 -0.062515736 0.075496875 0.072538555
9.764646e-39 -3.0990013e-38 -3.0143242e-38 -2.6358312e-38 0.098456345 0.15472576 0.14284022 0.15880845
0.1082962 0.03055099 0.036556643 -0.0698855 0.1258809 0.17639 -0.036103692 0.07003188
-1.5559386e-38 1.5729565e-38 1.1758479e-38 -1.253389e-38 0.07614295 0.07805485 -0.019576745 -0.026404
-1.8514449e-37 -1.9247852e-37 2.0305517e-37 1.9754741e-37 0.06511835 0.02006821 0.0894894 0.028654676
0.1866736 0.2149093 0.09989589 0.107054904 0.06211128 0.03494377 0.0028796347 -0.05999225
-0.25986013 -0.2144413 -0.08585915 -0.067056544 1.488975e-38 1.6798256e-38 1.5101522e-38 1.0889043e-38
0.04229589 -0.029419797 0.2082146 0.21990679 -0.0056116157 0.07898163 -0.017333245 0.076548
-0.14284198 -0.07389479 -0.16617276 -0.111501254 -0.03828671 -0.07410796 0.07391042 0.082688764
-1.0495627e-38 9.470733e-39 -3.1567555e-38 -3.363395e-38 0.16210221 0.1743172 -0.014629728 -0.024931459
0.036563516 0.003444247 0.22763157 0.24944484 3.1110143e-38 2.9271057e-38 -2.5761538e-38 -2.512568e-38
-0.1606319 -0.1795916 -0.11347529 -0.047142044 -0.011193407 -0.026527612 0.08861214 0.1696494
-0.10933759 -0.17187104 -0.11619032 -0.10705597 -0.0033613185 -0.0041858344 0.004586534 0.0037020422
2.5037252e-38 -2.1769193e-38 -2.1126257e-38 -1.8964057e-38 0.028437523 0.18061106 -0.09644834 -0.01860337
-0.05333063 -0.068299 0.099510826 0.07653394 -6.885834e-38 8.164846e-38 -6.798341e-38 7.1320655e-38
-0.03083188 0.00875479 0.10183332 0.15048252 0.19739689 0.15235302 0.101145834 0.027559629
-0.10036559 -0.16971587 -0.0153561635 -0.05420545 -0.045031562 -0.05224915 -0.120313466 -0.119079486
00000000: 1e4e 04bc 7dab 1a3d 5e35 28bd 3ad9 2f3c
00000010: 04dc 5bbe 070f 44be 9c1d 83bd 4df1 dfbc
00000020: 0201 163b 6be3 1a3c 4769 39bc 1dea 643b
00000030: 384d fe3c a57c 4d3d d2eb f7bc aec1 cfbc
00000040: 5d97 943d b160 d73d b4fa be3d 0a3d 213e
00000050: bba1 353d 1130 2b3e 4561 c9bb 9ee9 573d
00000060: bdc5 7c3c 9431 413c 69cb 453b ba59 44bc
00000070: 1eaf 1581 db42 0381 30e7 1001 a2db 0701
00000080: a8e7 143e 23c9 073e 3ad6 163e a059 1a3e
00000090: 2985 0bbd 0317 50bd b2de ae3d f989 ca3d
000000a0: e372 35bd caae 86bd 331c 013d 34e3 183d
000000b0: 6ab2 af80 9d39 a280 4f2d a200 f213 9480
000000c0: b51d f8bb d306 02bd df10 3e3e fc18 0d3e
000000d0: e096 6c3d c233 733d bc75 2d3e 90dd 4b3e
000000e0: a171 80bb 1d4f eebc d25d 9c3d 4441 b23d
000000f0: 16fd a681 c4da ae01 649e 9e81 2593 ae01
00000100: 63ed 093e 7a95 3c3e b7f8 a8bd 9ee3 50bd
00000110: d939 c8bc 0ca2 44bd 1c4d db3d 757d d13d
00000120: 04fc 9801 c25a 9901 bc59 5f81 fe9f 5d81
00000130: 0a52 8400 ef1e 8480 3917 3481 54c8 2401
00000140: aeef d200 7731 d200 c1eb 8581 75cf 8781
00000150: f380 7e80 2435 8800 a952 9d00 89ed a180
00000160: b396 b03d 2ef1 d2bd 1947 083e 90c9 f7bc
00000170: a790 42be 54eb 56be 4702 16bd f65e b4bd
00000180: a48b 9400 bfb6 a280 4306 9700 9c9a 8b00
00000190: 05b1 7c00 9a1c 7480 6306 9380 eae5 8700
000001a0: ee33 6200 e421 7e00 1ee2 2881 d089 3381
000001b0: 3a20 14bd edc0 00bd f6e7 ae3d f819 4f3d
000001c0: 2662 283d fd6a 383d 028a f2bb 3b38 7ebc
000001d0: 1389 18be eda2 6fbe 932a 80bd a538 21be
000001e0: 9fb9 6f3d 64e4 a53b 8cda 113e de85 983d
000001f0: 1361 6abd 4008 80bd 1b9e 9a3d 188f 943d
00000200: dc53 6a00 c6b9 2881 8c1d 2481 2082 0f81
00000210: 7ba3 c93d 6e70 1e3e b544 123e af9e 223e
00000220: 66ca dd3d 1246 fa3c 6bbc 153d 2120 8fbd
00000230: ece6 003e 959f 343e 77e1 13bd e06c 8f3d
00000240: 3d6d a980 a147 ab00 db09 8000 637b 8880
00000250: d6f0 9b3d 39db 9f3d 695f a0bc 344d d8bc
00000260: 7001 7c82 7dfe 8282 3331 8a02 9d71 8602
00000270: c55c 853d 1666 a43c 3846 b73d 36bd ea3c
00000280: 5d27 3f3e 2f11 5c3e 3796 cc3d 9a3f db3d
00000290: 6668 7e3d 3321 0f3d 41b8 3c3b 6fba 75bd
000002a0: 630c 85be 8096 5bbe ecd6 afbd f154 89bd
000002b0: 9122 a200 b4ea b600 e670 a400 3992 7600
000002c0: 753e 2d3d c901 f1bc 3536 553e 3f2f 613e
000002d0: a5e1 b7bb 1fc1 a13d 73fe 8dbc 33c5 9c3d
000002e0: 2b45 12be 2756 97bd 3129 2abe c55a e4bd
000002f0: 86d2 1cbd eac5 97bd 595e 973d ba58 a93d
00000300: 8a49 7280 8d20 6700 c0de 2b81 e21e 3781
00000310: 1ffe 253e 3580 323e 87b1 6fbc 0f3d ccbc
00000320: a0c3 153d e0b8 613b 4018 693e 786e 7f3e
00000330: 3661 2901 e65d 1f01 5842 0c81 16cc 0881
00000340: b07c 24be dce6 37be bc65 e8bd 0418 41bd
00000350: 8d64 37bc 6f50 d9bc 487a b53d 93b8 2d3e
00000360: 63ec dfbd f6fe 2fbe 31f5 edbd 2940 dbbd
00000370: 9149 5cbb 5329 89bb a34a 963b f69d 723b
00000380: d650 0801 a70b ed80 690b e680 1380 ce80
00000390: cff5 e83c 1bf2 383e b586 c5bd 1866 98bc
000003a0: 3871 5abd 59e0 8bbd 55cc cb3d d4bd 9c3d
000003b0: 4273 bb81 ac44 de01 8611 b981 3e27 c201
000003c0: 2493 fcbc 4070 0f3c fd8d d03d 1718 1a3e
000003d0: 6922 4a3e 6e02 1c3e 8c25 cf3d bbc4 e13c
000003e0: 798c cdbd ffc9 2dbe 6b98 7bbc 8906 5ebd
000003f0: 0473 38bd 3403 56bd e866 f6bd f2df f3bd

fc.bias f4 [2]
0.016937908 0.055898957
00000000: 5ec1 8a3c 4ef6 643d

79 f4 [16, 3, 7, 7]
-0.06784736 -0.13167289 0.02811672 0.16795549 0.03342827 0.23096989 0.015528681 -0.14489442
-0.05730434 0.23515423 0.2783196 0.11934653 0.026796121 0.09918041 -0.102443196 0.17567933
0.21467127 0.07845853 0.27933896 0.1719111 0.12647834 0.06529485 0.10175407 0.1051679
0.020058883 -0.056293573 -0.05018791 0.03137169 -0.0585547 -0.09118336 0.055631395 -0.13903803
0.029622188 0.014496446 0.054826755 -0.20114277 -0.054783605 0.049928907 -0.18017225 -0.15088467
-0.18484972 -0.030145535 -0.16673583 0.041765034 -0.18524615 -0.14818409 -0.13028437 -0.15706599
-0.031657748 0.1494188 -0.024339208 -0.22793545 -0.18870118 -0.34408832 -0.21935777 -0.12655541
-0.15006657 -0.069004945 0.006688539 -0.28887597 -0.14650048 -0.26554623 0.11213819 -0.09086584
-0.03685191 -0.16459058 -0.039883606 -0.24714415 -0.27671194 0.016085569 -0.05922557 -0.050528392
0.07176408 -0.034684855 -0.12444401 -0.05545764 -0.1585384 0.051300004 0.16939177 0.027304979
0.24967107 0.26319322 0.021724133 0.11722135 0.15048754 0.13675162 0.1663379 0.21477768
0.14753819 0.14164245 0.06661868 0.042239863 0.19242173 0.18319173 0.3222927 0.4165942
0.39882478 0.36442196 -0.030936232 0.04592663 -0.0626474 -0.018906014 -0.08736484 -0.097226724
0.15949133 -0.055800334 -0.01772159 -0.09433625 -0.02358366 -0.03560081 -0.039970867 -0.024724126
-0.15846461 -0.07283396 -0.16172487 -0.09810202 0.050337065 0.058592405 -0.021192383 -0.16352919
-0.0692113 -0.14277853 -0.033246756 -0.051386457 -0.096430704 0.09940864 -0.16681218 -0.0405881
-0.1011107 -0.048671745 0.017250026 0.05400273 0.10841541 -0.123826504 -0.32344174 -0.32918733
-0.00804277 -0.116780564 -0.14182597 -0.029246245 -0.20755702 -0.1004018 -0.10988385 -0.17972825
0.009276952 0.09325976 0.15340841 -0.03750697 0.03250783 0.061501786 0.02779537 0.030207302
0.01932695 0.048783764 -0.08324055 0.0019393666 -0.011082621 -0.012394259 -0.020438036 -0.0063972794
0.012452394 -0.081159025 -0.04109771 -0.008124235 -0.008940308 -0.009735806 -0.0133650005 0.009329901
-0.058870938 -0.02481677 -0.019186608 -0.028149718 -0.03206374 0.010602655 0.029137786 -0.08090156
-0.0038085084 0.021440357 0.029639665 0.0024254022 0.011828323 0.024678849 -0.08762658 -0.02518242
-0.022023145 -0.033360653 -0.04010438 -0.036539335 -0.013335385 -0.06281662 0.006360465 0.04023732
-0.019024745 -0.027527986 -0.05003323 0.04339223 -0.01865299 0.046048954 0.04985418 0.029390777
0.04573732 0.04183843 0.05459196 0.025118 0.076532125 0.05969002 0.053238027 0.033830795
0.048100054 0.0551388 0.023577737 0.06080763 0.047435522 0.039000735 0.041477796 0.04660364
0.03988788 0.007580911 0.02580338 0.029485906 0.04460281 0.037647095 0.054021776 0.052117545
-0.0017404277 0.032759078 0.027738748 0.042272024 0.031048546 0.041383214 0.0623171 -0.021836532
0.024224626 0.044004735 0.034077168 -0.011508815 -0.0077154934 0.04780735 0.022492774 0.021070957
0.0057436116 0.009331639 0.028742714 0.010856644 0.013541406 0.03458156 0.09694754 0.050703853
0.06893915 0.058833756 0.061379816 0.057619043 0.076246746 0.10536178 0.067973845 0.051682793
00000000: 8ff3 8abd 42d5 06be 0955 e63c 86fc 2b3e
00000010: 15ec 083d 5f83 6c3e 026c 7e3c 345f 14be
00000020: f5b7 6abd 45cc 703e e87f 8e3e f46b f43d
00000030: 8a83 db3c 191f cb3d bdcd d1bd 48e5 333e
00000040: c9d2 5b3e deae a03d 8405 8f3e 7709 303e
00000050: 8a83 013e 4eb9 853d 7064 d03d 4562 d73d
00000060: 8752 a43c 1794 66bd d791 4dbd 9a7f 003d
00000070: 0ed7 6fbd 57be babd bfdd 633d fc5f 0ebe
00000080: 3baa f23c 8082 6d3c 0592 603d 5ff8 4dbe
00000090: c664 60bd 4182 4c3d 137f 38be 8381 1abe
000000a0: 3f49 3dbe c5f3 f6bc ccbc 2abe d011 2b3d
000000b0: 2bb1 3dbe 92bd 17be 4469 05be e8d5 20be
000000c0: 8eab 01bd 3e01 193e 0563 c7bc e967 69be
000000d0: e23a 41be 582c b0be 539f 60be be97 01be
000000e0: 0dab 19be 7752 8dbd 882b db3b 8de7 93be
000000f0: 3904 16be adf5 87be b5a8 e53d df17 babd
00000100: 07f2 16bd 6f8a 28be fe5c 23bd 5b13 7dbe
00000110: 30ad 8dbe e2c5 833c 8396 72bd dcf6 4ebd
00000120: 0cf9 923d b511 0ebd 80dc febd 8d27 63bd
00000130: e457 22be f41f 523d 0975 2d3e b1ae df3c
00000140: c6a9 7f3e 43c1 863e cff6 b13c bf11 f03d
00000150: 6819 1a3e 9e08 0c3e 7c54 2a3e aeee 5b3e
00000160: 4014 173e b80a 113e 606f 883d b503 2d3d
00000170: 340a 453e 9d96 3b3e 8c03 a53e d64b d53e
00000180: c332 cc3e 8495 ba3e fb6d fdbc 901d 3c3d
00000190: 484d 80bd c9e0 9abc 56ec b2bd ce1e c7bd
000001a0: b251 233e e48e 64bd de2c 91bc 5d33 c1bd
000001b0: 8532 c1bc 28d2 11bd 7eb8 23bd 408a cabc
000001c0: 8c44 22be f929 95bd 349b 25be b6e9 c8bd
000001d0: 3d2e 4e3d 97fe 6f3d a69b adbc 3274 27be
000001e0: a7be 8dbd 8934 12be c02d 08bd 9b7a 52bd
000001f0: 767d c5bd c296 cb3d d0d0 2abe b53f 26bd
00000200: 2013 cfbd 065c 47bd ed4f 8d3c f731 5d3d
00000210: e608 de3d c098 fdbd 289a a5be 3e8b a8be
00000220: d3c5 03bc a62a efbd d43a 11be d295 efbc
00000230: d489 54be 759f cdbd c90a e1bd af0a 38be
00000240: 5bfe 173c f9fe be3d 1817 1d3e e9a0 19bd
00000250: ee26 053d 4ce9 7b3d 1eb3 e33c 4e75 f73c
00000260: 8d53 9e3c 7cd1 473d 057a aabd 5832 fe3a
00000270: e293 35bc 4a11 4bbc ab6d a7bc 45a0 d1bb
00000280: 2005 4c3c b436 a6bd 1356 28bd 831b 05bc
00000290: 5f7a 12bc ee82 1fbc e0f8 5abc 71dc 183c
000002a0: a722 71bd 8a4c cbbc 3c2d 9dbc 3d9a e6bc
000002b0: 4555 03bd c2b6 2d3c 5eb2 ee3c b8af a5bd
000002c0: 2b98 79bb b0a3 af3c e2ce f23c 7ff3 1e3b
000002d0: 95cb 413c 4c2b ca3c 9075 b3bd 5d4b cebc
000002e0: e269 b4bc 2ea5 08bd 7e44 24bd 45aa 15bd
000002f0: a97c 5abc 00a6 80bd 736b d03b e3cf 243d
00000300: c8d9 9bbc 5f82 e1bc a5ef 4cbd 0dbc 313d
00000310: 28ce 98bc d49d 3c3d e633 4c3d edc4 f03c
00000320: 0e57 3b3d c65e 2b3d d29b 5f3d 44c4 cd3c
00000330: e0bc 9c3d 867d 743d 1e10 5a3d 2992 0a3d
00000340: 9004 453d 39d9 613d 1926 c13c 6c11 793d
00000350: c04b 423d 3cbf 1f3d 9fe4 293d 75e3 3e3d
00000360: 7961 233d 4a69 f83b 9c61 d33c 6d8c f13c
00000370: 70b1 363d d733 1a3d f045 5d3d 3579 553d
00000380: 101f e4ba 622e 063d 5f3c e33c 6e25 2d3d
00000390: 8559 fe3c 7281 293d 3740 7f3d 87e2 b2bc
000003a0: b972 c63c 4f3e 343d 8094 0b3d 788f 3cbc
000003b0: 40d2 fcbb a4d1 433d c442 b83c 009d ac3c
000003c0: e834 bc3b bbe3 183c d775 eb3c 11e0 313c
000003d0: c6dc 5d3c 65a5 0d3d 6f8c c63d d8ae 4f3d
000003e0: f82f 8d3d aafb 703d 6769 7b3d f201 6c3d
000003f0: 4127 9c3d ebc7 d73d df35 8b3d 56b1 533d

80 f4 [16]
0.5359763 -0.687751 -0.93669665 -0.19986051 -1.1003982 1.1805595 0.28875706 -0.74243695
-0.05470995 0.6693656 0.71671236 -0.82512087 -0.2061092 0.64372647 0.2781389 0.08737131
00000000: be35 093f 7310 30bf 5acb 6fbf 3ca8 4cbe
00000010: d9d9 8cbf 931c 973f f7d7 933e 5910 3ebf
00000020: 8a17 60bd 8b5b 2b3f 767a 373f 1f3b 53bf
00000030: 4a0e 53be 42cb 243f 3968 8e3e bbef b23d

82 f4 [32, 16, 3, 3]
0.013519239 -0.0063575543 -0.009271341 0.014128945 0.001121338 -0.0006367799 -0.028213974 -0.03428794
-0.04657027 -0.024438858 -0.02028903 -0.032092117 -0.0129916705 -0.009663888 -0.004718683 -0.0044830735
0.001502155 -0.0014180042 -0.005445107 0.0019002821 0.0011324595 0.01599263 0.010417403 0.0051484345
-0.041664705 -0.04501489 -0.05198458 -0.0058753816 -0.007508684 -0.02210428 -0.001326546 0.010980755
0.021375814 0.020213403 0.051717978 0.035222348 0.022044433 0.0054553864 -0.00445499 0.021699026
0.019102378 0.0008577663 -0.026351511 -0.03859178 -0.015942503 0.05087002 0.033318195 -0.011648159
0.011217545 -0.0022085358 -0.010995843 -0.025596436 -0.005752367 -0.00400755 0.024287064 -0.0071128774
-0.020183256 -0.017071893 0.00154867 -0.026581924 -0.032837223 -0.017894968 -0.036062498 0.005205153
0.00076169777 -0.0059238966 0.017681884 0.012203304 0.0053268746 -0.012376321 -0.019866364 -0.03623836
-0.026342988 -0.007930574 -0.02301582 -0.0041504106 -0.006590206 -0.019792657 -0.0339311 -0.021607032
-0.035897885 0.04608158 0.017716674 0.018906362 0.023397503 0.005290378 0.020693608 0.016296498
0.010446479 0.013170517 0.035285547 0.019578408 0.019133462 0.016254082 0.0031576906 0.018282255
0.012556879 0.013214437 0.008285121 -0.041518424 -0.038781695 -0.042960074 -0.035138946 -0.032577172
-0.01612038 -0.032798246 -0.019235311 -0.023267856 0.045451935 0.0329632 0.005714485 0.013245638
0.016805112 -0.0031212193 0.003163073 0.015442649 0.020196902 0.04337591 0.027454406 0.036303863
0.018738732 0.013220728 0.02432563 0.022015011 0.034032878 0.035462536 -0.0052937884 -0.0317383
-0.011354994 -0.0009717699 -0.016235515 0.020011207 -0.04169427 -0.052833736 0.003903174 -0.0111360075
0.0032715038 -0.0080821365 -0.00433023 -0.0059024426 0.006242877 0.017909624 0.0110361 0.0346274
-0.04384637 -0.021988578 -0.059517957 0.00026352608 -0.015550006 0.008401031 -0.00331637 -0.013793119
-0.028454453 -0.04954292 0.010164949 -0.011993364 -0.052096438 0.007285516 0.04265279 -0.015431159
0.00044479902 0.059499353 -0.018944819 -0.027897405 -0.0017184616 -0.031168269 0.037100565 0.077642016
-0.05496749 -0.04391259 0.060801264 -0.0068124644 0.05630536 0.0037757352 0.0015905609 -0.00058312
0.009180432 -0.037158925 -0.040928256 -0.035836637 0.06713613 -0.041889843 -0.006039584 -0.051600892
0.019822806 -0.059293985 0.0012008148 -0.0012268362 -0.03237038 -0.030596279 -0.040328883 -0.031144395
-0.03957191 -0.0666811 -0.013407978 -0.09524808 -0.031950913 -0.047418986 -0.06915475 0.0280607
-0.024898736 0.0054990626 0.012766017 -0.011262375 0.0037721663 -0.050543506 0.00033112467 -0.032546263
-0.03563845 -0.027930439 -0.021843478 0.0058120573 0.010068483 0.021257155 0.0064237393 0.03843601
0.033840783 0.015187619 0.023083808 0.035107955 0.033707302 -0.020446049 -0.11044146 -0.11577166
-0.119385295 -0.042785913 -0.06757325 -0.048283063 0.0031477455 0.004886938 -0.032688256 -0.01959155
-0.012222521 -0.0071398914 -0.005943816 -0.025024775 0.01717204 -0.00973262 -0.04675763 -0.026799036
-0.06706774 -0.068424314 -0.03483773 0.024122486 0.024597693 0.0626722 0.00079326675 0.11496756
0.112195894 0.015059014 0.01902229 0.01593297 -0.045374557 -0.04732606 -0.037157275 0.004290639
00000000: cc7f 5d3c 0853 d0bb d3e6 17bc 177d 673c
00000010: dcf9 923a 93ed 26ba fe20 e7bc 8371 0cbd
00000020: 78c0 3ebd 0034 c8bc 2e35 a6bc 0673 03bd
00000030: 04db 54bc 4955 1ebc 2f9f 9abb bfe6 92bb
00000040: f5e3 c43a 53dc b9ba de6c b2bb e312 f93a
00000050: 096f 943a fa02 833c c1ad 2a3c 33b4 a83b
00000060: 9ca8 2abd 8961 38bd c8ed 54bd 4686 c0bb
00000070: 680b f6bb 0914 b5bc 7fdf adba a0e8 333c
00000080: 551c af3c 9496 a53c 3bd6 533d 4f45 103d
00000090: 8796 b43c 19c3 b23b 2afb 91bb 28c2 b13c
000000a0: 977c 9c3c b9db 603a 20df d7bc 6a12 1ebd
000000b0: da99 82bc 155d 503d a978 083d ebd7 3ebc
000000c0: cbc9 373c 15bd 10bb e927 34bc 9eaf d1bc
000000d0: 5a7e bcbb c451 83bb aaf5 c63c 2413 e9bb
000000e0: 5b57 a5bc 5bda 8bbc befc ca3a 56c2 d9bc
000000f0: 5380 06bd 7898 92bc 45b6 13bd fd8f aa3b
00000100: acac 473a 3f1d c2bb 99d9 903c 5ef0 473c
00000110: 108d ae3b 0dc6 4abc c9be a2bc ad6e 14bd
00000120: 40cd d7bc 3def 01bc ac8b bcbc 2b00 88bb
00000130: a8f2 d7bb 3624 a2bc 56fb 0abd 3b01 b1bc
00000140: a909 13bd 0ac0 3c3d 8f22 913c 84e1 9a3c
00000150: 1fac bf3c e85a ad3b a485 a93c 3c80 853c
00000160: b527 2b3c 27c9 573c 9487 103d e662 a03c
00000170: c7bd 9c3c 4827 853c 42f1 4e3b abc4 953c
00000180: 5ebb 4d3c 5e81 583c 51be 073c 390f 2abd
00000190: 8ed9 1ebd e7f6 2fbd dbed 0fbd a46f 05bd
000001a0: e30e 84bc 7457 06bd 5f93 9dbc 3b9c bebc
000001b0: cf2b 3a3d 6c04 073d 9340 bb3b 3c04 593c
000001c0: e0aa 893c 5f8d 4cbb 8f4b 4f3b 2a03 7d3c
000001d0: f973 a53c f0aa 313d 10e8 e03c 5cb3 143d
000001e0: f881 993c c19b 583c 8b46 c73c d358 b43c
000001f0: 0f66 0b3d 2a41 113d 8477 adbb 0500 02bd
00000200: 4c0a 3abc 60be 7eba 5800 85bc 8bee a33c
00000210: 9cc7 2abd 3068 58bd 65cc 7f3b cd73 36bc
00000220: ba66 563b f06a 04bc 9ae4 8dbb 4769 c1bb
00000230: 0c91 cc3b 34b7 923c c2d0 343c 76d5 0d3d
00000240: 4098 33bd 6421 b4bc 1ac9 73bd df29 8a39
00000250: 74c5 7ebc 7aa4 093c 7557 59bb 89fc 61bc
00000260: 5019 e9bc 84ed 4abd e38a 263c d17f 44bc
00000270: 1363 55bd 56bb ee3b b1b4 2e3d f9d2 7cbc
00000280: ea33 e939 98b5 733d 2a32 9bbc 1989 e4bc
00000290: 013e e1ba 9954 ffbc c3f6 173d c702 9f3d
000002a0: 9725 61bd b0dd 33bd bf0a 793d 183b dfbb
000002b0: 73a0 663d 5372 773b 5e7a d03a 85dc 18ba
000002c0: 8669 163c f533 18bd 63a4 27bd 70c9 12bd
000002d0: ab7e 893d af94 2bbd b4e7 c5bb 755b 53bd
000002e0: 7063 a23c 40de 72bd a964 9d3a cbcd a0ba
000002f0: ce96 04bd 0ca5 fabc e62f 25bd 8822 ffbc
00000300: 2816 22bd 1a90 88bd 23ad 5bbc 6d11 c3bd
00000310: f6de 02bd 693a 42bd 01a1 8dbd 8edf e53c
00000320: 6ff8 cbbc 7b31 b43b 8e28 513c d385 38bc
00000330: 7336 773b b506 4fbd cd9a ad39 3b4f 05bd
00000340: a0f9 11bd 60ce e4bc 18f1 b2bc 1273 be3b
00000350: 47f6 243c 7c23 ae3c 3b7e d23b 146f 1d3d
00000360: a29c 0a3d 7ed5 783c 411a bd3c 5ccd 0f3d
00000370: ab10 0a3d 797e a7bc 222f e2bd b119 edbd
00000380: 4780 f4bd 4840 2fbd d863 8abd 76c4 45bd
00000390: 684a 4e3b 9b22 a03b 1fe4 05bd 757e a0bc
000003a0: f840 48bc c0f5 e9bb 58c4 c2bb c200 cdbc
000003b0: 61ac 8c3c 9175 1fbc ee84 3fbd a789 dbbc
000003c0: d05a 89bd 0c22 8cbd 02b2 0ebd 859c c53c
000003d0: 1a81 c93c 485a 803d 3bf3 4f3a 1d74 eb3d
000003e0: f6c6 e53d 15ba 763c a2d4 9b3c dc85 823c
000003f0: acda 39bd f8d8 41bd 3a32 18bd 7d98 8c3b

83 f4 [32]
0.09884395 0.088647276 -0.56548804 0.2267212 0.023344472 0.5353028 -0.0025222702 0.2380684
0.29324484 -0.076688685 -0.6012468 -0.04876983 0.010934807 -0.083142 0.1508562 0.15338515
-0.08166042 0.118180774 -0.112019904 0.3698424 -0.018178768 0.11974408 0.19682334 0.19177605
0.027254801 0.042753108 0.26680166 0.2791992 0.39516982 0.17663679 0.33286878 0.14910626
00000000: b26e ca3d b48c b53d d3c3 10bf 9a29 683e
00000010: e83c bf3c 9b09 093f ac4c 25bb 34c8 733e
00000020: 3024 963e f50e 9dbd 4feb 19bf e0c2 47bd
00000030: e827 333c 5a46 aabd 0c7a 1a3e ff10 1d3e
00000040: 943d a7bd c308 f23d b16a e5bd fc5b bd3e
00000050: a4eb 94bc 623c f53d 0f8c 493e f160 443e
00000060: 7645 df3c e21d 2f3d 3a9a 883e 33f3 8e3e
00000070: b353 ca3e 46e0 343e c76d aa3e 50af 183e

85 f4 [32, 32, 3, 3]
-0.005297055 -0.0024095697 -0.013003139 0.040404577 0.04008624 0.05962594 0.08366552 0.06400332
0.0792893 0.08749055 0.03045526 0.04620579 -0.017734582 -0.10813899 -0.012748486 -0.004240596
0.0067687426 0.033712972 0.09383361 0.08104084 -0.062906 -0.19377542 0.0129263615 -0.07505594
-0.32312298 -0.18925914 -0.16622832 -0.028395195 0.046137515 0.13076577 -0.06437386 -0.0013515246
-0.02332621 0.031443406 -0.055496205 -0.07604696 0.121943675 0.07520859 0.10254783 -0.076931395
0.074586846 -0.04180607 -0.2140671 -0.16637394 -0.09349142 0.058743935 0.08994041 0.110947475
0.009903742 -0.030690426 0.02107521 -0.0005307657 -0.004041734 0.005737175 -0.07396412 -0.21194248
-0.1301119 0.060921986 -0.08754737 -0.12890606 0.1596825 0.12406052 0.012247997 0.1675623
0.18267255 0.19841787 0.014738466 0.035575006 0.032077253 0.05101846 0.07467521 0.05829583
0.013946622 0.1081282 0.25225678 -0.06522376 -0.0027044045 0.12781829 -0.031009974 -0.03784787
0.028030632 -0.27566916 -0.3024479 -0.25358462 -0.0859856 -0.043683086 -0.121342584 0.13321823
0.20373324 0.13434869 -0.034991257 -0.07934165 -0.14791955 -0.097747974 -0.054344922 -0.08261531
-0.20165336 -0.108803235 -0.044987705 0.08070913 0.0656419 -0.024632363 -0.016576981 -0.0025654663
-0.05048067 -0.06644309 -0.042775217 -0.070820354 0.06337553 0.034543008 0.031581275 -0.0035626104
-0.0014240079 -0.0032520932 0.0014739819 0.0056689507 0.00036497024 0.03636412 -0.07095282 -0.10935141
0.026802052 0.015556152 0.020029068 0.020423489 0.025215812 0.030804692 -0.12440091 0.0083848005
0.18972504 -0.06184065 -0.0039184075 0.124514714 0.00995442 0.07280976 0.10702775 0.054569915
0.09106004 0.13839841 0.13429506 0.07486959 0.08107552 0.09551883 -0.062692225 0.045411438
-0.032565303 0.13369139 0.00011680707 -0.020740656 0.020678582 -0.06640602 -0.15888806 -0.21191831
-0.12738365 -0.0122259585 -0.0054722615 0.031350538 0.008671941 0.013269172 0.0051959055 0.0051209824
-0.028363256 -0.049102947 0.016897948 0.016626956 0.014447816 0.013429419 0.017679073 0.01347326
0.0122686215 0.017621549 0.01521425 -0.022182716 -0.0030740954 0.008398468 -0.04785379 -0.02973687
-0.005667636 0.086700074 0.051995076 0.1008925 -0.02879394 0.01117115 -0.053931985 0.026299292
0.060157876 0.00048006108 0.029445918 0.15627395 0.034871664 -0.06666458 0.06669188 0.12777068
-0.17324115 0.002886127 0.15077527 -0.09884735 0.003416164 0.08323423 0.057510514 0.15755576
0.1688483 -0.04128077 0.030725379 0.0896924 -0.06189866 0.041017663 0.06297609 -0.024403589
0.19101246 0.38416854 -0.16452882 0.053487394 0.1331317 -0.13778077 -0.18823275 -0.0736334
-0.0011761095 0.037797157 0.08719533 -0.07732992 0.014154016 0.07807418 -0.10274362 -0.032965764
0.04057802 0.076900624 0.06771524 0.093094274 -0.030618472 -0.00722763 0.02799368 0.070973195
0.084053636 0.13442856 -0.036896776 -0.081066646 -0.1265193 -0.03180588 -0.09695522 -0.10126532
-0.028140146 0.0024768568 -0.004585089 -0.11667788 -0.2365331 -0.16266608 -0.039641373 -0.09372513
-0.064649075 0.1116011 0.19130376 0.2398301 0.090072475 0.08654458 0.07526378 0.034258112
00000000: eb92 adbb dfe9 1dbb 1e0b 55bc 457f 253d
00000010: 7831 243d 543a 743d d458 ab3d 2c14 833d
00000020: 6e62 a23d 3f2e b33d 4f7d f93c 4842 3d3d
00000030: 1d48 91bc fa77 ddbd 07df 50bc b3f4 8abb
00000040: 54cc dd3b 9d16 0a3d d62b c03d bdf8 a53d
00000050: dcd4 80bd 106d 46be 17c9 533c eeb6 99bd
00000060: 6070 a5be 26cd 41be c237 2abe 0a9d e8bc
00000070: b1fa 3c3d 76e7 053e 71d6 83bd a425 b1ba
00000080: 9c16 bfbc cdca 003d fd4f 63bd 82be 9bbd
00000090: 9bbd f93d f606 9a3d 9904 d23d 358e 9dbd
000000a0: fdc0 983d d73c 2bbd 6834 5bbe ee5d 2abe
000000b0: 6e78 bfbd 7b9d 703d ad32 b83d 6e38 e33d
000000c0: 4e43 223c 7d6a fbbc eba5 ac3c 1523 0bba
000000d0: 8670 84bb e9fe bb3b 807a 97bd 7307 59be
000000e0: 0e3c 05be 5589 793d 094c b3bd f3ff 03be
000000f0: cf83 233e 7113 fe3d d3ab 483c 7495 2b3e
00000100: 830e 3b3e 0e2e 4b3e 9b79 713c 19b7 113d
00000110: 7063 033d bcf8 503d 51ef 983d 9cc7 6e3d
00000120: 5f80 643c 5172 dd3d cd27 813e 0994 85bd
00000130: 613c 31bb cce2 023e a108 febc 5e06 1bbd
00000140: 7fa0 e53c 8224 8dbe 73da 9abe d8d5 81be
00000150: 3819 b0bd 09ed 32bd 7682 f8bd 5c6a 083e
00000160: 729f 503e b492 093e fe52 0fbd e07d a2bd
00000170: 3978 17be 1730 c8bd c898 5ebd 3732 a9bd
00000180: 387e 4ebe 3bd4 debd 0745 38bd d44a a53d
00000190: 436f 863d cfc9 c9bc 73cc 87bc 6221 28bb
000001a0: d2c4 4ebd 5113 88bd 1135 2fbd 430a 91bd
000001b0: 08cb 813d f87c 0d3d 5e5b 013d af7a 69bb
000001c0: c7a5 baba 1221 55bb a032 c13a 9bc2 b93b
000001d0: 7a59 bf39 8bf2 143d b64f 91bd a2f3 dfbd
000001e0: fa8f db3c 3bdf 7e3c 0014 a43c 294f a73c
000001f0: 6491 ce3c 1f5a fc3c e8c5 febd 6760 093c
00000200: 4847 423e 9f4c 7dbd fc65 80bb 9201 ff3d
00000210: dd17 233c 491d 953d 5d31 db3d b484 5f3d
00000220: b07d ba3d 50b8 0d3e a584 093e 3a55 993d
00000230: ec0a a63d 609f c33d c864 80bd 5801 3a3d
00000240: 3263 05bd 65e6 083e 51f6 f438 4fe8 a9bc
00000250: 2166 a93c e1ff 87bd 8db3 22be 1d01 59be
00000260: dc70 02be 634f 48bc a850 b3bb 6c69 003d
00000270: c214 0e3c f166 593c 6a42 aa3b eacd a73b
00000280: 0f5a e8bc 2c20 49bd 916d 8a3c 4135 883c
00000290: 88b6 6c3c 1107 5c3c b4d3 903c f3be 5c3c
000002a0: 5402 493c 115b 903c 3145 793c 87b8 b5bc
000002b0: c376 49bb ba99 093c 5602 44bd bd9a f3bc
000002c0: 94b7 b9bb cf8f b13d caf8 543d baa0 ce3d
000002d0: 45e1 ebbc 3307 373c c9e7 5cbd 9d71 d73c
000002e0: 1b68 763d b5b0 fb39 9138 f13c 4706 203e
000002f0: 97d5 0e3d 7087 88bd c195 883d 51d6 023e
00000300: 2166 31be 2d25 3d3b d564 1a3e 7b70 cabd
00000310: b9e1 5f3b b576 aa3d 2590 6b3d 4c56 213e
00000320: 92e6 2c3e 0616 29bd cab3 fb3c a6b0 b73d
00000330: 7389 7dbd 2302 283d 9cf9 803d 09ea c7bc
00000340: c598 433e bdb1 c43e 3e7a 28be 9915 5b3d
00000350: ad53 083e 6716 0dbe 16c0 40be 1ccd 96bd
00000360: b027 9aba 31d1 1a3d 7793 b23d 265f 9ebd
00000370: 3fe6 673c 5be5 9f3d 3f6b d2bd 1c07 07bd
00000380: 2335 263d 137e 9d3d 4aae 8a3d 36a8 be3d
00000390: 97d3 fabc c1d5 ecbb 0153 e53c 655a 913d
000003a0: 5024 ac3d a4a7 093e 1321 17bd 4506 a6bd
000003b0: 468e 01be e246 02bd 7590 c6bd 3164 cfbd
000003c0: 2a86 e6bc c352 223b 843e 96bb d0f4 eebd
000003d0: bc35 72be f091 26be fe5e 22bd f6f2 bfbd
000003e0: bc66 84bd 1e8f e43d 22e5 433e 0696 753e
000003f0: eb77 b83d 493e b13d e623 9a3d 3c52 0c3d

86 f4 [32]
-0.08995411 0.1442983 -0.030156657 -0.026117694 -0.04951513 0.3139716 -0.117548384 0.28619826
0.42777133 0.0012704907 -0.23294213 -0.07330996 -0.027233355 -0.41632178 -0.050945614 -0.20715892
0.22457567 -0.2349755 0.118176475 0.018072613 0.27793908 -0.13462538 -0.02627441 -0.18653648
0.24089289 0.089445904 0.030779827 0.12951638 0.31498256 -0.28250518 0.44051403 -0.09014518
00000000: dc39 b8bd efc2 133e 180b f7bc c6f4 d5bc
00000010: 61d0 4abd e3c0 a03e 35bd f0bd 9488 923e
00000020: d804 db3e 9886 a63a 6288 6ebe 8823 96bd
00000030: 7c18 dfbc 2128 d5be 59ac 50bd 7821 54be
00000040: 2af7 653e 6b9d 70be 8206 f23d 040d 943c
00000050: 084e 8e3e 3cdb 09be 6e3d d7bc 6b03 3fbe
00000060: a0ac 763e 6a2f b73d fa25 fc3c f19f 043e
00000070: 6545 a13e 85a4 90be 0e8b e13e 099e b8bd

88 f4 [32, 16, 1, 1]
0.18962054 0.3696241 -0.24962822 -0.02819261 0.48303893 -0.20925555 0.4612401 0.31322157
0.115621656 -0.17580143 -0.2326547 0.040106144 -0.18708007 -0.020512963 -0.29275826 0.42428657
-0.12751496 0.2953609 -0.07344092 0.16035023 -0.13839538 -0.06271031 0.10059568 0.13265602
0.2342447 -0.021393947 -0.16291584 -0.035435278 -0.081929736 -0.008243412 -0.18187274 -0.12937655
-0.09177104 0.05811661 -0.13860989 -0.06684102 -0.11657146 -0.08150834 0.12368889 -0.20031989
-0.19199905 -0.075512245 -0.17592993 -0.120890185 -0.44954407 0.12339637 0.020692952 0.000105046165
-0.005031386 -0.02356386 -0.19227965 0.13862406 -0.21165454 -0.31133097 -0.124635555 0.082251996
-0.12722243 -0.0923496 0.10270977 -0.18990396 0.024419762 -0.08320655 0.022039168 0.07022137
0.024564773 -0.02048878 0.0026756965 0.09264955 0.12803988 -0.030678047 -0.08914942 0.008524159
-0.07041388 0.03466561 -0.10781011 0.084898055 -0.06379359 -0.0036836697 -0.0021235074 0.028873865
0.12165789 -0.15757468 -0.13018434 0.176376 -0.2795047 -0.009432247 -0.039144054 -0.086735465
0.122903995 0.32964265 -0.02381185 0.36335284 0.16897084 0.22795007 0.104158565 0.4044372
0.25134566 0.3199075 0.078971505 -0.017896049 -0.3595464 0.12490144 0.18291877 -0.06083075
0.064416945 0.03865851 0.029902661 0.054584604 -0.042420417 -0.036708646 0.081979774 -0.07960068
0.11460715 -0.16626637 0.033626296 0.09987439 -0.06197026 0.27193257 -0.107992806 -0.13755427
-0.0906761 -0.09351799 -0.18469119 0.08404967 0.049771022 -0.06278598 0.3095941 0.035794184
-0.06085589 -0.07845588 0.034998316 0.19695154 -0.07676211 -0.050545502 -0.044502392 0.03369126
-0.1196887 -0.1509947 0.079802826 0.12541369 0.20594087 0.0040424373 -0.09741907 -0.039211128
0.10086496 0.06623884 -0.0148455165 0.11483232 0.044416457 0.044161476 0.02208572 -0.018567085
-0.13579002 0.027472403 -0.059412036 0.050200924 -0.07805938 0.038399413 -0.08348424 -0.076595515
-0.020639436 0.046676915 0.18934095 -0.047292225 -0.076664776 0.2222815 0.095028564 0.2629146
0.13038921 0.22243448 0.19118741 -0.08075658 0.28029236 0.22024107 -0.010877025 -0.13750544
-0.29459107 -0.021910165 -0.32812268 -0.022244224 0.058585767 -0.0021552823 0.0856254 -0.16971742
0.040481273 -0.06288404 0.10199173 0.034086965 0.18484673 0.17827614 -0.23382951 0.13547824
-0.032415047 0.012452135 -0.023628285 0.06318089 -0.041181635 0.0036335567 0.036083754 -0.032600135
0.033807993 -0.0012011436 0.06888917 0.09668467 0.10325909 0.01695895 0.036257856 0.041233853
0.021793505 0.08678573 -0.22524343 0.09533569 -0.47563967 -0.22245203 -0.056558575 -0.095391676
-0.2435616 0.028788995 -0.1236797 0.21831888 0.17367627 0.020657625 0.19117042 -0.12008955
0.08657725 0.08366865 -0.18962449 0.053703427 -0.17124803 -0.28309295 0.092090935 0.00045761385
0.018711088 -0.0275863 0.15641445 0.26971874 -0.031826675 -0.058761515 -0.009054318 0.110654466
0.018325942 0.090577126 0.12692846 0.13210802 -0.18225466 -0.004293952 0.1258505 0.052936886
-0.22987367 -0.047926858 -0.034855023 0.026708351 0.008552848 -0.081878684 -0.030514406 -0.053811647
00000000: e32b 423e 5f3f bd3e 8a9e 7fbe 30f4 e6bc
00000010: e150 f73e 1647 56be aa27 ec3e 945e a03e
00000020: 0ccb ec3d 4a05 34be 093d 6ebe 5746 243d
00000030: eb91 3fbe cd0a a8bc 69e4 95be 173c d93e
00000040: 4893 02be 8b39 973e 3168 96bd da32 243e
00000050: 85b7 0dbe 436e 80bd 1c05 ce3d fbd6 073e
00000060: d8dd 6f3e 5c42 afbc 69d3 26be 9524 11bd
00000070: c7ca a7bd 600f 07bc d93c 3abe 497b 04be
00000080: 74f2 bbbd af0b 6e3d c0ef 0dbe f2e3 88bd
00000090: 05bd eebd d8ed a6bd 9a50 fd3d a820 4dbe
000000a0: 669b 44be 2aa6 9abd fa26 34be 4695 f7bd
000000b0: a42a e6be 3cb7 fc3d 4484 a93c 3b4c dc38
000000c0: 53de a4bb ff08 c1bc f5e4 44be 77f3 0d3e
000000d0: f8bb 58be c666 9fbe ed40 ffbd bc73 a83d
000000e0: 9946 02be c921 bdbd 8059 d23d 2f76 42be
000000f0: f40b c83c 3268 aabd 7c8b b43c 39d0 8f3d
00000100: 103c c93c 16d8 a7bc bd5a 2f3b 0cbf bd3d
00000110: e31c 033e 8750 fbbc f993 b6bd eaa8 0b3c
00000120: 2735 90bd 87fd 0d3d 8ccb dcbd 08df ad3d
00000130: 37a6 82bd b969 71bb 8b2a 0bbb e288 ec3c
00000140: c627 f93d 425b 21be 0b4f 05be e99b 343e
00000150: 3d1b 8fbe b689 1abc 8455 20bd 5da2 b1bd
00000160: 17b5 fb3d ecc6 a83e 1211 c3bc 6209 ba3e
00000170: b106 2d3e be6b 693e 1651 d53d 6512 cf3e
00000180: 61b0 803e eaca a33e d0bb a13d bc9a 92bc
00000190: 7716 b8be 54cc ff3d 0f4f 3b3e aa29 79bd
000001a0: 08ed 833d 6358 1e3d 6df6 f43c 1b94 5f3d
000001b0: 08c1 2dbd ce5b 16bd 03e5 a73d ae05 a3bd
000001c0: 27b7 ea3d bb41 2abe babb 093d f28a cc3d
000001d0: 87d4 7dbd bf3a 8b3e 552b ddbd 07db 0cbe
000001e0: 64b4 b9bd 5c86 bfbd b01f 3dbe 3c22 ac3d
000001f0: b3dc 4b3d f095 80bd 1e83 9e3e ec9c 123d
00000200: 0744 79bd 7aad a0bd 655a 0f3d aaad 493e
00000210: 7435 9dbd cd08 4fbd 2448 36bd d9ff 093d
00000220: 591f f5bd 5b9e 1abe aa6f a33d 726c 003e
00000230: 2ae2 523e 6c76 843b a683 c7bd d99b 20bd
00000240: 4a92 ce3d 3ba8 873d 9c3a 73bc 352d eb3d
00000250: 08ee 353d aae2 343d 1ded b43c 001a 98bc
00000260: 8a0c 0bbe ce0d e13c 095a 73bd 7c9f 4d3d
00000270: 99dd 9fbd b448 1d3d c9f9 aabd 1cde 9cbd
00000280: 0914 a9bc 4b30 3f3d 98e2 413e 7eb5 41bd
00000290: 6c02 9dbd c39d 633e 569e c23d be9c 863e
000002a0: c084 053e ddc5 633e a2c6 433e b563 a5bd
000002b0: 7b82 8f3e e086 613e 8d35 32bc 3ace 0cbe
000002c0: a4d4 96be f27c b3bc b2ff a7be 8539 b6bc
000002d0: a1f7 6f3d a33f 0dbb 5f5c af3d 67ca 2dbe
000002e0: b1cf 253d 59c9 80bd 0ae1 d03d c69e 0b3d
000002f0: 7648 3d3e 058e 363e 0171 6fbe cfba 0a3e
00000300: a4c5 04bd 0a04 4c3c 1b90 c1bc fc64 813d
00000310: 13ae 28bd f720 6e3b 8fcc 133d b887 05bd
00000320: 407a 0a3d b16f 9dba c415 8d3d 9d02 c63d
00000330: 8079 d33d 7fed 8a3c 1e83 143d d4e4 283d
00000340: 4b88 b23c b8bc b13d 37a6 66be 5c3f c33d
00000350: 0b87 f3be 77ca 63be f7a9 67bd b65c c3bd
00000360: 3668 79be e6d6 eb3c c84b fdbd fc8e 5f3e
00000370: 31d8 313e 2e3a a93c 2ec2 433e 83f1 f5bd
00000380: 6a4f b13d 785a ab3d ec2c 42be 20f8 5b3d
00000390: a55b 2fbe 8ff1 90be 2c9a bc3d e4eb ef39
000003a0: ff47 993c aafc e1bc 1c2b 203e 9318 8a3e
000003b0: b05c 02bd eaaf 70bd 9058 14bc cf9e e23d
000003c0: 4920 963c 8080 b93d 89f9 013e 5347 073e
000003d0: f7a0 3abe 48b4 8cbb f4de 003e 59d4 583d
000003e0: 0164 6bbe f44e 44bd 24c4 0ebd 79cb da3c
000003f0: 3f21 0c3c 03b0 a7bd 59f9 f9bc 9a69 5cbd

89 f4 [32]
-0.5700414 0.0071512163 0.526776 0.30892268 -0.06229783 -0.5585803 -0.33498022 -0.12558551
-0.00062517263 -0.016498921 -0.5390047 0.07977162 -0.21774161 0.21308243 -0.15453655 0.006538011
0.150821 -0.26973164 0.058006104 -0.00045683235 -0.016706513 -0.2866403 -0.049837697 -0.46503595
0.15021884 -0.12037182 -0.009441419 0.40628347 -0.0008859299 0.14464793 0.17181465 0.26215458
00000000: 3cee 11bf c054 ea3b cbda 063f 1d2b 9e3e
00000010: 022c 7fbd 1eff 0ebf 8782 abbe 7d99 00be
00000020: a0e2 23ba bf28 87bc 36fc 09bf 4e5f a33d
00000030: a8f7 5ebe 4832 5a3e d43e 1ebe d03c d63b
00000040: d270 1a3e 441a 8abe cf97 6d3d 0083 efb9
00000050: 19dc 88bc 84c2 92be 9d22 4cbd 3119 eebe
00000060: f8d2 193e 8085 f6bd 2eb0 1abc 6304 d03e
00000070: c03d 68ba 961e 143e 2ef0 2f3e 2039 863e

91 f4 [64, 32, 3, 3]
0.0074192327 0.03875438 -0.0043879184 -0.025331667 0.025293184 -0.018635241 -0.0075901723 0.003118898
-0.045229677 -0.015584707 -0.0036478853 0.060355354 -0.056974784 -0.029169083 0.004774573 -0.027142575
0.016564963 -0.004470576 0.033031438 0.01126868 0.0059278454 0.036062647 0.006541007 -0.025779227
0.05839487 0.0242896 0.004178103 0.04270132 0.05895179 0.06061944 0.013994391 0.018559229
0.019063711 0.00082840165 0.026557487 0.015029124 -0.011290785 -0.005447052 -0.0067490865 -0.010374833
-0.0061900113 -0.0054750293 -0.0035709885 -0.0014657512 -0.00035358197 0.0087441495 -0.015279622 -0.003087455
-0.02581764 -0.037027035 -0.013110921 -0.05750171 -0.03458828 -0.046463765 0.008695802 0.005292745
0.009020076 0.01261339 0.018507106 0.026417734 0.016052479 0.016053671 -0.0059912265 -0.002263056
0.033252373 0.045936156 -0.03392264 -0.0016153653 0.018559879 -0.033774555 -0.016590111 0.0099473875
0.0038634897 0.018087441 0.01948533 -0.01366063 -0.0061267605 0.002298846 -0.005043228 0.004522489
-0.0055763107 0.00071968697 0.0039757723 0.0030401512 0.003913631 -0.002591958 0.004704037 0.0063539925
-0.00056202424 -0.0008684737 0.0061346395 0.0043747723 0.022019906 0.02935272 0.030445969 0.040085334
-0.013206265 -0.013021402 -0.0058720433 -0.008774748 0.018434253 0.019010704 -0.0028326507 0.024260573
0.04968555 -0.014935175 0.010053995 0.007957387 -0.009441403 0.0018367851 0.009647901 0.0053084395
0.008821788 0.010658418 0.0013671209 0.006470244 0.011766371 0.034979876 0.036096394 0.036327343
0.008667639 0.01643027 0.016906753 -0.01988551 -0.016967375 -0.016866015 -0.0069810823 0.013009822
-0.00046185646 0.011291995 0.016742708 0.013766315 -0.0022778925 -0.006533554 -0.014314721 -0.0010784833
-0.00597276 -0.009545815 0.008849609 0.0039002441 -0.00793372 0.0020310201 0.00085916725 -0.013618547
-0.014329204 0.008308378 -0.003354506 -0.033522088 0.0015004998 -0.007594813 0.0020003133 0.034503095
0.02276019 -0.0018675955 0.001906876 0.010676646 -0.00079487695 0.018086785 0.024456304 -0.0045743654
0.01637092 0.016771086 -0.028425511 -0.015712691 -0.00013585741 0.012058787 0.03512562 0.02055822
0.056294248 0.06765862 0.0632504 0.03053822 0.026657907 0.03319778 0.0016324798 0.0021635487
0.009518114 -0.022977008 -0.010306573 -0.015650801 0.052023116 0.03912966 0.038773727 0.07593015
0.074800566 0.033688154 0.039792933 0.017095493 0.016241461 -0.022336675 -0.015393094 0.00041657497
0.007674514 0.015212641 0.006516869 0.011649421 0.01625655 0.013540881 -0.00011939129 0.0048136716
-0.0070342966 0.0074831354 0.0067980234 -0.01111167 0.012493965 0.017623248 0.0044240598 -0.046188198
-0.020623174 -0.021230314 0.0023850366 -0.010166473 -0.0011299216 -0.04844499 -0.010997049 -0.0014443266
-0.014045805 -0.0077681397 -0.02056718 -0.017783377 0.0058296737 -0.011621255 0.0037446264 0.012233552
0.00030712373 0.013173693 0.0034572573 -0.017471524 -0.0015826408 0.011703515 -0.01933072 0.02373408
0.016171217 0.0040024226 0.004565676 0.022365803 0.029781204 0.011134622 0.014328987 0.009733642
-0.02366978 -0.029779054 -0.034930486 0.06095512 0.04561528 0.020117583 0.04215033 0.015595546
0.0072633843 0.0021908332 -0.0011969156 -0.0038775736 0.05437924 0.048947733 0.041218832 0.027623076
00000000: 091d f33b eabc 1e3d 87c8 8fbb 5b84 cfbc
00000010: a733 cf3c efa8 98bc fbb6 f8bb 6d66 4c3b
00000020: c142 39bd 0057 7fbc 5c11 6fbb 2d37 773d
00000030: 645e 69bd 00f4 eebc 0574 9c3b 1b5a debc
00000040: 3fb3 873c e97d 92bb f94b 073d 45a0 383c
00000050: 5f3e c23b 6db6 133d f255 d63b f52e d3bc
00000060: 762f 6f3d fcfa c63c 78e8 883b 94e7 2e3d
00000070: 6f77 713d 174c 783d bb48 653c 8609 983c
00000080: 802b 9c3c 1829 593a 168f d93c b73c 763c
00000090: fcfc 38bc 2f7d b2bb 7127 ddbb 34fb 29bc
000000a0: 94d5 cabb e067 b3bb 3f07 6abb 731e c0ba
000000b0: f860 b9b9 9f43 0f3c 6157 7abc e656 4abb
000000c0: 847f d3bc a9a9 17bd 30cf 56bc ea86 6bbd
000000d0: 71ac 0dbd ca50 3ebd d678 0e3c c36e ad3b
000000e0: f1c8 133c 64a8 4e3c 379c 973c 016a d83c
000000f0: 7d80 833c fd82 833c 0d52 c4bb c84f 14bb
00000100: a433 083d 8d27 3c3d 77f2 0abd aaba d3ba
00000110: e30a 983c 3057 0abd fce7 87bc 5efa 223c
00000120: 9a32 7d3b 1d2c 943c b39f 9f3c d6d0 5fbc
00000130: fec2 c8bb 3ca8 163b aa41 a5bb 6331 943b
00000140: 7cb9 b6bb 60a9 3c3a 3247 823b 463d 473b
00000150: eb3d 803b d7dd 29bb 5324 9a3b 2735 d03b
00000160: cf54 13ba 49aa 63ba 1605 c93b 405a 8f3b
00000170: 1763 b43c 1e75 f03c d369 f93c 8530 243d
00000180: 175f 58bc b857 55bc 456a c0bb f6c3 0fbc
00000190: 6e03 973c 56bc 9b3c fea3 39bb 1cbe c63c
000001a0: 1383 4b3d aab2 74bc 83b9 243c b35f 023c
000001b0: 1db0 1abc 48c0 f03a 3b12 1e3c 6bf2 ad3b
000001c0: 4389 103c a5a0 2e3c f730 b33a 5704 d43b
000001d0: bdc7 403c 0f47 0f3d d0d9 133d fbcb 143d
000001e0: b702 0e3c c698 863c 0880 8a3c f0e6 a2bc
000001f0: 2aff 8abc 992a 8abc 90c1 e4bb 2627 553c
00000200: 5325 f2b9 0f02 393c 0128 893c 1c8c 613c
00000210: b248 15bb 6c17 d6bb 4b88 6abc e55b 8dba
00000220: 24b7 c3bb 0d66 1cbc f3fd 103c 3d9b 7f3b
00000230: 6ffc 01bc dd1a 053b bd39 613a 5320 5fbc
00000240: 0ac5 6abc dd1f 083c 46d7 5bbb 754e 09bd
00000250: 6bac c43a e9dd f8bb b017 033b 1e53 0d3d
00000260: 9473 ba3c 1bca f4ba 24f0 f93a 19ed 2e3c
00000270: 4a5f 50ba bd2a 943c 9658 c83c 8fe4 95bb
00000280: 4f1c 863c 8463 893c 9edc e8bc e7b7 80bc
00000290: f274 0eb9 3892 453c e2df 0f3d b669 a83c
000002a0: cc94 663d 9a90 8a3d 6d89 813d 4a2b fa3c
000002b0: af61 da3c 65fa 073d eff8 d53a 53ca 0d3b
000002c0: ddf1 1b3c 473a bcbc e6dc 28bc 1c36 80bc
000002d0: 3116 553d 6c46 203d 33d1 1e3d 4481 9b3d
000002e0: 0a31 993d 97fc 093d eafd 223d d90b 8c3c
000002f0: d00c 853c 67fb b6bc 5133 7cbc bf67 da39
00000300: 7d7a fb3b 713e 793c 768b d53b 37dd 3e3c
00000310: 752c 853c 92da 5d3c b661 fab8 01bc 9d3b
00000320: f57f e6bb 1735 f53b f4c1 de3b b90d 36bc
00000330: 7db3 4c3c a15e 903c b4f7 903b d62f 3dbd
00000340: eef1 a8bc 32eb adbc 464e 1c3b 4791 26bc
00000350: e119 94ba 416e 46bd f72c 34bc 8f4f bdba
00000360: 6020 66bc e18b febb 817c a8bc 72ae 91bc
00000370: d906 bf3b 1467 3ebc 6868 753b 3c6f 483c
00000380: 7305 a139 79d6 573c 2793 623b 7120 8fbc
00000390: 9d70 cfba 1ac0 3f3c 755b 9ebc f96d c23c
000003a0: 8079 843c c126 833b ab9b 953b 7d38 b73c
000003b0: b6f7 f33c fd6d 363c 21c4 6a3c db79 1f3c
000003c0: 20e7 c1bc 34f3 f3bc 4513 0fbd 13ac 793d
000003d0: 16d7 3a3d a1cd a43c d3a5 2c3d 7684 7f3c
000003e0: af01 ee3b 1594 0f3b d3e1 9cba e41e 7ebb
000003f0: c4bc 5e3d 6b7d 483d 14d5 283d ca49 e23c

92 f4 [64]
-0.2449004 -1.0435649e-38 -0.14686957 0.12291461 -3.921677e-39 -0.019273873 -0.012021292 -4.785073e-39
-0.04004555 -0.3017729 -1.0114246e-38 -9.735105e-39 -2.0798708e-38 -2.478122e-39 -0.11375608 0.11965168
0.23198274 -0.21783301 -0.085629955 -7.817331e-39 -3.689706e-39 -3.078031e-38 -0.1138483 -0.22527337
-1.4475364e-38 -6.737868e-38 -1.2894292e-36 -0.045978732 -2.240912e-37 -0.08881702 -1.156855e-38 -0.19900727
-1.5623767e-38 -2.6715766e-38 -2.0131742e-37 0.005482316 -3.462866e-39 -0.16456188 -0.34407422 -0.33345932
-8.640161e-38 0.21799393 -2.13226e-39 0.110655025 -0.078327745 0.16624588 -0.03913461 -0.07099746
0.08461775 0.46886176 -1.1820692e-38 -1.7766005e-38 -1.7633381e-38 -9.4695e-39 0.082363896 -1.0559584e-37
-2.712412e-38 -5.141753e-38 -7.258541e-39 -0.0123052085 0.22688602 -1.1498433e-38 -0.045540474 -3.772277e-39
00000000: 2cc7 7abe 58a2 7180 fa64 16be a8ba fb3d
00000010: 0ab4 2a80 3ee4 9dbc f4f4 44bc d61a 3480
00000020: cd06 24bd fa81 9abe 6722 6e80 8301 6a80
00000030: 567a e280 fffb 1a80 f3f8 e8bd f10b f53d
00000040: e28c 6d3e 9e0f 5fbe c25e afbd 8a1f 5580
00000050: 662d 2880 7e95 2781 4c29 e9bd 10ae 66be
00000060: 6d9f 9d80 166c b781 9062 db83 3254 3cbd
00000070: 3282 9882 b3e5 b5bd 69f8 7d80 90c8 4bbe
00000080: b520 aa80 5874 1181 7102 8982 00a5 b33b
00000090: 10b5 2580 e982 28be 7f2a b0be 2ebb aabe
000000a0: 2235 eb81 cd39 5f3e e037 1780 1a9f e23d
000000b0: 4c6a a0bd 5c3c 2a3e 9d4b 20bd 1e67 91bd
000000c0: 124c ad3d a60e f03e 48b7 8080 6574 c180
000000d0: b102 c080 1d1d 6780 67ae a83d c8ba 0f82
000000e0: 81ad 1381 caf8 8b81 dc09 4f80 c99b 49bc
000000f0: cf54 683e f434 7d80 a688 3abd 9313 2980

94 f4 [64, 64, 3, 3]
0.0017404249 -7.286046e-05 0.006403122 0.00087434653 -0.0017188592 0.01371296 -0.00517894 -0.007742268
0.0043917117 -1.177872e-38 2.2822626e-38 -5.474877e-38 2.2402685e-38 2.1943094e-38 -4.2966025e-38 -1.5580633e-38
5.1176586e-38 -2.96339e-39 0.0024378207 -0.012020862 -0.011012716 0.0027449625 -0.0050731665 -0.0069872737
0.0015876959 -0.00931107 -0.0073480047 0.0037250796 -0.021570496 -0.0023598482 0.007760541 -0.0133398
-0.00025369317 0.0020295654 -0.022819273 -0.0005312093 2.7176426e-38 -1.9448965e-38 -2.5495034e-38 -2.5827576e-38
-2.3254552e-38 2.4492242e-38 2.685953e-38 2.4442098e-38 -2.8229017e-38 0.0027947575 0.0006505642 -0.0071891835
0.0012636832 0.0010750586 -0.0055077444 -0.0009086444 -0.004285305 -0.0062650195 0.008830915 -0.033713095
0.0018945173 0.00828125 -0.026571264 0.003414022 0.0067787743 -0.023224227 -0.004124896 -2.6560536e-38
2.5355372e-38 2.310973e-38 -2.5140528e-38 -2.2109938e-38 -2.486368e-38 2.9350317e-38 -2.7070177e-38 2.51454e-38
-0.0017092185 0.0070019844 -0.0011197693 -0.0040967823 0.0068161516 -0.0015416365 -0.0023230151 0.0046296422
-0.0050690337 -0.0070248377 -0.010185554 0.0010659609 -0.008186848 -0.009285028 0.0009594593 -0.009431667
-0.008950721 -0.0069399546 -3.6862053e-38 -3.2587042e-38 -5.418524e-39 -4.279861e-38 3.147221e-38 1.3224367e-38
-3.3919265e-38 3.0836996e-38 -3.4776145e-38 2.0548586e-38 1.9340483e-38 1.6191695e-38 2.125103e-38 2.142805e-38
4.903819e-38 2.3046092e-38 1.8191737e-38 1.8275302e-38 -6.107208e-38 9.579946e-39 1.421594e-38 9.472242e-39
-6.268847e-39 -2.0391586e-38 6.730547e-38 -4.049346e-39 -5.840125e-38 -2.8676808e-38 2.2251269e-38 1.9254996e-38
-2.4450856e-38 -2.3779233e-38 2.1446981e-38 -2.4510784e-38 -2.5316354e-38 2.4073203e-38 0.011012199 0.013947238
0.0012332228 0.0011825974 0.0008575814 -0.0059182397 0.010346575 0.013403586 0.004276437 -0.012110559
0.009929592 0.002391926 -0.017100822 -0.004375063 -0.018784327 0.008448744 0.023497434 -0.0051759267
-0.0066725896 -0.0033939627 -0.021326153 0.018563522 0.023163848 0.008891106 -0.003661755 0.0031589132
-0.0015536349 0.0031205316 -0.023703609 0.0022065274 0.00519442 -0.019483015 0.00071015296 0.007998523
-0.015205355 -0.007146443 -0.0022526511 -0.0028791267 -0.0040764953 -0.0017828261 -0.0032734892 -0.0058082496
-0.0008892235 -0.0013261471 -0.004472777 -5.605707e-39 -5.98552e-39 -1.6806774e-38 -2.238927e-38 -1.9465469e-38
1.1205874e-38 1.6183924e-38 -1.1684076e-38 -1.124226e-38 2.3959104e-38 -2.2890579e-38 -2.1184554e-38 2.3508463e-38
-2.2235039e-38 -2.1858751e-38 -1.4728192e-38 3.5608258e-38 -2.5953045e-38 -1.2741796e-37 -4.740733e-38 1.8436406e-37
2.656863e-39 6.2203314e-38 1.3321039e-37 3.8608046e-38 1.7066397e-38 1.4386582e-37 -0.0019648813 0.0017109079
-0.010792882 -0.0052147987 -0.0012136494 -0.012579721 0.0031156447 0.0032669145 -0.0058418997 -0.00842568
0.0020417215 -0.00816064 0.011223327 0.012126592 -0.008178334 0.017701678 0.03223713 -0.014171437
4.736515e-38 4.5983107e-38 4.2973634e-38 -4.829778e-38 4.5231902e-38 4.8118274e-38 1.8112258e-38 -4.979762e-38
-1.603355e-38 -8.1145405e-38 -1.1758976e-37 -5.330782e-38 -1.1025846e-37 -1.1245705e-37 -7.620157e-38 -8.932625e-39
8.979245e-38 3.632944e-38 1.788909e-36 1.7736308e-36 5.1669237e-37 -4.03782e-37 -9.407031e-37 2.7793735e-37
7.4392774e-37 -1.8367709e-36 -1.6282774e-37 -0.0029042324 -0.003097754 -0.004786862 -0.0017141418 -0.002796875
-0.0037385363 -0.0001350479 -0.0016951218 -0.004626771 -2.2242445e-37 3.188273e-37 -3.190274e-37 2.0299593e-37
00000000: f81e e43a a9cc 98b8 48d1 d13b 6734 653a
00000010: 584b e1ba 53ac 603c 19b4 a9bb dab2 fdbb
00000020: 59e8 8f3b 4742 8080 3284 f800 530a 9581
00000030: 92f1 f300 6bf0 ee00 e6ed 6981 77a8 a980
00000040: e050 8b01 ba44 2080 d8c3 1f3b 26f3 44bc
00000050: ae6e 34bc d4e4 333b ce3c a6bb 80f5 e4bb
00000060: 3c1a d03a 758d 18bc 88c7 f0bb 7720 743b
00000070: 9cb4 b0bc afa7 1abb 234c fe3b 2d8f 5abc
00000080: 1f02 85b9 7502 053b 7cef babc da40 0bba
00000090: 69f6 1301 cdc7 d380 e4ce 0a81 639e 0c81
000000a0: 3b38 fd80 3459 0501 b93c 1201 5013 0501
000000b0: 82b1 1981 4028 373b a08a 2a3a 3e93 ebbb
000000c0: 2ca2 a53a fbe8 8c3a 4f7a b4bb 1832 6eba
000000d0: be6b 8cbb cb4a cdbb 8baf 103c be16 0abd
000000e0: 7451 f83a 14ae 073c fbab d9bc c9bd 5f3b
000000f0: 7b20 de3b bc40 bebc 232a 87bb fc9b 1081
00000100: 3b0c 0a01 86a4 fb00 c8e0 0881 83c1 f080
00000110: e95e 0781 5fcc 1f01 5262 1381 93e7 0801
00000120: db07 e0ba e770 e53b 39c5 92ba 4d3e 86bb
00000130: 065a df3b bd10 caba ba3d 18bb 41b4 973b
00000140: 231a a6bb 9c30 e6bb 4fe1 26bc b6b7 8b3a
00000150: 2122 06bc 3b20 18bc 3984 7b3a 4787 1abc
00000160: 0ba6 12bc 8f68 e3bb 34b2 4881 b56b 3181
00000170: a400 3b80 8e04 6981 dc59 2b01 2800 9000
00000180: 8eac 3881 80e4 2701 df56 3d81 19c1 df00
00000190: 6699 d200 dc4f b000 3a67 e700 af54 e900
000001a0: a17e 8501 21f3 fa00 2917 c600 1b00 c700
000001b0: 0741 a681 fe50 6800 42cc 9a00 c224 6700
000001c0: ff42 4480 720b de80 1139 b701 ee17 2c80
000001d0: bbfb 9e81 a321 1c81 7c4b f200 18ab d100
000001e0: 851f 0581 6a77 0181 7589 e900 0c73 0581
000001f0: d9d5 0981 2611 0301 836c 343c f582 643c
00000200: 17a4 a13a 6201 9b3a 50cf 603a cbed c1bb
00000210: ae84 293c b79a 5b3c 5b21 8c3b 5e6b 46bc
00000220: baaf 223c dcc1 1c3b 0617 8cbc b05c 8fbb
00000230: 97e1 99bc 9a6c 0a3c b17d c03c d29a a9bb
00000240: bda5 dabb 3f6d 5ebb 2fb4 aebc 8712 983c
00000250: 1cc2 bd3c 00ac 113c 0efa 6fbb c505 4f3b
00000260: 56a3 cbba d581 4c3b 122e c2bc 639b 103b
00000270: f435 aa3b d89a 9fbc 8f29 3a3a 3d0c 033c
00000280: e21f 79bc b52c eabb 37a1 13bb bbaf 3cbb
00000290: 1f94 85bb b8ad e9ba 0988 56bb 2153 bebb
000002a0: c71a 69ba 1dd2 adba 5f90 92bb 6e0a 3d80
000002b0: 322d 4180 7302 b780 2dcc f380 cff5 d380
000002c0: 6b05 7a00 323a b000 733a 7f80 d96a 7a80
000002d0: 1e72 0201 9f41 f980 ebad e680 08fc ff00
000002e0: 3e1e f280 4e05 ee80 3560 a080 abde 4101
000002f0: 444d 0d81 ae6e 2d82 160e 8181 80f1 7a02
00000300: 41ee 1c00 6255 a901 0c51 3502 c333 5201
00000310: 2cd6 b900 ecd1 4302 3dc5 00bb 8b40 e03a
00000320: a1d4 30bc e7e0 aabb 5113 9fba 2d1b 4ebc
00000330: d82f 4c3b bb19 563b 686d bfbb dd0b 0abc
00000340: 67ce 053b 34b4 05bc 0ce2 373c 9dae 463c
00000350: 6bfe 05bc 1c03 913c 150b 043d 512f 68bc
00000360: b1f0 8001 195b 7a01 81f8 6901 a47a 8381
00000370: 1244 7601 8bfd 8201 9b39 c500 e08f 8781
00000380: 0497 ae80 18e6 dc81 0d0e 2082 211e 9181
00000390: 7713 1682 9011 1982 be70 cf81 8644 6180
000003a0: 3470 f401 d9cb 4501 fd2e 1804 42e2 1604
000003b0: 41d2 2f03 5f66 0983 660d a083 8427 bd02
000003c0: 3f25 7d03 5441 1c84 30a1 5d82 ef54 3ebb
000003d0: b003 4bbb 1cdb 9cbb 0ead e0ba c74b 37bb
000003e0: 3b02 75bb a59b 0db9 d92e deba 2b9c 97bb
000003f0: ce5f 9782 8dfb d802 6a1e d982 e126 8a02
