server/model/bolo_de_chocolate.onnx (onnx, 301496 bytes, 16 tensors)

fc.weight f4 [2, 256]
0	0x00031ac0	2.85103e-40
1	0x0001eeed	1.77546e-40
2	0x00042a04	3.82414e-40
3	0x0003d93f	3.5344e-40
4	0x002595c6	3.451642e-39
5	0x002fde2f	4.395973e-39
6	0x002fde2f	4.395973e-39
7	0x00304fc7	4.436723e-39
8	0x8003bb9e	-3.42811e-40
9	0x8007fd61	-7.33744e-40
10	0x80166676	-2.057137e-39
11	0x0010d591	1.545981e-39
12	0x002005b8	2.940787e-39
13	0x002110e9	3.036638e-39
14	0x002408b3	3.309199e-39
15	0x002238ff	3.142853e-39
16	0x3e02ed89	0.12785925
17	0x3df825aa	0.12116559
18	0x3e4ca60b	0.19985215
19	0x3e4f4e9d	0.20244832
20	0x80208714	-2.987193e-39
21	0x801c996a	-2.626428e-39
22	0x801813b5	-2.211121e-39
23	0x8016af60	-2.083294e-39
24	0x801ea8f2	-2.815671e-39
25	0x801ef81a	-2.844067e-39
26	0x80239f6b	-3.271431e-39
27	0x801fb92d	-2.913329e-39
28	0x0013851f	1.792629e-39
29	0x000ef989	1.375213e-39
30	0x000fa799	1.437655e-39
31	0x00116bba	1.599848e-39
32	0x3e7df675	0.24801047
33	0x3e75ee34	0.24016649
34	0x3e7c1177	0.24616037
35	0x3e7c5459	0.24641551
36	0x800fb875	-1.443703e-39
37	0x8011e9a6	-1.645021e-39
38	0x80146206	-1.871874e-39
39	0x80133140	-1.762542e-39
40	0x0014b8db	1.903024e-39
41	0x0013de19	1.824548e-39
42	0x0016ed28	2.105457e-39
43	0x0013e171	1.825748e-39
44	0x0024bc62	3.373657e-39
45	0x80229591	-3.176061e-39
46	0x00228b3b	3.172353e-39
47	0x80240949	-3.309409e-39
48	0x80d3580f	-1.9408879e-38
49	0x80e879be	-2.1349508e-38
50	0x80c4ccb9	-1.8073198e-38
51	0x80d40cf3	-1.947377e-38
52	0x000c0565	1.103961e-39
53	0x000e71a3	1.326462e-39
54	0x0018b718	2.269734e-39
55	0x00153496	1.94741e-39
56	0x8001752d	-1.3387e-40
57	0x0003e307	3.56949e-40
58	0x000673d9	5.92571e-40
59	0x0007b8f3	7.09196e-40
60	0x80099b75	-8.82287e-40
61	0x80093e95	-8.4897e-40
62	0x800be2d5	-1.091562e-39
63	0x800abcbe	-9.86063e-40
64	0x801f0c23	-2.851254e-39
65	0x8022f088	-3.208693e-39
66	0x801cf938	-2.660797e-39
67	0x801db0ae	-2.72661e-39
68	0x001bc4d5	2.550168e-39
69	0x00121de4	1.663762e-39
70	0x001eb69e	2.820576e-39
71	0x0016a05c	2.077907e-39
72	0x00257299	3.439023e-39
73	0x0026f1bc	3.576467e-39
74	0x00291b20	3.774986e-39
75	0x002936ae	3.784871e-39
76	0x800ff98e	-1.467056e-39
77	0x8004d32a	-4.43093e-40
78	0x80100e3c	-1.474474e-39
79	0x8004504a	-3.96144e-40
80	0x8013f01a	-1.831007e-39
81	0x00083fde	7.57595e-40
82	0x800b49d7	-1.036679e-39
83	0x0006da34	6.2929e-40
84	0x8007805c	-6.88895e-40
85	0x80078ccc	-6.93357e-40
86	0x800821c2	-7.46794e-40
87	0x8007bbb1	-7.1018e-40
88	0xbd83107c	-0.063996285
89	0xbe1971bb	-0.14984791
90	0xbd6594b8	-0.056050032
91	0xbe0ef9f7	-0.13962542
92	0x80292edd	-3.782067e-39
93	0x802931f4	-3.783175e-39
94	0x0029eccd	3.850203e-39
95	0x0027721e	3.622522e-39
96	0x8019fad5	-2.385869e-39
97	0x801a2540	-2.401086e-39
98	0x80172530	-2.125557e-39
99	0x80192c85	-2.311858e-39
100	0x80023f4b	-2.06376e-40
101	0x000231fd	2.01603e-40
102	0x000038de	2.04e-41
103	0x80008775	-4.8593e-41
104	0x00148763	1.885278e-39
105	0x000e2db6	1.302095e-39
106	0x80025504	-2.14169e-40
107	0x8017de14	-2.191883e-39
108	0x801024d4	-1.48258e-39
109	0x800c99d4	-1.157209e-39
110	0x800b58be	-1.042025e-39
111	0x800cb126	-1.165575e-39
112	0x800aae0d	-9.80793e-40
113	0x000c9958	1.157035e-39
114	0x8010c522	-1.540086e-39
115	0x80168217	-2.067048e-39
116	0xbe1ff464	-0.15620571
117	0xbe997282	-0.29970175
118	0xbe05db3a	-0.1307191
119	0xbe948029	-0.29004028
120	0x002145d7	3.055625e-39
121	0x002457ea	3.337615e-39
122	0x00290dde	3.77023e-39
123	0x00265cd2	3.523047e-39
124	0x002cbe84	4.109106e-39
125	0x002b514c	3.97809e-39
126	0x002b2fd6	3.966087e-39
127	0x002db62a	4.197945e-39
128	0x3d5b7445	0.05357768
129	0x3d5d1212	0.05397231
130	0x3d5ddeed	0.054167677
131	0x3d62ce2d	0.055372406
132	0x3cc9a221	0.024613442
133	0x3ccce203	0.025010115
134	0x3d330094	0.043701723
135	0x3d3bbd3b	0.04583476
136	0x80078e7c	-6.93962e-40
137	0x0003d180	3.50661e-40
138	0x8004ffa1	-4.59044e-40
139	0x0005e845	5.425e-40
140	0x3e15a4ba	0.1461362
141	0x3e1525fc	0.14565271
142	0x3e0d0857	0.13772713
143	0x3e13560a	0.1438829
144	0x8003bc78	-3.43116e-40
145	0x800e04bf	-1.2874e-39
146	0x8002fce1	-2.74387e-40
147	0x8011600a	-1.595656e-39
148	0x80128021	-1.699003e-39
149	0x801d2aa3	-2.678525e-39
150	0x801b8c80	-2.52996e-39
151	0x8013204d	-1.756462e-39
152	0x003a8285	5.37328e-39
153	0x003aef67	5.41234e-39
154	0x0040e7da	5.960644e-39
155	0x00421074	6.067045e-39
156	0x3e60ab73	0.21940403
157	0x3e54d4fa	0.20784369
158	0x3e683b53	0.2267888
159	0x3e5a56da	0.21322194
160	0x3d40b554	0.047047928
161	0x3d455143	0.0481732
162	0x3d42e55d	0.04758202
163	0x3d49f3d8	0.049304813
164	0x3e208494	0.15675575
165	0x3e16be2b	0.14720981
166	0x3e239ad6	0.15977034
167	0x3e16fcda	0.14744893
168	0xbbd99ed4	-0.0066412482
169	0xbbf45ff4	-0.0074577276
170	0x3d64d84d	0.055870343
171	0x3d74486a	0.059639372
172	0x80104d14	-1.497018e-39
173	0x800fa160	-1.435423e-39
174	0x802578b9	-3.44122e-39
175	0x801a2b45	-2.403245e-39
176	0x3da816e9	0.08207495
177	0x3da9b7ad	0.082869865
178	0x3dab2ecd	0.08358536
179	0x3db04dce	0.0860859
180	0x800ffa50	-1.467328e-39
181	0x000ec3b1	1.355898e-39
182	0x800da7ae	-1.254014e-39
183	0x000ce4b4	1.184069e-39
184	0xbd70c9b7	-0.05878612
185	0xbd81f4a7	-0.06345492
186	0xbd7ee980	-0.0622344
187	0xbd8da4c3	-0.069161914
188	0x00015688	1.22877e-40
189	0x0006ba6c	6.17889e-40
190	0x000b67a9	1.047377e-39
191	0x000b19fc	1.019512e-39
192	0x800583da	-5.06477e-40
193	0x800d7682	-1.236374e-39
194	0x0005cfdb	5.33742e-40
195	0x80048d60	-4.18058e-40
196	0x00068f95	6.0252e-40
197	0x0008847e	7.82213e-40
198	0x00174e9a	2.140413e-39
199	0x8008466c	-7.59947e-40
200	0x00625593	9.030577e-39
201	0x0063fa1a	9.181434e-39
202	0x0059a23e	8.23156e-39
203	0x005f5af3	8.756999e-39
204	0x803c1566	-5.517806e-39
205	0x8031b7a8	-4.565823e-39
206	0x803f19b9	-5.794864e-39
207	0x803f9b76	-5.841405e-39
208	0x000f6320	1.413092e-39
209	0x0016a022	2.077826e-39
210	0x000e9921	1.340629e-39
211	0x001ae510	2.469895e-39
212	0x3e2ab033	0.16668777
213	0x3e28f848	0.16500962
214	0x3e26f9f8	0.16306293
215	0x3e2ff0a2	0.17181638
216	0xbde72add	-0.112874724
217	0xbe6380d5	-0.22217114
218	0xbdf54310	-0.11975682
219	0xbe544cd9	-0.2073244
220	0x00043ec5	3.8986e-40
221	0x0004886d	4.16282e-40
222	0x00037020	3.1573e-40
223	0x0001c761	1.63359e-40
224	0x3def041f	0.11670708
225	0x3de75d8b	0.11297139
226	0x3deb806f	0.11499106
227	0x3deed30c	0.11661348
228	0x800f9052	-1.429305e-39
229	0x000b0092	1.010395e-39
230	0x00058aaf	5.08928e-40
231	0x0010c200	1.538962e-39
232	0x000e71aa	1.326472e-39
233	0x000c68b7	1.13959e-39
234	0x8022fbb2	-3.212698e-39
235	0x802158c6	-3.062417e-39
236	0x00025526	2.14216e-40
237	0x800a8ab9	-9.68119e-40
238	0x000e56c9	1.31683e-39
239	0x800449d3	-3.93825e-40
240	0x80b9811d	-1.7035884e-38
241	0x809e3448	-1.4528763e-38
242	0x809b144b	-1.4241782e-38
243	0x80a0b756	-1.4759448e-38
244	0x3e6580b3	0.22412376
245	0x3e4dd9e4	0.2010265
246	0x3e681a49	0.22666277
247	0x3e4dbb5c	0.20091003
248	0x007da659	1.1539111e-38
249	0x803333cb	-4.70219e-39
250	0x806f3e0d	-1.0216e-38
251	0x801e0bf9	-2.75936e-39
252	0xbdb4159a	-0.08793183
253	0xbe281ece	-0.16418001
254	0xbdcf7930	-0.101305366
255	0xbe313498	-0.17305219

fc.bias f4 [2]
0	0xbc8fcadc	-0.017552786
1	0x3d83d25a	0.06436606

79 f4 [16, 3, 7, 7]
0	0x3cdfa7e9	0.027301745
1	0xbd07e09c	-0.03317319
2	0x3cccfd10	0.025023013
3	0x3da91ec2	0.0825782
4	0x3d8498e3	0.06474473
5	0x3d5273ac	0.051379845
6	0x3954c862	0.00020292544
7	0x3d99dfb4	0.07513371
8	0x3d970696	0.07374303
9	0x3dff0c65	0.12453536
10	0x3e06e4f4	0.13173276
11	0x3dd27988	0.102770865
12	0x3ce4e6fb	0.027942171
13	0x3c9b58e4	0.018963285
14	0x3df591a9	0.11990673
15	0x3d80973b	0.06278845
16	0x3d488422	0.048954137
17	0x3cf90851	0.030399473
18	0x3de06abf	0.1095786
19	0x3d8a9a18	0.06767672
20	0x3d4b9cb3	0.049709987
21	0x3dd991ce	0.10623513
22	0xbd86a538	-0.06574482
23	0xbdeaa82a	-0.11457856
24	0xbe0e07eb	-0.13870208
25	0xbcd18d98	-0.025580212
26	0x3c960ac8	0.018315688
27	0x3c183bce	0.009291602
28	0x3c574002	0.013137819
29	0x3c48eb88	0.012263186
30	0x3ce2af69	0.027671533
31	0xbdb210ec	-0.08694634
32	0xbd89b2b9	-0.06723542
33	0xbdcc7787	-0.099837355
34	0xbdd5ddfa	-0.10442729
35	0xbd6c1ed0	-0.057646573
36	0x3d95af61	0.073088415
37	0x3da5fc0b	0.08104714
38	0xbd0934ac	-0.033497497
39	0xbd8686a6	-0.06568651
40	0xbe17cbfb	-0.14823906
41	0xbdef95e5	-0.11698512
42	0xbe1590ab	-0.14605968
43	0xbda0625a	-0.07831259
44	0xbdd16094	-0.10223499
45	0xbe20ace8	-0.15690958
46	0xbddcf09a	-0.107880786
47	0xbdd83782	-0.10557462
48	0xbd552f22	-0.052046902
49	0xb9392c12	-0.00017659392
50	0xbc9a11d2	-0.018807326
51	0xbc60878d	-0.013704193
52	0x3d2865fa	0.041112877
53	0x3d191a07	0.037378337
54	0xbb7bc17e	-0.003841489
55	0xbd27113e	-0.040787928
56	0xbc792cc2	-0.015208425
57	0x3cee65e4	0.02910132
58	0x3d0386de	0.03211104
59	0x3c24660b	0.010034095
60	0x3d3f8d7a	0.046765782
61	0xbc7896d3	-0.015172678
62	0x3bb37d76	0.0054776026
63	0x3ca8b4e8	0.020594075
64	0xbd000d62	-0.031262763
65	0xbda9fb77	-0.08299916
66	0xbd4d07b3	-0.05005617
67	0x3b916089	0.0044365567
68	0x3b93af9e	0.004507019
69	0x3d2b66e1	0.04184616
70	0xbbaaa16d	-0.0052072317
71	0xbe031741	-0.1280184
72	0xbe2fd694	-0.17171699
73	0xbe2f3ab7	-0.17112242
74	0xbcd4eace	-0.02599087
75	0x3d6494eb	0.05580608
76	0x3d1c6613	0.038183283
77	0xbab82c9f	-0.0014051384
78	0x3d961b85	0.07329468
79	0x3d86ddd8	0.06585282
80	0x3cdcea90	0.026967317
81	0x3d5bd15f	0.05366647
82	0x3b54806d	0.003242518
83	0x3c235c8b	0.009970794
84	0x3d1aa3f3	0.03775401
85	0x3e637405	0.22212227
86	0x3e76c8e3	0.2410007
87	0x3e38ced3	0.18047647
88	0x3e10d0b8	0.1414212
89	0x3d238637	0.03992292
90	0x3cc532ed	0.024072135
91	0xbd18467a	-0.037176587
92	0x3dc98cc2	0.098413005
93	0x3de1bbd7	0.11022156
94	0x3db3b906	0.08775525
95	0x3e073964	0.13205487
96	0x3dcda3eb	0.100410305
97	0x3dd573e7	0.10422497
98	0xbdb0a2bf	-0.08624791
99	0xbd848e9c	-0.06472513
100	0xbd287a4c	-0.041132256
101	0x3c0ce244	0.008598868
102	0x3cbccd4c	0.023047112
103	0xbc419284	-0.011814717
104	0x3bbf8a15	0.005845318
105	0xbd986a8e	-0.07442199
106	0xbcdfa122	-0.027298514
107	0xbd080263	-0.0332054
108	0xbc823ac6	-0.015897166
109	0x3c342bda	0.010996783
110	0xbb988692	-0.004654714
111	0xbbb0fa07	-0.0054008993
112	0xbd577edc	-0.052611217
113	0xbdc0ac4a	-0.094078615
114	0xbe086c52	-0.13322571
115	0xbdeba3bc	-0.11505839
116	0xbb3495d9	-0.0027555136
117	0x3d14d797	0.036338415
118	0x3d5bde9c	0.053679094
119	0xbd853fff	-0.06506347
120	0xbe2fbd1a	-0.1716198
121	0xbe6a45ae	-0.22878143
122	0xbe525c09	-0.20542921
123	0xbd3720db	-0.044709068
124	0x3d542d5b	0.051801067
125	0x3ddeac1f	0.10872673
126	0xbd5e0d44	-0.05421187
127	0x3d0cc415	0.034366686
128	0x3d2d47c1	0.042304758
129	0xbc7f6596	-0.015588185
130	0x3ce6901b	0.028144887
131	0x3d18fd15	0.037350733
132	0x3d5a45d8	0.053289264
133	0xbc0283b1	-0.007965968
134	0x3e1b844b	0.15187185
135	0x3e3430f2	0.17596796
136	0x3e17c8c5	0.14822681
137	0x3ddf1fad	0.108947136
138	0x3cbd71f9	0.023125635
139	0x3d3081ea	0.043092646
140	0xbdd43c12	-0.1036302
141	0x3cec858e	0.028872278
142	0x3d1a71ca	0.037706174
143	0xbadb1b41	-0.0016716496
144	0x3d8ada00	0.067798615
145	0x3d84d78e	0.06486426
146	0x3daa5df6	0.08318703
147	0x3d01b17d	0.031663407
148	0x3cb67501	0.022272589
149	0x3c89e642	0.016833428
150	0x3cec271a	0.028827239
151	0x3cef975e	0.029246982
152	0x3c6bddf5	0.01439618
153	0x3c069f5b	0.008216704
154	0x3c4b6f2d	0.012416643
155	0xbc124e6c	-0.00892983
156	0xbca392f5	-0.019967536
157	0xbb70d104	-0.0036745677
158	0xb9e98803	-0.0004454256
159	0xbb0743f0	-0.002063986
160	0xbb437889	-0.0029826483
161	0x3aacb381	0.0013176055
162	0xbcc01b44	-0.023450501
163	0xbcf97023	-0.030448979
164	0xbba1aefc	-0.00493419
165	0xbc284530	-0.010270402
166	0xbc62b737	-0.013837627
167	0xbc870378	-0.016481146
168	0xbc20b8ab	-0.009809653
169	0xbca887bd	-0.020572538
170	0xbd01dcfa	-0.03170488
171	0xbc040de1	-0.00805995
172	0xbc20cb1f	-0.009814053
173	0xbc84bcaa	-0.016203243
174	0xbcb80213	-0.022461927
175	0xbca3a24d	-0.019974852
176	0xbc884a09	-0.016636865
177	0xbcb47a56	-0.02203099
178	0x3b940299	0.004516911
179	0x3b8e73f0	0.004347317
180	0xbbee9ff0	-0.0072822496
181	0xbc918562	-0.017763797
182	0xbd16c459	-0.036808345
183	0xbcf67fc4	-0.03009022
184	0xbcffa4e6	-0.03120656
185	0xbb62ba71	-0.003459599
186	0xbb7499e2	-0.0037323167
187	0xbc7c9f2f	-0.015418812
188	0xbcf06c7e	-0.029348608
189	0xbd1c3999	-0.038140867
190	0xbd053d5c	-0.03252922
191	0xbd1007e4	-0.035163775
192	0xbacb83d6	-0.0015526961
193	0xb8d5ef01	-0.000102011494
194	0xbc23103d	-0.009952602
195	0xbcd015fa	-0.025401104
196	0x3d03c23d	0.032167662
197	0x3ce6de1d	0.028182084
198	0x3ce6fb7d	0.02819609
199	0x3cfe1f63	0.031020826
200	0x3d0ef37b	0.03490017
201	0x3cbaf239	0.022820579
202	0x3ca0ecc8	0.019644156
203	0x3c8883e5	0.016664455
204	0xba2f0601	-0.0006676615
205	0xbb9f8e5e	-0.0048692664
206	0xbb60c289	-0.003429564
207	0x3aede4e4	0.001814988
208	0x3b6264ac	0.0034544868
209	0x3b8f11e5	0.004366147
210	0x3aae1de2	0.0013284052
211	0xbc874a4d	-0.016514922
212	0xbc9ef360	-0.01940316
213	0xbc2a5f37	-0.010398678
214	0xbc5641ae	-0.013077183
215	0xbc5c8569	-0.013459542
216	0xbc72ac4d	-0.0148115875
217	0xbba4e201	-0.0050318246
218	0xbc2f7643	-0.010709348
219	0xbc870df3	-0.016486144
220	0xbc57efa6	-0.013179695
221	0xbc58dee7	-0.013236738
222	0xbc7e736e	-0.01553045
223	0xbca5dc05	-0.020246515
224	0xbc15c4f9	-0.0091412
225	0xbba949d1	-0.0051662703
226	0xbc11dc6f	-0.008902653
227	0xbb92ef78	-0.0044841133
228	0xbb6ebb13	-0.0036427423
229	0xbc264d48	-0.010150261
230	0xbc8d2d39	-0.017233478
231	0xbc97aed9	-0.018515991
232	0xbc4b0a8d	-0.012392652
233	0xbc444e25	-0.011981522
234	0xbb383976	-0.0028110421
235	0xbac6b8f2	-0.0015161319
236	0xbc343dcb	-0.011001061
237	0xbcb3cdfb	-0.021948805
238	0xbc1c0ca9	-0.009524503
239	0xbbd1dd9b	-0.0064045913
240	0xbc1dbc06	-0.009627348
241	0x3ba5d52f	0.005060814
242	0x3bd4216a	0.00647371
243	0xbb211918	-0.0024581607
244	0xbc8582c7	-0.016297711
245	0x3d2bd478	0.041950673
246	0x3d16e3ad	0.036838222
247	0x3d05d4d5	0.032673676
248	0x3d2e8b47	0.042613294
249	0x3d30f9f9	0.043207143
250	0x3cf650b1	0.030067774
251	0x3cc84ac2	0.02444971
252	0x3d12024f	0.035646733
253	0x3c8901a8	0.016724423
254	0x3c56a4fe	0.013100861
255	0x3c4d4941	0.012529672

80 f4 [16]
0	0xbebce1fa	-0.36891156
1	0x3e0f636a	0.14002767
2	0x3da8f31f	0.08249497
3	0x3dd63708	0.10459715
4	0x8018951c	-2.257542e-39
5	0x81a0cd21	-5.9069063e-38
6	0x3ef3612b	0.4753507
7	0x80081661	-7.42712e-40
8	0x3e20ac94	0.15690833
9	0x80735165	-1.0590281e-38
10	0x3c9e9ba0	0.019361317
11	0xbf0722ca	-0.5278746
12	0xbd37756c	-0.044789717
13	0x3e9c5904	0.30536664
14	0xbed42b02	-0.41439062
15	0x3e02f0d6	0.12787184

82 f4 [32, 16, 3, 3]
0	0x00000000	0.0
1	0x00000000	0.0
2	0x80000000	-0.0
3	0x00000000	0.0
4	0x80000000	-0.0
5	0x80000000	-0.0
6	0x80000000	-0.0
7	0x80000000	-0.0
8	0x80000000	-0.0
9	0x00000000	0.0
10	0x00000000	0.0
11	0x00000000	0.0
12	0x00000000	0.0
13	0x00000000	0.0
14	0x00000000	0.0
15	0x80000000	-0.0
16	0x80000000	-0.0
17	0x80000000	-0.0
18	0x00000000	0.0
19	0x00000000	0.0
20	0x80000000	-0.0
21	0x00000000	0.0
22	0x00000000	0.0
23	0x80000000	-0.0
24	0x00000000	0.0
25	0x00000000	0.0
26	0x80000000	-0.0
27	0x00000000	0.0
28	0x00000000	0.0
29	0x00000000	0.0
30	0x00000000	0.0
31	0x00000000	0.0
32	0x00000000	0.0
33	0x00000000	0.0
34	0x00000000	0.0
35	0x00000000	0.0
36	0x80000000	-0.0
37	0x00000000	0.0
38	0x00000000	0.0
39	0x80000000	-0.0
40	0x00000000	0.0
41	0x00000000	0.0
42	0x80000000	-0.0
43	0x80000000	-0.0
44	0x00000000	0.0
45	0x80000000	-0.0
46	0x80000000	-0.0
47	0x80000000	-0.0
48	0x80000000	-0.0
49	0x80000000	-0.0
50	0x00000000	0.0
51	0x80000000	-0.0
52	0x80000000	-0.0
53	0x00000000	0.0
54	0x00000000	0.0
55	0x00000000	0.0
56	0x00000000	0.0
57	0x00000000	0.0
58	0x00000000	0.0
59	0x00000000	0.0
60	0x00000000	0.0
61	0x80000000	-0.0
62	0x80000000	-0.0
63	0x80000000	-0.0
64	0x00000000	0.0
65	0x00000000	0.0
66	0x80000000	-0.0
67	0x80000000	-0.0
68	0x80000000	-0.0
69	0x80000000	-0.0
70	0x80000000	-0.0
71	0x80000000	-0.0
72	0x00000000	0.0
73	0x00000000	0.0
74	0x00000000	0.0
75	0x00000000	0.0
76	0x00000000	0.0
77	0x00000000	0.0
78	0x00000000	0.0
79	0x80000000	-0.0
80	0x80000000	-0.0
81	0x00000000	0.0
82	0x00000000	0.0
83	0x00000000	0.0
84	0x00000000	0.0
85	0x00000000	0.0
86	0x00000000	0.0
87	0x00000000	0.0
88	0x00000000	0.0
89	0x80000000	-0.0
90	0x80000000	-0.0
91	0x00000000	0.0
92	0x00000000	0.0
93	0x80000000	-0.0
94	0x00000000	0.0
95	0x00000000	0.0
96	0x80000000	-0.0
97	0x00000000	0.0
98	0x00000000	0.0
99	0x80000000	-0.0
100	0x80000000	-0.0
101	0x00000000	0.0
102	0x80000000	-0.0
103	0x80000000	-0.0
104	0x00000000	0.0
105	0x80000000	-0.0
106	0x80000000	-0.0
107	0x00000000	0.0
108	0x00000000	0.0
109	0x00000000	0.0
110	0x80000000	-0.0
111	0x00000000	0.0
112	0x80000000	-0.0
113	0x80000000	-0.0
114	0x80000000	-0.0
115	0x80000000	-0.0
116	0x80000000	-0.0
117	0x00000000	0.0
118	0x00000000	0.0
119	0x00000000	0.0
120	0x00000000	0.0
121	0x00000000	0.0
122	0x00000000	0.0
123	0x80000000	-0.0
124	0x80000000	-0.0
125	0x80000000	-0.0
126	0x80000000	-0.0
127	0x80000000	-0.0
128	0x00000000	0.0
129	0x80000000	-0.0
130	0x80000000	-0.0
131	0x00000000	0.0
132	0x80000000	-0.0
133	0x80000000	-0.0
134	0x00000000	0.0
135	0x80000000	-0.0
136	0x00000000	0.0
137	0x00000000	0.0
138	0x00000000	0.0
139	0x00000000	0.0
140	0x00000000	0.0
141	0x80000000	-0.0
142	0x80000000	-0.0
143	0x80000000	-0.0
144	0x80000000	-0.0
145	0x80000000	-0.0
146	0x80000000	-0.0
147	0x80000000	-0.0
148	0x80000000	-0.0
149	0x80000000	-0.0
150	0x80000000	-0.0
151	0x80000000	-0.0
152	0x00000000	0.0
153	0x00000000	0.0
154	0x00000000	0.0
155	0x00000000	0.0
156	0x00000000	0.0
157	0x00000000	0.0
158	0x00000000	0.0
159	0x00000000	0.0
160	0x00000000	0.0
161	0x00000000	0.0
162	0x80000000	-0.0
163	0x80000000	-0.0
164	0x80000000	-0.0
165	0x80000000	-0.0
166	0x80000000	-0.0
167	0x80000000	-0.0
168	0x80000000	-0.0
169	0x80000000	-0.0
170	0x80000000	-0.0
171	0x80000000	-0.0
172	0x80000000	-0.0
173	0x80000000	-0.0
174	0x80000000	-0.0
175	0x80000000	-0.0
176	0x80000000	-0.0
177	0x80000000	-0.0
178	0x80000000	-0.0
179	0x80000000	-0.0
180	0x00000000	0.0
181	0x00000000	0.0
182	0x00000000	0.0
183	0x00000000	0.0
184	0x00000000	0.0
185	0x00000000	0.0
186	0x00000000	0.0
187	0x00000000	0.0
188	0x00000000	0.0
189	0x00000000	0.0
190	0x00000000	0.0
191	0x00000000	0.0
192	0x00000000	0.0
193	0x00000000	0.0
194	0x00000000	0.0
195	0x00000000	0.0
196	0x00000000	0.0
197	0x00000000	0.0
198	0x00000000	0.0
199	0x00000000	0.0
200	0x00000000	0.0
201	0x00000000	0.0
202	0x00000000	0.0
203	0x00000000	0.0
204	0x00000000	0.0
205	0x00000000	0.0
206	0x00000000	0.0
207	0x00000000	0.0
208	0x80000000	-0.0
209	0x80000000	-0.0
210	0x00000000	0.0
211	0x00000000	0.0
212	0x00000000	0.0
213	0x00000000	0.0
214	0x00000000	0.0
215	0x00000000	0.0
216	0x00000000	0.0
217	0x00000000	0.0
218	0x00000000	0.0
219	0x00000000	0.0
220	0x00000000	0.0
221	0x00000000	0.0
222	0x00000000	0.0
223	0x00000000	0.0
224	0x00000000	0.0
225	0x80000000	-0.0
226	0x80000000	-0.0
227	0x80000000	-0.0
228	0x80000000	-0.0
229	0x80000000	-0.0
230	0x80000000	-0.0
231	0x80000000	-0.0
232	0x80000000	-0.0
233	0x80000000	-0.0
234	0x80000000	-0.0
235	0x80000000	-0.0
236	0x80000000	-0.0
237	0x80000000	-0.0
238	0x80000000	-0.0
239	0x80000000	-0.0
240	0x80000000	-0.0
241	0x80000000	-0.0
242	0x80000000	-0.0
243	0x80000000	-0.0
244	0x80000000	-0.0
245	0x80000000	-0.0
246	0x80000000	-0.0
247	0x80000000	-0.0
248	0x80000000	-0.0
249	0x80000000	-0.0
250	0x80000000	-0.0
251	0x80000000	-0.0
252	0x80000000	-0.0
253	0x80000000	-0.0
254	0x80000000	-0.0
255	0x80000000	-0.0

83 f4 [32]
0	0x80176f44	-2.152131e-39
1	0x800547f4	-4.8499e-40
2	0x8009e94d	-9.10212e-40
3	0x80086071	-7.6928e-40
4	0x3eaeaa6d	0.341144
5	0x800714fa	-6.50373e-40
6	0xbe2587f1	-0.16165139
7	0x800e8244	-1.332427e-39
8	0x8012c50d	-1.723727e-39
9	0x801d795b	-2.706764e-39
10	0x800e82f2	-1.332671e-39
11	0x3e13c8b0	0.14432025
12	0x800001b2	-6.08e-43
13	0x812b1e4a	-3.142947e-38
14	0x801d8296	-2.710075e-39
15	0x3d91b59c	0.07114717
16	0x80056a12	-4.97228e-40
17	0x80167dd5	-2.065521e-39
18	0x8017b2be	-2.176337e-39
19	0xbda320e3	-0.07965257
20	0xbdae0cfc	-0.0849857
21	0x3b8b43c0	0.00425002
22	0x3d372792	0.04471547
23	0x3bf9aa24	0.0076191593
24	0x801cedb8	-2.656671e-39
25	0x8010d69e	-1.546358e-39
26	0x808a4b90	-1.2700405e-38
27	0x800f92f3	-1.430248e-39
28	0x800bed6f	-1.095366e-39
29	0xbda2d3eb	-0.079505764
30	0x80116117	-1.596033e-39
31	0x801e60c1	-2.789774e-39

85 f4 [32, 32, 3, 3]
0	0x0042a9c7	6.122047e-39
1	0x006882c0	9.597796e-39
2	0x803321d7	-4.69575e-39
3	0x0078f87f	1.1109403e-38
4	0x0059bfa6	8.24211e-39
5	0x800fc8f4	-1.449621e-39
6	0x0078cdad	1.1094042e-38
7	0x8087d39f	-1.2473707e-38
8	0x8058d670	-8.15845e-39
9	0x804d5642	-7.102277e-39
10	0x80340592	-4.777444e-39
11	0x8015c7f5	-2.000276e-39
12	0x00155b6e	1.961344e-39
13	0x00505f78	7.381087e-39
14	0x8048205d	-6.623765e-39
15	0x0031523d	4.529441e-39
16	0x8047273c	-6.534395e-39
17	0x807b390d	-1.1316232e-38
18	0x008b27ed	1.2779457e-38
19	0x006e6165	1.0136843e-38
20	0x006be0bf	9.907022e-39
21	0x004f0c92	7.259514e-39
22	0x801d9325	-2.716015e-39
23	0x003bca55	5.490877e-39
24	0x80088088	-7.80792e-40
25	0x001f0ffc	2.852634e-39
26	0x8001402f	-1.1486e-40
27	0x802ebb12	-4.291541e-39
28	0x80a9b4ff	-1.5585128e-38
29	0x80a3c330	-1.5039206e-38
30	0x00071e92	6.53815e-40
31	0x8045ec77	-6.421477e-39
32	0x00d947ca	1.9954056e-38
33	0x0042efa6	6.147112e-39
34	0x804bbf08	-6.956191e-39
35	0x8016c18f	-2.089817e-39
36	0x3e872b8e	0.26400417
37	0x3ebc980c	0.36834753
38	0x3debe277	0.11517804
39	0xbd8684bf	-0.06568288
40	0x3ccc3612	0.024928126
41	0xbd4e2ec8	-0.050337583
42	0x3db73083	0.089448
43	0xbde6fa1e	-0.11278175
44	0xbe95e8d4	-0.29279196
45	0x801d09ef	-2.666793e-39
46	0x007515f9	1.0752635e-38
47	0x0033c349	4.753665e-39
48	0x00b29dab	1.6403279e-38
49	0x8092b92b	-1.3474408e-38
50	0x006a68cf	9.772161e-39
51	0x0044fc35	6.335289e-39
52	0x00c1b056	1.7787508e-38
53	0x009746a2	1.3892498e-38
54	0xbdedd5b7	-0.116130285
55	0xbe140309	-0.14454283
56	0xbd8207c7	-0.0634914
57	0xbda3c2a0	-0.07996106
58	0xbd2a7d2d	-0.041623283
59	0xbc82bd0e	-0.015959289
60	0x3ce48b20	0.027898371
61	0x3d26cbba	0.040721633
62	0x3cf05c0a	0.029340763
63	0x0069db84	9.721474e-39
64	0x00601b62	8.826031e-39
65	0x006c5c45	9.951334e-39
66	0x80270bd6	-3.58583e-39
67	0x001eec14	2.839754e-39
68	0x00214a44	3.057213e-39
69	0x0023ef3e	3.300066e-39
70	0x0023da99	3.29266e-39
71	0x0014d9d4	1.914852e-39
72	0x8038d811	-5.220298e-39
73	0x008da586	1.3008184e-38
74	0x00517fe0	7.484548e-39
75	0x80292c3a	-3.781121e-39
76	0x805e76e7	-8.675191e-39
77	0x009932d0	1.4069059e-38
78	0x8022ebd8	-3.207012e-39
79	0x807ee7f1	-1.1654477e-38
80	0x00a0990f	1.4748586e-38
81	0x00328e3b	4.642797e-39
82	0x008f50dc	1.3161483e-38
83	0x000d2404	1.206781e-39
84	0x8079029e	-1.1113034e-38
85	0x00541589	7.721907e-39
86	0x800c5516	-1.132549e-39
87	0x0046893f	6.47772e-39
88	0x0036241d	4.972072e-39
89	0x00b9d816	1.7067084e-38
90	0x00aeaa00	1.6040361e-38
91	0x007fbdc5	1.1731184e-38
92	0x00d32285	1.9389673e-38
93	0x80b0af9f	-1.6226048e-38
94	0x005bcfb0	8.431534e-39
95	0x00713521	1.039647e-38
96	0x80c0e7d4	-1.771558e-38
97	0x8035a6fa	-4.927181e-39
98	0x80788059	-1.1066302e-38
99	0xbd2c4f7a	-0.042067982
100	0xbde0ae20	-0.10970712
101	0xbd8044ee	-0.06263147
102	0xbde27e56	-0.11059253
103	0xbde1b146	-0.1102014
104	0xbd2ce836	-0.04221364
105	0x3dad2e5e	0.084561095
106	0x3da6e27d	0.08148668
107	0x3d92b870	0.07164085
108	0x003cf0bc	5.596489e-39
109	0x007b3324	1.1314112e-38
110	0x00803fbd	1.1777808e-38
111	0x00256401	3.433788e-39
112	0x001e6f97	2.795096e-39
113	0x8046b9a8	-6.495086e-39
114	0x0061ef3d	8.993866e-39
115	0x0017b265	2.176212e-39
116	0x004167cf	6.006547e-39
117	0x01a11bee	5.9182137e-38
118	0x0192ccb6	5.3925676e-38
119	0x01a4c700	6.0529636e-38
120	0x812862f5	-3.0927725e-38
121	0x01498eda	3.702036e-38
122	0x802e5a47	-4.256818e-39
123	0x81fdc297	-9.3216745e-38
124	0x81df4050	-8.2009546e-38
125	0x01dcc7eb	8.1102105e-38
126	0x000fddb0	1.457059e-39
127	0x002b4592	3.973883e-39
128	0x00428e04	6.112088e-39
129	0x8032c106	-4.661019e-39
130	0x009031f8	1.3242237e-38
131	0x00634987	9.118091e-39
132	0x80891a72	-1.259095e-38
133	0x007da533	1.15387e-38
134	0x8090f213	-1.3311151e-38
135	0xbc966928	-0.01836069
136	0x3e4923da	0.19642583
137	0x3f231694	0.63706326
138	0xbe3e1716	-0.18563494
139	0xbe20c5f1	-0.15700509
140	0x3d558e06	0.052137397
141	0x3d867b2f	0.06566464
142	0xbde19be1	-0.1101606
143	0x3b81bd83	0.003959359
144	0x800a5637	-9.49283e-40
145	0x803c860e	-5.55822e-39
146	0x807767d3	-1.0965669e-38
147	0x807936fa	-1.1131817e-38
148	0x004e2f49	7.180131e-39
149	0x004cfc88	7.070089e-39
150	0x80560da9	-7.902753e-39
151	0x005a831b	8.312226e-39
152	0x005fd1db	8.799654e-39
153	0x80702fe1	-1.0302751e-38
154	0x8083509f	-1.2059371e-38
155	0x8040a8bc	-5.938002e-39
156	0x0050df7c	7.427011e-39
157	0x8021ff3d	-3.122134e-39
158	0x00735180	1.0590319e-38
159	0x007c6ff4	1.1427763e-38
160	0x807c4246	-1.1411376e-38
161	0x008c9dd9	1.2913595e-38
162	0x001b7928	2.523021e-39
163	0x0011a12c	1.619021e-39
164	0x006cbe5b	9.98652e-39
165	0x005e6a60	8.670697e-39
166	0x800f83ca	-1.42481e-39
167	0x00ab9fff	1.5761266e-38
168	0x8012ca01	-1.725504e-39
169	0x0015d1c6	2.003798e-39
170	0x0035de74	4.947082e-39
171	0x3dd9068e	0.10596953
172	0x3d8aad34	0.06771317
173	0x3cdfd192	0.02732161
174	0x3e634c83	0.22197156
175	0x3e823356	0.2542979
176	0x3e817bbf	0.25289723
177	0x3bfa8d54	0.007646242
178	0xbd8b8872	-0.06813134
179	0xbacdec51	-0.0015710687
180	0xbdcc608d	-0.09979353
181	0x3d658aa9	0.05604044
182	0x3e1eee3e	0.1552057
183	0x3cb10e9b	0.02161341
184	0xbe38a9b5	-0.18033488
185	0xbdc3d757	-0.09562557
186	0xbdbd8964	-0.09254721
187	0xbe143c8a	-0.14476219
188	0xbccee1de	-0.025254186
189	0x3e805113	0.25061855
190	0x3ea14f27	0.315057
191	0xbdfbffe9	-0.1230467
192	0x3e0f6207	0.14002238
193	0x3e836282	0.25661093
194	0x3e1cfb32	0.15330198
195	0x3e521843	0.20517068
196	0x3db49c35	0.088188566
197	0x3e58c940	0.21170521
198	0x3e823c41	0.25436595
199	0x3e34c695	0.17653878
200	0xbe8d1112	-0.27552086
201	0x3e007e6b	0.12548225
202	0xbd89f82a	-0.06736787
203	0xbe792ea3	-0.24334197
204	0x3e740264	0.23829037
205	0x3e1f8a5f	0.15580128
206	0xbe39c8c7	-0.18142997
207	0x3cc25672	0.023722861
208	0xbe1ca549	-0.15297426
209	0xbd2de561	-0.04245508
210	0xbe9f657d	-0.31132117
211	0xbe56021d	-0.20899244
212	0xbd4c135a	-0.049823143
213	0xbe933a6e	-0.28755516
214	0xbe02b87a	-0.12765685
215	0x3e5180c0	0.2045927
216	0x803a80a2	-5.372604e-39
217	0x803e7370	-5.735212e-39
218	0x00ac6395	1.5831429e-38
219	0x0023674d	3.2513e-39
220	0x805e7df3	-8.677719e-39
221	0x806c56ec	-9.949415e-39
222	0x001dff5e	2.754838e-39
223	0x00081296	7.41351e-40
224	0x80308a1e	-4.457651e-39
225	0x803e6051	-5.728353e-39
226	0x00591604	8.181257e-39
227	0x007dfcc7	1.1570116e-38
228	0x8077ae79	-1.0991013e-38
229	0x8029672a	-3.802264e-39
230	0x8068ae4e	-9.61342e-39
231	0x803d2754	-5.616074e-39
232	0x803bbc4e	-5.485845e-39
233	0x803d69b9	-5.639891e-39
234	0x01e6e05a	8.4810585e-38
235	0x01284c7c	3.0911602e-38
236	0x016efc52	4.3894727e-38
237	0x80e891f4	-2.1358193e-38
238	0x8092f24d	-1.3494904e-38
239	0x02055d01	9.797988e-38
240	0x81c165b7	-7.1042957e-38
241	0x013dacd3	3.4837813e-38
242	0x00517aad	7.482683e-39
243	0x809e0949	-1.4513339e-38
244	0x8043ab9c	-6.21454e-39
245	0x80051d2a	-4.6964e-40
246	0x006068dc	8.853824e-39
247	0x001a36bd	2.407359e-39
248	0x001086fa	1.517788e-39
249	0x805a3a08	-8.286012e-39
250	0x0086383b	1.2326128e-38
251	0x8098b1b4	-1.4022743e-38
252	0x00637adc	9.135788e-39
253	0x00de27cd	2.0401758e-38
254	0x00a64d6b	1.5272465e-38
255	0x80b32f4d	-1.6455522e-38

86 f4 [32]
0	0x3c64a5a4	0.013955507
1	0x803c807a	-5.556218e-39
2	0xbe04c342	-0.1296511
3	0x802a1993	-3.866265e-39
4	0x3d8f2c72	0.06990899
5	0xbd98981e	-0.07450889
6	0x8041bdaf	-6.037353e-39
7	0x3cf47e48	0.029845372
8	0x801c3518	-2.59044e-39
9	0xbdb90288	-0.09033686
10	0xbd01baa1	-0.031672124
11	0x3d043aee	0.032282762
12	0x8017cd68	-2.185902e-39
13	0x3e609f4e	0.2193577
14	0xbc3129bc	-0.010813173
15	0x80176f78	-2.152204e-39
16	0xbcdc1733	-0.026866531
17	0x3c543160	0.012951225
18	0x805441de	-7.73781e-39
19	0x8059433a	-8.197476e-39
20	0x800f449e	-1.402148e-39
21	0x800e5e5d	-1.319548e-39
22	0x3e7a6ca8	0.24455512
23	0xbdcb0c3a	-0.099144414
24	0x801494ef	-1.890137e-39
25	0x8007d2e0	-7.18496e-40
26	0x8023a62e	-3.273856e-39
27	0x802046a9	-2.964084e-39
28	0x80145a9e	-1.869217e-39
29	0x800cdc28	-1.181003e-39
30	0xbe2542b8	-0.16138732
31	0x80090d45	-8.3128e-40

88 f4 [32, 16, 1, 1]
0	0xbd5fa613	-0.05460174
1	0x3d5770fc	0.052597985
2	0xbe3be13a	-0.18347636
3	0x3e0b72fd	0.13618083
4	0x8084f990	-1.2211812e-38
5	0x82dc5a04	-3.237776e-37
6	0x3df7dbfe	0.12102507
7	0x801f9076	-2.898723e-39
8	0x3daec24f	0.08533155
9	0x81a6a0f2	-6.1209715e-38
10	0xbd5c2492	-0.053745814
11	0xbe17b75d	-0.14816041
12	0xbda0c120	-0.07849336
13	0x3ceda095	0.029007236
14	0xbe1af7dd	-0.15133615
15	0x3c936768	0.017993644
16	0x00000000	0.0
17	0x80000000	-0.0
18	0x00000000	0.0
19	0x00000000	0.0
20	0x80000000	-0.0
21	0x80000000	-0.0
22	0x80000000	-0.0
23	0x80000000	-0.0
24	0x80000000	-0.0
25	0x80000000	-0.0
26	0x00000000	0.0
27	0x00000000	0.0
28	0x00000000	0.0
29	0x80000000	-0.0
30	0x00000000	0.0
31	0x00000000	0.0
32	0xbdde3ab2	-0.10851039
33	0xbdd338f0	-0.10313594
34	0xbaada1e0	-0.0013247095
35	0x3c42c89f	0.011888652
36	0x00df44dd	2.0504019e-38
37	0x83a4e8f6	-9.692539e-37
38	0x3db63c32	0.088982
39	0x00b22a86	1.6361973e-38
40	0x3cbbe4c5	0.022936234
41	0x020981c5	1.0102412e-37
42	0xbdec807c	-0.11547944
43	0xbe1f1cc8	-0.15538323
44	0xbd38d15f	-0.045121547
45	0xbd6833ec	-0.05669014
46	0xbdefbb5c	-0.11705658
47	0xbcd527fa	-0.026020039
48	0x00000000	0.0
49	0x80000000	-0.0
50	0x80000000	-0.0
51	0x00000000	0.0
52	0x80000000	-0.0
53	0x80000000	-0.0
54	0x80000000	-0.0
55	0x00000000	0.0
56	0x80000000	-0.0
57	0x00000000	0.0
58	0x00000000	0.0
59	0x80000000	-0.0
60	0x80000000	-0.0
61	0x80000000	-0.0
62	0x00000000	0.0
63	0x00000000	0.0
64	0x3ebce735	0.36895147
65	0xbd672bf7	-0.056438413
66	0xbe291b50	-0.16514325
67	0x3eefa231	0.4680343
68	0x809df22a	-1.4505045e-38
69	0x837600dc	-7.229389e-37
70	0x3da36edc	0.07980129
71	0x80a73782	-1.535644e-38
72	0x3e1b577b	0.1517009
73	0x02074cf5	9.940319e-38
74	0x3cac1314	0.02100519
75	0xbd3338e6	-0.043755434
76	0xbe08ab3e	-0.13346574
77	0xbd2b2fc4	-0.0417936
78	0x3d1d5995	0.03841551
79	0x3d1dd24c	0.038530633
80	0x3bdabdfa	0.006675479
81	0xbd0697fa	-0.03285978
82	0xbe8247fc	-0.25445545
83	0x3ed94de0	0.42442226
84	0x012a6412	3.1295866e-38
85	0x83c4157d	-1.1524778e-36
86	0x3e2a7787	0.16647159
87	0x8103d48c	-2.4213395e-38
88	0x3e1ec874	0.15506154
89	0x024e0876	1.5136918e-37
90	0xbe1d204e	-0.15344355
91	0x3ee70ae3	0.45125493
92	0xbdac1334	-0.084021
93	0x3ea541bc	0.32276714
94	0x3ab43461	0.001374852
95	0x3e2b2694	0.16713935
96	0x00000000	0.0
97	0x80000000	-0.0
98	0x80000000	-0.0
99	0x00000000	0.0
100	0x80000000	-0.0
101	0x80000000	-0.0
102	0x00000000	0.0
103	0x00000000	0.0
104	0x80000000	-0.0
105	0x80000000	-0.0
106	0x00000000	0.0
107	0x80000000	-0.0
108	0x00000000	0.0
109	0x80000000	-0.0
110	0x00000000	0.0
111	0x80000000	-0.0
112	0xbca27673	-0.019831872
113	0xbea0df55	-0.3142039
114	0xbd94a2f4	-0.07257643
115	0x3d710d4d	0.058850575
116	0x8188b142	-5.021286e-38
117	0x838331b3	-7.710898e-37
118	0xbf28ed4b	-0.6598708
119	0x80a2f374	-1.4964685e-38
120	0xbd39b7a5	-0.045341153
121	0x00b889b0	1.6947124e-38
122	0xbe181cbb	-0.1485471
123	0x3d7c3011	0.061569277
124	0xbe03b16f	-0.12860654
125	0xbf0a3714	-0.5399029
126	0xbeae8047	-0.34082243
127	0xbdfd7ecf	-0.123777024
128	0x00000000	0.0
129	0x00000000	0.0
130	0x80000000	-0.0
131	0x80000000	-0.0
132	0x00000000	0.0
133	0x80000000	-0.0
134	0x00000000	0.0
135	0x00000000	0.0
136	0x80000000	-0.0
137	0x80000000	-0.0
138	0x00000000	0.0
139	0x00000000	0.0
140	0x80000000	-0.0
141	0x80000000	-0.0
142	0x00000000	0.0
143	0x80000000	-0.0
144	0x3d3a5334	0.045489505
145	0x3b4015bd	0.0029309832
146	0xbd5d83dd	-0.054080833
147	0x3dfaa66b	0.12238773
148	0x80622637	-9.013588e-39
149	0x83bca7fa	-1.1088212e-36
150	0x3d2bae40	0.041914225
151	0x80e43203	-2.0956434e-38
152	0x3d3102f8	0.04321572
153	0x0243e3ef	1.4391751e-37
154	0xbd436665	-0.047705073
155	0xbd06b6b3	-0.03288908
156	0xbd9cf3c3	-0.07663681
157	0xbd1ee53f	-0.038792845
158	0xbdbaaee3	-0.09115388
159	0xbcd76e32	-0.026297662
160	0xbe44a0db	-0.19201986
161	0x3ea59c12	0.32345635
162	0x3f21d6aa	0.63218176
163	0xbe8c7070	-0.27429533
164	0x80adb900	-1.5953906e-38
165	0x83a20803	-9.523344e-37
166	0x3e7e5b48	0.24839509
167	0x010f323d	2.6300996e-38
168	0x3d80da5a	0.06291647
169	0x820e2de5	-1.0445683e-37
170	0xbe195b90	-0.14976335
171	0x3dfebd36	0.12438433
172	0xbd102997	-0.035195913
173	0x3ec4f630	0.38469076
174	0xbe9e67eb	-0.30938658
175	0x3dc60268	0.09668428
176	0xbecfedcb	-0.4061111
177	0x3e6c5d93	0.2308257
178	0xbe9ec2da	-0.31008035
179	0xbdac5415	-0.08414475
180	0x80c678b8	-1.8226734e-38
181	0x82963fa2	-2.2077043e-37
182	0x3da9400e	0.082641706
183	0x807b5b3f	-1.1328499e-38
184	0x3ca57234	0.020196058
185	0x822922e9	-1.2426178e-37
186	0x3e98d218	0.2984779
187	0xbd20cb8f	-0.03925663
188	0x3deb65ef	0.11494052
189	0x3e78be31	0.24291302
190	0xbeb79fe5	-0.35864177
191	0x3dca7463	0.0988548
192	0x80000000	-0.0
193	0x00000000	0.0
194	0x00000000	0.0
195	0x00000000	0.0
196	0x00000000	0.0
197	0x00000000	0.0
198	0x80000000	-0.0
199	0x00000000	0.0
200	0x80000000	-0.0
201	0x00000000	0.0
202	0x00000000	0.0
203	0x80000000	-0.0
204	0x80000000	-0.0
205	0x80000000	-0.0
206	0x00000000	0.0
207	0x80000000	-0.0
208	0x3ddce28a	0.107853964
209	0x3c58596c	0.013204914
210	0xbeb579ff	-0.35444638
211	0x3de97ac1	0.114003666
212	0x00a8266a	1.5442144e-38
213	0x82d3c079	-3.1114137e-37
214	0xbd358e9e	-0.044325463
215	0x80ab7dd4	-1.5749008e-38
216	0xbd93e48d	-0.07221327
217	0x8116a175	-2.7666489e-38
218	0xbc5b48f5	-0.0133840935
219	0x3ec9e6c8	0.39433885
220	0x3e2d8334	0.16944581
221	0x3bb412c1	0.0054953997
222	0x3e16f22e	0.14740822
223	0xbd5b9bf3	-0.05361552
224	0x3e332ef0	0.17498374
225	0xbdbbffcf	-0.09179651
226	0xbe0f77df	-0.14010571
227	0xbd768eb3	-0.060194682
228	0x80b037db	-1.6183084e-38
229	0x03ed4a6d	1.3946695e-36
230	0x3ec2fafd	0.38082114
231	0x00f48489	2.2455406e-38
232	0x3e33cdbe	0.17558953
233	0x025857fd	1.5894425e-37
234	0x3efe7833	0.4970108
235	0x3e628033	0.22119217
236	0xbe59ed23	-0.21281867
237	0xbd2c4b04	-0.042063728
238	0x3e7244b5	0.23659022
239	0x3dbe3455	0.09287325
240	0x00000000	0.0
241	0x80000000	-0.0
242	0x00000000	0.0
243	0x00000000	0.0
244	0x80000000	-0.0
245	0x00000000	0.0
246	0x00000000	0.0
247	0x00000000	0.0
248	0x00000000	0.0
249	0x00000000	0.0
250	0x80000000	-0.0
251	0x80000000	-0.0
252	0x80000000	-0.0
253	0x80000000	-0.0
254	0x00000000	0.0
255	0x80000000	-0.0

89 f4 [32]
0	0x3d4c4afd	0.049876202
1	0x803c807a	-5.556218e-39
2	0x3d45e072	0.04830975
3	0x802a1993	-3.866265e-39
4	0xbe1c5e54	-0.15270358
5	0xbe8b793a	-0.27240926
6	0x8041bdaf	-6.037353e-39
7	0x3eabc1b6	0.33546227
8	0x801c3518	-2.59044e-39
9	0xbd29cd8c	-0.04145579
10	0xbe268e44	-0.16265208
11	0x3dae2106	0.085023925
12	0x8017cd68	-2.185902e-39
13	0xbe18bfd8	-0.14916933
14	0xbe91e078	-0.2849157
15	0x80176f78	-2.152204e-39
16	0x3e701db7	0.23448835
17	0xbdb9e852	-0.09077515
18	0x805441de	-7.73781e-39
19	0x8059433a	-8.197476e-39
20	0x800f449e	-1.402148e-39
21	0x800e5e5d	-1.319548e-39
22	0xbd312f5c	-0.043258056
23	0xbd1a533a	-0.037677027
24	0x801494ef	-1.890137e-39
25	0x8007d2e0	-7.18496e-40
26	0x8023a62e	-3.273856e-39
27	0x802046a9	-2.964084e-39
28	0x80145a9e	-1.869217e-39
29	0x800cdc28	-1.181003e-39
30	0xbd86eae9	-0.06587774
31	0x80090d45	-8.3128e-40

91 f4 [64, 32, 3, 3]
0	0x3df70214	0.12060943
1	0xbdf44695	-0.11927525
2	0xbd485341	-0.048907522
3	0x3cb40dc8	0.021979228
4	0xbe78e065	-0.2430435
5	0xbcb31b30	-0.02186355
6	0x3d5250ad	0.05134647
7	0xbdfdf8c9	-0.12400968
8	0x3dbba6b1	0.09162653
9	0x00d8ede1	1.9921802e-38
10	0x801690e9	-2.072365e-39
11	0x01596df2	3.9935487e-38
12	0x0064df23	9.263596e-39
13	0x80a0457e	-1.4718608e-38
14	0x80e6b7be	-2.1188078e-38
15	0x8188970f	-5.017527e-38
16	0x8055f1e7	-7.892795e-39
17	0x005103d3	7.440047e-39
18	0x3e01b08f	0.12665008
19	0x3d302bdb	0.043010574
20	0xbdca0fc7	-0.098662905
21	0x3da7e8f7	0.081987314
22	0x3d37bc81	0.044857506
23	0xbbbc2a47	-0.0057423445
24	0xbd53a174	-0.051667646
25	0xbd06806f	-0.032837328
26	0xbdaa4ad0	-0.083150506
27	0x803a4d77	-5.354248e-39
28	0x000a47fe	9.44181e-40
29	0x802c1a7a	-4.05026e-39
30	0x800dc6f0	-1.265227e-39
31	0x01068578	2.4707672e-38
32	0x0085653b	1.2250436e-38
33	0x80878f4f	-1.2449201e-38
34	0x80ecadcf	-2.1735528e-38
35	0x802d52a4	-4.162243e-39
36	0xbbcf73c9	-0.0063309413
37	0xbdf5ea0c	-0.120075315
38	0x3cfaf311	0.030633481
39	0x3d928706	0.0715466
40	0xbc7b3989	-0.015333542
41	0x3b94c8bb	0.0045405305
42	0xbccddd08	-0.02512981
43	0x3d26c7cc	0.040717885
44	0x3d6e6d20	0.05820954
45	0x3d4917bb	0.049094897
46	0x3baf26a5	0.005345183
47	0xbcb8d770	-0.022563666
48	0xbc9ced87	-0.01915623
49	0xbd73964e	-0.059469514
50	0xbd23546c	-0.039875433
51	0xbd10c0e8	-0.03534022
52	0xbdcb1603	-0.09916308
53	0xbd13de8d	-0.036100913
54	0x819462b1	-5.450823e-38
55	0x01c34e0d	7.1743684e-38
56	0x806db62d	-1.0075421e-38
57	0x81874b6b	-4.969939e-38
58	0x8089fd33	-1.2672294e-38
59	0x8039f2b7	-5.321693e-39
60	0x012ec8c9	3.210281e-38
61	0x010a0b30	2.5354624e-38
62	0x00799fe4	1.1169453e-38
63	0x3ea9b8f6	0.33148926
64	0x3dcfd262	0.10147549
65	0x3d6bc557	0.057561245
66	0x3c57f58a	0.0131811
67	0xbdca7312	-0.09885229
68	0xbdc899d0	-0.097949624
69	0x3bada4f2	0.005299204
70	0xba179f84	-0.00057839626
71	0x3e142d32	0.14470366
72	0x8050e50e	-7.429009e-39
73	0x013b5d97	3.4413623e-38
74	0x80979d82	-1.3923663e-38
75	0x80d9a4fd	-1.998749e-38
76	0x80e89c05	-2.1361804e-38
77	0x81079bff	-2.4907506e-38
78	0x81041ff9	-2.426751e-38
79	0x810bf6e2	-2.5707398e-38
80	0x00e1563c	2.0693922e-38
81	0xbd45d58d	-0.04829936
82	0xbcc0bf03	-0.023528581
83	0xbd48b573	-0.04900117
84	0xbcda7497	-0.026666922
85	0xbcb731ba	-0.022362579
86	0x3c785044	0.015155856
87	0xbc93b552	-0.018030796
88	0xbc0e517b	-0.008686419
89	0x3c4b904b	0.012424539
90	0x3d9646ce	0.07337724
91	0xbd67ea3a	-0.05661986
92	0x3e94c57c	0.2905692
93	0x3e939f8f	0.2883267
94	0x3ddd7b7d	0.10814569
95	0x3d863f24	0.06555012
96	0x3e40f784	0.1884442
97	0xbbf7f095	-0.0075665214
98	0x3e1b3129	0.15155472
99	0xbc6f0e10	-0.014590755
100	0xbc0425cb	-0.008065651
101	0xbd99b77a	-0.075056985
102	0xbcd0c2a7	-0.025483442
103	0x3d32333a	0.043505885
104	0x3db09573	0.08622255
105	0x3d4aee27	0.049543526
106	0x3d7a274e	0.06107264
107	0x3e4e12f2	0.20124415
108	0x8038e488	-5.22477e-39
109	0x8024a66b	-3.365777e-39
110	0x8042dca3	-6.140292e-39
111	0x0004853e	4.1514e-40
112	0x004b5885	6.919417e-39
113	0x00281ba7	3.68334e-39
114	0x802cca13	-4.113252e-39
115	0x00449f02	6.301855e-39
116	0x003c4742	5.535692e-39
117	0xbe69e209	-0.22840132
118	0xbc44b928	-0.012007035
119	0xbda12ed8	-0.07870263
120	0xbd480882	-0.04883624
121	0xbbfd44c1	-0.0077291434
122	0xbd628c90	-0.055309832
123	0xbd3fbb11	-0.04680926
124	0x3c3bbbdc	0.011458363
125	0xbddc7b33	-0.10765686
126	0x3d0d92ec	0.034563944
127	0xbcf5c799	-0.030002402
128	0xbb4fbf2b	-0.0031699638
129	0x3dc21d50	0.09478247
130	0xbda1d8d6	-0.07902686
131	0x3d43f0b4	0.047836974
132	0x3e5ec9f9	0.21756734
133	0x3d7bbe4b	0.061460774
134	0xbd011d4a	-0.031522073
135	0x80412664	-5.983079e-39
136	0x00959a54	1.3738851e-38
137	0x00320f18	4.59719e-39
138	0x80124218	-1.676749e-39
139	0x007e8968	1.1620565e-38
140	0x80a08f6c	-1.474513e-38
141	0x80520cc7	-7.535094e-39
142	0x009880d3	1.4005209e-38
143	0x004c8c73	7.029881e-39
144	0x3e5f64db	0.21815817
145	0xbd6a400f	-0.057189997
146	0xbe094bb8	-0.1340779
147	0x3dd3671e	0.103224024
148	0xbe1c8e9a	-0.15288773
149	0xbc6bc909	-0.014391192
150	0x3d37d1ca	0.044877805
151	0xbd283d5e	-0.04107415
152	0x3e555b0f	0.20835517
153	0x3e0cee7c	0.1376285
154	0xbdba588c	-0.0909892
155	0x3c9b1f51	0.018935831
156	0x3d9b349b	0.07578393
157	0xbe70dc6d	-0.23521586
158	0xbdad48a0	-0.08461118
159	0x3dfc1706	0.12309079
160	0xbd811fbc	-0.06304881
161	0xbe2d6ae6	-0.1693531
162	0x006b3981	9.847027e-39
163	0x0126ecdc	3.0659323e-38
164	0x00ec96e6	2.1727309e-38
165	0x82079870	-9.961981e-38
166	0x00e4bd8c	2.100649e-38
167	0x00d98955	1.9977568e-38
168	0x81fdd1be	-9.323849e-38
169	0x80fd5091	-2.3263282e-38
170	0x8108a914	-2.5100563e-38
171	0x826bddda	-1.7328742e-37
172	0x013b6087	3.441573e-38
173	0x814ee3c6	-3.7999644e-38
174	0x0205233c	9.781409e-38
175	0x00a2284b	1.4891805e-38
176	0x00b5e1b4	1.6703192e-38
177	0x021d388f	1.155077e-37
178	0x00bebe2f	1.7516969e-38
179	0x80f17ec0	-2.2177824e-38
180	0x004b07ab	6.890413e-39
181	0x00396f23	5.274492e-39
182	0x003cf719	5.598772e-39
183	0x00be26ba	1.7462637e-38
184	0x80b1f526	-1.6342826e-38
185	0x00829446	1.1991805e-38
186	0x00a1182e	1.4794189e-38
187	0x80b12b05	-1.6270315e-38
188	0x004232ce	6.079368e-39
189	0x802fa487	-4.37529e-39
190	0x807e7e1d	-1.1616513e-38
191	0x8080e6ab	-1.1837692e-38
192	0x0017ccd5	2.185696e-39
193	0x004e9272	7.215703e-39
194	0x0027defa	3.661573e-39
195	0x803d3a90	-5.622974e-39
196	0x0092b3cd	1.3472483e-38
197	0x0061d143	8.983112e-39
198	0x3d522185	0.051301498
199	0xbd828213	-0.06372466
200	0xbbf35358	-0.007425707
201	0x3d40fdb1	0.04711694
202	0x3d849d88	0.06475359
203	0x3d255639	0.04036543
204	0x3df0b70a	0.11753662
205	0x3dbd0099	0.092286296
206	0x3d9e4858	0.07728642
207	0x3d86f5db	0.06589862
208	0xbe22af6a	-0.15887228
209	0xbdfd0475	-0.12354366
210	0x3deac61f	0.1146357
211	0xbdb36d26	-0.08761053
212	0xbe089e4f	-0.1334164
213	0x3e37c5ef	0.179466
214	0xbca8045e	-0.020509895
215	0xbd86a7d7	-0.06574982
216	0x00855c07	1.2247134e-38
217	0x00229558	3.175981e-39
218	0x805aa04b	-8.322697e-39
219	0x8019fe8e	-2.387204e-39
220	0x80977011	-1.3907362e-38
221	0x8082be8d	-1.2006971e-38
222	0x8040b29d	-5.941546e-39
223	0x8065e54d	-9.357643e-39
224	0x8099afaf	-1.4113854e-38
225	0x00462e70	6.445143e-39
226	0x804f5615	-7.285885e-39
227	0x0089ede8	1.2666808e-38
228	0x80515a5d	-7.471091e-39
229	0x8037432f	-5.075053e-39
230	0x80261511	-3.497306e-39
231	0x801e46b7	-2.780433e-39
232	0x8024573b	-3.33737e-39
233	0x001cdf9b	2.651608e-39
234	0x8101148d	-2.3708302e-38
235	0x808a0c24	-1.2677654e-38
236	0x00c8769b	1.8409647e-38
237	0x812172ac	-2.9653303e-38
238	0x805bdf84	-8.437212e-39
239	0x00773c7d	1.0950123e-38
240	0x00c9e19b	1.8539867e-38
241	0x80cc17e3	-1.874301e-38
242	0x005c6ebc	8.48859e-39
243	0x80fdbe56	-2.330266e-38
244	0x8118cdd7	-2.8065674e-38
245	0x8106e738	-2.4777804e-38
246	0x820a298f	-1.0150566e-37
247	0x817f1567	-4.6851458e-38
248	0x815a8c33	-4.0140864e-38
249	0x8209f899	-1.0136514e-37
250	0x8184ed11	-4.8829316e-38
251	0x8185d337	-4.915956e-38
252	0x80a1e037	-1.4865948e-38
253	0x80850554	-1.2216032e-38
254	0x809c7416	-1.4367981e-38
255	0x004451f7	6.274217e-39

92 f4 [64]
0	0xbe21e304	-0.15809256
1	0x80053236	-4.7719e-40
2	0x801bfd66	-2.57046e-39
3	0x8019a297	-2.354214e-39
4	0xbc3a9c46	-0.011389798
5	0x80018b25	-1.41751e-40
6	0x8004f789	-4.56141e-40
7	0x80152f50	-1.945518e-39
8	0x80099912	-8.81431e-40
9	0x800dc8b6	-1.265863e-39
10	0x800266d0	-2.20553e-40
11	0x80114a37	-1.587827e-39
12	0x8019fa88	-2.385761e-39
13	0x8015f8f8	-2.017859e-39
14	0x800157c0	-1.23314e-40
15	0x80042910	-3.82072e-40
16	0x8002d8a1	-2.61383e-40
17	0x80073a8d	-6.63853e-40
18	0x8007612c	-6.77707e-40
19	0x800a636f	-9.54025e-40
20	0x8003660e	-3.12117e-40
21	0x8017f8dc	-2.20149e-39
22	0x8007b8c5	-7.09131e-40
23	0x800a315c	-9.36062e-40
24	0x8185fec2	-4.9222043e-38
25	0x3b9ae0c7	0.0047265026
26	0x80037dda	-3.20654e-40
27	0x8013ed51	-1.830008e-39
28	0x80070a88	-6.46626e-40
29	0x80073c8d	-6.6457e-40
30	0xbbc3e250	-0.0059779063
31	0x800df7d5	-1.282767e-39
32	0x80059a7c	-5.14596e-40
33	0x80076526	-6.79134e-40
34	0x8013b028	-1.808067e-39
35	0x800633b5	-5.69562e-40
36	0x800c33ae	-1.120565e-39
37	0x800b5544	-1.040778e-39
38	0x80029da8	-2.40227e-40
39	0x8015daac	-2.00699e-39
40	0x8012fe36	-1.744233e-39
41	0x8010b3ad	-1.533823e-39
42	0x800d4741	-1.219423e-39
43	0x80052d0b	-4.75336e-40
44	0x8009193a	-8.35569e-40
45	0x8001ea92	-1.75983e-40
46	0x8008e5c5	-8.1711e-40
47	0x800a71eb	-9.59221e-40
48	0x8007c383	-7.12985e-40
49	0xbce93868	-0.02846928
50	0x3eaf94d3	0.3429323
51	0x800082a1	-4.6861e-41
52	0x80083753	-7.5453e-40
53	0x80018ff1	-1.43472e-40
54	0x8000aabf	-6.1252e-41
55	0x8016b31d	-2.084635e-39
56	0x801a6576	-2.42412e-39
57	0xbedadb31	-0.42745355
58	0x80085dc8	-7.68326e-40
59	0x8014041e	-1.838187e-39
60	0x8010245b	-1.48241e-39
61	0x800fa1a4	-1.435518e-39
62	0x80133ea7	-1.76735e-39
63	0x8011982f	-1.615797e-39

94 f4 [64, 64, 3, 3]
0	0x00000000	0.0
1	0x00000000	0.0
2	0x00000000	0.0
3	0x00000000	0.0
4	0x80000000	-0.0
5	0x80000000	-0.0
6	0x00000000	0.0
7	0x80000000	-0.0
8	0x80000000	-0.0
9	0x80000000	-0.0
10	0x00000000	0.0
11	0x80000000	-0.0
12	0x80000000	-0.0
13	0x00000000	0.0
14	0x00000000	0.0
15	0x00000000	0.0
16	0x00000000	0.0
17	0x00000000	0.0
18	0x00000000	0.0
19	0x80000000	-0.0
20	0x00000000	0.0
21	0x80000000	-0.0
22	0x00000000	0.0
23	0x80000000	-0.0
24	0x80000000	-0.0
25	0x80000000	-0.0
26	0x80000000	-0.0
27	0x80000000	-0.0
28	0x80000000	-0.0
29	0x00000000	0.0
30	0x80000000	-0.0
31	0x00000000	0.0
32	0x80000000	-0.0
33	0x80000000	-0.0
34	0x00000000	0.0
35	0x00000000	0.0
36	0x00000000	0.0
37	0x00000000	0.0
38	0x00000000	0.0
39	0x80000000	-0.0
40	0x00000000	0.0
41	0x80000000	-0.0
42	0x00000000	0.0
43	0x80000000	-0.0
44	0x80000000	-0.0
45	0x80000000	-0.0
46	0x00000000	0.0
47	0x80000000	-0.0
48	0x80000000	-0.0
49	0x00000000	0.0
50	0x80000000	-0.0
51	0x80000000	-0.0
52	0x80000000	-0.0
53	0x80000000	-0.0
54	0x00000000	0.0
55	0x80000000	-0.0
56	0x00000000	0.0
57	0x80000000	-0.0
58	0x00000000	0.0
59	0x80000000	-0.0
60	0x80000000	-0.0
61	0x00000000	0.0
62	0x80000000	-0.0
63	0x80000000	-0.0
64	0x80000000	-0.0
65	0x80000000	-0.0
66	0x00000000	0.0
67	0x00000000	0.0
68	0x00000000	0.0
69	0x80000000	-0.0
70	0x80000000	-0.0
71	0x80000000	-0.0
72	0x00000000	0.0
73	0x80000000	-0.0
74	0x80000000	-0.0
75	0x80000000	-0.0
76	0x00000000	0.0
77	0x00000000	0.0
78	0x00000000	0.0
79	0x00000000	0.0
80	0x00000000	0.0
81	0x80000000	-0.0
82	0x00000000	0.0
83	0x80000000	-0.0
84	0x80000000	-0.0
85	0x00000000	0.0
86	0x00000000	0.0
87	0x80000000	-0.0
88	0x80000000	-0.0
89	0x80000000	-0.0
90	0x00000000	0.0
91	0x80000000	-0.0
92	0x00000000	0.0
93	0x00000000	0.0
94	0x00000000	0.0
95	0x80000000	-0.0
96	0x00000000	0.0
97	0x00000000	0.0
98	0x80000000	-0.0
99	0x00000000	0.0
100	0x00000000	0.0
101	0x80000000	-0.0
102	0x80000000	-0.0
103	0x80000000	-0.0
104	0x80000000	-0.0
105	0x00000000	0.0
106	0x00000000	0.0
107	0x00000000	0.0
108	0x80000000	-0.0
109	0x80000000	-0.0
110	0x00000000	0.0
111	0x80000000	-0.0
112	0x80000000	-0.0
113	0x00000000	0.0
114	0x00000000	0.0
115	0x00000000	0.0
116	0x00000000	0.0
117	0x80000000	-0.0
118	0x00000000	0.0
119	0x00000000	0.0
120	0x00000000	0.0
121	0x00000000	0.0
122	0x00000000	0.0
123	0x00000000	0.0
124	0x80000000	-0.0
125	0x80000000	-0.0
126	0x80000000	-0.0
127	0x80000000	-0.0
128	0x00000000	0.0
129	0x00000000	0.0
130	0x00000000	0.0
131	0x00000000	0.0
132	0x80000000	-0.0
133	0x00000000	0.0
134	0x80000000	-0.0
135	0x00000000	0.0
136	0x00000000	0.0
137	0x00000000	0.0
138	0x80000000	-0.0
139	0x80000000	-0.0
140	0x00000000	0.0
141	0x00000000	0.0
142	0x80000000	-0.0
143	0x80000000	-0.0
144	0x80000000	-0.0
145	0x00000000	0.0
146	0x80000000	-0.0
147	0x80000000	-0.0
148	0x00000000	0.0
149	0x00000000	0.0
150	0x80000000	-0.0
151	0x00000000	0.0
152	0x00000000	0.0
153	0x80000000	-0.0
154	0x00000000	0.0
155	0x00000000	0.0
156	0x80000000	-0.0
157	0x00000000	0.0
158	0x00000000	0.0
159	0x00000000	0.0
160	0x80000000	-0.0
161	0x00000000	0.0
162	0x80000000	-0.0
163	0x00000000	0.0
164	0x80000000	-0.0
165	0x80000000	-0.0
166	0x80000000	-0.0
167	0x00000000	0.0
168	0x80000000	-0.0
169	0x80000000	-0.0
170	0x00000000	0.0
171	0x00000000	0.0
172	0x00000000	0.0
173	0x80000000	-0.0
174	0x00000000	0.0
175	0x00000000	0.0
176	0x00000000	0.0
177	0x80000000	-0.0
178	0x80000000	-0.0
179	0x00000000	0.0
180	0x00000000	0.0
181	0x80000000	-0.0
182	0x00000000	0.0
183	0x80000000	-0.0
184	0x00000000	0.0
185	0x00000000	0.0
186	0x00000000	0.0
187	0x80000000	-0.0
188	0x80000000	-0.0
189	0x00000000	0.0
190	0x80000000	-0.0
191	0x00000000	0.0
192	0x00000000	0.0
193	0x00000000	0.0
194	0x00000000	0.0
195	0x00000000	0.0
196	0x00000000	0.0
197	0x00000000	0.0
198	0x00000000	0.0
199	0x80000000	-0.0
200	0x00000000	0.0
201	0x80000000	-0.0
202	0x80000000	-0.0
203	0x00000000	0.0
204	0x00000000	0.0
205	0x00000000	0.0
206	0x80000000	-0.0
207	0x00000000	0.0
208	0x80000000	-0.0
209	0x00000000	0.0
210	0x00000000	0.0
211	0x80000000	-0.0
212	0x80000000	-0.0
213	0x00000000	0.0
214	0x80000000	-0.0
215	0x00000000	0.0
216	0x80000000	-0.0
217	0x00000000	0.0
218	0x00000000	0.0
219	0x80000000	-0.0
220	0x80000000	-0.0
221	0x00000000	0.0
222	0x80000000	-0.0
223	0x00000000	0.0
224	0x00000000	0.0
225	0x80000000	-0.0
226	0x00000000	0.0
227	0x80000000	-0.0
228	0x80000000	-0.0
229	0x80000000	-0.0
230	0x80000000	-0.0
231	0x80000000	-0.0
232	0x80000000	-0.0
233	0x80000000	-0.0
234	0x00000000	0.0
235	0x00000000	0.0
236	0x00000000	0.0
237	0x00000000	0.0
238	0x80000000	-0.0
239	0x80000000	-0.0
240	0x80000000	-0.0
241	0x80000000	-0.0
242	0x80000000	-0.0
243	0x00000000	0.0
244	0x80000000	-0.0
245	0x00000000	0.0
246	0x80000000	-0.0
247	0x00000000	0.0
248	0x00000000	0.0
249	0x00000000	0.0
250	0x80000000	-0.0
251	0x80000000	-0.0
252	0x00000000	0.0
253	0x80000000	-0.0
254	0x00000000	0.0
255	0x00000000	0.0
