server/model/comida_quente.onnx (onnx, 302121 bytes, 16 tensors)

fc.weight f4 [2, 256]
000000 5a e2 a3 00 c2 13 a5 00 c4 34 91 00 94 5f 8f 00
       1.5050386e-38 1.5159945e-38 1.3335076e-38 1.3166763e-38
000010 54 a3 13 be 5c 11 c1 bd 71 92 16 be d8 6b d5 bd
       -0.14417773 -0.09427139 -0.147043 -0.1042096
000020 d0 11 00 80 b7 6a 04 00 8c 16 07 00 89 6f 0d 00
       -6.39e-42 4.05624e-40 6.50937e-40 1.233873e-39
000030 de 0a ae 3d 03 7c ab 3d ab fb a9 3d df 51 ac 3d
       0.084981665 0.08373263 0.08299955 0.08414053
000040 8b b3 16 00 ff 95 04 00 ac b0 0a 00 9e 24 0b 80
       2.084789e-39 4.2115e-40 9.81733e-40 -1.023326e-39
000050 51 4d 91 bd ab 8a b6 bd d4 85 87 bd 80 a7 a7 bd
       -0.07094825 -0.089131676 -0.066173226 -0.08186245
000060 81 1a 87 3d a0 52 84 3d 9a fd 1f 3d a6 5e 0b 3d
       0.06596852 0.06461072 0.039060213 0.03402581
000070 fe 14 ef 3d 20 6b 10 3e 54 79 08 3e 82 d0 21 3e
       0.11673926 0.14103365 0.13327533 0.15802196
000080 d1 8e 33 00 c4 51 38 00 44 04 28 00 ce 89 20 80
       4.734843e-39 5.17212e-39 3.67495e-39 -2.988171e-39
000090 87 b2 b6 bd fd 0a bc bd 04 14 a7 bd a1 ae be bd
       -0.0892077 -0.09181783 -0.081581146 -0.093106516
0000a0 8b c2 54 00 c9 01 2b 00 28 f9 49 00 9d 70 1e 00
       7.78397e-39 3.949567e-39 6.793372e-39 2.795463e-39
0000b0 48 af 30 00 b6 e8 77 80 42 39 75 80 ae f7 6a 00
       4.470983e-39 -1.1011905e-38 -1.0765293e-38 9.823413e-39
0000c0 7f 72 74 00 8f 7a 6d 00 82 82 71 00 b0 66 6d 00
       1.0693991e-38 1.0054035e-38 1.0424228e-38 1.0046906e-38
0000d0 b0 65 23 80 73 06 1b 00 cb 1d 1d 80 87 a3 07 80
       -3.250721e-39 2.481872e-39 -2.673917e-39 -7.01511e-40
0000e0 29 c2 19 be 8d 99 08 be 28 2f 14 be e1 46 03 be
       -0.15015472 -0.13339825 -0.14471114 -0.12820007
0000f0 d5 a4 52 3b b1 d8 1e 3c ea 54 79 3b 38 b0 2a 3c
       0.0032141705 0.009695218 0.0038044997 0.01041799
000100 26 f2 2b 3e 56 0b 40 3e 06 03 47 3e a4 4a 60 3e
       0.16791591 0.18754324 0.19434747 0.21903473
000110 6d df 28 00 f9 34 43 00 d9 ac 3c 00 58 8f 1c 00
       3.75357e-39 6.171981e-39 5.572136e-39 2.622816e-39
000120 64 6b 2f 80 2d 22 56 80 bf 6d 2e 80 0b 10 5c 80
       -4.354793e-39 -7.910113e-39 -4.263802e-39 -8.454621e-39
000130 23 56 18 00 91 c7 16 80 13 f7 18 00 b6 fa 14 80
       2.234952e-39 -2.091972e-39 2.292685e-39 -1.926648e-39
000140 b8 1f 14 80 ef cd 1a 80 f4 f7 18 80 aa 21 1c 80
       -1.848088e-39 -2.461598e-39 -2.293001e-39 -2.58347e-39
000150 2c b4 03 00 10 54 05 00 b3 03 07 00 68 4d 06 00
       3.4014e-40 4.89333e-40 6.44176e-40 5.78781e-40
000160 da 69 f1 bd ee 08 ac bd aa 8f e3 bd 26 e9 9b bd
       -0.11787768 -0.08400141 -0.11111386 -0.07612829
000170 1b 4b 14 80 c3 9b 12 80 35 91 00 00 e5 a5 01 00
       -1.863653e-39 -1.708916e-39 5.209e-41 1.51347e-40
000180 5c 33 52 80 81 fa 55 80 41 a4 61 80 93 55 62 80
       -7.548935e-39 -7.895881e-39 -8.966966e-39 -9.030577e-39
000190 f1 b6 32 80 bd 76 32 80 3e 29 2f 80 ea 97 31 80
       -4.657402e-39 -4.63437e-39 -4.331063e-39 -4.554436e-39
0001a0 72 4e a8 bd 4c 94 1b be 8c 40 a3 bd 72 fe 11 be
       -0.08218087 -0.1519329 -0.07971296 -0.1425722
0001b0 fb a8 2e 00 5c c1 2e 00 17 31 3d 00 2b ad 32 00
       4.285052e-39 4.293797e-39 5.619575e-39 4.653896e-39
0001c0 7b c2 02 bd a2 6a 88 bd 4a ec 0b bd ca 24 89 bd
       -0.031923752 -0.066609636 -0.03416089 -0.0669647
0001d0 70 6e 18 80 f5 c7 06 80 34 95 1a 80 f1 75 13 80
       -2.24367e-39 -6.22744e-40 -2.441247e-39 -1.787184e-39
0001e0 62 b9 6a 37 22 fc 00 b8 1c fb 3b 37 77 ec c9 b7
       1.399065e-05 -3.0752395e-05 1.12045345e-05 -2.407118e-05
0001f0 44 64 5c 3e 11 30 65 3e 10 9c 50 3e 97 7b 46 3e
       0.21522623 0.22381617 0.20372033 0.19383083
000200 eb 84 18 00 c4 6f 19 80 e0 e7 1d 00 16 3d 1e 80
       2.251734e-39 -2.335981e-39 2.74641e-39 -2.776978e-39
000210 0a 69 c1 bb dc 2f ca bb 3d 44 ab bb 47 7e b4 bb
       -0.005902414 -0.006170256 -0.0052266405 -0.0055082175
000220 86 f1 b0 3c db fb 40 3d 3f 6d f8 3c 99 5f 60 3d
       0.021599542 0.047115188 0.03032553 0.05477867
000230 32 d7 83 bd a6 4d ff bb 95 23 79 bd 4d bc 60 bb
       -0.064375296 -0.007791239 -0.06082495 -0.0034291924
000240 72 e3 0d 00 89 85 05 00 db 84 0e 00 46 b4 09 00
       1.275453e-39 5.07081e-40 1.333357e-39 8.9119e-40
000250 91 b1 2c 80 22 2c 36 00 a8 c2 30 80 f3 fc 2c 00
       -4.10446e-39 4.974949e-39 -4.477933e-39 4.131503e-39
000260 61 8b 66 3b fe 4b 8f bd 1e 11 30 3b eb 01 84 bd
       0.003517829 -0.06996916 0.0026865671 -0.06445678
000270 c4 98 36 80 31 2b 30 80 57 17 30 80 b1 c3 2a 80
       -5.013919e-39 -4.423598e-39 -4.416477e-39 -3.927292e-39
000280 cc d7 1e 00 85 05 26 00 86 d7 12 00 53 b7 1b 00
       2.832478e-39 3.491729e-39 1.730354e-39 2.545323e-39
000290 90 32 a4 bd a0 d9 1a be 00 f8 9e bd c3 60 15 be
       -0.080174565 -0.1512208 -0.07762146 -0.14587693
0002a0 76 3a 1c 00 c5 75 14 00 33 9b 18 00 81 00 18 00
       2.592366e-39 1.878958e-39 2.259727e-39 2.204233e-39
0002b0 59 1b 6e 80 75 61 66 80 ae e3 6e 80 bb df 67 80
       -1.0111715e-38 -9.402182e-39 -1.018358e-38 -9.539315e-39
0002c0 60 69 0a 00 1c 2e 12 00 b3 de 0e 00 83 10 0d 00
       9.56156e-40 1.66958e-39 1.365586e-39 1.199785e-39
0002d0 b7 c6 cc bd b9 8e c6 bd 13 52 be bd dc 68 bb bd
       -0.09998839 -0.09695191 -0.09292998 -0.0915086
0002e0 99 22 0c 3e 15 57 0b 3e 04 12 f7 3d 75 3e 04 3e
       0.13685073 0.13607438 0.12063983 0.1291445
0002f0 c9 af 42 80 20 7d 4a 80 fd e8 4b 80 6e a9 46 80
       -6.124203e-39 -6.840713e-39 -6.971243e-39 -6.489265e-39
000300 49 5e 1f 00 77 61 1c 00 82 1c 1d 00 1e ff 24 00
       2.880724e-39 2.606358e-39 2.673456e-39 3.397597e-39
000310 a5 e1 12 80 da 44 08 80 5d 25 01 80 22 12 1c 00
       -1.733985e-39 -7.59383e-40 -1.05239e-40 2.577899e-39
000320 bf 9d 0d 00 78 26 07 00 eb 05 14 00 43 b5 08 00
       1.25045e-39 6.56648e-40 1.838833e-39 7.99708e-40
000330 55 8e 59 00 09 3e 29 80 0c 50 3f 80 f1 a2 10 80
       8.224418e-39 -3.78751e-39 -5.814352e-39 -1.52782e-39
000340 f4 18 00 00 f7 3b 19 00 27 b5 00 80 c1 7b 09 00
       8.951e-42 2.317399e-39 -6.4985e-41 8.70914e-40
000350 1a 79 ec 3c ed 00 d5 3d b8 89 64 3d e9 b3 f8 3d
       0.02886634 0.10400567 0.0557954 0.1214369
000360 9a e1 58 80 1d 52 5e 80 3f de 5f 80 20 26 64 80
       -8.162454e-39 -8.661993e-39 -8.804099e-39 -9.197226e-39
000370 89 7c 00 00 3a 45 00 00 ea 70 0b 00 bd 13 0d 00
       4.4675e-41 2.4834e-41 1.050696e-39 1.200942e-39
000380 c8 f2 9a bd 79 ec 66 be b1 65 cb bd 04 3c 70 be
       -0.07565838 -0.22551145 -0.099315055 -0.23460394
000390 59 3d ca 3d e5 bf b3 3d f7 07 c1 3d 7b 4c 9c 3d
       0.098749824 0.08776835 0.09425347 0.07631775
0003a0 d2 47 40 3e 60 da 4d 3e 98 fc c9 3d 09 ec ba 3d
       0.18777397 0.20102835 0.098626316 0.091270514
0003b0 06 e8 05 80 a1 35 0a 00 67 9a 06 00 af 85 1a 00
       -5.42412e-40 9.37593e-40 6.06402e-40 2.43568e-39
0003c0 8e 9f 74 80 94 1a 74 80 e8 ec 65 80 72 70 42 80
       -1.0710155e-38 -1.0662452e-38 -9.360371e-39 -6.10148e-39
0003d0 34 46 3c 3d 66 2d 4f 3d dc 0a 57 3d bf ab 71 3d
       0.04596539 0.050580405 0.05250059 0.05900168
0003e0 2e d6 c0 3d cd 56 c4 3d 05 f0 d2 3d f9 fa d4 3d
       0.094158515 0.095868684 0.10299686 0.10399432
0003f0 e8 cc 1e 00 21 f5 21 80 4d af 0b 00 e0 c9 19 80
       2.828571e-39 -3.118507e-39 1.073077e-39 -2.368307e-39

fc.bias f4 [2]
000000 5a b8 e0 bc 00 03 bd 3c
       -0.027431656 0.02307272

onnx::Conv_80 f4 [16, 3, 7, 7]
000000 f5 be d7 3c 06 69 c2 3c 5e 64 5e 3c 61 94 73 3c
       0.026336173 0.02373172 0.013573734 0.014866919
000010 0a ad 46 3c 01 56 08 3d 2f 78 27 3d 7a b3 0f 3d
       0.012126217 0.033285145 0.0408861 0.03508327
000020 28 c3 ff bb 15 23 5f bc c2 f7 f6 3b bc 36 03 bb
       -0.007805247 -0.013619204 0.0075368593 -0.0020021638
000030 52 88 9a bb 11 99 78 3c 8c 8f 3b 3c e0 8e 34 3b
       -0.0047159577 0.015173213 0.011447798 0.002755098
000040 ea a9 30 bb ed 16 2f bc 3a f9 5c 3c 77 47 ed 3c
       -0.0026956745 -0.010686618 0.013487155 0.028964741
000050 bd 1e 3d 3d 81 e6 90 3b ce 00 a0 3c 68 a7 25 bc
       0.046171892 0.0044220095 0.019531634 -0.010110714
000060 5f ca ce 3b 45 30 33 3c e1 5d 30 bb 1f 9b 0b 3b
       0.0063107456 0.010936801 -0.0026911425 0.0021302176
000070 c8 6e 12 3b 67 05 02 3d be b9 f3 3c e5 c6 01 3c
       0.0022343863 0.031743433 0.029751655 0.007920955
000080 66 b9 f2 3c c3 f4 4a 3c 40 7b 6f 3c 2a 5d d0 3c
       0.02962942 0.012387457 0.014616787 0.02543505
000090 b9 68 59 3b 1a f9 36 3d bb fe e5 3c b3 00 3a 3d
       0.0033173992 0.044671156 0.028075567 0.045410823
0000a0 fd a9 87 3c ae f2 ff 3c cd e3 06 bd 8d a2 81 3c
       0.016560549 0.031243648 -0.03293209 0.01582458
0000b0 49 01 97 3c 42 fe 65 3d 35 9f 08 3d 48 39 ac 3d
       0.01843323 0.056150682 0.033354957 0.08409363
0000c0 75 26 8f 3d 03 03 42 bd 03 fc 1b bd fa a3 e5 bc
       0.06989757 -0.047366153 -0.038082134 -0.028032292
0000d0 ec 87 14 bd cd e1 e2 bc 11 19 dd bc d7 cd 0f bd
       -0.036262438 -0.02769556 -0.026989492 -0.035108414
0000e0 28 82 6b bc 12 f2 23 bc 1b 21 d5 bb 83 a9 99 bc
       -0.014374293 -0.0100064445 -0.0065041906 -0.018757587
0000f0 54 bc a5 bc 1e 92 4d bd 8b 34 35 bd 43 c8 18 3c
       -0.020231403 -0.050188176 -0.044239562 0.00932509
000100 90 07 b6 ba 10 ee 3b bc d9 4d ba bc 61 5b a3 bc
       -0.0013887752 -0.011470333 -0.022742199 -0.019941034
000110 5d 11 09 bd bb 6a 12 bd 96 0c 20 bc 09 8c 02 bb
       -0.033463825 -0.035746317 -0.009768626 -0.0019919893
000120 c4 ca 12 bb fa 34 b5 bc cc 20 e7 bc b7 fe 32 bd
       -0.002239869 -0.022119988 -0.028213881 -0.043699946
000130 b2 ae 73 bd 7c 5b 2e bb 36 9e bf 3c f5 42 05 3d
       -0.059492774 -0.0026604822 0.02339087 0.03253456
000140 9c ef 11 3c 6e 5d 47 bc ad 7a 31 bd aa 6c 92 bd
       0.008907225 -0.0121682715 -0.043329883 -0.07149632
000150 9f 95 8d 3c 76 db 12 3d 4d 7e 07 3d c8 eb d6 3c
       0.017283259 0.035853826 0.033079434 0.026235476
000160 72 b0 ee 38 b4 d5 49 bd 35 63 80 bd f6 99 6a 3c
       0.0001138159 -0.04927607 -0.06268922 0.014318934
000170 49 9d 72 3c c8 43 22 3d b8 58 91 3c ec 41 ba 3c
       0.0148080075 0.039615422 0.0177425 0.022736512
000180 ac 06 ea bc 20 b3 79 bd 7a 3d 4a bd 70 8e 6d bd
       -0.028567635 -0.060961843 -0.049375035 -0.057997167
000190 e9 dc 4d bd 27 4c 60 bd b8 b5 1e bd d1 0a 94 bd
       -0.050259504 -0.054760125 -0.03874752 -0.072286256
0001a0 2f b6 61 bd bb 38 28 bd 9b e9 00 bd ce 60 bd bc
       -0.055105384 -0.041069727 -0.031472784 -0.02311745
0001b0 d0 80 10 bd 01 f1 d7 bc bc 83 71 bd 55 68 48 bd
       -0.035279095 -0.026360037 -0.058963522 -0.048927624
0001c0 4d 36 a6 3b a0 3c 49 bc fc 96 be bc c8 d1 c6 bc
       0.005072391 -0.0122825205 -0.023265354 -0.024269953
0001d0 4c 50 d8 bc 29 a9 49 bd e8 6c 6f bd 4a b2 e5 3c
       -0.026405476 -0.04923359 -0.05845347 0.028039116
0001e0 33 be 15 3d 16 e0 c9 3b 58 10 1f bb 06 6a 84 bc
       0.03655834 0.0061607463 -0.0024271216 -0.016163837
0001f0 c8 f8 48 bd 0b fd 90 bd 55 d8 43 3d 95 3f 59 3d
       -0.04906538 -0.07079514 0.047813732 0.053039152
000200 14 1f 28 3d 22 ea 84 3c cb 75 ba bc f0 b1 61 bd
       0.041045263 0.016224924 -0.022761246 -0.055101335
000210 21 0a 9e bd 5e e6 27 3d 9c ff 76 3d e2 90 26 3d
       -0.07716776 0.04099118 0.06030236 0.040665515
000220 8f a5 b2 3b 80 f1 d0 bc a5 24 a0 bd 95 d7 b2 bd
       0.005451865 -0.025505781 -0.078194894 -0.08732525
000230 46 18 8e 3c 8c 06 01 3d 5e e0 bc 3c 3e 7b 8b 3c
       0.017345559 0.031500384 0.023056205 0.01702654
000240 6a 13 77 bb 14 10 f9 bc 57 2a 94 bd f2 92 9c bc
       -0.003770078 -0.030403174 -0.07234638 -0.019113038
000250 8d 7f 40 bc 77 79 5c bc eb 65 e5 bc 98 24 19 bd
       -0.0117491605 -0.013456694 -0.0280027 -0.037388414
000260 39 ff 34 bd a4 fa 47 bd 5c 98 41 3b 57 47 38 38
       -0.04418871 -0.048823014 0.0029540276 4.393546e-05
000270 65 3a 3c bc 33 8e 7c bc 38 5c 08 bc 80 e5 a8 bc
       -0.011488532 -0.015414762 -0.008322768 -0.020617247
000280 93 a2 9f bc 32 58 eb 3b 03 7d 22 bc 50 38 9e bc
       -0.019486701 0.0071821446 -0.0099175 -0.019313961
000290 3d 12 c1 bc 82 04 a2 bc f1 f0 e0 bc 1c 18 d8 bc
       -0.023568267 -0.01977754 -0.02745864 -0.026378684
0002a0 63 4d cb 3c db 3c be 3c 76 a6 c7 3a ba 5f 59 bc
       0.024817174 0.023222378 0.0015232104 -0.013267452
0002b0 66 6d 30 bc 55 8d 9e bc 4f e0 99 bc ff 8a 0a 3d
       -0.01076827 -0.019354502 -0.018783716 0.033823963
0002c0 02 7f 01 3d 23 ff d6 3b 07 1a 2a bb d1 c9 2a 3a
       0.031615265 0.0065611764 -0.0025955455 0.00065150583
0002d0 0d 7d a5 bc a0 50 a7 bc bf 4f c3 3c 5a 09 1c 3d
       -0.02020123 -0.020424187 0.023841737 0.038094856
0002e0 9e 61 8d 3c 94 54 6c bb 0a f1 06 3b 2f 88 b6 bc
       0.017258462 -0.0036061155 0.0020590448 -0.022281734
0002f0 f9 9b d2 bc 0f 90 cd 3c 8e f4 25 3d 4d cc a2 3c
       -0.02570914 0.025093107 0.04051643 0.019872809
000300 04 a5 36 3c cd 7a df 3b 9a 46 ca bc c4 ef 82 bc
       0.011147741 0.006820059 -0.024691869 -0.01598347
000310 9b be f2 3b af a1 46 3b b0 a2 67 ba ed 31 be bc
       0.007407976 0.0030308773 -0.0008836193 -0.023217166
000320 8e 4a d0 bc af 2c 0f bd 94 ed 1a bd a1 19 7e 3c
       -0.025426175 -0.034954723 -0.03782423 0.01550904
000330 f5 a7 a7 3c 16 14 ca 38 10 2d 80 bc 8b ce fe bb
       0.02046583 9.635852e-05 -0.015646487 -0.0077760867
000340 99 3a 71 bc b8 e2 a8 bc a4 fb 5d 3c d6 82 91 3c
       -0.014723443 -0.02061592 0.013548765 0.017762583
000350 32 1e 98 bb 5a 76 97 bc 6e 57 75 bc d2 8a 58 bc
       -0.0046422714 -0.018489052 -0.014974458 -0.013216691
000360 f8 50 a2 bc 58 60 f1 3c 31 28 e4 3c 6a 08 28 3c
       -0.019814 0.029464886 0.027851196 0.010255912
000370 a0 a0 03 bc 32 fd 85 bc 39 5c 74 bc 64 cb 48 bc
       -0.008033901 -0.016356084 -0.014914566 -0.012255523
000380 f9 12 c3 3c e2 3a fe 3c 1d 29 30 3c 09 5f b0 bb
       0.023812758 0.031033937 0.01075199 -0.005382423
000390 dc d7 28 bc e3 d4 40 bc 9e a4 89 bc 18 8f 86 3c
       -0.010305371 -0.011769506 -0.016802128 0.016425654
0003a0 2f 44 d7 3c 0f 36 a0 3a ee 31 8c bc 3b cb 12 bc
       0.02627763 0.0012223142 -0.017113652 -0.008959587
0003b0 5d d2 9b bc af f5 75 bc 25 55 27 3b 54 67 7e 3c
       -0.019021207 -0.015012189 0.0025532928 0.015527565
0003c0 ca ec 32 bb 26 72 72 bc 10 c4 66 bc a7 4f 81 bc
       -0.0027301782 -0.014797723 -0.014084831 -0.015785052
0003d0 46 3d 12 bc 3f 58 41 39 28 0e 24 3c 4b 29 69 bb
       -0.008925742 0.00018438789 0.010013141 -0.003557759
0003e0 2b ba 66 bc 63 78 a0 bc bf 03 cc bc fb 9c bf bc
       -0.014082472 -0.019588655 -0.02490413 -0.023390284
0003f0 42 68 87 3c 92 b9 97 3c 22 c2 fe 3b 6d d7 ad bb
       0.016529206 0.018521104 0.0077746073 -0.005305222

onnx::Conv_81 f4 [16]
000000 ca d5 4a 3e e2 f9 15 3e 2d 71 81 be 2e a3 b7 3b
       0.19808117 0.14646104 -0.2528166 0.0056041693
000010 a9 41 14 be 0b 55 56 3e 9c b2 0d 3c 75 af 01 3f
       -0.14478172 0.20930879 0.008648541 0.5065835
000020 cb 55 59 3d 1b 52 9f 3e 11 d2 00 bd 23 de 89 3e
       0.053060334 0.3111733 -0.031450335 0.2692729
000030 8c 7a 88 3e df 34 c2 bd 75 e1 a7 3e 0f 96 de be
       0.26655996 -0.094827406 0.32789198 -0.4347386

onnx::Conv_83 f4 [32, 16, 3, 3]
000000 00 00 00 00 00 00 00 00 00 00 00 00 00 00 00 00
       0.0 0.0 0.0 0.0
000010 00 00 00 00 00 00 00 00 00 00 00 00 00 00 00 00
       0.0 0.0 0.0 0.0
000020 00 00 00 00 00 00 00 80 00 00 00 80 00 00 00 80
       0.0 -0.0 -0.0 -0.0
000030 00 00 00 80 00 00 00 80 00 00 00 00 00 00 00 80
       -0.0 -0.0 0.0 -0.0
000040 00 00 00 80 00 00 00 80 00 00 00 80 00 00 00 80
       -0.0 -0.0 -0.0 -0.0
000050 00 00 00 80 00 00 00 80 00 00 00 80 00 00 00 00
       -0.0 -0.0 -0.0 0.0
000060 00 00 00 80 00 00 00 80 00 00 00 00 00 00 00 00
       -0.0 -0.0 0.0 0.0
000070 00 00 00 00 00 00 00 00 00 00 00 80 00 00 00 00
       0.0 0.0 -0.0 0.0
000080 00 00 00 00 00 00 00 00 00 00 00 00 00 00 00 00
       0.0 0.0 0.0 0.0
000090 00 00 00 00 00 00 00 80 00 00 00 80 00 00 00 00
       0.0 -0.0 -0.0 0.0
0000a0 00 00 00 00 00 00 00 00 00 00 00 00 00 00 00 00
       0.0 0.0 0.0 0.0
0000b0 00 00 00 00 00 00 00 00 00 00 00 00 00 00 00 00
       0.0 0.0 0.0 0.0
0000c0 00 00 00 00 00 00 00 00 00 00 00 00 00 00 00 00
       0.0 0.0 0.0 0.0
0000d0 00 00 00 00 00 00 00 00 00 00 00 00 00 00 00 00
       0.0 0.0 0.0 0.0
0000e0 00 00 00 00 00 00 00 00 00 00 00 00 00 00 00 00
       0.0 0.0 0.0 0.0
0000f0 00 00 00 00 00 00 00 00 00 00 00 00 00 00 00 00
       0.0 0.0 0.0 0.0
000100 00 00 00 80 00 00 00 00 00 00 00 80 00 00 00 80
       -0.0 0.0 -0.0 -0.0
000110 00 00 00 00 00 00 00 80 00 00 00 00 00 00 00 00
       0.0 -0.0 0.0 0.0
000120 00 00 00 80 00 00 00 00 00 00 00 80 00 00 00 80
       -0.0 0.0 -0.0 -0.0
000130 00 00 00 00 00 00 00 80 00 00 00 00 00 00 00 00
       0.0 -0.0 0.0 0.0
000140 00 00 00 00 00 00 00 00 00 00 00 00 00 00 00 00
       0.0 0.0 0.0 0.0
000150 00 00 00 80 00 00 00 00 00 00 00 00 00 00 00 80
       -0.0 0.0 0.0 -0.0
000160 00 00 00 00 00 00 00 00 00 00 00 80 00 00 00 80
       0.0 0.0 -0.0 -0.0
000170 00 00 00 00 00 00 00 80 00 00 00 80 00 00 00 00
       0.0 -0.0 -0.0 0.0
000180 00 00 00 80 00 00 00 80 00 00 00 00 00 00 00 00
       -0.0 -0.0 0.0 0.0
000190 00 00 00 00 00 00 00 00 00 00 00 00 00 00 00 00
       0.0 0.0 0.0 0.0
0001a0 00 00 00 00 00 00 00 00 00 00 00 00 00 00 00 00
       0.0 0.0 0.0 0.0
0001b0 00 00 00 00 00 00 00 00 00 00 00 00 00 00 00 00
       0.0 0.0 0.0 0.0
0001c0 00 00 00 00 00 00 00 00 00 00 00 00 00 00 00 00
       0.0 0.0 0.0 0.0
0001d0 00 00 00 00 00 00 00 80 00 00 00 00 00 00 00 00
       0.0 -0.0 0.0 0.0
0001e0 00 00 00 00 00 00 00 80 00 00 00 00 00 00 00 00
       0.0 -0.0 0.0 0.0
0001f0 00 00 00 80 00 00 00 00 00 00 00 80 00 00 00 80
       -0.0 0.0 -0.0 -0.0
000200 00 00 00 00 00 00 00 00 00 00 00 00 00 00 00 00
       0.0 0.0 0.0 0.0
000210 00 00 00 00 00 00 00 00 00 00 00 00 00 00 00 80
       0.0 0.0 0.0 -0.0
000220 00 00 00 00 00 00 00 00 00 00 00 80 00 00 00 00
       0.0 0.0 -0.0 0.0
000230 00 00 00 00 00 00 00 80 00 00 00 00 00 00 00 00
       0.0 -0.0 0.0 0.0
000240 00 00 00 00 00 00 00 80 00 00 00 00 00 00 00 00
       0.0 -0.0 0.0 0.0
000250 00 00 00 00 00 00 00 00 00 00 00 00 00 00 00 00
       0.0 0.0 0.0 0.0
000260 00 00 00 00 00 00 00 00 00 00 00 00 00 00 00 00
       0.0 0.0 0.0 0.0
000270 00 00 00 00 00 00 00 00 00 00 00 00 00 00 00 00
       0.0 0.0 0.0 0.0
000280 00 00 00 00 00 00 00 00 00 00 00 00 00 00 00 00
       0.0 0.0 0.0 0.0
000290 00 00 00 00 00 00 00 00 00 00 00 80 00 00 00 00
       0.0 0.0 -0.0 0.0
0002a0 00 00 00 00 00 00 00 00 00 00 00 80 00 00 00 00
       0.0 0.0 -0.0 0.0
0002b0 00 00 00 00 00 00 00 00 00 00 00 00 00 00 00 00
       0.0 0.0 0.0 0.0
0002c0 00 00 00 00 00 00 00 80 00 00 00 00 00 00 00 80
       0.0 -0.0 0.0 -0.0
0002d0 00 00 00 00 00 00 00 00 00 00 00 00 00 00 00 00
       0.0 0.0 0.0 0.0
0002e0 00 00 00 00 00 00 00 00 00 00 00 00 00 00 00 00
       0.0 0.0 0.0 0.0
0002f0 00 00 00 00 00 00 00 00 00 00 00 80 00 00 00 80
       0.0 0.0 -0.0 -0.0
000300 00 00 00 80 00 00 00 00 00 00 00 00 00 00 00 80
       -0.0 0.0 0.0 -0.0
000310 00 00 00 80 00 00 00 00 00 00 00 00 00 00 00 00
       -0.0 0.0 0.0 0.0
000320 00 00 00 00 00 00 00 00 00 00 00 00 00 00 00 00
       0.0 0.0 0.0 0.0
000330 00 00 00 00 00 00 00 00 00 00 00 00 00 00 00 00
       0.0 0.0 0.0 0.0
000340 00 00 00 00 00 00 00 00 00 00 00 00 00 00 00 00
       0.0 0.0 0.0 0.0
000350 00 00 00 00 00 00 00 00 00 00 00 00 00 00 00 80
       0.0 0.0 0.0 -0.0
000360 00 00 00 80 00 00 00 00 00 00 00 00 00 00 00 80
       -0.0 0.0 0.0 -0.0
000370 00 00 00 00 00 00 00 00 00 00 00 80 00 00 00 00
       0.0 0.0 -0.0 0.0
000380 00 00 00 80 00 00 00 00 00 00 00 80 00 00 00 00
       -0.0 0.0 -0.0 0.0
000390 00 00 00 80 00 00 00 80 00 00 00 00 00 00 00 80
       -0.0 -0.0 0.0 -0.0
0003a0 00 00 00 80 00 00 00 00 00 00 00 00 00 00 00 80
       -0.0 0.0 0.0 -0.0
0003b0 00 00 00 80 00 00 00 80 00 00 00 80 00 00 00 80
       -0.0 -0.0 -0.0 -0.0
0003c0 00 00 00 80 00 00 00 80 00 00 00 00 00 00 00 80
       -0.0 -0.0 0.0 -0.0
0003d0 00 00 00 00 00 00 00 00 00 00 00 80 00 00 00 80
       0.0 0.0 -0.0 -0.0
0003e0 00 00 00 80 00 00 00 80 00 00 00 00 00 00 00 00
       -0.0 -0.0 0.0 0.0
0003f0 00 00 00 80 00 00 00 80 00 00 00 00 00 00 00 80
       -0.0 -0.0 0.0 -0.0

onnx::Conv_84 f4 [32]
000000 33 99 3a 80 6d 03 1a 80 08 e5 12 80 69 27 6e 3e
       -5.381416e-39 -2.388952e-39 -1.7352e-39 0.23257221
000010 9f 01 02 3d 8c de 0a 3b ae 96 13 80 a2 85 08 80
       0.031739827 0.0021189777 -1.798928e-39 -7.82622e-40
000020 d8 22 15 3b a1 89 10 3e 7c 11 99 3c f3 f2 79 80
       0.0022756364 0.14115001 0.018685095 -1.1199249e-38
000030 71 35 46 3d 50 ae 05 80 00 69 10 bc ec f0 a6 bd
       0.04839081 -5.21709e-40 -0.008814096 -0.08151421
000040 40 9d ba bb 6a 21 d3 3d e4 e0 86 3c c0 f8 87 bc
       -0.005695015 0.103091076 0.016464658 -0.016598105
000050 f4 d1 8b 3e b8 fb d7 bc 96 cf b5 be b8 69 1c 80
       0.2730862 -0.026365146 -0.35509938 -2.609319e-39
000060 30 be 95 bc 50 4d 25 80 c4 ca 6e 80 b0 da ca 3d
       -0.018279165 -3.425648e-39 -1.0174643e-38 0.099049926
000070 62 31 08 80 71 1e 0b 85 16 9b 66 3e 80 52 26 80
       -7.52399e-40 -6.54134e-36 0.22520098 -3.519344e-39

onnx::Conv_86 f4 [32, 32, 3, 3]
000000 9c 9d a4 00 db 3e 93 00 b3 06 ab 00 4f 45 8e 00
       1.5117561e-38 1.3522366e-38 1.5706273e-38 1.3065504e-38
000010 e3 10 9e 00 5a aa 95 00 0a 82 ae 00 32 c9 aa 00
       1.4516066e-38 1.37446e-38 1.6026026e-38 1.568421e-38
000020 4e 9f 90 00 39 3d 31 00 24 9a 94 00 28 5f 1a 01
       1.3281459e-38 4.521902e-39 1.3646949e-38 2.8353604e-38
000030 b0 57 7f 00 71 02 f3 80 93 be 28 00 0b b9 d1 00
       1.1694564e-38 -2.2316901e-38 3.741785e-39 1.926e-38
000040 95 4b ac 80 0e 66 38 80 cc 97 00 81 1e c7 0a 80
       -1.5822819e-38 -5.179398e-39 -2.3618796e-38 -9.89785e-40
000050 bf a3 17 80 74 ff e7 80 a0 3f cc 00 d7 bc 99 00
       -2.170957e-39 -2.1305639e-38 1.8757266e-38 1.4118574e-38
000060 98 a4 f1 00 91 be 10 81 b3 aa 0c 81 b3 2e 37 be
       2.21914e-38 -2.6585348e-38 -2.583641e-38 -0.17888908
000070 b5 46 c2 bd a5 d0 c4 bd 05 b3 eb 3d 34 56 22 3e
       -0.094861425 -0.09610108 0.11508755 0.15853196
000080 07 43 f3 3d e8 64 08 3e b9 fd 0f 3e 54 a1 72 3e
       0.11878019 0.13319743 0.14061631 0.23694354
000090 b9 80 3a 3c c7 d5 eb 3a e0 a4 a4 bd 16 a4 a5 bd
       0.011383229 0.0017992788 -0.0803926 -0.080879375
0000a0 cd 71 ec 3c a7 f9 ed 3c 93 7b b4 be 8a 3a 9a bd
       0.028862858 0.029049708 -0.3525053 -0.07530697
0000b0 1d 65 ee bd 80 19 77 be 94 94 d9 bd 58 73 45 be
       -0.116403796 -0.24130821 -0.10624042 -0.19282281
0000c0 09 6f 4f be d9 0b 03 be 8b 2c 79 be c1 4a 10 be
       -0.202572 -0.12797488 -0.24333398 -0.14091016
0000d0 43 2d 97 bd a6 63 13 be e8 84 0c 81 a2 b2 98 00
       -0.0738168 -0.14393482 -2.5809294e-38 1.4023077e-38
0000e0 e7 18 0b 81 01 92 fb 80 ea 87 14 80 69 ab 17 80
       -2.5548134e-38 -2.3103086e-38 -1.885467e-39 -2.173707e-39
0000f0 dd d5 00 81 12 dc ac 00 63 31 d0 80 7f 7c ae 80
       -2.3663326e-38 1.5874652e-38 -1.91195e-38 -1.6024037e-38
000100 35 c8 9e 80 45 ff a6 80 1f 22 81 80 e9 9f 96 80
       -1.4581829e-38 -1.5336266e-38 -1.185902e-38 -1.383269e-38
000110 04 65 c4 00 d2 bc 75 80 25 0d 9c 80 aa 14 f0 80
       1.8035995e-38 -1.0812489e-38 -1.4331053e-38 -2.2047932e-38
000120 18 c4 13 3b e8 ac 37 3b 1a 8e 01 3b b6 ab 36 3b
       0.00225473 0.0028026644 0.0019768537 0.0027873344
000130 bc 59 d3 3b 07 eb 71 3b fd d0 23 3b e5 be c8 3b
       0.006449906 0.003691377 0.0024996393 0.006126272
000140 6d 1b 6e 3b 67 64 63 be f8 df 03 bd 10 12 21 be
       0.0036332265 -0.22206269 -0.032196015 -0.15729547
000150 e7 eb 9d 3c 91 e9 ad 3d 32 f1 1f bc 97 a9 ff bb
       0.019277526 0.08491815 -0.009762095 -0.007802199
000160 6c 58 c7 3d 93 20 0e be 70 8a b7 bc c1 df 31 3e
       0.09733662 -0.13879614 -0.02240488 0.17370512
000170 1e 47 71 bd 98 d7 6f 3d 5c 40 99 3e 0a e9 19 3d
       -0.058905713 0.058555216 0.29931915 0.03757576
000180 3c 44 b3 bd 16 d5 b5 3e 31 c2 91 3b ec 1a 6b 80
       -0.08753249 0.35514134 0.0044481982 -9.836056e-39
000190 65 14 64 81 15 39 4a 80 54 cf 47 81 ee d2 3b 01
       -4.189162e-38 -6.816304e-39 -3.6699278e-38 3.449781e-38
0001a0 da 90 4c 01 0c 59 58 01 94 12 43 01 0e ec 4e 01
       3.7572808e-38 3.9736822e-38 3.5829173e-38 3.8005585e-38
0001b0 6d 43 91 bd ae a0 02 3a b4 f4 30 bc 92 60 fa 3a
       -0.070929386 0.00049830496 -0.010800529 0.0019102267
0001c0 78 c8 00 3d 35 98 a3 3d 89 5c d3 bc ff ae 8e 3c
       0.031441182 0.079880156 -0.02580096 0.017417429
0001d0 d4 b5 1d 3e 97 f4 13 81 4f 22 ca 00 0a 2e 44 01
       0.15401393 -2.717512e-38 1.8563078e-38 3.6032546e-38
0001e0 ab 57 10 81 19 82 7c 00 fd 61 68 80 dc df 72 80
       -2.6511522e-38 1.1434272e-38 -9.586043e-39 -1.0549552e-38
0001f0 b4 f7 db 80 76 f9 32 81 93 2d dc bd 8b 3e 8b bd
       -2.0200833e-38 -3.2872416e-38 -0.1075088 -0.067990385
000200 6d b6 8c bc 68 0a 14 3b af 60 53 3c 73 c0 b1 3c
       -0.017176831 0.002258921 0.012901469 0.021698212
000210 78 2f 56 3d ee e2 60 3d 8e 33 9d 3d d0 72 91 bc
       0.052291363 0.054903917 0.07675849 -0.017754942
000220 45 68 8a 3b 0c 85 15 bb 76 5a 39 bc 4a bb 50 3c
       0.0042238557 -0.0022814898 -0.0113130715 0.012739966
000230 dd 62 d9 bb 5f bb d4 bc 03 15 3c bb 6e a5 9e bc
       -0.0066341 -0.025968252 -0.0028699047 -0.019365992
000240 90 13 73 3c f7 ce 96 3a ae e9 23 3a e7 09 a6 3b
       0.014836207 0.0011505772 0.00062527775 0.0050670984
000250 b3 a7 3f bc e8 0d f3 3b 53 fd 14 bb 00 b2 0e bc
       -0.011697697 0.0074174292 -0.0022734 -0.008709431
000260 1d 96 63 3c 4f f3 e8 bd 7e 79 06 3e 68 e5 23 bd
       0.01389077 -0.113745324 0.13132283 -0.0400137
000270 d0 fb 36 be b9 dc ae 3d 00 2a 5e bd 5e 74 ed bd
       -0.17869496 0.08538193 -0.054239273 -0.11594461
000280 bf c8 93 3d 02 3b e5 bd 26 03 b6 bd 27 36 8b bd
       0.07216024 -0.111928955 -0.08887319 -0.06797438
000290 34 ce 91 bd 65 53 3b bd 8c a4 03 bd a7 b9 4f bd
       -0.07119408 -0.045733828 -0.032139346 -0.05071416
0002a0 3d dc 5b bc 0b f0 88 bc 2b 19 59 bc 40 d1 7e bd
       -0.013419208 -0.016716024 -0.013250629 -0.062211275
0002b0 bb 4f d2 bd 20 3a 8d 3e e6 ba 25 3d 4f 1e 11 bd
       -0.10269114 0.27583408 0.040461443 -0.035429295
0002c0 83 09 96 3e f4 c7 d3 3c d1 41 ea bd 8d 2d 43 3e
       0.29304132 0.025852181 -0.11438335 0.19060345
0002d0 38 d1 65 3e 0a f8 84 3e 9d fd 9f 3e db b6 14 be
       0.22443092 0.2597049 0.3124818 -0.14522879
0002e0 8c 7b 8f bd 14 34 c2 bd f8 a4 2e be 81 bd 20 3d
       -0.070059866 -0.09482589 -0.17055118 0.039243225
0002f0 22 cf b5 be 8e 09 4d be d0 55 32 be cd b9 0c be
       -0.35509592 -0.20023176 -0.17415547 -0.13742752
000300 fc 97 06 be c9 f5 e8 bd d0 5c 99 bd 33 77 7b 3c
       -0.13143915 -0.11375005 -0.07488406 0.0153482435
000310 8c 61 9f bd e0 33 58 3c 4d e8 3f be 86 ff 1f be
       -0.077822775 0.013195962 -0.1874096 -0.15624818
000320 82 6f 76 bd 88 f4 39 bd b1 ea 1c bd 8b ea 06 3e
       -0.060164936 -0.04539922 -0.038309757 0.13175409
000330 41 41 d7 bd ab ec 45 bd b5 d0 92 3e 21 a0 bc 80
       -0.10510493 -0.048321407 0.28674856 -1.7322517e-38
000340 21 1e 38 80 14 0f 42 80 28 3a 24 80 53 e6 f9 00
       -5.153596e-39 -6.066552e-39 -3.32694e-39 2.2949663e-38
000350 97 62 48 80 98 35 db 80 12 b6 8f 80 79 63 09 81
       -6.647523e-39 -2.01312e-38 -1.319779e-38 -2.5234294e-38
000360 9b 15 28 be 41 1f 97 3d a8 0d de 3d 31 d4 80 be
       -0.16414492 0.07379008 0.108424485 -0.2516189
000370 e3 19 2b 3d 28 68 00 3c 75 0c 6c be 60 87 95 3d
       0.041772734 0.007837333 -0.23051627 0.07301211
000380 84 c9 73 3a 14 e7 a5 80 87 3c 1e 00 a8 1a 15 01
       0.00092997425 -1.5235752e-38 2.776778e-39 2.7386103e-38
000390 74 ab 96 80 1d 91 e1 80 da 3d 91 00 fe a5 91 80
       -1.383683e-38 -2.0715043e-38 1.3338335e-38 -1.3375694e-38
0003a0 a0 1f ad 80 23 ba a2 00 75 da 2b 80 5a e8 25 80
       -1.5898886e-38 1.4944124e-38 -4.027294e-39 -3.481265e-39
0003b0 7f 28 11 80 e0 fa 34 80 83 8a 18 80 9b 50 3a 80
       -1.57573e-39 -4.865443e-39 -2.25374e-39 -5.355375e-39
0003c0 90 8f 01 80 b2 c9 34 80 ee 6f 26 00 9e c9 4a be
       -1.43336e-40 -4.8478e-39 3.529902e-39 -0.19803473
0003d0 32 d0 ed bd e7 e9 5c 3e 6a 26 ff bd bd 45 8f bd
       -0.11611976 0.21573602 -0.12458499 -0.069957234
0003e0 14 6d 0c 3e 04 36 ca bd 26 f2 70 bd 57 1e 07 3c
       0.13713485 -0.09873584 -0.05882468 0.00824698
0003f0 b6 3b 1f 01 b0 de be 00 71 66 5d 80 9c 5a 27 01
       2.9246528e-38 1.752863e-38 -8.57745e-39 3.0738065e-38

onnx::Conv_87 f4 [32]
000000 98 3b 4e 3e ce f9 84 bd 4b aa cb bd f3 71 27 80
       0.2013992 -0.06492959 -0.0994459 -3.622462e-39
000010 b0 6b a4 bd ea d3 25 80 8a f1 3f be e7 a5 24 3e
       -0.08028352 -3.473934e-39 -0.18744484 0.16078912
000020 c4 fb 5a 3c ed 2b b4 3d dd 47 3b 80 e6 53 17 3d
       0.01336569 0.08797441 -5.444074e-39 0.036945246
000030 bf 4f e1 3d 4a 7f 7a bd 7b 4b 42 be 63 e0 23 80
       0.110015385 -0.06115655 -0.18974106 -3.294737e-39
000040 00 16 f2 3c 30 1e 93 80 df 61 a8 3d ec f9 ac 3d
       0.029551506 -1.3510647e-38 0.082217924 0.08446106
000050 b4 23 ac bd c1 17 54 b6 e6 54 17 80 2a 9e 78 3d
       -0.08405247 -3.1604288e-06 -2.142672e-39 0.060697712
000060 a1 2c ee bd 7c 50 97 3c d1 70 43 bc da 72 f5 bc
       -0.11629606 0.018470995 -0.011928753 -0.029961992
000070 a4 65 12 80 c6 27 8e bd 2a 65 2c 3e b8 93 22 80
       -1.689501e-39 -0.0694118 0.16835466 -3.175398e-39

onnx::Conv_89 f4 [32, 16, 1, 1]
000000 50 b7 d7 3d 4a 80 14 3d 8d ab 21 be 81 5e 25 ba
       0.10533011 0.03625516 -0.15788098 -0.00063083327
000010 25 bb 04 be af 6a b3 3d 42 00 58 3d ef 08 9d 3a
       -0.12962015 0.08760583 0.05273462 0.0011980812
000020 6c ce db b9 c8 21 fc 3b 03 6b 90 3d 35 67 5e bd
       -0.0004192473 0.0076944567 0.07051661 -0.054297645
000030 65 19 9f bd 3c d3 26 be 50 a5 d4 3c fb f3 7e 3c
       -0.077685155 -0.16291517 0.025957733 0.015561099
000040 3b c2 af 3b 05 a5 26 3b 71 8f 8a 3c 0c b8 4a b9
       0.0053637302 0.002542795 0.016914101 -0.00019332784
000050 0a 90 3f 3a a0 f0 0f 3c a4 48 70 ba 66 db eb 3c
       0.0007307535 0.008785397 -0.0009166098 0.02879114
000060 ee 57 9f b7 e2 0c 7d 3a 3c 92 51 bd bc 7d 29 3c
       -1.8995222e-05 0.0009653104 -0.05116485 0.010344919
000070 53 2b dc 3c 03 4a 21 bc dc b1 65 3c 65 48 c0 bb
       0.026876127 -0.009844306 0.014019456 -0.005868005
000080 41 40 eb bb 10 4e 6c be a8 f2 a9 3e 89 d6 31 bc
       -0.0071792905 -0.23076653 0.33192945 -0.010854372
000090 4e 12 d5 3d 48 5e ee 3d 01 22 d8 3d 93 14 0b bf
       0.10403882 0.116390765 0.10553361 -0.5432827
0000a0 a7 18 8f bd b0 b7 00 be 38 63 7e 3c d1 6d 35 3e
       -0.06987124 -0.12570071 0.015526585 0.17717673
0000b0 af ae 25 3e 6b fe 8a be 70 60 67 be f2 6d 50 3e
       0.16179918 -0.2714723 -0.22595382 0.20354441
0000c0 00 00 00 80 00 00 00 00 00 00 00 00 00 00 00 80
       -0.0 0.0 0.0 -0.0
0000d0 00 00 00 00 00 00 00 80 00 00 00 00 00 00 00 00
       0.0 -0.0 0.0 0.0
0000e0 00 00 00 80 00 00 00 00 00 00 00 00 00 00 00 00
       -0.0 0.0 0.0 0.0
0000f0 00 00 00 00 00 00 00 00 00 00 00 80 00 00 00 00
       0.0 0.0 -0.0 0.0
000100 cc dc 69 3b 96 80 5c 3c f9 6d 80 3c 70 21 56 b9
       0.0035684584 0.013458392 0.015677439 -0.00020421087
000110 dd a7 d7 bb 80 44 fe 3b 40 41 13 bc af 06 3f 3d
       -0.00658129 0.0077596307 -0.008987725 0.046637233
000120 68 e1 d9 ba ee 87 2f bb 74 fd a0 bd 88 a4 89 3b
       -0.0016622962 -0.0026783901 -0.07860842 0.004200522
000130 4a 22 ba 3c 9b 5a 99 3c 07 39 73 3c e3 95 c6 bc
       0.022721428 0.018719962 0.014845139 -0.024241393
000140 00 00 00 80 00 00 00 80 00 00 00 80 00 00 00 00
       -0.0 -0.0 -0.0 0.0
000150 00 00 00 00 00 00 00 00 00 00 00 80 00 00 00 80
       0.0 0.0 -0.0 -0.0
000160 00 00 00 00 00 00 00 00 00 00 00 00 00 00 00 00
       0.0 0.0 0.0 0.0
000170 00 00 00 00 00 00 00 00 00 00 00 80 00 00 00 00
       0.0 0.0 -0.0 0.0
000180 a4 12 bd b9 a0 94 12 3a 64 a1 bb 3a 04 dc 72 b6
       -0.00036062778 0.0005591605 0.0014315066 -3.6188876e-06
000190 78 e3 1c 39 e2 f0 c8 ba 95 28 00 bb 33 04 a6 b9
       0.00014962058 -0.0015330578 -0.0019555439 -0.00031665116
0001a0 52 69 de 38 50 c2 45 b8 4a d0 18 ba cf 5f 4c 3a
       0.00010605402 -4.7149428e-05 -0.00058293773 0.0007796259
0001b0 08 0e 8f ba f8 91 90 ba 6b 0f ce 38 d6 33 9a ba
       -0.0010914216 -0.001102983 9.825717e-05 -0.0011764716
0001c0 e2 3b 9d 3c 55 28 33 bd a9 d5 ac bc 91 8a 08 bb
       0.019193593 -0.043739635 -0.021097975 -0.0020834545
0001d0 ae b5 80 bd a1 66 19 3d 31 46 ee 3c 1f c3 0d 3b
       -0.06284653 0.03745139 0.029086204 0.0021631194
0001e0 a0 b0 a1 bb a7 c9 96 bb 07 c1 b4 bd 3c 70 8d bd
       -0.0049343854 -0.0046016756 -0.088258795 -0.06906173
0001f0 fc 47 18 bd 37 9a a5 bd a6 17 ef bb 8c 33 0a 3c
       -0.037178025 -0.08086055 -0.0072965203 0.008435141
000200 ed 42 ae bd 4e af 47 3c 3b 90 16 3e 43 d4 32 bb
       -0.08508859 0.012187792 0.14703457 -0.0027287162
000210 88 10 5c 3d 57 5c c2 bd 9e d3 55 bd 49 1d 05 be
       0.053726703 -0.09490269 -0.052203767 -0.12999453
000220 78 a3 86 39 f1 9e 81 bd 19 99 01 3c 6b 22 47 3e
       0.00025680265 -0.06329144 0.0079100365 0.19446723
000230 a9 b8 7a bd df e5 15 3e e2 ff 91 bd dd 71 8e 3a
       -0.061211262 0.1463847 -0.07128884 0.0010867674
000240 5c 1d 1c 3e 56 e0 fd 3d bd c5 93 3b a1 8c 8a 3a
       0.15245575 0.12396304 0.004509656 0.0010570475
000250 62 c8 25 bd ba 1a 7e be 16 f4 3c be d4 8e 4d bc
       -0.040474303 -0.24814883 -0.18452486 -0.01254626
000260 b0 13 a5 39 68 ec 29 bd 36 0c 0b 3d 7c 44 74 3d
       0.0003148592 -0.04148522 0.033947192 0.059635624
000270 05 6d 5c 3d e3 6d 1b be 0e 8f 3c bd 8b a5 66 be
       0.053814907 -0.15178637 -0.046034865 -0.22524087
000280 00 00 00 00 00 00 00 00 00 00 00 80 00 00 00 80
       0.0 0.0 -0.0 -0.0
000290 00 00 00 00 00 00 00 80 00 00 00 00 00 00 00 00
       0.0 -0.0 0.0 0.0
0002a0 00 00 00 80 00 00 00 80 00 00 00 00 00 00 00 00
       -0.0 -0.0 0.0 0.0
0002b0 00 00 00 00 00 00 00 80 00 00 00 80 00 00 00 80
       0.0 -0.0 -0.0 -0.0
0002c0 85 b7 d0 bc 6f 53 22 3d 9e a3 37 b9 18 00 d1 3a
       -0.025478134 0.03963035 -0.00017513192 0.0015945463
0002d0 96 a0 e0 3b 7b b1 67 bd 08 19 2a 3c 0a b4 5d 3d
       0.006855081 -0.056565743 0.0103819445 0.054126777
0002e0 9e 0c 83 3b 1d 85 c4 3c c2 d5 2f 3d 34 8b 00 3d
       0.003999307 0.023989255 0.042928465 0.031382754
0002f0 cf 60 c4 3c dc e4 18 bc 16 b2 92 3c 5b 4b 07 bd
       0.023971943 -0.009331908 0.017907184 -0.03303085
000300 ab 59 2c bd 98 22 29 bd 3b 1c 6a 3c 46 c2 4d 3a
       -0.0420777 -0.041292757 0.014288957 0.00078490784
000310 1e ce 14 bd a5 04 1d 3d 49 89 98 3d d3 4b 1b 3d
       -0.03632938 0.038334507 0.0744806 0.03791411
000320 f8 6e 33 3b 89 85 2b bc 19 d5 ff bc 15 ab ec bc
       0.0027379375 -0.010468849 -0.031229543 -0.028890172
000330 9f d7 8e bc ab 6a 4f bd 7f a3 cf 3b 36 5e 54 3d
       -0.0174368 -0.050638836 0.006336629 0.05184766
000340 6e 86 8e 3c 16 0f d4 3c 63 e0 fe bc 9c c7 cb ba
       0.017398085 0.0258861 -0.031112855 -0.0015547159
000350 35 5d a3 3b b3 3c 0c 3c d2 d3 dd bc 89 de fc bb
       0.0049854764 0.008559394 -0.027078543 -0.007716958
000360 84 e9 28 3b 67 65 72 3c 3b 02 22 bd dd 73 19 bc
       0.0025773952 0.014794684 -0.03955291 -0.009366003
000370 41 1f b7 bc 94 59 15 bc 18 62 9b 3c 1c 2a 25 bd
       -0.02235377 -0.009115595 0.018967673 -0.04032336
000380 cf e0 8f be 43 d0 2e be c8 f0 6a bd 26 b5 c2 ba
       -0.28101203 -0.17071633 -0.057358533 -0.0014855012
000390 32 49 3f be 45 00 91 be 32 ca eb bd 53 a4 87 3e
       -0.18680266 -0.28320518 -0.11513175 0.26492557
0003a0 8e 60 47 bd 0c 11 43 be 3b 0b 9b be bd fe b5 bc
       -0.048676066 -0.19049472 -0.30282006 -0.022216195
0003b0 3f 45 3d be ee 4e 86 3e 87 80 24 be 81 bf 9a bd
       -0.18483447 0.26232094 -0.16064654 -0.07556058
0003c0 00 00 00 00 00 00 00 00 00 00 00 80 00 00 00 80
       0.0 0.0 -0.0 -0.0
0003d0 00 00 00 80 00 00 00 80 00 00 00 80 00 00 00 00
       -0.0 -0.0 -0.0 0.0
0003e0 00 00 00 00 00 00 00 80 00 00 00 00 00 00 00 00
       0.0 -0.0 0.0 0.0
0003f0 00 00 00 00 00 00 00 00 00 00 00 80 00 00 00 00
       0.0 0.0 -0.0 0.0

onnx::Conv_90 f4 [32]
000000 29 89 06 3d 21 64 dc bc c5 0c 8d bd f3 71 27 80
       0.03284565 -0.026903214 -0.06887201 -3.622462e-39
000010 37 7c 8e bd ea d3 25 80 92 7e 5b bd 27 9a 06 3e
       -0.06957286 -3.473934e-39 -0.053587504 0.13144742
000020 30 5c bc bd 17 2c a7 3d dd 47 3b 80 a0 da f1 bd
       -0.09197271 0.08162706 -5.444074e-39 -0.118092775
000030 94 fb f6 3c b6 34 9e 3c 74 d8 73 3e 63 e0 23 80
       0.030149259 0.019312244 0.23813039 -3.294737e-39
000040 16 63 89 be 30 1e 93 80 28 4a 7e 3c 97 5f 7e 3e
       -0.2683341 -1.3510647e-38 0.01552061 0.24841152
000050 24 fd d4 bc f3 c6 53 b6 e6 54 17 80 e6 9e 86 3d
       -0.025999613 -3.1557254e-06 -2.142672e-39 0.06573276
000060 ad 99 56 bd 51 b7 1b 3d 4c 67 44 3c dc 97 c2 bd
       -0.05239265 0.03801662 0.0119875185 -0.09501621
000070 a4 65 12 80 9a c9 ab 3d 78 2b 8b bd b8 93 22 80
       -1.689501e-39 0.08388062 -0.067954004 -3.175398e-39

onnx::Conv_92 f4 [64, 32, 3, 3]
000000 b8 c4 15 bd 68 94 d9 bd 3d f2 15 be d2 0b ef 3d
       -0.03656456 -0.10624009 -0.14643188 0.116721764
000010 2c ec 40 bd f9 0e 5f bd be dc 82 3d 87 e0 61 bc
       -0.04710023 -0.05445764 0.063897595 -0.013786442
000020 f5 54 0d bd ab 8a 75 bc 9c 7c 97 bc 9e 51 95 bc
       -0.03450485 -0.014986674 -0.018492036 -0.018227395
000030 86 1a 38 3b 83 61 2d bc d9 5e 73 bc 45 0e c3 3b
       0.002809198 -0.010582331 -0.014854156 0.005952629
000040 40 45 4b 3c fa f9 4d b7 7e 3d 35 bd 09 1c 39 3d
       0.012406647 -1.2277154e-05 -0.044248097 0.045192752
000050 f0 ea 53 3d d4 d8 71 bc 2e c2 d2 3c b1 fc ce 3c
       0.051737726 -0.0147611685 0.025727358 0.025266977
000060 86 6c ba bc 14 a3 e7 3d 6c a8 d6 3d 30 88 09 00
       -0.022756826 0.113104016 0.10481343 8.75374e-40
000070 1b 9c 1f 00 cf 7b 4b 00 f3 a4 23 00 74 36 26 00
       2.9029e-39 6.932076e-39 3.273415e-39 3.509283e-39
000080 4d 5d 3f 00 2a d8 0f 00 22 b8 1f 00 b9 83 59 00
       5.819106e-39 1.455077e-39 2.912955e-39 8.220612e-39
000090 c6 00 14 3d 70 6d e6 bd eb 67 53 3d 04 d0 1e 3d
       0.03613355 -0.11251342 0.051612776 0.038772598
0000a0 2f 82 87 bd b5 12 c7 3d fa 8c 97 3c d8 94 57 3d
       -0.066166274 0.09720365 0.01849984 0.052632183
0000b0 6d f6 eb 3d 25 79 04 80 3d 12 0b 80 60 50 15 00
       0.11521611 -4.108e-40 -1.016733e-39 1.957379e-39
0000c0 97 84 03 80 86 a4 05 00 9e ab 09 00 6b 42 07 00
       -3.23071e-40 5.18197e-40 8.88084e-40 6.66675e-40
0000d0 34 29 15 80 86 b7 0b 80 a4 47 a7 3c 4f e7 e4 3b
       -1.943326e-39 -1.076026e-39 0.020419903 0.006985582
0000e0 0f f5 32 bc 90 40 40 bc 4c 60 42 bd e1 b2 60 bd
       -0.010922684 -0.011734143 -0.047455117 -0.054858092
0000f0 b4 29 b6 3c 2a e7 48 bc 7b af 0f bd b3 02 27 3e
       0.022236682 -0.012262145 -0.03507946 0.16309623
000100 80 62 d2 3b 39 c1 a1 be e5 c5 47 3e 56 fb bd 3c
       0.0064204335 -0.3159273 0.19509085 0.023191135
000110 42 63 91 be 2a 9c 38 3e 7c a6 f5 bb cc 47 77 be
       -0.2839604 0.18028322 -0.007496653 -0.24148482
000120 28 ca 9f bc 4f 68 30 3e 8c d2 45 3d 32 37 2a bd
       -0.019505575 0.1722729 0.048296496 -0.041556545
000130 c2 35 26 3e 2d 23 2b 3b 81 55 97 bd 29 79 f3 3d
       0.16231444 0.0026113496 -0.073893555 0.11888344
000140 08 0f 9d bb 3c 82 1f 3c e4 0c 73 bc 1f c1 eb 3d
       -0.0047930516 0.00973564 -0.014834616 0.11511444
000150 5b 8f dc bc bf 4e 12 bd e9 4c 73 3d c2 78 b5 3c
       -0.026923826 -0.03571963 0.05939952 0.022152308
000160 f9 1e 36 3b ed 14 18 3e e3 6e 50 80 c3 c2 48 80
       0.0027789457 0.14851733 -7.386618e-39 -6.682023e-39
000170 1c f8 5b 80 51 21 54 80 8d 5a 48 80 11 f7 47 00
       -8.446035e-39 -7.726133e-39 -6.644639e-39 6.608951e-39
000180 f3 b2 6a 80 61 2a 5b 00 fb 93 43 00 48 b8 d7 bc
       -9.798757e-39 8.372233e-39 6.206064e-39 -0.02633299
000190 3c a3 3f bd a6 a5 fd bb 52 38 72 bb e1 5f 88 bc
       -0.04678653 -0.007740694 -0.003695984 -0.016647281
0001a0 c3 22 1f 3c c3 11 8b ba df ea 31 bc 38 3d 43 3d
       0.009712878 -0.0010610152 -0.01085922 0.047665805
0001b0 fc b1 74 3d c7 c8 37 3d 4b d9 29 be 01 9f 2c 3e
       0.05974005 0.04486921 -0.16586797 0.1685753
0001c0 55 e1 f3 3d 44 f7 d0 bd e4 91 4a 3e 67 ee 14 3e
       0.11908213 -0.10203412 0.19782215 0.14544068
0001d0 b8 ab 9b bd ae 11 e2 3c b9 d5 a0 bb f4 f9 6d bc
       -0.07601112 0.027596321 -0.00490829 -0.0145249255
0001e0 66 73 88 3c 6d 5e f0 bb 69 fd be bc b1 45 8e bc
       0.016656589 -0.007335475 -0.023314195 -0.017367216
0001f0 63 06 40 bd c5 f1 66 bd aa 2d 31 3c cb f5 40 3c
       -0.04688109 -0.056382913 0.01081411 0.011777352
000200 86 72 32 bd 87 d3 9b 3d 0f 60 08 3d 83 fc 01 bc
       -0.04356625 0.07608705 0.033294734 -0.007933739
000210 7d 66 2f 3e ef 44 8e 3d 1f 67 0f be da be 50 00
       0.1712894 0.06946742 -0.14004181 7.415304e-39
000220 d7 9e 3c 00 5d 4e f8 80 00 37 0b 01 18 ab 49 80
       5.567111e-39 -2.2803314e-38 2.5569728e-38 -6.765368e-39
000230 38 43 f8 00 2a e9 d7 80 c8 39 f6 80 0e 13 e4 00
       2.2799317e-38 -1.9828275e-38 -2.261226e-38 2.0945329e-38
000240 5b ab 44 3e 77 98 a1 3d c3 c6 55 3d 0f 85 fb 3d
       0.19205992 0.078904085 0.052191507 0.12281238
000250 27 f2 60 3d 58 f2 00 3e 22 b3 b5 3d 5a 13 a9 3d
       0.054918434 0.12592447 0.088720575 0.08255644
000260 0d 34 ed 3d b9 ec 6a 80 86 2a a1 80 1b df 24 81
       0.115821935 -9.819483e-39 -1.480077e-38 -3.0282113e-38
000270 31 3c 52 01 f5 3f 2b 81 a9 bf fb 80 dd 40 b7 80
       3.8614094e-38 -3.1453627e-38 -2.3119464e-38 -1.6829164e-38
000280 0d fd df 80 e6 17 11 81 31 ee cf bd 30 b1 40 3b
       -2.0570093e-38 -2.664944e-38 -0.10152853 0.0029402487
000290 00 9e 29 bd 1b f3 1f bd 72 89 56 bd f8 06 74 bd
       -0.041410446 -0.039050203 -0.05237717 -0.05957696
0002a0 ad c9 57 3b f6 82 56 bd 9d f9 93 bd 68 cd b7 3d
       0.0032926605 -0.052370988 -0.07225344 0.08974725
0002b0 26 5c ad 3c d1 d3 57 bd bd 5c ee 3d 19 54 a9 3c
       0.021162104 -0.05269224 0.11638782 0.020669984
0002c0 b4 ec fd bc 17 da e0 3d 38 7c 84 3c 29 d3 0a bd
       -0.030996658 0.10979097 0.016172513 -0.033892784
0002d0 7a 06 85 bb 24 96 b8 bc 60 34 1b bd 0e 5b 52 3c
       -0.00405961 -0.02253253 -0.037891746 0.012839092
0002e0 c5 a9 95 bc e2 95 2a bd dc ea d0 3c 2b 72 90 bc
       -0.018269429 -0.041646846 0.025502615 -0.017632565
0002f0 67 97 6f bd 34 be 36 ac b1 e9 69 aa ed 57 ba 2d
       -0.058493998 -2.596934e-12 -2.0775635e-13 2.1184799e-11
000300 63 33 8e 2f 2d 75 0f 2e 5d 49 9d 2d a9 6d 07 ae
       2.5866162e-10 3.261851e-11 1.7881413e-11 -3.0792844e-11
000310 37 cd 6b 2c 6d 09 01 2d f6 6b 5a 81 13 53 73 01
       3.3509426e-12 7.334894e-12 -4.0117734e-38 4.4691654e-38
000320 a4 ec 72 00 6a 07 3a 81 be 96 3a 81 4b 79 73 01
       1.0554137e-38 -3.4168124e-38 -3.4270957e-38 4.4719075e-38
000330 ce af 44 81 1e 11 3d 81 9e 17 9a 80 5f 97 16 bd
       -3.6125648e-38 -3.4726099e-38 -1.4151139e-38 -0.036765452
000340 53 f4 13 bd 9a 81 79 bc b8 29 99 3c 9c 73 d2 3c
       -0.036121678 -0.015228653 0.01869665 0.025689892
000350 1f c4 97 3c f3 65 98 3c 06 48 03 3d 7e 44 72 3d
       0.018526135 0.0186033 0.03205111 0.05914735
000360 a7 33 3b bc a0 04 16 be 43 dc c5 bd ed 30 fa 3d
       -0.011425889 -0.14650202 -0.09661152 0.12216363
000370 d6 e0 4a bd 8a d6 4b bd d1 c3 06 3e c3 f9 b0 bc
       -0.049530827 -0.049765147 0.13160636 -0.02160347
000380 fd 03 b0 bc 82 a5 80 3c 40 f3 6d 3d a5 fe 42 3d
       -0.021486277 0.01570392 0.05809331 0.04760613
000390 88 70 0c 3d 75 2e 87 3d 92 80 aa bc 3f 26 72 bc
       0.034287006 0.06600658 -0.02081326 -0.014779626
0003a0 71 3c 22 3c c3 ba 8f bd f3 c3 82 bb 3a 89 91 bb
       0.009902106 -0.07018044 -0.003990644 -0.0044414075
0003b0 44 ae b3 bb 49 c5 ca bb 50 42 18 3a 65 81 98 ba
       -0.0054834206 -0.006188069 0.0005808221 -0.0011635242
0003c0 3e f6 c0 3a da 3b d2 3b d9 68 c9 3b 74 ef 5e bb
       0.0014721823 0.0064158263 0.006146532 -0.0034017237
0003d0 44 71 61 bc a2 96 cb bc de 96 ca 3c 0f b2 5e bc
       -0.013759915 -0.0248521 0.024730142 -0.013592257
0003e0 03 29 99 3c 10 a7 8e 3d a3 74 b7 ba ad e4 9e bc
       0.018696314 0.069654584 -0.0013996552 -0.01939615
0003f0 ab 19 10 80 53 4b 4b 80 75 91 db 80 17 76 e9 00
       -1.478576e-39 -6.914683e-39 -2.0164154e-38 2.1440033e-38

onnx::Conv_93 f4 [64]
000000 0c 93 2c bd 7c d3 06 80 58 5f 07 80 0c b9 2f 80
       -0.042132422 -6.26879e-40 -6.77051e-40 -4.38265e-39
000010 73 8a 35 80 c4 f0 57 bd 5d 64 05 80 c5 f7 0d 80
       -4.916948e-39 -0.052719846 -4.95181e-40 -1.282744e-39
000020 40 1c 30 bb 72 bc 11 80 75 66 29 80 0d 87 28 80
       -0.0026872307 -1.628805e-39 -3.80201e-39 -3.721867e-39
000030 63 d5 06 80 c3 63 06 80 c0 3f 9b bc d8 f7 1b 3e
       -6.27562e-40 -5.86801e-40 -0.018951297 0.15231264
000040 81 3a 95 80 08 30 13 80 6e c3 42 80 e2 6d 1d 80
       -1.3704476e-38 -1.762105e-39 -6.13125e-39 -2.702648e-39
000050 7d 3d 21 80 34 6e 46 80 34 98 da bd c9 9f 77 80
       -3.052629e-39 -6.468018e-39 -0.10673562 -1.0985744e-38
000060 ae ed 23 80 1e 31 2b 80 27 17 1b 80 75 b8 1b 80
       -3.299506e-39 -3.966546e-39 -2.487864e-39 -2.545729e-39
000070 ca 7c 18 80 6e ed 28 80 19 a6 2c 80 a0 6b ce b8
       -2.248818e-39 -3.758594e-39 -4.100346e-39 -9.842892e-05
000080 76 4d 23 80 f6 9b 10 80 2a 92 0b bd ec ac 03 3e
       -3.24203e-39 -1.525316e-39 -0.03407494 0.12858933
000090 81 82 24 80 bc 5f 00 80 d6 a1 19 80 3b de 1f 80
       -3.352894e-39 -3.4343e-41 -2.353943e-39 -2.926622e-39
0000a0 aa 5b 07 80 54 67 06 80 cc a8 15 80 3e a5 9b 3d
       -6.75731e-40 -5.8808e-40 -1.989098e-39 0.07599877
0000b0 18 0e 48 80 f2 31 3e 80 bc d4 1f 80 0b 4e 23 80
       -6.617212e-39 -5.711718e-39 -2.923215e-39 -3.242239e-39
0000c0 a3 b0 2d 80 70 32 0e 80 96 47 13 80 6a 35 0c be
       -4.195963e-39 -1.30379e-39 -1.770555e-39 -0.13692251
0000d0 38 a2 3d 80 e0 73 31 80 78 b8 39 80 d8 82 27 80
       -5.660158e-39 -4.541507e-39 -5.300798e-39 -3.628522e-39
0000e0 73 21 49 80 ab 51 2c 80 12 dc 42 80 46 a2 78 80
       -6.71599e-39 -4.070059e-39 -6.140089e-39 -1.1078472e-38
0000f0 82 60 37 80 35 12 15 80 1e d7 0c 80 92 25 39 80
       -5.085573e-39 -1.935077e-39 -1.179195e-39 -5.248101e-39
