server/model/copo_com_gelo.onnx (onnx, 302121 bytes, 16 tensors)

fc.weight f4 [2, 256]
00000000: 7b77 303d 2827 073d 5583 85bc 07ee cf3d
00000010: 7d97 9fbd b1d7 4d3c e37a aebd 4fef febc
00000020: 5cc1 d03c fef4 a23d 6ee4 513c 254a d83c
00000030: ce69 c03c fc8d a3bc a72f 1f3c a204 543d
00000040: 33a7 bbbd 4381 2fbc e8f9 a7bd 791d 243d
00000050: 47f4 cebc 9611 82bc 5143 a8bd 4b2a 72bd
00000060: 3328 fc3c 2c01 d83c cfc8 1a3d 43b8 093d
00000070: c111 03bd b6f8 ac3d 48be 5dbc a0de 5a3d
00000080: 7155 b03d c96a e33c 4a17 a83d 8869 41bd
00000090: 6d46 a6bd 39f8 11bc ac1d fb3b 9cc2 c5bd
000000a0: 69c5 9f3c 2a8e 033d 8644 a03d 71e3 66bd
000000b0: 9894 8f3c b6bc 523d 1822 323d 1c97 003e
000000c0: 094d f7bc 8b6d a13d bf32 aa3b cc8a 3d3d
000000d0: 223c 3cbd e786 753d 1673 28bd b615 1bbd
000000e0: 2f1c 4ebd b297 c9bc 596d a4bc 8613 43bb
000000f0: b38d 59bc d623 843d ec45 09bd eef1 a93d
00000100: 0fdd 23bc 23cc bf3d f179 2e3d a18d 0c3e
00000110: 162b 453c 712f ed3d fd90 053d d1d0 8a3c
00000120: 0e32 6cbd 03bc f23c f291 943c 7c8c 983d
00000130: 3b89 023d a7b8 a43d 66d3 33bd f84c f03d
00000140: fcd5 8b3c fcc1 553d 8f82 14bd 1384 db3d
00000150: c3c5 af3c 098f 013d 84ec 793d f6da 7fbd
00000160: c06e 69bd d90b 173b 8b27 40bc 72cd 763c
00000170: fbf7 51bc ade3 f43c 0b67 4c3d 63e2 9bbc
00000180: 777d c5bb b111 85bc c044 813d 64c2 7fbc
00000190: 5dbf cb39 fb36 e8bc eb28 05bd 82ff 273d
000001a0: d6ea 00bd 2f6b 4dbd 9a27 07bc 6194 70bb
000001b0: 1d13 8d3d 2451 f1bb 28be 45bc af39 e83c
000001c0: 7ee7 5c3c 8f83 d13c 5b6a 7cbc c45e a2bd
000001d0: 5544 853c 2f05 1e3d 9f70 8bbc 8607 7d3d
000001e0: 763f 403d 1391 18bd 7b44 bb3d ed4c 18bd
000001f0: 1068 933c 64da 8a3d bb99 803d 3a3a 403d
00000200: 926e bd3c ec45 403d c202 823d 81b4 e93b
00000210: b412 66bd d243 823d 11ce 89bd e14a 5d3d
00000220: 59e4 48bb ddeb 17bc b959 ab3b 1776 c63d
00000230: 8fba 69bd 89c1 223d 2724 cbbd db32 fd3c
00000240: b3f7 db3c bb4e 42bd ac8d 7d3d 67f5 233d
00000250: 6f56 84bd 457d 273d a6ee 8cbd 7a03 5f3c
00000260: 2398 30bd 6f4e 8abd c99a 12bd 6e68 25bd
00000270: 0c8b c7ba f138 2e3d f452 80bd e478 0f3d
00000280: 6176 22bd d27c 9e3c 7fc3 e8bb 05be 83bc
00000290: e3d9 69bd e552 34bd 80c2 edbc 75da 61bc
000002a0: d160 59bd fb43 9dbd f67f 51bc 1a50 643c
000002b0: 3c05 bb3d 0bed 69bd 2452 a03c d6a4 afbc
000002c0: 1e89 c03d 2710 d9bc 6a8c 683d 1aa0 fdbc
000002d0: d4d2 51bd 42ab 4dbc d861 62bd 06bd 96bd
000002e0: c6aa 133d 2898 543c 0d14 98bc b08f a13d
000002f0: 61ef 83bd 21fe 99bc 9963 ed3c 7df4 da3c
00000300: 9cde 7d3d ce51 cbbc 0d05 7c3d f07d 0d3c
00000310: 2eb2 74bc dd77 99bd 58d5 5cbd a819 5e3d
00000320: eeff 3bbd 3cc0 f8bc 696f 4f3b 6af3 fcba
00000330: 4b3b 81bd b3d8 ba3d 6610 d0bc 9edc 973d
00000340: 190f 0a3d 8a7d a23d ca58 afbc ccbe 273d
00000350: c5a3 cebc 2766 3f3d 3eea 643d 3ce0 c53d
00000360: c512 923d b835 3a3d 88a6 c93d 0cbc 82bb
00000370: 4eed 353c 5c56 9d3c 88f4 833d 77f6 4dbd
00000380: d3ab 54bc 60f9 26bd 37fc 94bd 92d3 d4bd
00000390: 520e d23c 3159 7e3d 45a1 723d af26 e73c
000003a0: 9c49 a13c 1520 cc3d 5622 873c d364 7e3c
000003b0: 1fbd 1c3c 68e5 a4bd 68e0 6e3d 3109 acbd
000003c0: 3d10 98bd 54b0 2bbd 66e4 163b 73bc 34bd
000003d0: 6747 013d 3482 683d b9ab 253d 6b4b 103e
000003e0: bbe3 9c3d f921 8fbc 24b6 c23d df4c 1cbb
000003f0: 253c 53bb b276 93bd 588f 74bd 474a 32bc
0.043082695 0.032996327 -0.016297976 0.10152822 -0.07792566 0.012563632 -0.085195325 -0.03111997
0.025482826 0.07956885 0.01281081 0.026402542 0.023487952 -0.019965164 0.009715951 0.05176223
-0.0916275 -0.010711971 -0.08201963 0.04006717 -0.025262965 -0.015877526 -0.082159646 -0.059122365
0.030780887 0.026367746 0.037789162 0.03362299 -0.031999353 0.08445875 -0.013534136 0.053434968
0.08610047 0.02776088 0.08207567 -0.047219783 -0.081189014 -0.008909279 0.0076634493 -0.096562594
0.019503312 0.032118 0.0782557 -0.05636925 0.01752691 0.0514495 0.043489546 0.12557644
-0.0301881 0.07882222 0.0051940377 0.046274945 -0.045955785 0.059943106 -0.04112538 -0.037862502
-0.050319847 -0.024608467 -0.020071672 -0.0029766276 -0.013278413 0.06452148 -0.03351395 0.082980976
-0.010001435 0.09365108 0.04259676 0.13725902 0.012034198 0.11581314 0.032608975 0.016945275
-0.057664923 0.029630667 0.018135998 0.0744867 0.031869154 0.08043032 -0.043902777 0.117334306
0.01706981 0.05218695 -0.036257323 0.107185505 0.021456605 0.03163055 0.061016575 -0.062464677
-0.056990385 0.0023047833 -0.011728178 0.01506363 -0.012815471 0.02989372 0.049902957 -0.019028848
-0.0060269195 -0.016243787 0.06311941 -0.015610311 0.00038861754 -0.02834653 -0.032509726 0.041015156
-0.031473957 -0.050151046 -0.008249188 -0.0036709534 0.06888411 -0.007364409 -0.012069263 0.028347818
0.013482926 0.025575427 -0.0154062165 -0.07928231 0.016267935 0.038579162 -0.017021475 0.061774753
0.04693552 -0.03724773 0.09143921 -0.037182737 0.017993957 0.06779936 0.06279322 0.04693053
0.023124013 0.046941683 0.06348182 0.0071321134 -0.05617018 0.06360592 -0.06728757 0.05402649
-0.0030653684 -0.009272543 0.0052292016 0.096904926 -0.05706268 0.03973535 -0.09919005 0.030908039
0.02685151 -0.047438364 0.061902687 0.040028956 -0.064617984 0.04089095 -0.06881456 0.013611669
-0.04311384 -0.06753241 -0.035792146 -0.040382795 -0.0015223934 0.042534772 -0.06265822 0.0350274
-0.039663676 0.019346628 -0.007103383 -0.01608182 -0.05709256 -0.044024367 -0.029023409 -0.013784994
-0.053070847 -0.07678982 -0.012786856 0.013935113 0.09131858 -0.057110827 0.019570418 -0.021440905
0.09401153 -0.02649696 0.056774534 -0.030960131 -0.051226452 -0.012553038 -0.055269092 -0.07360272
0.036051534 0.01297573 -0.018564248 0.07888734 -0.06442142 -0.018797936 0.028978156 0.02672791
0.061979875 -0.024819281 0.061528254 0.008635983 -0.0149350595 -0.07493565 -0.053914398 0.054223686
-0.04589837 -0.030365102 0.00316521 -0.0019298617 -0.06310137 0.09123363 -0.025398444 0.07415126
0.033705804 0.07934101 -0.021404643 0.040953442 -0.025224576 0.04672828 0.055887453 0.0966191
0.07132486 0.045461386 0.098462164 -0.003989702 0.011103941 0.019206218 0.06443125 -0.050283875
-0.012980419 -0.040765166 -0.07274669 -0.10391916 0.025641594 0.06209678 0.05923583 0.028216688
0.01968842 0.09967057 0.016495865 0.015526968 0.009566574 -0.08051568 0.05831948 -0.084001906
-0.07424972 -0.041916206 0.002302432 -0.04412503 0.031562235 0.056764796 0.04044697 0.1409127
0.07660624 -0.017472254 0.09507397 -0.002384953 -0.0032231894 -0.07200374 -0.059707016 -0.010881967

fc.bias f4 [2]
00000000: 0ddf ffbc 7505 c63c
-0.031234289 0.024172524

onnx::Conv_80 f4 [16, 3, 7, 7]
00000000: 284e 8d3d b0da 253e bb59 603d e2a8 d53d
00000010: ef75 053d c9ee 573d 844a c83d 15ad bb3d
00000020: 27e7 68bd cf1b 08be dfa3 af3d 754d d93c
00000030: ba14 c7bd e211 e5bc 425d 9ebd 2027 0c3d
00000040: 2754 703c 1839 79bd 85ab 3c3e 6ca5 963d
00000050: 2c3e e13d e15c 98bd 93ae 4d3e aa65 90bd
00000060: 6fda 963d a5c4 fa3d 0899 f8bd 43a0 d4bd
00000070: ee3e ddbd 3936 353e 8855 193d 4487 b8bd
00000080: 0bf6 283e 8722 85bd 308d 0abd 3e3d d63d
00000090: efda 2bbd c828 f93d 7e1e b7bc ce3d 243e
000000a0: 7f72 c0bd 29b0 f93c 0de8 0fbe ad13 243e
000000b0: 91da 0a3b 3534 083e 7bdc f2bc 5ddf 0f3e
000000c0: a116 2c3e f938 06be 9d4a 2cbe 3f31 9bbd
000000d0: 9997 23be f6ca 11be 4903 193e 7f4d b03d
000000e0: 927d 663d 9eee e03d 0bee ec3d f23c 193c
000000f0: 8a90 2f3b 43ab c1bd 3e8d b9bd 7352 0a3e
00000100: a1f6 e03d 250d 563d b998 8dbd b2d6 b13d
00000110: d593 b83d 6db6 4a3c 86b2 06be 81aa 43bd
00000120: 119c 15ba 6a7b 42be a35f dcbd a377 cebc
00000130: 35fb 08be 74a5 1bbe 3566 3a3d 2d43 003e
00000140: 34a8 1f3d 34c3 d03c aae5 2abb c1f4 07be
00000150: be5f 463d 7b85 093e a5df 333d 024d a23d
00000160: 4e63 d73c ecfd b6bd 9025 adbc 885b 1d3e
00000170: 300d b6bc bca5 db3d 5288 e2bd 34e0 8b3d
00000180: 1e92 5dbd 7a99 bbbd 2a44 f13d 61d8 24be
00000190: f8ae 2ebd 1f67 13be a1ef a6bd e178 25be
000001a0: e161 a43d 31ec 11be 22fa 88bd 1772 643d
000001b0: 9655 2bbe 947c ccbd 58d1 1abe 5b6f 66bd
000001c0: a205 723d 391e 19be 81b3 45be bdd9 31be
000001d0: 45db 3bbe 0534 7dbc 9a7a 0ebe 47ad c5bd
000001e0: b628 f83d 0fe4 fabd db52 6abd 3ae7 75bd
000001f0: b0f9 9c3c 9afb 21be 2b83 9bbb 498f fa3c
00000200: 1079 ee3a cbe4 7c3d 91ec 81bd ddb0 963d
00000210: 8eb7 e8bb aedf eb3c a5aa ea3d 5029 80bd
00000220: a219 33be 8228 27be 7799 16be 26ae b4bc
00000230: f8ac 013d 84b3 6ebd e0e8 4ebe 1d63 32be
00000240: 248c 08be eae2 db3d 1750 c3bc b55b 83be
00000250: d080 193d 3311 ac3e 26c5 443e 342e f8bd
00000260: 1a49 933d 4f74 d7bd 0e9f 8bbc 39e5 0fbd
00000270: edd5 153d 80cc 003e 818c 2f3e 1ae6 a9be
00000280: 0f14 443d 032b 323e 4f87 90be 87ce cb3d
00000290: 32c5 4e3e 3d01 6abd 7221 b8be 37e7 a8be
000002a0: 9c49 09bc 76e1 7b3e e9a8 0f3e 7846 7a3d
000002b0: 210f 743d 196b 38bd 438b 6bbe 355b 1a3e
000002c0: ef65 7d3e bf90 0a3d fc7a 773e 728d 923e
000002d0: a7fa 60be aca1 4dbe 52c3 b0be b220 923e
000002e0: e283 cf3e d096 b5bd 47be 493e 82df acbe
000002f0: ed92 f6be 1e89 a0be 3bd0 aa3e 7ff5 143e
00000300: 7cf6 8f3e a64d 323e e188 eebe 5bcc 85bd
00000310: 3453 a9bd 0aed 0ebe 60f6 643e cb4b 01be
00000320: 2674 c8bc 1ed0 69be 5761 97be 364e 16be
00000330: 65fe 993e 0bc3 f53d 52cc 91bd fcb1 933e
00000340: 7796 87bd 0ffd 5abe 51cb a9be 6a8b 123e
00000350: d37f 4a3c 06ab d6bc 56ac 213d 08c9 223e
00000360: c54d b9be 8d02 2dbd cda0 9c3d 88bc 6b3e
00000370: d10e 8d3e beea 09be e31d 953d c32e b83d
00000380: 2567 57be 52e7 523e 97a0 363e 1373 543e
00000390: e62e ddbd dbe5 693d 5697 82be ab65 41bd
000003a0: 5fd3 3f3e 3bc8 b03c 5555 48be 7799 ff3d
000003b0: b919 a0be 9c43 96be 7818 57be c235 d33d
000003c0: 50b8 083b 046f d33c e2c0 563d 0c4e b13d
000003d0: db8c 183d d3e8 91be 179f 753e 0ff8 f93c
000003e0: 5107 9b3d 9f09 54be 569c e5bd fe83 5e3e
000003f0: ed86 fe3b 39b3 613e 1a10 8f3e 0b6a 67bd
0.06899673 0.16196704 0.054773074 0.104326025 0.032583173 0.052717958 0.09779838 0.09163872
-0.05686107 -0.13291858 0.08576178 0.026526192 -0.0972075 -0.027962629 -0.07732631 0.034217
0.014668501 -0.060845464 0.18424805 0.073557705 0.109981865 -0.0743959 0.20086126 -0.07050641
0.07365882 0.12244538 -0.121385634 -0.1038213 -0.108030185 0.17696466 0.037435085 -0.09010175
0.16500108 -0.06500726 -0.033826053 0.104609 -0.04195684 0.121659815 -0.022353407 0.16039202
-0.093968384 0.030479508 -0.14053364 0.1602313 0.0021187405 0.13301165 -0.029646149 0.1405005
0.16805507 -0.13107671 -0.16825338 -0.07577752 -0.15975799 -0.1423758 0.1494266 0.08608531
0.056272097 0.109830126 0.115688406 0.009352909 0.0026789033 -0.09456494 -0.09060143 0.13508014
0.10984541 0.05225863 -0.06913895 0.08683528 0.09012572 0.012372595 -0.13154039 -0.047770027
-0.00057071546 -0.18992391 -0.10760429 -0.025203532 -0.13377078 -0.15199834 0.04550763 0.12525626
0.03897877 0.025483705 -0.0026076832 -0.1327696 0.04843115 0.13429825 0.043914456 0.07924844
0.02629247 -0.089351505 -0.021136075 0.15366948 -0.022223085 0.10724971 -0.11061157 0.06829873
-0.054094426 -0.09160133 0.117805794 -0.16098167 -0.042647332 -0.14394806 -0.08151174 -0.16159393
0.080264814 -0.14250256 -0.06688334 0.055772867 -0.16731867 -0.09984699 -0.15118921 -0.05625854
0.059087403 -0.14952935 -0.19306757 -0.17368217 -0.18345363 -0.015454297 -0.13913956 -0.09652191
0.1211714 -0.1225053 -0.057207923 -0.060034968 0.019162029 -0.15818635 -0.004745861 0.030585902
0.0018194038 0.06174163 -0.063439496 0.07357953 -0.0071019595 0.028793182 0.11458329 -0.0625788
-0.17490247 -0.16324046 -0.1470698 -0.022055697 0.031659096 -0.05827667 -0.20206022 -0.17420621
-0.1333471 0.1073664 -0.0238419 -0.25655904 0.03747636 0.33606872 0.19215831 -0.121181875
0.071916774 -0.10520231 -0.017043617 -0.035130713 0.03658097 0.1257801 0.17143442 -0.33183366
0.047870692 0.1739922 -0.28228232 0.09951501 0.20192412 -0.057130087 -0.35963017 -0.32988903
-0.008379366 0.24597725 0.14029278 0.06110236 0.05958474 -0.04502401 -0.23002343 0.15073855
0.24745916 0.033829447 0.24168009 0.2862354 -0.21970616 -0.20081204 -0.34524018 0.2854057
0.40530306 -0.08866656 0.19701491 -0.33764273 -0.4815897 -0.31354612 0.33361992 0.14546774
0.2811774 0.17412433 -0.46588805 -0.06533118 -0.08267823 -0.1395761 0.2235961 -0.12626569
-0.024469446 -0.22833297 -0.29566452 -0.14678273 0.300769 0.12000092 -0.07119049 0.2884673
-0.06620496 -0.21385597 -0.3316293 0.14310995 0.012359577 -0.026204597 0.039470993 0.15897
-0.36192146 -0.04223876 0.07647858 0.23021138 0.27550367 -0.13468453 0.07281091 0.08993294
-0.2103544 0.20596054 0.17834698 0.20747022 -0.10799961 0.057103973 -0.25506085 -0.0472161
0.18732975 0.021579852 -0.19563802 0.12480443 -0.31269625 -0.29348457 -0.21005428 0.10312988
0.0020861812 0.025809772 0.05243004 0.086574644 0.037243705 -0.28497943 0.23986469 0.030513791
0.07569755 -0.20706795 -0.11211459 0.21730039 0.0077675493 0.22041024 0.27941972 -0.056497615

onnx::Conv_81 f4 [16]
00000000: 262e 2b3f dab0 8e3e c40b b6bf 95b8 693f
00000010: 8ed3 71bf 3683 413f 3a1f 973f 6289 bb3f
00000020: 3e43 9e3f 189d 3bbd b6d5 c63d 2873 943f
00000030: 6ee3 253f dd03 e23d 33f1 9e3f 9211 46bd
0.6686729 0.27869302 -1.422234 0.91297275 -0.9446343 0.75590837 1.1806405 1.4651301
1.2364271 -0.045804113 0.09708731 1.1597643 0.64800155 0.11035893 1.2417358 -0.0483566

onnx::Conv_83 f4 [32, 16, 3, 3]
00000000: b363 6eba e47c 95bc b1d2 263b 431f 963d
00000010: f8dc d4bc 271a 993d e0a6 b83b 4cb9 6ebc
00000020: 0fcd e5bb e129 a2bd 0c58 4dbd 3d0b 8bbd
00000030: ed52 c2bc 6e55 99bb 3af1 823d bafa cfbd
00000040: 4c29 6e3b 6b0e a5bd 103b 87bc 0631 e93c
00000050: b44f a83d bb1f a33c 8b4d c43c 20b3 403d
00000060: 6a40 a33c 17df 93bd 1b9b 983d d384 723d
00000070: 0878 aa3c 0400 033c a9f8 a7bc b9d9 873d
00000080: 3add 08bb 45ec 023d 977c 603d a82a 0ebd
00000090: 9992 053d c0cb 9fbd d7d2 60bd d1cb 25bd
000000a0: 0272 753d adb0 cb3c 107d 6f3c e402 4abc
000000b0: 36c9 863d c597 233d 161c 543d 13a6 babc
000000c0: 5e0c 2cbd 32d8 cd3c a1f5 043d 04f2 09bb
000000d0: d9ff 7fbc edce 2cbd 4022 253c 74b7 063d
000000e0: 8b9b 50bc a9bd 2abd a6a0 993b 12c9 3ebc
000000f0: abd1 0e3d 4e9e 0bbc 8c6a e23b 3525 29bd
00000100: 73b1 59bd 8f03 68bd 24f1 24bd ffb2 7bbd
00000110: 3285 a93c 6498 7ebc 6b0c 41bd de58 243d
00000120: 5524 4d3d 496a 44bd 1e36 223d 7757 23bd
00000130: baec babc 5d0d acbc 2209 08bd d126 18bd
00000140: b2a6 d23c 9516 f4bc 83c6 1e3d 5076 3d3c
00000150: eee3 23bd c5c8 cb3d 38bd ab3d 8e78 1dbd
00000160: 7231 04bd aef9 adbc 3931 05bd 717b 713d
00000170: d5b2 8e3d 92c1 c2bd 187c 8cbd 5ff7 a03c
00000180: 1221 46bd 655a 34bd b31a ce3d 000d 35bd
00000190: 08c2 1d3d 3385 703d 1fe6 4bbc 4819 8fbd
000001a0: 26ea d6bc 08c8 95bc f8ed 09bd f0a5 87bc
000001b0: 44b8 8cbd 6688 b3bd ca4c 423d e25a 34bd
000001c0: 6cfa 59bd 2622 913d d481 46bd df0c 65bc
000001d0: cff4 14bd bed1 edbc 0218 62bc 9524 73bd
000001e0: bb53 ea3b 292b 39bd 3115 6b3d 0606 84bd
000001f0: eeec 803d 6d3b 00bd 01ab 09bd 801e cfbc
00000200: 4612 d63c 2b24 74bd 52b3 c8bb b654 53bd
00000210: e4be fa3a d0da 713d 7ade 11bd adfe c5bb
00000220: b763 423c 14d8 45bc a355 9c3c 5484 40bd
00000230: e99b 773b e0fa c0bd 96d4 83bd c7f4 27bd
00000240: d173 c5bc f159 b63b acde 223c 05fd 33bd
00000250: af86 923d 10cb 9f3d a4d5 243d 201b c03b
00000260: 2983 0c3d ccf2 e4bb ad06 60bd 8d70 abbd
00000270: 739c 2ebc ab9d e83c 6c33 60bd b268 323d
00000280: ee6b 7cbd 1500 083d 3e18 90bd e182 72bc
00000290: c34f 6abd 3d42 873d fd34 b2bc 0417 85bd
000002a0: 6309 943d 5573 623d e1d9 91bd 5724 913d
000002b0: 0b1c 213d cdde 943d 3ca7 ae3c 517f 25bd
000002c0: a84f 4d3d 44e4 ac3c e38a 83bc 8aa2 e93c
000002d0: a796 6dbd cb3e 99bc 1b29 a33c 6f8a 2c3d
000002e0: 5fd8 25bd b54f 9e3c e403 ae3b 4d86 643d
000002f0: 9acc 28bd 2eb1 683c fd06 583d 76b5 0e3d
00000300: 0633 0a3d f820 7b3c 219e 383d 0358 823d
00000310: 2b1e cdba 5fb6 cf3c 56cb 2f3c 52c2 e4bc
00000320: a4de 603d fc81 f3bc 2982 01bd 286e 6a3d
00000330: 888b 57bd dca4 c4bc 4d2d b5bc 2cad 01bd
00000340: ba41 0f3d 87bc 25bd 768c 0ebd 61cc 0a3c
00000350: f3e7 ae3c 0c31 db3c acae 2dbd b0d1 b2bc
00000360: 238a 8fbc eff2 98bc c221 e33b 2d5d 233d
00000370: 3e0d 063b e440 2bbd 1fa4 42bd ebc5 1fbc
00000380: 5fe2 873c 4e23 34bc faba 1cbc 24b1 0ebb
00000390: d09d 72bb 1bcf 06bd 4c90 8ebd 8557 83bd
000003a0: a27d 9fbd 64a2 d7bc 9fad 823d ae18 073c
000003b0: ab4c 1fbd 76f4 4f3d f68c c93b 5982 79bd
000003c0: ca38 58bb c2e3 903b 573c 2fbc ec72 b2bc
000003d0: 56d7 3d3c 5e96 f7bc ac5b d13c b3e9 153d
000003e0: d88d 78bd 959a 5bbd 6574 26bd 7c46 83bd
000003f0: b4ce 1e3d c1bc 24bc ce8b 49bd ef4d afbd
-0.0009093836 -0.018248029 0.0025455172 0.073301814 -0.025984272 0.07475691 0.0056351274 -0.014570545
-0.0070129703 -0.07918144 -0.050132796 -0.06789253 -0.023721183 -0.0046793735 0.063936666 -0.10155244
0.0036340533 -0.08059391 -0.016507655 0.028465759 0.08218327 0.019912591 0.023962757 0.047045827
0.019928176 -0.072202854 0.07451459 0.059208702 0.020809188 0.007995609 -0.020504313 0.06633324
-0.0020883814 0.031963605 0.054806318 -0.03470865 0.03261051 -0.07802534 -0.054888573 -0.040477578
0.05992318 0.024864519 0.01461722 -0.012329791 0.06581347 0.03993966 0.051784597 -0.022784268
-0.04200398 0.025127504 0.032460812 -0.0021048794 -0.015624964 -0.042189527 0.010078967 0.0328898
-0.012732397 -0.04168478 0.0046883402 -0.011644619 0.034867924 -0.0085216295 0.006909674 -0.04129525
-0.053147744 -0.05664402 -0.040269032 -0.06145 0.020693395 -0.015539262 -0.047130983 0.040123813
0.050083477 -0.047952924 0.03960239 -0.039878335 -0.022817958 -0.021002466 -0.033211835 -0.037146393
0.025714252 -0.029795924 0.038763534 0.011563852 -0.040012293 0.09950403 0.083857 -0.038445048
-0.032273717 -0.02123722 -0.032517646 0.058955614 0.06967703 -0.09509577 -0.068596065 0.019649206
-0.048371382 -0.04403152 0.10063686 -0.04420185 0.03851512 0.05872078 -0.012445002 -0.06987244
-0.026234698 -0.018283859 -0.03367421 -0.016558617 -0.068710834 -0.0876625 0.047436513 -0.044031985
-0.053217337 0.070865914 -0.048463657 -0.0139801195 -0.03636628 -0.029030677 -0.013799669 -0.05936106
0.0071510947 -0.045207176 0.057393257 -0.064464614 0.06295191 -0.031306673 -0.033610348 -0.025283098
0.02613176 -0.059604805 -0.0061248923 -0.05159446 0.0019130376 0.059046566 -0.03561256 -0.0060423226
0.011864594 -0.012075443 0.019083804 -0.047001198 0.0037782139 -0.094228506 -0.06437032 -0.041004922
-0.024103077 0.005564921 0.009940784 -0.04394247 0.07154595 0.07802403 0.040242806 0.0058626086
0.03430477 -0.0069869515 -0.054693867 -0.08371077 -0.010657418 0.028395494 -0.05473654 0.043556876
-0.061626367 0.033203203 -0.07035874 -0.014801712 -0.057204973 0.06604431 -0.021753782 -0.064985305
0.07228353 0.05528577 -0.07121635 0.070870094 0.039333384 0.072690584 0.021319978 -0.04040462
0.050124794 0.02110494 -0.016057437 0.028519887 -0.058005 -0.0187067 0.019917062 0.042124208
-0.04048955 0.019325117 0.0053105224 0.05579214 -0.04121075 0.014202399 0.05274104 0.034841023
0.033740066 0.015327685 0.04507268 0.06364443 -0.001564925 0.025355516 0.010729631 -0.02792469
0.054899827 -0.029725067 -0.03161827 0.05723396 -0.0526233 -0.024004392 -0.022116328 -0.03165929
0.03497479 -0.040462997 -0.034801923 0.008471579 0.021350836 0.026756786 -0.04240291 -0.021828502
-0.017521923 -0.018670527 0.0069315145 0.03988378 0.002045467 -0.04180993 -0.0475198 -0.009751777
0.016587434 -0.010994745 -0.009566063 -0.0021773065 -0.0037020333 -0.032912355 -0.06961116 -0.064131774
-0.077876344 -0.026322551 0.06380772 0.00824563 -0.038891476 0.050770245 0.006150837 -0.060915325
-0.0032992833 0.004421682 -0.0106955385 -0.021783315 0.011586985 -0.030223068 0.025556408 0.036599826
-0.060682148 -0.053614218 -0.040638346 -0.06409928 0.038771346 -0.010054768 -0.049205594 -0.085597865

onnx::Conv_84 f4 [32]
00000000: 025a 173f c722 0e3f 6d45 af3e 8bbb ae3e
00000010: c956 9c3d 12a1 b1be 5d6c 083f 8c54 24be
00000020: f14a a53e 4a48 13bf 9d77 943f eab3 1b3f
00000030: c276 203e 4b26 ea3e 4c2a 6e3c 2cd1 0f3e
00000040: e780 eebe 1002 623e e44a 33be aa07 d23d
00000050: 03aa 6ebf e0de 4abf 6464 59bc 929c 463f
00000060: fb11 413f 4dc0 bd3e 7e40 3d3e 85cb 043f
00000070: cc3e 16be 50c5 623f eb80 d93e a1e2 e83d
0.59121716 0.55521816 0.34232655 0.3412746 0.076337405 -0.346932 0.5329035 -0.16047877
0.32283738 -0.5753218 1.1599003 0.608214 0.15670303 0.4573234 0.014536452 0.14044636
-0.4658272 0.220711 -0.17509037 0.10255368 -0.9322817 -0.7924633 -0.013268564 0.7758266
0.7541806 0.37060776 0.18481633 0.51873046 -0.14672393 0.88582325 0.4248117 0.11371351

onnx::Conv_86 f4 [32, 32, 3, 3]
00000000: 262a 693c 91ac a4bc 3ab8 42bd 49ad aabd
00000010: 29ab 843d f710 2d3c 5754 6a3d 1314 073e
00000020: f1cf 75bc c2d1 423d 71df 4dbd 31cd bcbd
00000030: 7007 4cba 1b9e acbd 3081 6dbd 0e29 ff3b
00000040: 78ad 24bd 4840 a9bc 8c25 cebc 83a9 a7bc
00000050: 2352 76bd a84a 853d ec00 88bd 6684 773c
00000060: 9330 ce3c 9e8a 5bbc 5f85 193d e2d9 1f3d
00000070: a555 7f3d 3695 36bd 009f 043e c1f2 383c
00000080: 3de9 e43c f505 913d 5d50 4fbc dad4 5dbd
00000090: 6371 543d fb74 c4bd d75d 8bbd 66ce 7c3d
000000a0: 1d66 34bd 62d2 263d 77d7 8f3d d23e 9b3c
000000b0: 320e 3dbc 10cd e83a cd22 c93d 35d6 e13c
000000c0: 259d b9bd a6b7 7f3d 3a77 d13d a79c 28bd
000000d0: 160a 7e3d 2257 913d 6305 a63d b606 7a3d
000000e0: 4f26 92bb e5d6 283d 3ba2 b13c 3524 36bd
000000f0: 82c1 2d3d ec46 52bd e762 d7bc d051 fd3d
00000100: 8a97 d2bc d015 c53b 3752 243e 8e3f b43c
00000110: 3011 973d ce9f 023c 78e7 43bd bb7b 313d
00000120: dc51 78bd 222b fbbc d4c7 9b3d b811 4bbc
00000130: 4081 c6bd c14f 5c3d baab f6bd 671f 94bd
00000140: 4aee bebd ad8f 5bbc 28f9 46bd 5ba1 93bd
00000150: f88a 703d 5ddd 953c 20b0 4ebd f0e5 26bd
00000160: d9d3 6d3d d891 af3c 1995 3a3d ae88 043e
00000170: 611f a73d 5c90 043d a4ce ba3d 6613 773d
00000180: 570a cd3d e38b 0f3e a746 df3d 790a 93bd
00000190: fe4c b0bd 197c 533b d2aa 7a3d 041e 433c
000001a0: b582 91bd bb28 5b3d 855a 4c3d 173d 133b
000001b0: 80e8 aebd 5d90 d2bc 09f4 ed3d 4dfb 63bd
000001c0: 663c f33d 976d 15bd 9881 82bd 736d 39bd
000001d0: df65 0e3e 2c04 8e3b 6d85 b83b d7fb aebd
000001e0: 8996 37bd 9e56 83bc 850e adbd f9ce d43c
000001f0: afcd 87bd 3bc3 0abe 68b4 d939 fb3b 5fbd
00000200: d08d 833d 36b8 5abd d4f9 9dbc 1901 c03d
00000210: 2f0f 4d3d 9cdf 663d 32b5 aa3d 25b8 09bd
00000220: 4841 273d dd62 02be 78c9 45bc b25a 7a3d
00000230: 2041 77bc c275 7bbd 40cf 3ebd 0c8b 723d
00000240: 582b 58bd a0fc bbbd 238e 8d3c 2537 92bd
00000250: 718e 91bd 2b10 e43c fea7 95bd 1bc2 313c
00000260: 4dfb ff3c f06d 84bd 3ee7 753d 4108 88bd
00000270: a777 353d 5573 493d 70f9 f1bd 3d57 403d
00000280: 2ee2 6dbd 79b0 d7bd 2384 913d 0c99 ae3c
00000290: f6f0 d2bb 169a 33bd 1d7d 4dbc 228e a5bd
000002a0: 4683 15bd 8257 2abd 7ad0 07bb eecb 9fbd
000002b0: d0f9 9d3d 6f8a f039 3cb9 873d 51cd a03d
000002c0: 2d49 c1bb de87 813d 5d6b 6c3d 4725 09be
000002d0: 70fd dd3d d3a0 d1bd c823 ad3c d635 4c3d
000002e0: 6652 dcbd 1faa 19bd 3b86 a53c 3426 85bd
000002f0: 84a1 99bd f06b 3d3d 68da 97ba 7f99 e43b
00000300: 99ba 513d fb61 ca3d b3cf e83c 3250 9e3d
00000310: 4cea c53c ac17 983d 78c7 b8bc 78a2 debc
00000320: 6bab 21bd 1ae5 343c 46a6 abbd 5cca e6bc
00000330: f1bb 69bd c224 9fbb 6ac5 303d 8150 3fbd
00000340: 83f7 27bb 01b2 63bc 1203 3fbd 02a4 663d
00000350: e213 dabd 4669 c03d 9b40 b53d be30 0a3c
00000360: ac16 523d a228 a0bc c582 f23c 7337 3b3b
00000370: bed4 473d f8b0 4a3d c791 ce3d 659e 36bc
00000380: 03e6 a0bd a591 84bd acdd 23bd 5036 643b
00000390: 3043 34bd 734d ccbc 963d a8bc 0cf0 27bd
000003a0: 5e59 82bd 5bca f037 1e1f be3d 074e 88bd
000003b0: adab 35bd 852c a23d 02cf 3ab9 78fe f0bd
000003c0: 4436 9c3d 5e33 16bd d948 d4bb 2550 b63d
000003d0: 0346 b03d f59b 06bd 69d6 f53c 3b09 193d
000003e0: 9199 58bc 151b b33c 1aed bf3d c226 b0bd
000003f0: faf9 cd3d 36e0 77bd da0e b0bd f7c9 c23c
0.01423124 -0.020101817 -0.047538973 -0.08333833 0.06477959 0.010563127 0.05720934 0.13191251
-0.01500319 0.047563322 -0.05026192 -0.09218825 -0.00077830907 -0.08428594 -0.05798453 0.0077868765
-0.040204495 -0.020660535 -0.025164388 -0.020466572 -0.060136925 0.0650838 -0.06640801 0.01510725
0.025169646 -0.013399748 0.03748071 0.03902615 0.062337536 -0.044575892 0.12951279 0.011288346
0.027943248 0.07081214 -0.012653437 -0.05415807 0.051865947 -0.09592625 -0.06805008 0.061720274
-0.044042695 0.04072798 0.070235185 0.018950853 -0.011539029 0.0017761309 0.09821091 0.027567962
-0.09063176 0.062431 0.10227819 -0.04116502 0.062021337 0.070966974 0.08106496 0.061041556
-0.004460133 0.041220564 0.021683803 -0.044468123 0.04242087 -0.051337168 -0.026292278 0.1236912
-0.025707025 0.006014563 0.16046987 0.022002961 0.07376325 0.007972671 -0.047828168 0.04333089
-0.060624942 -0.030660216 0.076064736 -0.012394361 -0.09692621 0.053786997 -0.12044473 -0.07232552
-0.09322794 -0.013400954 -0.048577458 -0.072085105 0.05872628 0.01829403 -0.050460935 -0.04074663
0.05806336 0.021431848 0.045552347 0.12942764 0.08160282 0.032364234 0.09121445 0.060321234
0.10011738 0.14018206 0.10902148 -0.07179732 -0.08608435 0.0032270013 0.061198063 0.011909012
-0.071050085 0.05350564 0.049891014 0.0022466832 -0.085404396 -0.025703603 0.11618812 -0.05565958
0.118767545 -0.036481466 -0.06372374 -0.045270395 0.13906048 0.0043339934 0.00563114 -0.085441284
-0.044821296 -0.016032513 -0.08450035 0.025977599 -0.06631028 -0.13551037 0.00041523878 -0.05450056
0.06423533 -0.053398333 -0.019284166 0.09375209 0.05006331 0.056365594 0.083353415 -0.03362288
0.04083374 -0.12733026 -0.01207196 0.06112165 -0.015091211 -0.0613916 -0.046584368 0.059214637
-0.05277571 -0.09179044 0.01727969 -0.07139424 -0.07107247 0.02783974 -0.073074326 0.010849501
0.03124776 -0.064662814 0.060034983 -0.06642199 0.044303562 0.049182255 -0.118151546 0.046958197
-0.05807703 -0.10531706 0.07105281 0.021313213 -0.006437416 -0.04384812 -0.012542036 -0.0808375
-0.036502145 -0.04158736 -0.0020723627 -0.078025684 0.077136636 0.00045879508 0.066271275 0.07851661
-0.005898616 0.06324743 0.057719577 -0.13393126 0.10839355 -0.10235753 0.021135226 0.04985603
-0.10757904 -0.037515756 0.020205608 -0.06501427 -0.0750151 0.046245515 -0.0011585476 0.006976306
0.051203344 0.098819695 0.028419351 0.0773014 0.024159573 0.0742639 -0.022556052 -0.02717708
-0.039470118 0.01104095 -0.083813235 -0.028172664 -0.057064 -0.004856677 0.04315702 -0.046707634
-0.0025629706 -0.01389742 -0.046633787 0.056308754 -0.106483236 0.09395079 0.08850213 0.008434473
0.051291153 -0.019550625 0.029603371 0.0028566986 0.04878687 0.049485177 0.100863986 -0.011146163
-0.07856371 -0.06473092 -0.040006325 0.0034822412 -0.044009387 -0.024939274 -0.020537179 -0.04100041
-0.06364702 2.8704459e-05 0.09283279 -0.066555075 -0.044353176 0.07918648 -0.00017815459 -0.11767286
0.07627538 -0.03667008 -0.0064784107 0.08902005 0.08607104 -0.032863576 0.030009465 0.03736232
-0.013220207 0.0218635 0.093713954 -0.086011425 0.10057445 -0.06051656 -0.08596583 0.023777945

onnx::Conv_87 f4 [32]
00000000: 5635 4abe c0a5 25bf d687 73bc 80bb a23d
00000010: e516 4dbf 4a23 dc3e 7def 993d 52c7 24bf
00000020: ce50 eebd 31a6 9c3e 7de8 d43e bcf2 723e
00000030: 2ba7 833d edb7 913e 8aaf 08bf 0c80 c1bc
00000040: 4bbf 873e 33c5 bf3e 76d2 0a3f 1c03 06be
00000050: 6193 133f d5ac bebe 4b8c a93e 88dc 0c3e
00000060: 0c32 f0be 71e5 0a3f 24b9 383e aefa 64be
00000070: 56d5 6f3d c94c ca3e c8b7 0c3d be60 083e
-0.19746909 -0.6470604 -0.014863929 0.07945919 -0.8011306 0.42995673 0.07516382 -0.6436664
-0.11636506 0.30595544 0.41583624 0.23725408 0.06428369 0.28460637 -0.5339285 -0.023620628
0.26513132 0.3745514 0.5422739 -0.13087124 0.5764676 -0.37241235 0.33114848 0.13756001
-0.46913183 0.5425635 0.18039376 -0.22361252 0.058553062 0.39511707 0.034354955 0.13318154

onnx::Conv_89 f4 [32, 16, 1, 1]
00000000: 46f7 683e 5d33 233e e46c 8cbe c23a c33a
00000010: 9248 7fbe 9328 bc3d 2f1e 0a3e 8f2c 323d
00000020: 8f96 243e 6123 dcbc 90e6 dd3c a71d 0f3e
00000030: ba5b a1bd d4e6 763d f9d7 e33d 71c4 8e3e
00000040: f644 e23d bb9d c43d 7ca5 233d 3c03 5c3d
00000050: ef31 56bd a728 1c3d ded9 59bd 0808 e03d
00000060: 8d48 8d3d be21 0e3e 64dd 5cbe 95ea 293e
00000070: cdc2 873e 3010 02bd 7f16 133e 2129 6abd
00000080: a61e 5a3e 1134 96be b928 1d3e ccee 3d3e
00000090: 7f39 183e 26d9 67bc 28f1 c33d a71f 61be
000000a0: 7960 6cbe ca36 d1bc 7eed 7abd 0832 4c3e
000000b0: 6803 6b3e 2b14 63be dba9 34bd a0a6 743d
000000c0: a709 b73d bc6c e5bd 58a2 b4be cf68 b1be
000000d0: bf91 2b3e 3e98 55be c421 813e 41c5 9d3e
000000e0: 8912 e73d 76b2 483e c918 313e 8272 443e
000000f0: bb2d 813e d644 a63e 75be 56be 09ae 5c3d
00000100: 0df7 fd3e 46f1 293e c3fc 84be e203 b4bd
00000110: 6553 3abd e0e9 06be e46e 5b3e 143b 073e
00000120: 5174 0c3e e4f5 7bbd 221d d5be 66c0 663d
00000130: 83ae d53e 10d9 f2bc dce0 eabc 16e9 d8be
00000140: df2b 85be 4d77 bc3e 2e8e c9bd 8b58 8fbe
00000150: 1406 ecbe 4833 11be 3aa9 8fbd 1347 70be
00000160: 2161 fdbb ff0a 1abe d15a c93e 2e34 c43e
00000170: cff9 913b ee43 8c3e 6644 0fbe eea7 a63d
00000180: 04b0 2b3e 4397 823a bc78 cc3c af69 c4bd
00000190: 1ebf 02be 45eb 933d e230 c23d 5805 60bd
000001a0: 1d5c a9bc dc53 7abe 68ad 1bbe 0e8e a73d
000001b0: 591c 6c3e be95 68be 7bf2 5fbe 7c41 7eba
000001c0: b53f 803e d409 92be 3a91 b23e f102 b0bc
000001d0: 949a 98bd 9878 fabe fa86 6c3d 5fca aa3d
000001e0: c8ca 2b3e 1939 abbe 3ac2 ffbd 35d4 c33e
000001f0: ee4c b73e f83e b3be e6e5 cabe 640f 163e
00000200: 0631 55bd b5ad 99bd 0610 f23d e62b e3bd
00000210: 425e 183e a79f be3d 0099 8dbd e016 81bd
00000220: f16e efbd 21e2 5b39 8ede 5bbd f97f 2a3e
00000230: 6bfa 943e a27e 573d b38d eebd 1612 83bd
00000240: 6021 123d 94d5 843e 2e27 08be 1b76 07be
00000250: ab8e 733d f651 5dbe d488 f3bd 7559 bc3c
00000260: 289f 2b3d 1bb1 18be bf16 adbc 95d9 1f3e
00000270: 682f ab3b 7c92 21be ca74 4abd 0735 0c3d
00000280: 5d27 b03d 185c 52be c476 803b 0ff9 debd
00000290: 627f 7ebe f9c7 c83d 32a7 6cbe 5ca6 c73d
000002a0: 6f2c 793d 47b5 063e bf35 8a3e 9962 60be
000002b0: 59f2 43be 1f30 a1bd 2f5a fcbc 72e4 2a3e
000002c0: 9a9c febb 48a1 3dba be7c 023e da78 58bd
000002d0: a311 a53d 48f4 91bd 0469 03be 0654 b93d
000002e0: 8c20 cdbd 5e13 1fbe 9ccb 29be 94ed 88bd
000002f0: c7e7 03be cbf7 f03d 6fe9 a73d f85b cbbc
00000300: 08e8 e9bd fe4b afbe 1b19 e23e f008 d4be
00000310: 103e e33c 742a b03c 7f28 ac3e ce60 ad3d
00000320: 2fd0 8c3e 2c70 8abe 0f56 b3be 514d 9abe
00000330: 3e28 703e 5ee2 96be 56fe 663e c4ff 0b3d
00000340: 8dd5 fe3d b439 bd3e 917e 64be dda3 c9bc
00000350: 7e69 87be e4b1 2f3e 1a33 39bd 5886 fdbc
00000360: c69e 5bbd 112e aa3e e569 b0bd e219 db3d
00000370: e0fb 37be 1cac 243e 2143 483e 23ed d3be
00000380: f9f3 f3bd 6c4c 30be 912e 12bd 82f8 d43d
00000390: e2a3 eabd 2fb9 68be 8088 17bc 85b7 013e
000003a0: e5fa 2cbe 33f9 16be 9ae3 6fbe cb2f 173e
000003b0: 73b5 243e 6506 643e 0d1a 9ebd 6890 a2bd
000003c0: 33b3 603e f1d7 3c3d 4d6d 92be c979 303e
000003d0: ae4f d23d 39ab 753d ed57 573e 7511 073e
000003e0: e1c1 803d d63b 673e b561 6c3e 444e f33d
000003f0: a67c 013e f410 57bd 096e 35bd ab5d 393e
0.22750577 0.15937562 -0.27426827 0.001489483 -0.24930027 0.091874264 0.13488077 0.043499526
0.16073059 -0.026872339 0.02708748 0.13976155 -0.078788236 0.06027873 0.11125178 0.27884248
0.110483095 0.09600397 0.03995274 0.053714022 -0.052293714 0.038124707 -0.05318629 0.10939032
0.068986036 0.13880059 -0.21568829 0.16593392 0.2651581 -0.03175372 0.1436405 -0.05716813
0.21300754 -0.293366 0.15347566 0.18548125 0.14865683 -0.014150893 0.09567481 -0.2198473
-0.23083676 -0.02553882 -0.061261646 0.1994096 0.22950518 -0.22175662 -0.0441073 0.05972922
0.08937388 -0.1120238 -0.35280108 -0.34650275 0.16754816 -0.20858857 0.25221074 0.30814555
0.11282832 0.19599327 0.17294611 0.19184306 0.25230202 0.32474393 -0.20971091 0.05387691
0.49602547 0.16595945 -0.25974092 -0.08789803 -0.045489687 -0.13175154 0.2142902 0.1320613
0.13716246 -0.061513796 -0.4162379 0.05633583 0.41734704 -0.02964452 -0.028671674 -0.4236533
-0.26010033 0.3680977 -0.09841572 -0.2799724 -0.46098387 -0.14179718 -0.07014699 -0.23464613
-0.007732526 -0.15043257 0.393271 0.3832106 0.0044548283 0.27395576 -0.13990936 0.08137499
0.16766363 0.0009963292 0.024959914 -0.0959047 -0.12768218 0.072226085 0.0948198 -0.054692596
-0.020673806 -0.24446052 -0.15202868 0.08181392 0.23057689 -0.22713372 -0.21869843 -0.0009699089
0.25048605 -0.28523123 0.34876424 -0.021485778 -0.074513584 -0.4892013 0.05774591 0.083393805
0.16776574 -0.33442 -0.12488218 0.3824784 0.3580088 -0.3500898 -0.39628524 0.14654309
-0.052048706 -0.07503835 0.118194625 -0.11092357 0.14879707 0.09307795 -0.06913948 -0.06303191
-0.11691082 0.00020969707 -0.05367904 0.1665038 0.29097304 0.052611 -0.11648121 -0.06399934
0.03567636 0.25944197 -0.13296196 -0.13228647 0.05946223 -0.21613297 -0.11891332 0.022991875
0.04189983 -0.1491131 -0.02112901 0.15610345 0.005224157 -0.15778536 -0.049427785 0.03423026
0.08601258 -0.20542943 0.003920408 -0.10887348 -0.2485328 0.09803767 -0.23110655 0.097485274
0.06083339 0.1315509 0.2699413 -0.21912612 -0.19135417 -0.078705065 -0.030804722 0.16688707
-0.007770133 -0.00072338106 0.12742898 -0.052849628 0.080600046 -0.07126671 -0.12833029 0.09049229
-0.100159734 -0.15534732 -0.16581577 -0.066859394 -0.12881385 0.11766013 0.08198821 -0.024824128
-0.114212096 -0.34237665 0.4415978 -0.4141307 0.027739555 0.021504618 0.33624646 0.0846573
0.2750258 -0.27038705 -0.35026595 -0.30137113 0.23452851 -0.2946958 0.22557959 0.034179464
0.12443075 0.36958086 -0.22313906 -0.024614269 -0.26447672 0.17157704 -0.04521475 -0.03094785
-0.053618215 0.3323827 -0.08613948 0.10698296 -0.17967176 0.1608128 0.19556858 -0.41391858
-0.119117685 -0.17216653 -0.03568894 0.103989616 -0.114570394 -0.22726892 -0.009248853 0.12667663
-0.16892584 -0.147435 -0.23426667 0.14764325 0.16084842 0.22268064 -0.077198125 -0.079376996
0.21943359 0.046104375 -0.28599015 0.17233957 0.10269104 0.059977744 0.21029635 0.13190253
0.062869795 0.2258142 0.23084147 0.11880162 0.12645206 -0.052506402 -0.04429439 0.18102138

onnx::Conv_90 f4 [32]
00000000: f356 bfbe edb4 02bf 0151 22bd a2cd f7be
00000010: 3827 a2bd 0eb7 19be af18 853e a792 7e3e
00000020: a6a7 57be daab 343e 2870 5c3e 6d0d 833e
00000030: dba0 ce3e e81e 4dbe 4db0 943e 3a74 48bf
00000040: c869 0ebf 87ee 5c3f 5afe 85be 53b1 f33e
00000050: e4da fdbe 8d9c f6be 1921 91bd 0ab8 353e
00000060: 4b71 d7bd 7668 73bd 5bf8 ef3d 5887 74be
00000070: 3437 5c3c 1271 99bd 9055 563e e42b 66be
-0.37371024 -0.5105732 -0.039628033 -0.48399073 -0.07917637 -0.15011236 0.25995395 0.24860631
-0.21060047 0.17643681 0.21527159 0.2559618 0.40357098 -0.20031321 0.29040757 -0.7830235
-0.5563016 0.86301464 -0.26170617 0.47596225 -0.49581063 -0.48166314 -0.07086391 0.17745987
-0.10519656 -0.059425794 0.11717292 -0.23879755 0.013440896 -0.074922696 0.20931077 -0.2247768

onnx::Conv_92 f4 [64, 32, 3, 3]
00000000: c00c 90bb 1e44 2c3d b6c4 cabb 3c34 923c
00000010: 5f0e 1b3d 06af b8bb bae6 9fbc 0c13 5c3d
00000020: 6ee6 dd3c 4acf d93a 96f6 b4bc acf8 243d
00000030: 1a78 af3c d8c3 663c 7a41 b1bb 166e 0a3d
00000040: d42c 943b 9eb1 cf3c 0506 c13c 1573 b2bb
00000050: b5bb 993c 6a5a b63c 2506 703c b197 bf3c
00000060: 369d 9b3c dd8b 1c3c 5ba4 e23c cff4 92bc
00000070: 832d 3c3c 3705 a3bc 1d06 debc 2d93 25bc
00000080: a91e 103c ca5a ea3b 1183 85bc 247f ccba
00000090: 7897 1d3c c348 3d3d 3e44 f9b9 207d af3c
000000a0: d214 0a3d bf77 2ebb 8207 023d d402 4f3d
000000b0: 21d4 9a3c 3626 fc3c 1103 aa3b 4d77 a23b
000000c0: 4d6f a43c 4916 47bc a321 3dbc dabf 9a3c
000000d0: c7c2 9bbc 94c2 c6bc d36a 19bb 16e6 8e3c
000000e0: f6da 013c f48f c3bb 3225 2b3c 08cc 4e3c
000000f0: a7a8 75ba 372a a83b 5350 19bc 4377 46bb
00000100: bc42 fe3c d032 2b3c 0be8 993c bea2 3d3d
00000110: cb4c 24ba b9f0 0d3c 9c00 19bc f142 033d
00000120: d1fb 0dbc d8d9 673c 1b88 413c 08b5 643c
00000130: 6cc5 c33b e47a 3e3c d975 8f3c 6820 9d3c
00000140: 63e8 1f3c d922 133b 1858 adbb dd73 a839
00000150: 8eac 13bc 47d0 113c 167a 69ba b3c1 e9bb
00000160: 2f27 57bb 86b2 88bc e34d e33b 7571 19bb
00000170: 6332 c5bb c7ff cd3b d055 a93b fcb3 bebc
00000180: ad41 183c 1b19 86bc 72b2 c8bc d921 0abc
00000190: d2e6 89bb 5a56 49bc 0b7b 88bb 528f 69ba
000001a0: 683a 01bc 72e3 93bb dc22 b4ba cc85 0cbc
000001b0: 0386 aabc caf7 b7bc e7f2 afbc 8f1a 453a
000001c0: 484d dabc 1c9a f9bc a11e a2bc f90d d2bb
000001d0: ceaf d13b 7c5d c13b cde2 973c 9228 94ba
000001e0: 3e5b 7d38 d5a9 59bb f484 063c 76a4 0f3c
000001f0: 7ba4 483b 4a2a 4d3c c9b0 12bc 1f44 193c
00000200: 4f30 54bb 5ac6 c1bc 36ec 483c 2df9 bc3c
00000210: 014e 9dbb 547b ee3b 42aa 9dbb c4ad 17ba
00000220: e1ef 843b acc4 9b3c 2f2d 9a3c b2a8 cb3b
00000230: cf7e f63b 797b ef3b 4d35 f53c 6eb9 98bc
00000240: 93bb fb3b c972 023d b276 7ebc 1434 8cbc
00000250: 5272 393c 6ac0 efb8 b1c8 7f3c 7aa9 473d
00000260: 6dd0 39bc ec55 0cbd 45c5 cbbb 42bd 19bd
00000270: cc0f e5bc dbc4 acbc 6a8e 4bbd ac44 c3bc
00000280: 49ef c4bc 515a b6bc f032 fd3b 0241 773c
00000290: c806 dbbb 0176 ad3a 5447 41bc 626e c2b9
000002a0: d5e7 e43a e386 1dbc 0cc0 6fbc bf6e 63bc
000002b0: 9aee 323c 69fa db3c a297 90bb 2903 d0bb
000002c0: 0f43 453c f912 2abc 2bd7 9e3c 8154 833c
000002d0: 6858 e43b 361c 17b9 57d4 3aba b01c babb
000002e0: df65 5dbc b570 98bc 8de2 0abb 199c 27bc
000002f0: 64cc 4fbb 9e65 a6bb 97bf 92bb 736d 593c
00000300: 905e af3c 6493 5abc 95eb 763a 7243 213c
00000310: 67b4 383c d958 ca3c dea6 0b3d f494 ff3c
00000320: 014b 27bc 5df1 c33c 2b6d 393b 2144 bd3b
00000330: ab95 2e3d bdc3 a3bb 9eb8 ef3c 0554 463c
00000340: 2e13 1e3c 4841 aa3c 38e4 9eba 3a61 08bc
00000350: 6616 98ba 2f5e 95bc 871a b43b 43ce 093c
00000360: 1377 57bb abd7 72bc 796c 57bc e8a5 b9bb
00000370: c742 4ebc f106 2abc df6f 5fbc 6633 70bc
00000380: b1d7 0bbc 0286 dc3b d777 8f3b b3c6 cfbb
00000390: 7db1 6f3b 6885 47bc 29b2 cbbc 28b4 7bbc
000003a0: 5820 abbb 5f36 99bc 5d09 5dbc 91aa 0d3b
000003b0: fec3 14bb e902 7cbc 99ec d4bc 72c4 bebc
000003c0: 3c11 59bc e47c b0bc de81 b4bc fc16 163c
000003d0: 2456 053d fd48 a03c 0dca 8b3a 4520 893b
000003e0: d8fd 90ba 36ba 73bb 7fae 073d 6ee7 88bb
000003f0: c69a 893a 9f43 443b 73c2 a2bc 224a 3d3b
-0.004396051 0.04205715 -0.0061880006 0.017847173 0.037855502 -0.005636099 -0.019519199 0.053729102
0.027087416 0.0016617563 -0.022090238 0.040276214 0.021419574 0.014084779 -0.0054094167 0.033796392
0.0045219455 0.02535325 0.02356244 -0.0054458478 0.018766263 0.02225991 0.0146499025 0.023387762
0.018995862 0.00955483 0.027666261 -0.017939 0.01148546 -0.019899948 -0.027102524 -0.01010589
0.008796372 0.007151936 -0.016297849 -0.0015601856 0.0096186325 0.04621197 -0.00047543825 0.021421969
0.033711262 -0.0026621667 0.03174544 0.050539806 0.01889998 0.03077994 0.005188354 0.0049580694
0.020072604 -0.012151309 -0.011543664 0.01889031 -0.019013776 -0.024262704 -0.002340962 0.017443698
0.0079257395 -0.0059680883 0.01044588 0.012621887 -0.00093711395 0.0051319855 -0.00935753 -0.0030283488
0.03103768 0.010449126 0.018787405 0.04629778 -0.00062675466 0.00866335 -0.009338524 0.032046262
-0.008665995 0.014151059 0.011812235 0.013959177 0.0059744623 0.011625979 0.017512249 0.019180492
0.009759995 0.002245119 -0.0052900426 0.00032129782 -0.009013308 0.008899755 -0.0008906437 -0.0071336864
-0.0032829752 -0.01668669 0.006936775 -0.0023413573 -0.0060179695 0.0062865946 0.0051677004 -0.023279183
0.009293002 -0.016369393 -0.024499152 -0.0084309215 -0.004208424 -0.012288654 -0.0041650585 -0.0008909601
-0.00788746 -0.0045131976 -0.0013743299 -0.008576822 -0.020815855 -0.022457022 -0.02147813 0.0007518911
-0.026648179 -0.030468993 -0.019789996 -0.006410357 0.0063991314 0.005901037 0.018540764 -0.0011303595
6.0404876e-05 -0.00332128 0.008210409 0.008767238 0.0030615616 0.0125222895 -0.008953282 0.00935462
-0.0032377427 -0.023654152 0.012263348 0.023068035 -0.0048005586 0.0072778855 -0.004811556 -0.0005786086
0.004056916 0.019014679 0.018820373 0.0062151784 0.007522441 0.0073084203 0.029932642 -0.018643107
0.0076822727 0.03184775 -0.015531229 -0.017114677 0.01131876 -0.00011432248 0.015611813 0.04874561
-0.0113411965 -0.03426163 -0.0062185847 -0.037534006 -0.027961634 -0.021089962 -0.049696364 -0.023836456
-0.024039881 -0.022259863 0.0077270195 0.015091183 -0.006684158 0.001323402 -0.011796791 -0.00037084805
0.0017464111 -0.009614679 -0.01463319 -0.013881384 0.010921145 0.026852803 -0.0044126073 -0.006348033
0.012039914 -0.0103805 0.01938971 0.016031506 0.0069685467 -0.00014410992 -0.0007126978 -0.0056796893
-0.0135130575 -0.01860843 -0.0021192164 -0.010230088 -0.003170752 -0.0050780317 -0.0044784057 0.013270724
0.021407396 -0.013340805 0.000941926 0.00984274 0.01127348 0.024700569 0.034094684 0.031198956
-0.010210753 0.023918802 0.002829383 0.005775944 0.042623203 -0.004997699 0.029262837 0.012104993
0.0096481275 0.020783082 -0.0012122458 -0.008323962 -0.0011603355 -0.018233387 0.0054963264 0.008410993
-0.003287737 -0.014821927 -0.0131484205 -0.0056655295 -0.012589163 -0.0103776315 -0.013637512 -0.014660692
-0.008535312 0.006729842 0.0043782997 -0.0063408255 0.0036574297 -0.012177803 -0.024865227 -0.015362777
-0.0052223615 -0.018702684 -0.013491002 0.0021616558 -0.0022699828 -0.015381553 -0.025991725 -0.023287032
-0.013248738 -0.021543927 -0.022034582 0.009160753 0.032552853 0.019566054 0.0010665074 0.004184755
-0.001106198 -0.0037189848 0.033125397 -0.004177979 0.0010498397 0.0029947532 -0.019868111 0.0028883298

onnx::Conv_93 f4 [64]
00000000: 0a6d 1abe 0e44 dabd 0714 a0bb 1b01 d1bd
00000010: f76a 4dbe de83 a83d 0c75 213d ab7f 65bd
00000020: f8bf e9bd 3f3d ff3e 4ab1 c2bb e670 bc3d
00000030: a51f 13be a773 553e 3d88 203e aaaf 3dbd
00000040: 81ac d93e 7d67 993d aa2e e3bc 5558 f43c
00000050: 8b90 063e 95c7 86bc 8249 d0bd f3e7 3b3d
00000060: 9531 01be b0dd dabd 2651 76be 7780 44be
00000070: 88f4 27be 4a71 bd3d 4e5d 10bd 4490 04bd
00000080: 6981 bdbe 35e1 b63d 8421 d23d 3a0d 983e
00000090: 4ac1 31be a70c 833e 8d4e 3bbd bf89 3b3e
000000a0: 9c49 7ebb 6081 a53d 08d2 dabc a9cb c5bd
000000b0: ae25 7d3d 5c6a 47be de3d a43d d88e 3d3c
000000c0: 6cf0 513e 88ae 103c e877 c5bd 0214 163e
000000d0: 9c8a 553c 37ad 393e 806e d038 64f5 a43e
000000e0: c3d3 073e 1915 cd3e 7fae 3f3e 205b e73e
000000f0: 2e80 a5bd 7c0e 103e 1d7b a33d 8802 f63e
-0.15080658 -0.10657512 -0.0048852 -0.10205289 -0.20060335 0.08228277 0.039418265 -0.056029957
-0.11413568 0.49851415 -0.0059415447 0.09201221 -0.1436754 0.20844899 0.15676971 -0.046310104
0.42514423 0.07490442 -0.027732212 0.029827276 0.13141076 -0.01645259 -0.101702705 0.0458755
-0.1261657 -0.10686815 -0.24054393 -0.1918963 -0.16401875 0.09250124 -0.035245232 -0.032364145
-0.37012795 0.089296736 0.10260299 0.2969759 -0.1735889 0.2559559 -0.04572921 0.18314265
-0.0038801199 0.08081317 -0.026711479 -0.09657986 0.061803512 -0.19474167 0.08019613 0.011569701
0.2050187 0.008830674 -0.09642011 0.1465607 0.013033535 0.18132482 9.938795e-05 0.32218468
0.13264374 0.4005516 0.18718909 0.4518671 -0.08081089 0.14068025 0.07982466 0.48048806

onnx::Conv_95 f4 [64, 64, 3, 3]
00000000: 2165 d3bc 8776 513c a24c ea3c 0fb8 41bd
00000010: 9b29 9c3c 385b e43c 4de2 21bd bfb9 a9bb
00000020: 91e6 b33c bbc3 2ebc 1494 263b 279e 7f3c
00000030: cac5 2cbc 646b 63ba a993 5d3c 8a8d 1bbd
00000040: 74ed df3a b216 233c b498 503b b85d a0bc
00000050: 290b 043d 7ab1 003c 085d bcbc 2448 e23c
00000060: 0808 96bb 72d1 98bc ac95 833c dcbf e6b9
00000070: da9e 193a 8ed8 ccba a3c4 6d3b f79b 493c
00000080: 238c d2bb a57e 1e3c 9589 4a3c 1651 f63b
00000090: 2bea ec3b 172f b93a 2a0a ec3b 9eea e8bb
000000a0: 5733 15bd 8207 0c3b dad6 18bb 9088 63bc
000000b0: 7b75 0abb 1938 743c a48e 023d 98a3 873c
000000c0: c29d c73b 210c 063d db29 763b a7ee 34bb
000000d0: 28b4 db3c ec61 233c f409 b23c 3322 bcbb
000000e0: 0168 aa3c 8a21 373c df17 a2bc 569c 423c
000000f0: 3475 1d3c 3286 50bc 8d0b 1f3c 7fef 8bba
00000100: bf76 9ebc a1b5 c8bb 1d4d b13b 8ed3 bcbc
00000110: dfcc 06bc 21e5 043c add2 a7bc f18b 34bc
00000120: 5117 c0bb df54 2b3c 4d8f f93b b11f a5bc
00000130: 4d99 4b3c 2d5b fb3b 2321 61bc febe e93b
00000140: a376 2c3c c68b 69bc ebf3 41bc 5aa8 ec3c
00000150: b6ff f1bc 1a1a cbbc 1442 a73c 6f0b 9cbc
00000160: c9ca fdbc abf8 f83b 10a9 4e3b cf7e 46bc
00000170: c06c 343c ff47 73bb d911 8ebc 2134 9cbb
00000180: ade9 a03b 2bc8 f0bb 4703 bc3a b449 d93b
00000190: b907 ee3c 3d45 323d 8a3a cdbb 9d89 4b3c
000001a0: 6fad 253d 9ee3 023c bba5 6d3b c8d4 393d
000001b0: ac32 823c 13e6 0eba 7026 113b 0cbb 6b3c
000001c0: 9239 da3b 4dd7 8fba 6f7e 973c 6298 e53c
000001d0: ccf1 603c 83dd 4b3c a178 b3ba 88a4 b83b
000001e0: 58c8 353c c321 55bc 0cb6 bfbb 0080 b4ba
000001f0: 4590 c839 493a f33a 5d85 a43c 9e93 36bc
00000200: f41e d23b 92c1 c73c 601b c3bc 5826 943c
00000210: b1bf c63c 24e3 8ebc d8a0 8abc 3363 603b
00000220: c079 8839 408e 2c3d 93bc b9bc 8f4c 70bd
00000230: 648e 773d 5523 8abb 0aef cfbc 3898 213d
00000240: 1040 4ebb 0ab3 fabc 8634 8fbc fda4 303b
00000250: d9ce e6bc 39ec d8bb ec54 b0ba 760f a0bc
00000260: e44e 97bb 2c40 393c db98 f3bb 32f5 09bd
00000270: f328 c43c bcfd 833c a93d 82bc 849b 053d
00000280: e6db 143c b41c 1dbc 670c 8dbc 71a4 913c
00000290: 7eb9 093c 3d8c cfbc c307 dd3c d245 483b
000002a0: de57 a8bc 887f b63c 586c d93a aef1 313b
000002b0: cb4c d93c b06f f53b 0dbd c2bb efda 023d
000002c0: c5ce bfbb e598 b7bc dea4 343d 1b17 0fba
000002d0: fe30 80bc 84ba c2bc cd58 02bb 90a8 7ebc
000002e0: 891a ebbc 0cf4 1e3c 4fee 02bb c98f 78bc
000002f0: 7400 843c 7993 d13b ef76 d9bc aceb 38bc
00000300: 5828 e93b 0e50 b23b 962c f339 8f8f be3b
00000310: a1f3 a7bb f7f2 51bc 971c 04bc a4fe c83c
00000320: a7b0 9dba ee26 34bc 5b0b d03c 41d8 1fbc
00000330: e706 77bc 98c7 873c 1b1d c0bb 7285 533c
00000340: e169 8fbc 6e6b 153d 55e6 903c d079 87bc
00000350: f9d6 c83c c941 b83c 93f3 92bc 15b4 9a3c
00000360: a2b8 833c dfee 7d3b b697 f4bc 2bb2 b23c
00000370: b45a c8bc 1d44 03bd 3340 933c 62c3 b4bc
00000380: 90e3 07bd a6f0 f139 5ad7 f53c 9966 a73a
00000390: 9035 a4bb d18f 053d 91a2 a7bb 5eb7 03bc
000003a0: 23b0 233d 7fbd baba 759d bd3b 55e8 02bb
000003b0: 8566 3abc 0e8c 9f3a dc7e 90bb cbb6 76bc
000003c0: 9d32 9dbb a5e3 46bb 546d 66bc 519e f6bb
000003d0: 638d 16bd 1a70 a5bc a222 43bc 6e93 d1bc
000003e0: 1637 cfbb 96f0 9dbb a72d e3bb d939 ab3c
000003f0: 102c 7a3c a00f 00bd 85d3 e4bb 2f12 be3c
-0.025805058 0.012784607 0.028600994 -0.047294673 0.019062808 0.027875528 -0.039522458 -0.0051796134
0.021960529 -0.010666783 0.0025417851 0.015601671 -0.010545203 -0.0008675365 0.013523974 -0.03797678
0.0017084316 0.009954141 0.00318293 -0.019575939 0.032237206 0.007854814 -0.02299358 0.02762229
-0.004578594 -0.018654559 0.01606258 -0.00044011965 0.00058601575 -0.0015628503 0.0036280535 0.012305251
-0.006425397 0.009673749 0.012361904 0.0075169904 0.0072300634 0.0014128414 0.00720336 -0.0071080467
-0.036425915 0.002136678 -0.002332142 -0.0138875395 -0.0021127153 0.014905953 0.031874314 0.0165575
0.0060918042 0.03272641 0.003756157 -0.0027608068 0.026819304 0.009972077 0.021733262 -0.0057413816
0.020801546 0.01117743 -0.019786773 0.011878094 0.009610463 -0.012727307 0.009707344 -0.0010676234
-0.019343732 -0.0061251675 0.005410804 -0.023050096 -0.008227556 0.008111269 -0.0204862 -0.011019693
-0.0058621545 0.010457247 0.0076159597 -0.020156713 0.0124266865 0.007670781 -0.013740811 0.0071333637
0.010526332 -0.014254516 -0.01183794 0.02888887 -0.029540878 -0.02479272 0.02041725 -0.01904842
-0.030980485 0.007598003 0.0031533875 -0.012115194 0.011012256 -0.003712177 -0.017342495 -0.0047669564
0.004910669 -0.0073480806 0.0014344238 0.0066311006 0.029056417 0.043523062 -0.006263082 0.012422946
0.040448602 0.0079888385 0.0036262113 0.04536894 0.015893303 -0.0005451154 0.0022148155 0.014387857
0.006659695 -0.0010974199 0.018492905 0.028026763 0.013729524 0.012442949 -0.0013692566 0.005634848
0.011095129 -0.013008538 -0.005850559 -0.0013771057 0.00038254462 0.0018556799 0.020083124 -0.011143593
0.0064123813 0.024384294 -0.023816764 0.01808469 0.024261327 -0.017442293 -0.0169224 0.0034238815
0.00026030652 0.042127848 -0.022672927 -0.058666762 0.06043853 -0.0042156377 -0.025382537 0.039451808
-0.003147129 -0.03060295 -0.0174811 0.002695381 -0.028174805 -0.006619957 -0.0013453043 -0.019538622
-0.004617559 0.011306804 -0.0074339933 -0.033681102 0.023945307 0.0161122 -0.015898542 0.032619014
0.009085631 -0.009589363 -0.017217828 0.017778607 0.008406041 -0.025335426 0.02698124 0.0030559194
-0.02054971 0.022277609 0.0016588075 0.002715211 0.026525876 0.007490121 -0.0059429468 0.031947073
-0.0058535063 -0.022411773 0.044102542 -0.000545846 -0.015648361 -0.023770578 -0.0019889355 -0.015543118
-0.028699176 0.00970174 -0.0019978469 -0.015171 0.016113497 0.006395754 -0.02654597 -0.011286657
0.007115405 0.005441672 0.0004638179 0.0058154534 -0.0051254784 -0.012814275 -0.008063457 0.024535485
-0.0012030796 -0.01099561 0.02539604 -0.009756149 -0.015077329 0.016574666 -0.0058628446 0.012910234
-0.017506542 0.036479406 0.017687956 -0.016537577 0.02451657 0.022492306 -0.01793841 0.018884698
0.01607925 0.0038747115 -0.029857498 0.021813473 -0.024457313 -0.03204738 0.017974949 -0.022065822
-0.033176005 0.000461464 0.030009914 0.0012771665 -0.005011268 0.032607857 -0.005115815 -0.008039324
0.0399629 -0.0014247148 0.0057865926 -0.0019974906 -0.011376982 0.0012172477 -0.004409654 -0.01505823
-0.0047972933 -0.003034809 -0.014064152 -0.007526197 -0.03675593 -0.020195056 -0.011910113 -0.025582995
-0.0063237054 -0.00481994 -0.0069329324 0.020901607 0.015269294 -0.0312649 -0.006983223 0.02320203

onnx::Conv_96 f4 [64]
00000000: fe46 9bbd cc79 4e3d 68c2 6dbd f946 80be
00000010: 9bf2 bf3d 2a3d 69be 063b fabd f5c6 a8be
00000020: 3e6f 95be 302e a7bc dc06 1bbb 8a26 09be
00000030: 3c9a 19be 7e9f aebd 31a5 87bc d897 bfbd
00000040: b088 1cbe 3423 33be 0c2a 82bd b3c9 80bd
00000050: b7e2 68be c40a fa3c f6ad 76be 3c46 953c
00000060: ce7e 113d 8185 803d 416a 433e 9da2 d1bc
00000070: c104 1f3e 9456 f1bc 26cf 17be f856 56bd
00000080: fd2f eabb 1e45 8bbd 841f 61bd 77de a4bc
00000090: 58a3 60bb d8ac cfbd d15b 573e 3ce0 a2bd
000000a0: 2c29 cabc f5c7 d03c c29b 863d f966 8abd
000000b0: b9d2 f4bd 57f0 213e 2807 c0be 00fa 183e
000000c0: 2e0d d6bd 073d 893e 55f0 823d 86a4 1cbe
000000d0: e4f7 4ebd d1e6 55bd 5f98 32be 5a94 953c
000000e0: e45c b93b ede6 a0be 414f 9abe 9235 983e
000000f0: 04ec e53c 37aa 21be 470b efbd 475a bb3d
-0.075819 0.050409123 -0.05804673 -0.25054148 0.09372445 -0.22777238 -0.12218289 -0.32964292
-0.29186434 -0.020407766 -0.0023655212 -0.13393608 -0.15000242 -0.085265145 -0.016558262 -0.09355134
-0.15286517 -0.17493898 -0.06355676 -0.06288471 -0.22742735 0.030522712 -0.24089798 0.018221967
0.03552132 0.06275464 0.19083501 -0.025590235 0.15529157 -0.029460229 -0.14825115 -0.052329034
-0.007146834 -0.068002924 -0.054961696 -0.02012561 -0.0034277048 -0.10140389 0.21031119 -0.079529256
-0.024677835 0.025485972 0.06572677 -0.06757922 -0.11954255 0.15814339 -0.3750546 0.14939117
-0.104517326 0.26804373 0.06393496 -0.15297136 -0.050529376 -0.052222077 -0.17440937 0.018259216
0.0056568254 -0.31426182 -0.3013859 0.2972837 0.028066643 -0.15787588 -0.11672073 0.091480784
