server/model/esquilo_em_arvore.onnx (onnx, 301496 bytes, 16 tensors)

fc.weight f4 [2, 256]
0	0xbd966588	-0.07343584
1	0xbc993863	-0.018703645
2	0xbe07903a	-0.13238612
3	0xbdb7beba	-0.08971925
4	0xbdc8a135	-0.09796373
5	0xbdf21859	-0.1182105
6	0xbdb47b1c	-0.08812544
7	0xbdad702a	-0.08468659
8	0xbc945398	-0.018106267
9	0x3c4ee1f2	0.012627112
10	0xbd250671	-0.040289346
11	0x3d66ca0a	0.056345023
12	0x3c5415fd	0.012944696
13	0x3d3f38d3	0.04668505
14	0xbd61c10e	-0.055115752
15	0xbd4bd5f9	-0.049764607
16	0x3d5340e0	0.05157554
17	0x3dbce39b	0.092231
18	0x3b8b2b28	0.004247088
19	0x3d99aa46	0.0750318
20	0xbd531e6e	-0.051542692
21	0x3ddb91d8	0.10721177
22	0x3c126d7a	0.008937234
23	0x3d9d8aa6	0.07692461
24	0x3dababa6	0.08382349
25	0xbc738b83	-0.014864805
26	0x3d35693f	0.044289824
27	0xbd50fa09	-0.051019702
28	0xbd33c4d9	-0.0438889
29	0xbdb34c8a	-0.08754833
30	0x3d2f14c6	0.04274442
31	0x3d800421	0.062507875
32	0x3d89bab0	0.06725061
33	0x3d1b6e89	0.03794721
34	0x3df485a7	0.11939555
35	0x3def596e	0.11686979
36	0xbd7a37cf	-0.06108838
37	0xbd9474c5	-0.072488345
38	0x3d3bd28f	0.0458551
39	0x3d645d26	0.055752896
40	0xbcf61919	-0.030041264
41	0xbdbec0a4	-0.09314087
42	0x3dbb442a	0.09143861
43	0x3dac62bd	0.0841727
44	0x3cb42a2a	0.021992762
45	0xbc08a043	-0.008338991
46	0x3d74812e	0.059693508
47	0xbd28d8ee	-0.041222505
48	0x3d5a0aca	0.053232946
49	0x3c822a8c	0.015889429
50	0x3dd2cec6	0.10293345
51	0x3c4dcb6c	0.012560707
52	0x3daec8ed	0.08534417
53	0x3da9c690	0.08289826
54	0x3d89be4f	0.067257516
55	0x3daf1465	0.08548812
56	0x3da4324f	0.08017408
57	0x3d532f94	0.051559046
58	0x3da8be9f	0.08239483
59	0x3dd7217d	0.10504434
60	0xbd7a1421	-0.061054353
61	0x3c54306f	0.012951001
62	0xbd822e2c	-0.06356463
63	0x3d46ef16	0.048567854
64	0x3d5936d1	0.053030793
65	0x3daecc1c	0.085350245
66	0xbdda47e0	-0.1065824
67	0xbd92743c	-0.07151076
68	0xbd8f925c	-0.07010338
69	0xbdadb4eb	-0.08481773
70	0x3d8d2407	0.06891637
71	0x3d6ac14b	0.057313245
72	0x3cdb4519	0.026766347
73	0x3c47521e	0.012165574
74	0xbc3aac9f	-0.011393695
75	0xbbe5ee7c	-0.007016955
76	0xbd2f86fd	-0.042853344
77	0xbda731ce	-0.08163796
78	0xbd92aec6	-0.07162242
79	0xbd2ff234	-0.042955592
80	0xbaa03e22	-0.0012225548
81	0x3c88ded5	0.016707817
82	0xbd3af80a	-0.045646705
83	0xbcb4d08c	-0.0220721
84	0xbd3c2d54	-0.045941666
85	0xbc2537b8	-0.010084085
86	0x3d86a9b1	0.06575335
87	0x3c36318c	0.011120211
88	0x3dc9c277	0.09851544
89	0xbde4d802	-0.11174013
90	0x3d8fb612	0.07017149
91	0xbd9f2d04	-0.07772258
92	0xbdc7aa81	-0.09749318
93	0xbe1203aa	-0.1425921
94	0x3cfb5342	0.030679349
95	0xbd480f79	-0.04884288
96	0x3c4b33e8	0.012402512
97	0xbc339ec7	-0.010963148
98	0x3cd0ecd0	0.025503546
99	0x3cb8a7fa	0.022541035
100	0x3d1567dc	0.036476
101	0xbcd0f97a	-0.025509585
102	0xbc258790	-0.010103121
103	0xbbeb9187	-0.007188979
104	0x3c842e28	0.01613529
105	0x3c9fc391	0.019502433
106	0xbc98359b	-0.018580249
107	0xbcffa56a	-0.031206805
108	0xbd8c0947	-0.06837707
109	0xbd0aaf78	-0.033858746
110	0x3d987fdf	0.074462645
111	0xbc870e1b	-0.016486218
112	0x3cdd4492	0.027010236
113	0x3cdced2a	0.026968557
114	0xbce05dee	-0.02738854
115	0xbd79c314	-0.060977057
116	0xbd56bd04	-0.052426353
117	0xbe0089aa	-0.12552515
118	0xbcfeb657	-0.031092806
119	0xbe021b97	-0.12705837
120	0x3d4e5263	0.05037154
121	0xbda6ed06	-0.081506774
122	0x3d6b4a33	0.05744381
123	0xbdbac63c	-0.091198415
124	0xbdc41e63	-0.09576108
125	0xbd9daaae	-0.0769857
126	0x3d6e37bc	0.05815862
127	0x3d281c17	0.041042414
128	0x3d99fd8b	0.075190626
129	0xbd4a857b	-0.049443703
130	0x3bf23842	0.0073919604
131	0xbd5aea71	-0.053446237
132	0xbd96de43	-0.07366612
133	0x3d813c37	0.06310313
134	0x3cf2de3e	0.029646989
135	0x3ddb563f	0.107098095
136	0x3d8972c4	0.06711343
137	0xbd7d9b63	-0.061915766
138	0x3d7896bf	0.060690638
139	0xbdbc9f19	-0.09210033
140	0x3db00992	0.085955754
141	0x3dc2366a	0.09483035
142	0xbca509c1	-0.020146253
143	0x3dad4da2	0.08462073
144	0xbca3cf4a	-0.019996304
145	0x3baf9757	0.0053586173
146	0xbbf9ed78	-0.0076271854
147	0xbcf83a1d	-0.030301148
148	0x3cec6bbd	0.028859967
149	0x3d14ff1a	0.036376096
150	0xbdaa8192	-0.08325495
151	0xbd9d4cb5	-0.07680646
152	0xbd8c4fb5	-0.068511404
153	0xbb77e1e3	-0.0037823848
154	0x3c7ce8ee	0.015436394
155	0x3d891763	0.06693914
156	0x3d9154d1	0.070962556
157	0x3daf51e7	0.085605435
158	0x3db74925	0.08949498
159	0x3d81fdda	0.063472465
160	0x3d8fa257	0.07013386
161	0x3db75d2b	0.08953317
162	0x3dedc0e5	0.11609057
163	0x3dd5ea83	0.1044512
164	0x3dbbc8fe	0.091691956
165	0x3cc1fc0f	0.023679761
166	0x3d8cc84f	0.06874143
167	0xbd830dc0	-0.06399107
168	0xbdf898fe	-0.12138556
169	0xbdbcb060	-0.09213328
170	0xbd830365	-0.06397132
171	0xbd6d9959	-0.05800757
172	0x3ce59122	0.028023306
173	0xbc161342	-0.009159865
174	0xbc8d20e1	-0.017227592
175	0xbc21e283	-0.009880665
176	0x3dc8fc35	0.0981373
177	0x3c1ec80a	0.009691248
178	0x3dbfa07d	0.093567826
179	0x3db7612f	0.08954083
180	0xbcb5af85	-0.02217842
181	0x3db2e0e6	0.08734302
182	0xbc874c2d	-0.016515816
183	0x3dd80627	0.105480485
184	0xbdcdda0e	-0.10051356
185	0xbcabdb2a	-0.020978529
186	0xbe119a62	-0.14219049
187	0xbda228af	-0.07917916
188	0xbd1628cd	-0.036660004
189	0xbd8fa585	-0.07013992
190	0x3d8bab3e	0.06819771
191	0x3dc108b9	0.09425492
192	0xbd5b288e	-0.053505473
193	0x3d89877f	0.06715297
194	0xbd48d236	-0.049028598
195	0x3cec5c4e	0.028852608
196	0x3d462fbf	0.048385378
197	0x3d9ea0a9	0.07745487
198	0xbdb3e366	-0.08783607
199	0xbd9d5009	-0.07681281
200	0x3d7c77c3	0.06163765
201	0x3cb798eb	0.022411784
202	0x3df6bc67	0.12047654
203	0x3dfac7aa	0.12245114
204	0x3d4a3947	0.04937103
205	0x3ca3862b	0.019961437
206	0xbc4543ef	-0.012040122
207	0xbc8d4b7f	-0.017247913
208	0xbd79a674	-0.060949758
209	0xbde6e0a5	-0.11273316
210	0xbe028941	-0.1274767
211	0xbd8efab8	-0.069814146
212	0x3ca520f8	0.020157322
213	0xbbb23422	-0.0054383436
214	0x3ccb49c6	0.024815451
215	0x3ddcca22	0.10780741
216	0xbd265aa7	-0.040613797
217	0xbe036734	-0.12832338
218	0xbdaaa251	-0.08331741
219	0xbda0c9ec	-0.078510135
220	0xbd6ff25f	-0.058580752
221	0xbd20ff80	-0.039306164
222	0x3d845805	0.06462101
223	0x3cfd6657	0.030932589
224	0x3d8da07f	0.06915378
225	0xbda43e44	-0.08019689
226	0xbc68dee3	-0.014213297
227	0xbc9eb6a9	-0.019374209
228	0xbdb2945f	-0.08719706
229	0xbc9032e3	-0.01760239
230	0xbdeab5fa	-0.114604905
231	0xbdd15d2b	-0.102228485
232	0xbd8205c7	-0.06348758
233	0xbd9dae1b	-0.076992236
234	0x3dba24f8	0.090890825
235	0x3cc0d8a0	0.023540795
236	0xbd2bae49	-0.04191426
237	0x3d4402a9	0.0478541
238	0xbc8b2247	-0.016984118
239	0x3d0bae8f	0.03410202
240	0xbd9e38ab	-0.07725652
241	0xbccc7832	-0.024959657
242	0x3d361631	0.044454757
243	0x3dba76b4	0.09104672
244	0x3dccef57	0.10006588
245	0xbc96364c	-0.018336438
246	0x3d9400ce	0.07226716
247	0xbd8b5cdc	-0.06804821
248	0xbd4cca79	-0.04999778
249	0xbe22ee46	-0.15911207
250	0xbc1a6952	-0.009424524
251	0xbdb45dae	-0.088069305
252	0x3cc4aa6f	0.02400705
253	0xbd120b65	-0.035655398
254	0xbdeaa690	-0.114575505
255	0xbdfd2a18	-0.12361544

fc.bias f4 [2]
0	0x3cdd4399	0.027009772
1	0x3d503c4f	0.050838765

79 f4 [16, 3, 7, 7]
0	0xbe02c8d5	-0.12771924
1	0xbe61fa22	-0.22068074
2	0xbbb5ff92	-0.005554148
3	0x3e70ffb4	0.23535043
4	0xbe00c37e	-0.12574574
5	0x3e6e447a	0.23268309
6	0xbe53589e	-0.20639274
7	0xbea46bc1	-0.3211346
8	0xbde03136	-0.10946886
9	0x3ec368a4	0.38165772
10	0x3ede5385	0.43423095
11	0x3d36d530	0.044636905
12	0xbe1b9093	-0.1519187
13	0x3d5d72d0	0.05406457
14	0xbe521a19	-0.20517768
15	0x3eaf717d	0.34266272
16	0x3e9826f7	0.29717228
17	0xbdc7a78e	-0.097487554
18	0x3f04b6af	0.51841253
19	0x3ee17859	0.4403713
20	0x3eaf8ab0	0.34285498
21	0x3ea7b7cf	0.32757422
22	0x3eb74c80	0.35800552
23	0x3e8ebfbe	0.27880663
24	0x3dc43c25	0.09581784
25	0x3dc0e5ca	0.09418829
26	0x3e939233	0.2882248
27	0x3ec1fb30	0.37886953
28	0x3d225d0f	0.03963953
29	0xbd152f35	-0.036421973
30	0x3eb05252	0.34437805
31	0xbdbaa160	-0.09112811
32	0x3ebaa27c	0.3645209
33	0x3e9bcb8d	0.30428734
34	0x3e62eeb9	0.22161378
35	0xbeb1de5c	-0.3473996
36	0xbd391fd0	-0.045196354
37	0x3e7c13a8	0.24616873
38	0xbe9fc6e6	-0.31206435
39	0xbe65d787	-0.22445498
40	0xbea5b3e7	-0.32363817
41	0xbcd9519d	-0.026528174
42	0xbe99414d	-0.29932633
43	0x3e537d36	0.20653233
44	0xbeb7ce71	-0.3589969
45	0xbe4c7dc8	-0.19969857
46	0xbe73470a	-0.23757568
47	0xbea4442e	-0.32083267
48	0xbdb51049	-0.08840997
49	0x3ebd13de	0.3692922
50	0x3d9a8b61	0.07546116
51	0xbe8313f2	-0.25601155
52	0x3d29255b	0.04129539
53	0xbe661219	-0.22467841
54	0xbe32c8ff	-0.17459486
55	0xbeb185aa	-0.3467229
56	0xbe97ebf4	-0.29672205
57	0xbe13f001	-0.14447023
58	0x3d20c9cb	0.039254945
59	0xbf0d6872	-0.55237496
60	0xbd3c48d3	-0.045967888
61	0xbedf7a8c	-0.43648183
62	0x3e2da486	0.16957292
63	0xbe123529	-0.14278091
64	0xbe50cd02	-0.20390704
65	0xbf1a8bd3	-0.60369605
66	0xbeaaf7bf	-0.3339214
67	0xbf1b0581	-0.60555273
68	0xbf06e16c	-0.52687716
69	0x3c1bba26	0.00950483
70	0xbe1393e1	-0.1441188
71	0xbec3eca5	-0.38266483
72	0xbe676205	-0.22595985
73	0xbf0b795d	-0.5448206
74	0xbf110ef9	-0.5666347
75	0xbe3606ed	-0.1777608
76	0xbef857e3	-0.48504552
77	0x3c2726d5	0.010202129
78	0x3d739631	0.059469406
79	0xbea7278e	-0.32647365
80	0x3ddbe24a	0.107365206
81	0x3e1b920e	0.15192434
82	0xbeb7e200	-0.35914612
83	0xbe0ecf8e	-0.13946363
84	0x3e096e58	0.13420999
85	0xbe144c4d	-0.14482231
86	0xbe0f6653	-0.14003877
87	0xbe03e045	-0.12878521
88	0xbea10e16	-0.3145606
89	0xbe9d0cba	-0.30673772
90	0xbf009042	-0.5022012
91	0xbdb5473e	-0.08851479
92	0x3e020bc1	0.12699796
93	0xbb2bb4ca	-0.0026200288
94	0x3e804230	0.25050497
95	0x3eb9ba5f	0.36275002
96	0x3ea764be	0.32694048
97	0x3e58bd40	0.21165943
98	0xbe289912	-0.16464642
99	0x3e36e2b1	0.17859913
100	0x3df85dbb	0.12127253
101	0x3ebb653d	0.36600676
102	0x3e0beaf1	0.13663842
103	0xbe41c930	-0.18924403
104	0x3e30766f	0.17232679
105	0xbd760555	-0.06006368
106	0x3e4d213b	0.20032208
107	0x3d96ee2c	0.073696464
108	0x3ead7aed	0.33882847
109	0x3e93ed5d	0.2889203
110	0x3e02344b	0.1271526
111	0xbe360348	-0.17774689
112	0xbe091867	-0.13388215
113	0x3e0705a6	0.13185748
114	0xbdc41da9	-0.0957597
115	0xbd23bf4d	-0.03997736
116	0x3efc4420	0.49270725
117	0x3f11f0ea	0.5700823
118	0x3dd90949	0.10597474
119	0xbd63d988	-0.055627376
120	0x3e34e554	0.17665607
121	0x3cf35177	0.029701931
122	0x3e4d7b3d	0.20066543
123	0x3e48ae01	0.19597627
124	0x3e2d8d52	0.1694844
125	0x3efdac91	0.4954572
126	0xbd857723	-0.06516864
127	0x3e9a4943	0.3013402
128	0x3e765acc	0.24058074
129	0x3e68bed5	0.22729047
130	0x3e895664	0.26823723
131	0x3e911747	0.28338072
132	0x3e8700d2	0.26367813
133	0x3e1e62d8	0.15467393
134	0xbeb6a595	-0.35673204
135	0xbeb5e03b	-0.35522637
136	0x3e96ffbb	0.29491982
137	0xbe01c6af	-0.12673448
138	0xbe99e970	-0.3006091
139	0xbe064840	-0.13113499
140	0xbe263254	-0.16230136
141	0x3e1113b5	0.14167674
142	0x3d36dec8	0.044646055
143	0xbe924feb	-0.28576598
144	0xbca2b3e5	-0.019861171
145	0x3daa3045	0.08309988
146	0x3ddbc0c3	0.10730126
147	0x3e1ff88d	0.15622158
148	0x3d58b4c9	0.052906785
149	0x3dfdcb58	0.123923
150	0x3b6cf921	0.0036159235
151	0x3d4b2ec9	0.049605165
152	0xbd3c1e2e	-0.04592722
153	0xbb6f8077	-0.0036545077
154	0xbdd9a55a	-0.106272414
155	0xbd8bed07	-0.06832319
156	0xbe101f91	-0.14074542
157	0xbc00f468	-0.007870771
158	0x3d8e1359	0.06937284
159	0x3dadd541	0.084879406
160	0x3d5010dd	0.050797332
161	0xbd024cbf	-0.031811472
162	0xbe37a9b1	-0.17935826
163	0xbdda9716	-0.106733486
164	0x3d48330c	0.048876807
165	0x3db4cbcb	0.08827933
166	0x3d88ea34	0.06685296
167	0x3d85f5cd	0.065410234
168	0x3d7f64e5	0.06235208
169	0xbd83360f	-0.06406795
170	0xbe0d333c	-0.13789076
171	0xbdb5ab5c	-0.08870575
172	0xbd98c965	-0.07460288
173	0x3db7d9d9	0.08977098
174	0x3d631757	0.05544218
175	0xbd6aa98a	-0.05729059
176	0xbc2fcf6c	-0.010730606
177	0x3b096e5c	0.002097032
178	0x3e046012	0.12927273
179	0x3d81af7d	0.063323
180	0x3dc824b5	0.09772626
181	0xbcf2bbe3	-0.029630607
182	0xbe0370da	-0.12836018
183	0xbe0a75a7	-0.13521443
184	0xbe312465	-0.1729904
185	0xbdef4840	-0.116837025
186	0xbd8b4761	-0.06800724
187	0xbc84a6d5	-0.016192833
188	0xbdcfd57d	-0.101481415
189	0xbe10b1a2	-0.14130262
190	0xbd9985a6	-0.074961945
191	0x3d243700	0.040091515
192	0xbdab6c86	-0.083703086
193	0xbca3569c	-0.01993876
194	0xbdeb7b3a	-0.11498113
195	0x3e215403	0.15754704
196	0x3dc2e955	0.09517161
197	0x3da5e0e8	0.08099538
198	0x3d80b805	0.06285099
199	0xbdbb35a7	-0.09141093
200	0x3d75fbfc	0.060054764
201	0xbdd71588	-0.10502154
202	0xbdd94727	-0.10609274
203	0xbde2e70c	-0.11079225
204	0x3cd5c79a	0.026096154
205	0xbcb7dc66	-0.022443961
206	0x3e21abe0	0.15788221
207	0x3db45a25	0.08806256
208	0x3db6bb17	0.08922403
209	0xbc6a9dda	-0.014319861
210	0xbe07970a	-0.1324121
211	0xbd3f6d82	-0.046735294
212	0xbe11f3a6	-0.14253101
213	0x3dc791c6	0.09744601
214	0x3e075367	0.13215409
215	0x3e1f68e6	0.1556736
216	0xbd3e854c	-0.04651384
217	0xbe14abe3	-0.14518695
218	0xbe3e2c2d	-0.18571539
219	0xbe217022	-0.15765432
220	0x3e14bc38	0.14524925
221	0x3dafc57c	0.08582589
222	0x3e35ae21	0.17742206
223	0x3cf92d55	0.030417124
224	0xbdc933f5	-0.09824363
225	0xbd28586f	-0.04109996
226	0xbe1123de	-0.14173838
227	0x3da28804	0.07936099
228	0x3d900f11	0.07034124
229	0x3e231088	0.15924275
230	0x3dda77a0	0.10667348
231	0xbe36bddd	-0.17845865
232	0xbd309591	-0.043111388
233	0x3d5e3cde	0.054257266
234	0x3e0ed607	0.13948832
235	0xbd61d623	-0.055135857
236	0x3c23045b	0.009949769
237	0x3debe930	0.11519086
238	0xbd638109	-0.05554298
239	0xbe025a34	-0.12729722
240	0xbe5ef1ed	-0.21771975
241	0xbd4857ed	-0.048911978
242	0x3de20d8c	0.1103774
243	0xbb86dbe7	-0.00411557
244	0xbe04835e	-0.12940738
245	0x3df86aab	0.1212972
246	0x3e45e740	0.19326496
247	0xbd920b4a	-0.071310595
248	0x3e3811e3	0.17975573
249	0x3e0cc59d	0.13747258
250	0x3de1b6ca	0.11021192
251	0xbcd8f3b4	-0.026483394
252	0x3b0e17a3	0.002168157
253	0x3e0b024f	0.135751
254	0x3dcb346a	0.099221066
255	0x3e016a1d	0.12638135

80 f4 [16]
0	0x3f1f8d16	0.62324655
1	0xbf82361e	-1.0172765
2	0xbe813af6	-0.25240296
3	0x3f417e82	0.7558366
4	0x3fa79913	1.309359
5	0x3f699aae	0.9125165
6	0x3f7142d2	0.94242585
7	0xbf6f1ae7	-0.93400425
8	0x3d881eaa	0.06646474
9	0x3e10736f	0.14106534
10	0xbe402702	-0.1876488
11	0x3f0b9076	0.54517305
12	0x3ddb1b12	0.106985226
13	0x3fcbdf1a	1.592746
14	0xbf9d4c23	-1.228886
15	0x3fb44c98	1.4085875

82 f4 [32, 16, 3, 3]
0	0xbce69750	-0.028148323
1	0xbc2119ea	-0.009832839
2	0x3bf41c9f	0.007449701
3	0x3c20648b	0.009789596
4	0x3b1079cf	0.002204526
5	0x3b1cef76	0.002394644
6	0xbc6367a4	-0.01387969
7	0x3a92fb57	0.0011213821
8	0xbc346ede	-0.011012761
9	0x3d5ec2b3	0.0543849
10	0x3d340c17	0.043956842
11	0x3a87d87f	0.0010364203
12	0x3c8b3335	0.01699219
13	0xbcee03a1	-0.029054465
14	0xbc01f05c	-0.007930841
15	0xbd2e92c1	-0.042620424
16	0x3d083b9d	0.033259977
17	0xbc44c2f3	-0.01200937
18	0x3ab6901a	0.0013928444
19	0x3d768ade	0.060191028
20	0xbc6e355c	-0.014539089
21	0x3b029183	0.0019923158
22	0x3caa5896	0.020794194
23	0xbd1acbef	-0.037792142
24	0xbc963244	-0.018334515
25	0x3d0ffbd0	0.035152256
26	0x3d351429	0.04420868
27	0xbd583507	-0.052784946
28	0xbcb63c59	-0.022245573
29	0xbd4b3019	-0.049606416
30	0xbd9ec02a	-0.07751496
31	0xbd6b805f	-0.05749547
32	0xbb658c73	-0.0035026341
33	0xbd060c96	-0.032726847
34	0xbc3314e2	-0.010930272
35	0xbc62b199	-0.013836288
36	0xbd27bec7	-0.040953424
37	0xbd00040b	-0.031253856
38	0xbcbe9e90	-0.023268968
39	0x3ca3424a	0.01992907
40	0x3d5f2f44	0.054488435
41	0xbc6c7571	-0.014432297
42	0x3cd58bd9	0.026067661
43	0x3cf64fa3	0.03006727
44	0x3d2b3ea5	0.04180779
45	0xbc211ddd	-0.00983378
46	0x3b1429e2	0.0022607972
47	0xbd339bf5	-0.043849904
48	0x3b89ffd4	0.0042114053
49	0x3ccab542	0.024744634
50	0x3bdeff95	0.00680537
51	0xbd03595e	-0.03206765
52	0xbaf27750	-0.0018498693
53	0x3b9579c5	0.004561635
54	0x3be3b576	0.006949122
55	0xbc9b0526	-0.018923353
56	0xb876b637	-5.882067e-05
57	0xbd16b919	-0.036797617
58	0x3d7065f4	0.05869098
59	0x3d585dee	0.052823953
60	0xbcbf0592	-0.023318086
61	0x3c9c2436	0.019060235
62	0x3d37c459	0.044864986
63	0xbd7dd5cf	-0.061971482
64	0xbbe81436	-0.0070824875
65	0xbd9eeaf6	-0.07759659
66	0xbd55c394	-0.05218847
67	0xbc5d2e5f	-0.013499825
68	0xbd095a8f	-0.03353363
69	0xbc43b94a	-0.011946032
70	0x3d712f83	0.0588832
71	0x3ca93ca1	0.020658793
72	0xbd96135d	-0.07327912
73	0x3d74b072	0.059738584
74	0xba93a5d0	-0.0011264626
75	0xbc082aa0	-0.008310944
76	0xbb8a9deb	-0.004230251
77	0x3c4d0636	0.012513688
78	0x3b4776f5	0.0030435894
79	0x3d67407b	0.056457978
80	0x3d817475	0.063210405
81	0x3cc22128	0.02369745
82	0xbd3fd912	-0.046837874
83	0xbd718787	-0.05896714
84	0x3c427567	0.011868811
85	0xbbf64050	-0.007514991
86	0x3d7a5645	0.06111743
87	0x3d96023c	0.07324645
88	0x3d82665d	0.063671805
89	0x3d5d0d4f	0.05396777
90	0xbcadb0c8	-0.02120246
91	0x3cb99d7b	0.0226581
92	0x3d0a4616	0.033758245
93	0xbc8b6c0d	-0.017019296
94	0x3cf446b0	0.029818863
95	0x3c1cc566	0.009568548
96	0xbd063815	-0.032768328
97	0x3d8aa339	0.067694135
98	0x3c415459	0.011799895
99	0xbd3f9a24	-0.04677786
100	0xbce7fdad	-0.028319204
101	0xbd14f9da	-0.03637109
102	0xbcb5e828	-0.022205427
103	0xbd6d4661	-0.057928447
104	0xbaf8d58a	-0.0018984538
105	0x3c2b90ca	0.010471532
106	0xbd0798d6	-0.03310474
107	0xbc3d882e	-0.011568112
108	0x3cd45a69	0.025922017
109	0x3cb523de	0.02211183
110	0x3b094f1f	0.00209517
111	0xbcc537d1	-0.024074467
112	0x3cbdae48	0.023154393
113	0xbd42c167	-0.047547724
114	0x3ab979ee	0.0014150718
115	0x3d57b9f2	0.052667566
116	0xbcd9e92e	-0.026600447
117	0xbc186306	-0.009300953
118	0xbc809190	-0.01569441
119	0xbc0a4a10	-0.008440509
120	0x3c789c88	0.015174039
121	0x3cce6522	0.025194708
122	0xbae4b54f	-0.0017449054
123	0xbb982fe9	-0.004644383
124	0x3d483439	0.04887793
125	0x3cb54ab7	0.022130353
126	0x3cb85555	0.022501627
127	0xbccbfa86	-0.024899732
128	0xbc4330ef	-0.011913522
129	0xbc13913f	-0.009006797
130	0xbcb0355a	-0.021509815
131	0xbcab945e	-0.02094477
132	0xbc97b414	-0.018518485
133	0xbbfcde37	-0.0077169198
134	0x3c14b3ab	0.009076039
135	0xbd24989f	-0.040184613
136	0xba89519c	-0.0010476592
137	0xb80f5757	-3.41752e-05
138	0xbbf92cee	-0.007604233
139	0xbd10776b	-0.035270136
140	0xbc89fd79	-0.016844498
141	0x3ce72102	0.028213982
142	0xbcb85113	-0.022499597
143	0xbc81adfc	-0.015830033
144	0xbd54d314	-0.051959112
145	0x3d469126	0.048478268
146	0x3c737e26	0.014861619
147	0x3d6c20d4	0.057648495
148	0x3cfc894d	0.030827189
149	0x3de4bc07	0.11168676
150	0x3ca9ad75	0.020712594
151	0xbc5ea08a	-0.01358808
152	0x3c20fea7	0.009826339
153	0x3ab30d93	0.0013660662
154	0x3d014414	0.031559065
155	0xbd63b846	-0.05559566
156	0xbd2d5a0c	-0.042322204
157	0x3c3bdbec	0.011466008
158	0x3d324be4	0.043529406
159	0x3caa76f0	0.020808667
160	0xbc7ba944	-0.01536018
161	0x3c8f280a	0.017475147
162	0x3c83a163	0.016068166
163	0xbca77415	-0.020441094
164	0xbbca1004	-0.00616646
165	0xbcd50807	-0.026004804
166	0x3d961553	0.07328286
167	0x3dc637c7	0.096786074
168	0xbd6bca05	-0.057565708
169	0xbd261f09	-0.04055694
170	0x3d9d4427	0.07679015
171	0xbc90dc54	-0.017683186
172	0x3d8926b1	0.06696833
173	0xbcbf9de6	-0.023390722
174	0xbd393eba	-0.045225836
175	0xbd47537f	-0.048663612
176	0x3c42f2ea	0.011898736
177	0x3c50346d	0.012707812
178	0xbc8ef708	-0.017451778
179	0xbd68bb18	-0.05681905
180	0x3dc22767	0.09480172
181	0xbbbbec40	-0.0057349503
182	0x3d8df3ac	0.06931242
183	0xbc35eaff	-0.011103391
184	0x3d53d94c	0.051720902
185	0xbc577ff3	-0.013153064
186	0x3cc60874	0.024173953
187	0x3b02532e	0.0019886005
188	0xbccb61cd	-0.024826908
189	0xba0a2dfc	-0.00052711344
190	0xbceea6c7	-0.02913226
191	0x3ba0530a	0.0048927115
192	0x3d2b0bde	0.041759364
193	0xbd2e3c53	-0.042538
194	0x3bf25a3b	0.00739601
195	0xbd89375e	-0.067000136
196	0x3b1878e8	0.0023265425
197	0xbd893bf9	-0.06700892
198	0x3c947117	0.018120332
199	0x3dee655c	0.116404265
200	0x3cc8353a	0.024439443
201	0x3d131e3b	0.035917502
202	0x3d1b36ed	0.03789418
203	0xbb818b10	-0.003953345
204	0x3b8aec6e	0.0042396104
205	0xbd0f1e68	-0.034941107
206	0xbcfacfb8	-0.030616626
207	0xbc7e9a2c	-0.015539687
208	0xbd3fd842	-0.0468371
209	0xbd6445fa	-0.055730797
210	0x3a82e3b4	0.0009986074
211	0x3d3efdd7	0.0466288
212	0xbc06bfbf	-0.008224427
213	0x3df447b9	0.119277425
214	0x3d6c3ee3	0.05767716
215	0x3d8f599a	0.06999512
216	0x3d6c1762	0.057639487
217	0x3d2e3e0e	0.04253965
218	0x3d3ebd33	0.046567153
219	0x3d4fa41b	0.050693613
220	0x3dbcb6e8	0.09214574
221	0x3d23b938	0.03997156
222	0xbcf4f520	-0.029902041
223	0xbc5752f6	-0.013142338
224	0xbd02830d	-0.03186326
225	0xbcb53b77	-0.022123082
226	0xbcb5f891	-0.022213252
227	0x3d233c9b	0.03985272
228	0x3da47c70	0.08031547
229	0x3d9a5380	0.075354576
230	0xbd37cb84	-0.044871822
231	0x3cec341b	0.02883344
232	0xbba48efa	-0.005021927
233	0xbc07a9d7	-0.008280239
234	0xbcb296f3	-0.021800494
235	0xbd06b833	-0.03289051
236	0x3ce2d406	0.027688991
237	0x3d908556	0.07056682
238	0xbb1f1be4	-0.0024278099
239	0x3c5f96a9	0.01364676
240	0xbd88f13b	-0.06686636
241	0xbd1d6b9f	-0.038432714
242	0xbaf9fcd4	-0.0019072541
243	0xb9813182	-0.00024641684
244	0xbd6de5a8	-0.058080345
245	0xba2ad2f6	-0.0006516421
246	0xbc2eb6b4	-0.010663677
247	0x3dc088eb	0.09401115
248	0x3ddbc08a	0.10730083
249	0x3db084bb	0.08619066
250	0x3db0a54b	0.08625277
251	0x3d509362	0.050921805
252	0x3ac0c89f	0.0014708227
253	0xbcbf810f	-0.02337697
254	0xbcbe6b24	-0.023244448
255	0x3d8bb2b7	0.068211965

83 f4 [32]
0	0x3cd3d0ad	0.02585634
1	0xbf803585	-1.0016333
2	0x3f02dac4	0.5111506
3	0xbf004690	-0.5010767
4	0xbc237b78	-0.009978168
5	0xbe3010b5	-0.17193873
6	0x3eab9c60	0.33517742
7	0xbe41b6e7	-0.18917428
8	0xbef377ac	-0.4755224
9	0xbf140d41	-0.57832724
10	0x3e897e1d	0.2685403
11	0xbe8b6b18	-0.27230144
12	0xbdd29e61	-0.10284115
13	0xbe86bed4	-0.26317465
14	0x3ce0c670	0.027438372
15	0x3e802168	0.25025487
16	0x3f0580ce	0.52149665
17	0x3f0745b6	0.52840745
18	0x3ea1fae1	0.31636718
19	0x3e763e11	0.24047114
20	0xbf1782df	-0.5918407
21	0xbf659b73	-0.8969032
22	0x3f365771	0.71227175
23	0xbda76805	-0.08174137
24	0x3daed9e7	0.08537655
25	0xbdf542b6	-0.11975615
26	0xbe8bd8c1	-0.27313808
27	0x3e5d87cf	0.21633838
28	0x3d90e5cf	0.070750825
29	0xbf1cc036	-0.6123079
30	0x3f19a5c7	0.6001858
31	0xbf5f87fa	-0.8731686

85 f4 [32, 32, 3, 3]
0	0xbd27740f	-0.040882166
1	0xbc854ea5	-0.016272852
2	0xbc85d2e9	-0.016335921
3	0x3d354c5a	0.044262268
4	0x3b3ef25a	0.0029136152
5	0x3d48ae7e	0.048994534
6	0xbcaa6e01	-0.020804407
7	0xbd5b38e8	-0.053521067
8	0xbcce1428	-0.025156096
9	0x3c7cf76a	0.0154398475
10	0xbd0903e4	-0.033450976
11	0xbd392726	-0.04520335
12	0x3d29654d	0.041356374
13	0xbd6db33e	-0.058032267
14	0xbc6907f6	-0.014223089
15	0x3d80cbd3	0.062888764
16	0x3d83c96a	0.06434901
17	0xbcbf3d66	-0.023344707
18	0xbd82c7db	-0.06385776
19	0xbd8d3931	-0.06895674
20	0xbdc3cbee	-0.09560381
21	0xbcff6a5e	-0.03117865
22	0xbb9bb753	-0.0047520786
23	0x3d853032	0.06503333
24	0x3c9e0234	0.01928816
25	0x3d71e147	0.05905273
26	0x3d53efbb	0.051742297
27	0xbc2ec036	-0.010665944
28	0xbd328c44	-0.0435908
29	0xbc8c9e57	-0.017165346
30	0xbcd15bf9	-0.025556551
31	0xbd2e595c	-0.04256569
32	0xbb954576	-0.0045553995
33	0x3c12d1b1	0.008961127
34	0xbc996fd4	-0.018730082
35	0xbd219037	-0.039444175
36	0x3b954124	0.0045548845
37	0xbd1cae2e	-0.03825205
38	0xbcc015fc	-0.023447983
39	0xbc366d38	-0.011134438
40	0x3c307e6c	0.010772329
41	0xbce08e93	-0.027411735
42	0xbcf7cbc3	-0.030248528
43	0xbd17b9e2	-0.037042506
44	0x3ce11ecb	0.027480504
45	0xbc86cba0	-0.016454518
46	0x3ccefe7d	0.025267834
47	0x3abab1e5	0.001424369
48	0x3dec36ca	0.11533888
49	0x3d3fcf99	0.04682884
50	0x3c9e8b4c	0.019353531
51	0xb9e3cbd2	-0.00043448672
52	0x3b25f84f	0.0025325005
53	0x3c6749b3	0.014116692
54	0xbd59f9ab	-0.053216618
55	0xbdc41248	-0.09573799
56	0xbd0ef078	-0.034897298
57	0x3dc4eec9	0.09615857
58	0x3ab48433	0.0013772309
59	0x3dbb1f8d	0.09136877
60	0x3cd8b24f	0.026452212
61	0xbba994f5	-0.0051752278
62	0xba5a98bf	-0.0008338801
63	0xbd385c5a	-0.04500995
64	0xbd166c7c	-0.036724553
65	0xbc98d967	-0.018658353
66	0xbd895ef1	-0.06707562
67	0xbda1ef71	-0.07906998
68	0xbda64ebc	-0.08120486
69	0x3b5518dd	0.003251604
70	0xbd262010	-0.04055792
71	0x3d0d3585	0.03447487
72	0x3d5222e3	0.0513028
73	0x3ce101fc	0.027466767
74	0x3e1227e7	0.14273034
75	0x3d1dd9f8	0.03853795
76	0x3cb0bb23	0.021573609
77	0x3df2e4df	0.1186006
78	0xbd99d210	-0.07510769
79	0xbd517068	-0.05113259
80	0x3cd21646	0.025645386
81	0x3d17a3f3	0.03702159
82	0xbd3add44	-0.04562117
83	0xbcb95c5e	-0.022627052
84	0x3cf59857	0.029979868
85	0xbb86bed4	-0.004112104
86	0xbd5b09cb	-0.053476136
87	0xbc7aa125	-0.015297209
88	0x3d027b5d	0.03185593
89	0xbd145f71	-0.036223833
90	0xbd5da6cd	-0.05411415
91	0xbc8cec2a	-0.017202456
92	0x3a1a0b7d	0.00058763457
93	0xbce4ed9a	-0.027945329
94	0x3c37b855	0.011213382
95	0x3d0e0493	0.03467233
96	0xbc121451	-0.008915977
97	0x3c375c62	0.011191459
98	0x3daab6eb	0.0833567
99	0xbd2638cf	-0.04058152
100	0xbd0107fb	-0.03150175
101	0xbd9876e0	-0.074445486
102	0xbc038d37	-0.008029274
103	0x3cec228b	0.028825065
104	0xbcf3587f	-0.029705284
105	0x3da4e5ab	0.08051618
106	0x3d9268f5	0.07148925
107	0xbc1f5359	-0.0097244615
108	0x3c5cff3d	0.013488588
109	0xbd0d382d	-0.0344774
110	0xbd1ca582	-0.038243778
111	0x3dc7c739	0.097547956
112	0x3d1196bc	0.035544142
113	0x3d136381	0.035983566
114	0x3db4a95c	0.08821365
115	0xbdb63b03	-0.08897974
116	0xbd2f3a13	-0.042779993
117	0x3aafbf75	0.0013408499
118	0xbd136963	-0.035989176
119	0xbd6e3b5e	-0.058162086
120	0xbd265521	-0.04060853
121	0x3c2c23f0	0.010506615
122	0xbdc0d975	-0.09416477
123	0x3e1d92b5	0.15387996
124	0x3dfd9df5	0.123836435
125	0x3d0f6ac9	0.035013948
126	0x3b7a33dd	0.0038177886
127	0x3bac919a	0.0052663805
128	0x3dc9a5d3	0.098460816
129	0x3d91fb8b	0.07128056
130	0x3d62b8dc	0.055352077
131	0x3e180b66	0.14848098
132	0x3c516807	0.01278115
133	0x3d99e8f5	0.07515136
134	0x3e0d6648	0.13808548
135	0xbd5070ed	-0.050888944
136	0xbc522024	-0.012825046
137	0x3d19356f	0.037404474
138	0xbd5e33fc	-0.054248795
139	0xbc9aa461	-0.01887721
140	0xbdb3b98a	-0.08775623
141	0x3d9c1f57	0.07623165
142	0x3ced6d83	0.028982883
143	0x3bc31aa2	0.0059541026
144	0xbdea726b	-0.11447605
145	0xbd81ee44	-0.06344274
146	0xbd318202	-0.043336876
147	0xbcd1c501	-0.025606634
148	0x3c170fdf	0.009220093
149	0xbc659444	-0.0140124
150	0x3cf8aeee	0.03035685
151	0x3d3909ee	0.045175485
152	0x3de663aa	0.11249478
153	0xbd7a35a1	-0.0610863
154	0x3d118ca6	0.035534523
155	0xbd0b6633	-0.03403301
156	0xbc6ed0f6	-0.014576187
157	0x3c96edae	0.018423881
158	0xbc5f067f	-0.013612389
159	0x3d3152db	0.043291908
160	0x3d38f540	0.045155764
161	0x3d683f85	0.056701202
162	0xbca3e4dd	-0.020006591
163	0x3d8a79db	0.06761523
164	0x3d9080b3	0.070557974
165	0x3c7148a3	0.014726791
166	0x3dd9d528	0.106363595
167	0x3cfdcacc	0.03098049
168	0xbd280411	-0.041019503
169	0x3ca06440	0.019579053
170	0xbd0b6da3	-0.034040105
171	0xbb91db2f	-0.0044511775
172	0x3df52043	0.11969044
173	0xba7a4c4a	-0.0009548111
174	0xbca535d9	-0.020167278
175	0x3d745352	0.059649773
176	0x3c94ba70	0.018155307
177	0x3c936222	0.01799113
178	0x3d08d0a0	0.033402085
179	0x3d330f02	0.043715484
180	0xbd336d07	-0.04380515
181	0x3cea2323	0.028581208
182	0xbbaaaac2	-0.005208344
183	0x3d09ee45	0.033674497
184	0xbd24661b	-0.040136438
185	0x3cfd1ba9	0.030896978
186	0xbdbabe93	-0.091183804
187	0x3cca7f3b	0.024718871
188	0xbd945a82	-0.072438255
189	0xbc2ea262	-0.010658832
190	0x3cacc293	0.021088874
191	0xbc92ad2e	-0.017904844
192	0xbde3ed60	-0.1112926
193	0xbce3b314	-0.027795352
194	0x3d3dc25c	0.046327934
195	0x3bcc86b6	0.0062416447
196	0xbbeaea34	-0.0071690325
197	0x3d8aa745	0.067701854
198	0xbcdc40a1	-0.026886286
199	0xbaaab34a	-0.0013023403
200	0x3d6d5ad8	0.057947963
201	0xbd4fbf99	-0.05071983
202	0xbda6edef	-0.08150851
203	0xbc7a1527	-0.015263832
204	0xbcdb9528	-0.026804522
205	0xbcd5d809	-0.02610399
206	0x3d9131df	0.0708959
207	0xbd27cbd7	-0.04096588
208	0xbd08588e	-0.033287577
209	0xbc909f2f	-0.01765403
210	0xbc5a7137	-0.013332657
211	0x3d24aa80	0.040201664
212	0xbb7e30a7	-0.0038786323
213	0xbd099b3c	-0.03359531
214	0xbd2fdaae	-0.04293316
215	0xbd7c9de5	-0.061674017
216	0x3ca0494e	0.019566204
217	0x3daac42b	0.08338197
218	0xba88ec8c	-0.0010446473
219	0xbcb24ea3	-0.021766013
220	0x3d41b89f	0.04729521
221	0xbd31994b	-0.043359082
222	0xbd106522	-0.035252698
223	0xbc8e2123	-0.017349785
224	0xbd26749b	-0.040638547
225	0xbd2d040a	-0.04224018
226	0xbd87fd08	-0.06640059
227	0xb9f9eac4	-0.00047667895
228	0x3cf426e4	0.0298037
229	0xbbf2431a	-0.007393253
230	0x3c968121	0.01837212
231	0xbc7249d5	-0.014788111
232	0xbc8acaab	-0.016942343
233	0x3d8a6bad	0.06758819
234	0xbd863545	-0.06553129
235	0xbdf0a75e	-0.11750673
236	0xbdf83b4e	-0.121206865
237	0x3cafba69	0.021451192
238	0xbd8e3c71	-0.06945122
239	0xbdd89350	-0.10574973
240	0xbccd4b5b	-0.025060346
241	0x3d548fa9	0.051894818
242	0x3d2875ca	0.041127957
243	0xbd120dcd	-0.035657693
244	0xbd9822ef	-0.07428538
245	0x3bf7e3ae	0.0075649833
246	0xbcc4ee3b	-0.024039378
247	0xbd6a66f7	-0.0572271
248	0xbb97411a	-0.004615915
249	0x3d5f103f	0.054458853
250	0x3c4b3c9d	0.012404588
251	0x3d4e07e4	0.050300494
252	0xbd95fd5c	-0.07323715
253	0xbd452748	-0.048133165
254	0xbcc773bb	-0.024347177
255	0xbbb19497	-0.0054193246

86 f4 [32]
0	0x3d9df904	0.077135116
1	0xbce8b9c2	-0.028408889
2	0x3ed38b7a	0.4131735
3	0xbe6efec6	-0.23339376
4	0x3eca58fb	0.39521012
5	0x3e8392f6	0.2569806
6	0x3e859545	0.26090446
7	0x3dc0d519	0.09415645
8	0xbda45605	-0.080242194
9	0x3ca5f868	0.02026005
10	0x3e7d4dba	0.24736682
11	0xbd801ff8	-0.062560976
12	0xbde13e63	-0.109982274
13	0xbf3a54ef	-0.7278585
14	0x3f1b41d4	0.6064732
15	0xbe6e8bb9	-0.23295487
16	0x3d9e0608	0.07715994
17	0x3e2cd92a	0.16879717
18	0xbcd60252	-0.026124153
19	0xbe42ad4e	-0.19011423
20	0x3f1806f0	0.59385586
21	0x3e711cca	0.23546138
22	0x3e216fc6	0.15765294
23	0xbe5c69d1	-0.21524741
24	0x3ea3a782	0.31963736
25	0x3e20b62a	0.1569449
26	0xbd9a0035	-0.07519571
27	0x3c7e3312	0.015515106
28	0x3f25b932	0.6473571
29	0x3e9acffc	0.30236804
30	0x3eba1495	0.36343828
31	0x3def482d	0.11683688

88 f4 [32, 16, 1, 1]
0	0x3e33bb26	0.1755186
1	0x3e4e20f6	0.20129761
2	0xbe43a18a	-0.19104591
3	0xbbbe2e7c	-0.005803881
4	0x3e27b17c	0.16376299
5	0xbc16a2ae	-0.009194059
6	0x3e62d0f0	0.22150016
7	0x3e55111c	0.20807308
8	0x3d52d1ba	0.051469542
9	0xbd74056e	-0.05957549
10	0x3dd99939	0.10624928
11	0xbcd3ab6a	-0.025838573
12	0xbdfaafe2	-0.12240578
13	0x3b1f2548	0.0024283696
14	0xbe126f20	-0.14300203
15	0x3e51aa96	0.2047523
16	0xbe76a0e2	-0.2408481
17	0x3ef68dfc	0.481552
18	0xbe6d2de2	-0.23162034
19	0x3e3e9fc0	0.18615627
20	0xbe28d50e	-0.16487524
21	0xbdb8ba7b	-0.09019943
22	0x3e1ccab9	0.15311708
23	0x3e5ca5cb	0.2154762
24	0x3dbd1513	0.09232535
25	0x3cfcbed5	0.030852715
26	0xbd6f1924	-0.058373585
27	0xbd95aeec	-0.07308754
28	0xbe5b01ba	-0.21387377
29	0x3ceabe68	0.028655246
30	0xbeb2d8a2	-0.34930903
31	0xbdbc4a53	-0.09193864
32	0xbe29db22	-0.16587499
33	0x3de32e15	0.11092774
34	0xbd2cea53	-0.042215656
35	0x3dbde69e	0.09272502
36	0xbdb8ca0a	-0.09022911
37	0xbd797bd3	-0.060909104
38	0x3de4af89	0.11166293
39	0xbdf9a6d8	-0.12190026
40	0xbd9ed002	-0.07754518
41	0xbdd0b49c	-0.101906985
42	0xbdfba10d	-0.122865774
43	0xbd697ef2	-0.05700583
44	0xbd9f7a40	-0.07786989
45	0x3c88b4f2	0.016687844
46	0x3d17833a	0.03699038
47	0xbdb8ec1e	-0.09029411
48	0x3d233878	0.039848775
49	0x3d424326	0.04742732
50	0xbe1b9320	-0.15192842
51	0x3e142709	0.14468016
52	0xbd20027c	-0.03906487
53	0xbde5720c	-0.11203393
54	0xbdf5e070	-0.12005699
55	0x3d68ce3c	0.056837305
56	0xbd9ae2de	-0.07562803
57	0xbd22fcdf	-0.039791938
58	0x3e0a1e19	0.13488044
59	0xbcc7ac9e	-0.024374302
60	0xbd3b4352	-0.0457185
61	0xbd74e2ee	-0.05978673
62	0x3d0abe02	0.03387261
63	0x3d8abb4b	0.067740045
64	0x3db274c4	0.087136775
65	0x3d2e1020	0.042495847
66	0x3d4f005b	0.05053745
67	0x3e926ed7	0.2860019
68	0x3e4cc76c	0.19997948
69	0xbd7d809e	-0.061890237
70	0xbe9afabf	-0.3026943
71	0x3e840ccf	0.25791022
72	0x3e84a8b0	0.25909948
73	0xbe9f79c6	-0.31147593
74	0xbd9bcb01	-0.07607079
75	0x3e9f26f9	0.3108442
76	0x3d1cfd59	0.03832755
77	0xbed715ba	-0.42008764
78	0xbda81fa9	-0.08209164
79	0x3eb6cd02	0.35703284
80	0x3ee59089	0.44836834
81	0xbec0c3b6	-0.37649316
82	0xbdf0709d	-0.11740229
83	0x3e680fbc	0.22662252
84	0xbe5d82ec	-0.21631974
85	0x3dcc61f9	0.09979624
86	0xbd62f164	-0.05540599
87	0xbcf9921e	-0.030465182
88	0x3d87a728	0.066236794
89	0x3e88558c	0.26627767
90	0xbdaaee2f	-0.08346211
91	0x3ed95b2f	0.4245238
92	0x3d37745b	0.0447887
93	0x3d308254	0.04309304
94	0x3e481fb0	0.19543338
95	0x3ea8f2f9	0.32997873
96	0x3dc2c3f3	0.095100306
97	0x3dcb6cf5	0.09932891
98	0x3d9fb849	0.077988215
99	0x3da93fcf	0.08264124
100	0xbe2da805	-0.16958626
101	0x3e043088	0.12909138
102	0xbc289311	-0.01028897
103	0xbc8a1a27	-0.016858174
104	0x3dd6c3d5	0.10486571
105	0x3d77ed89	0.060529266
106	0x3d778283	0.0604272
107	0x3dc49385	0.095984496
108	0x3bea47a6	0.0071496544
109	0xbc0957c2	-0.0083827395
110	0x3d2f39db	0.042779785
111	0xbd864ecc	-0.06557998
112	0x3f1f6a16	0.6227125
113	0xbf09d38a	-0.5383841
114	0x3df9d61a	0.1219904
115	0x3d4d0851	0.05005676
116	0xbe1d469a	-0.15358964
117	0x3eacdcd9	0.33762243
118	0xbdf53682	-0.11973287
119	0xbefd8e84	-0.49522793
120	0xbe03ea00	-0.12882233
121	0xbe002fdf	-0.12518261
122	0xbef381c1	-0.47559932
123	0x3e90eeac	0.28307092
124	0x3da4e5d1	0.080516465
125	0xbe706996	-0.23477778
126	0x3e57f071	0.21087815
127	0x3e88400d	0.26611367
128	0xbda8b57f	-0.08237743
129	0xbddc5e71	-0.10760201
130	0xbd9865b2	-0.07441272
131	0x3dee5ce6	0.11638813
132	0xbd6e131a	-0.058123685
133	0xbe239baa	-0.1597735
134	0x3e32503c	0.1741342
135	0x3cb13246	0.021630418
136	0xbe10b747	-0.14132415
137	0xbe3b0700	-0.18264389
138	0xbd08367a	-0.033255078
139	0x3daa0c71	0.08303154
140	0x3d9a3f58	0.07531613
141	0x3e5251d8	0.20539033
142	0xbe2c40fd	-0.16821666
143	0xbd3c214f	-0.045930203
144	0x3e66c4f2	0.22536066
145	0x3e0b3e51	0.1359799
146	0x3e07fcad	0.13279982
147	0x3ec1b5ec	0.37834108
148	0x3ac8e1d5	0.0015326092
149	0x3e450b28	0.19242537
150	0x3d868127	0.065676026
151	0x3d6993b0	0.05702561
152	0xbdead30f	-0.114660375
153	0x3e5a9d9c	0.21349186
154	0xbc78fa19	-0.015196347
155	0x3de19072	0.11013879
156	0xbe215eaf	-0.15758775
157	0x3e4c11dd	0.1992869
158	0xbe7aecc2	-0.24504378
159	0xbe1aab42	-0.15104392
160	0x3df352e4	0.118810445
161	0x3da5feba	0.08105226
162	0x3e99fbce	0.30074924
163	0xbd817062	-0.063202634
164	0xbe4d54dc	-0.20051903
165	0x3d926a46	0.07149176
166	0x3db0b470	0.08628166
167	0x3e82a269	0.25514534
168	0x3e6ae0c1	0.229373
169	0x3e303071	0.17205979
170	0xbca62a3a	-0.020283807
171	0xbd01a3e8	-0.031650454
172	0x3daa723a	0.08322568
173	0x3e41b238	0.18915641
174	0xbe89aadd	-0.2688817
175	0xbe615140	-0.2200365
176	0xbdf809f6	-0.12111275
177	0xbda453a9	-0.080237694
178	0xbdbd21eb	-0.09234985
179	0xbd7c68a8	-0.061623245
180	0x3d2b1255	0.04176553
181	0xbddcff96	-0.10790937
182	0x3dabba2b	0.08385118
183	0xbdb3e1f9	-0.08783335
184	0x3d306182	0.04306174
185	0xbdfcfb06	-0.123525664
186	0x3ddd4825	0.10804776
187	0x3c6cbfbb	0.014450009
188	0x3e039dde	0.1285319
189	0x3ddde7d9	0.10835237
190	0xbdd9f6b4	-0.10642758
191	0x3d1b3239	0.037889693
192	0xbc0fb23f	-0.0087705245
193	0x3d5796c1	0.052634005
194	0x3e492e82	0.19646648
195	0x3c3aa574	0.011391986
196	0xbd65f745	-0.056144018
197	0x3c78ff21	0.015197546
198	0x3dcb90f9	0.09939761
199	0xbda56e5b	-0.08077689
200	0xbcb43156	-0.021996181
201	0x3e4c76d5	0.19967206
202	0x3cb277a7	0.02178557
203	0x3e42eec3	0.19036393
204	0x3e1f224f	0.15540431
205	0x3dcfd9cd	0.10148964
206	0x3dd221c8	0.102603495
207	0x3d011b52	0.031520195
208	0x3dd51cbe	0.10405873
209	0x3e50dd76	0.2039698
210	0xbdf5f60c	-0.1200982
211	0x3e5c2be9	0.21501125
212	0xbe4cf76c	-0.20016259
213	0xbe474c15	-0.19462617
214	0xbe33da32	-0.17563704
215	0x3d1ce1be	0.038301222
216	0xbe2137b2	-0.15743902
217	0xbde728d5	-0.11287085
218	0xbe127334	-0.14301759
219	0x3e6640cd	0.22485657
220	0x3df215f4	0.118205935
221	0xbde636c6	-0.11240916
222	0x3e667b8b	0.22508065
223	0xbe1eae09	-0.15496077
224	0x3e41cb73	0.18925266
225	0xbb81abbd	-0.0039572404
226	0xbd9986b2	-0.07496394
227	0xbdf34c06	-0.11879735
228	0xbe19f283	-0.15033917
229	0xbe487260	-0.1957488
230	0x3ebafe19	0.36521986
231	0x3e847e0b	0.25877413
232	0x3e2ab990	0.16672349
233	0x3e1a73b7	0.15083204
234	0x3e43dcfa	0.19127265
235	0x3eead66b	0.45866713
236	0xbd013bca	-0.03155116
237	0xbe5ee2a1	-0.2176614
238	0x3e8836eb	0.266044
239	0x3ea7a131	0.32740167
240	0x3e3dd491	0.18538119
241	0x3c56a0a0	0.013099819
242	0x3e5e32ee	0.21699116
243	0x3e5c2966	0.21500167
244	0xbb12acc1	-0.0022380801
245	0xbcfac055	-0.03060929
246	0x3d6e5e56	0.058195435
247	0x3e689299	0.22712173
248	0xbe2fd304	-0.1717034
249	0x3e0c1cff	0.13682936
250	0xbd2981ef	-0.04138368
251	0xbaac80d3	-0.0013160951
252	0x3e14abaf	0.14518617
253	0xbdd3833d	-0.10327766
254	0x3d73df3a	0.059539057
255	0xbd0eab54	-0.03483136

89 f4 [32]
0	0xbef41642	-0.4767323
1	0x3e088754	0.13332874
2	0x3ed309cf	0.4121842
3	0x3d141caa	0.03616015
4	0xbea02de8	-0.31285024
5	0xbf57bd49	-0.842732
6	0xbeb4a837	-0.35284588
7	0x3e5117e8	0.20419276
8	0x3e84df0f	0.2595143
9	0xbf3daee2	-0.74094975
10	0xbf089fe6	-0.53368986
11	0x3e0370f2	0.12836054
12	0xbf25ae44	-0.64719033
13	0x3dbd33c4	0.09238389
14	0xbf77abd5	-0.9674657
15	0xbf10d69a	-0.56577456
16	0x3ea5573a	0.3229311
17	0xbeedc363	-0.4643813
18	0x3e5fc8d2	0.2185395
19	0x3d84ac1b	0.06478139
20	0xbda9b568	-0.082865536
21	0xbeed4451	-0.46341184
22	0xbe2fed8b	-0.17180459
23	0xbe4d894c	-0.20071906
24	0x3e0b0d4c	0.13579291
25	0x3adbefb0	0.0016779806
26	0x3e474be0	0.19462538
27	0x3f14f599	0.5818725
28	0x3d8ed800	0.069747925
29	0xbd8de9eb	-0.06929382
30	0xbef5e17d	-0.48023596
31	0x3e99e8fc	0.30060565

91 f4 [64, 32, 3, 3]
0	0x3b91e155	0.0044519105
1	0x3ce76cca	0.028250117
2	0x3b8ef8a9	0.0043631387
3	0xbb0c8e4d	-0.0021447123
4	0xbc6ecc9f	-0.014575153
5	0xbcfa6718	-0.030566737
6	0xbc5b66f0	-0.013391241
7	0x3b980d36	0.0046402467
8	0x3bb82895	0.005620072
9	0xbd217155	-0.039414722
10	0xbc683931	-0.014173792
11	0xbd40a2e3	-0.04703034
12	0xbcce7b60	-0.025205314
13	0xbb0643e6	-0.0020487248
14	0xbcbcc252	-0.023041878
15	0xbd2b734a	-0.041857995
16	0xbce14d8f	-0.027502803
17	0xbd6d6af6	-0.057963334
18	0x3d0e6424	0.03476347
19	0x3d05bb95	0.032649595
20	0x3d0b7deb	0.03405563
21	0x3c9d03b7	0.01916681
22	0x3c406e49	0.011745044
23	0xbcc34eef	-0.02384135
24	0x3d7b08ef	0.061287817
25	0x3d90fe81	0.07079793
26	0x3d40473b	0.04694293
27	0x3c603c13	0.013686198
28	0x3bba860b	0.0056922487
29	0xbc20cad6	-0.009813985
30	0x3d056859	0.032570217
31	0x3ce58896	0.02801923
32	0x3c82dd79	0.015974747
33	0x3cd1ffb2	0.02563462
34	0x3934fdc6	0.00017260676
35	0xbb078b30	-0.0020682327
36	0xbd0f8a7a	-0.03504417
37	0xbc8594dd	-0.016306335
38	0xbcd80059	-0.026367353
39	0xbd353bc5	-0.044246454
40	0xbd266fc6	-0.04063394
41	0xbd3bb491	-0.0458265
42	0xbc0b2851	-0.008493499
43	0x3beb4ee3	0.007181035
44	0xbc9c958f	-0.019114284
45	0xbd1b5710	-0.037924826
46	0xbd76e31b	-0.06027518
47	0xbd7e89ef	-0.062143262
48	0xbc8cb87b	-0.01717781
49	0x3c0734fb	0.008252378
50	0xbc318ec4	-0.010837261
51	0xbd5ba256	-0.053621612
52	0xbc49f875	-0.012327303
53	0x3c6a7b52	0.014311628
54	0xbcf4c345	-0.029878268
55	0xbcbb9a5b	-0.02290075
56	0xbcd3aef8	-0.025840268
57	0x39ac7ac2	0.00032897858
58	0x3c3e3d99	0.011611366
59	0xbbc3854d	-0.0059668184
60	0xbd230764	-0.03980197
61	0xbcba54ad	-0.022745455
62	0xbd085eb8	-0.033293456
63	0xbba91bb4	-0.005160773
64	0xbce0f670	-0.02746126
65	0xbd40b58c	-0.047048137
66	0xbc101763	-0.008794638
67	0x3aecb401	0.0018059016
68	0x3bec6e36	0.0072152866
69	0x3cae7be0	0.021299303
70	0x3d16bf1c	0.03680335
71	0x3d2f9ae1	0.042872313
72	0xbc96c6db	-0.018405369
73	0xbca34677	-0.019931061
74	0xbd23af3d	-0.039962042
75	0xbc3cfa1f	-0.011534243
76	0xbc4567b6	-0.012048652
77	0xbb861220	-0.004091516
78	0xbbb6b548	-0.0055758096
79	0xbbfef57b	-0.0077807284
80	0xbcb85c16	-0.022504847
81	0x3d8e8b6d	0.06960187
82	0x3d6ac213	0.05731399
83	0x3c96d964	0.018414207
84	0x3c553a30	0.013014361
85	0x3c6310f9	0.013859027
86	0x3bec4684	0.0072105546
87	0x3b72d16f	0.0037051102
88	0x3adcfd44	0.0016860147
89	0xbca9e733	-0.020740127
90	0xbc14cb37	-0.009081653
91	0xbd1b2d99	-0.037885282
92	0xbc2a63d3	-0.0103997765
93	0x3c1cf209	0.00957919
94	0x3c6f61f0	0.014610752
95	0x3ce83d8b	0.028349658
96	0xbd176928	-0.03696552
97	0xbd853776	-0.06504719
98	0xbd09f22e	-0.033678226
99	0x3ca38da4	0.019965
100	0xbc51acfd	-0.012797591
101	0x3cca8cc5	0.024725327
102	0x3cdc0657	0.026858492
103	0x3c6c2883	0.014413956
104	0x3d4a7ebf	0.04943728
105	0x3cdba06c	0.026809894
106	0x3d29c037	0.041443076
107	0x3d36bc77	0.044613328
108	0xbb93bbaf	-0.0045084576
109	0xbc90f373	-0.01769421
110	0x3c9b6d5b	0.018973043
111	0xbd07e656	-0.03317865
112	0xbd27b45a	-0.04094348
113	0xbcc45994	-0.023968495
114	0xbd235311	-0.03987414
115	0xbd1d85e5	-0.03845777
116	0xbc8668c0	-0.01640737
117	0x3cbf9b98	0.023389623
118	0x3ca01881	0.019542934
119	0xbc621f35	-0.013801386
120	0x3d82dddb	0.06389972
121	0x3c6fe424	0.014641795
122	0x3cda1244	0.026620038
123	0x3c886595	0.01665
124	0x3c99a7b9	0.018756734
125	0x3cc89713	0.0244861
126	0x392ebeff	0.00016665085
127	0x3b85b5b5	0.004080499
128	0xbc930ff3	-0.017951941
129	0xbbb33017	-0.0054683792
130	0xbb14d366	-0.002270901
131	0xbceec05b	-0.029144457
132	0xbd535d20	-0.051602483
133	0xbbd5f28c	-0.006529158
134	0xbd4bbc7b	-0.049740296
135	0x3c856ca5	0.016287157
136	0x3b31c606	0.0027126088
137	0xbc6c3f1d	-0.014419344
138	0x3d4e1c04	0.050319687
139	0x3cfaeb99	0.03062992
140	0xba872370	-0.0010310244
141	0xbc167545	-0.009183233
142	0xbc94ec9c	-0.01817923
143	0xbd424b68	-0.047435194
144	0xbcd4b2a6	-0.025964092
145	0xbab7f9cd	-0.0014036238
146	0xbc2941b0	-0.0103306025
147	0x3c9925ec	0.01869484
148	0x3becb8d4	0.0072241817
149	0x3b9582d8	0.004562717
150	0x3cf3cd69	0.029761033
151	0x3bc3e3da	0.0059780898
152	0x3d13e7b8	0.036109656
153	0xb9d45d84	-0.00040505466
154	0x3bab6144	0.005230101
155	0x3c055d3f	0.008139907
156	0xbc54f85a	-0.012998665
157	0xba401228	-0.0007326924
158	0xbc6bd81c	-0.014394786
159	0xbcde57cf	-0.02714148
160	0xbcbcf052	-0.023063812
161	0xbbd73304	-0.006567361
162	0x3cfd64e9	0.030931907
163	0x3c533d26	0.012892997
164	0x3ca752b7	0.020425184
165	0x3d127c01	0.03576279
166	0x3b867185	0.004102888
167	0x3d28b5f4	0.04118915
168	0x3d63351a	0.055470563
169	0x3ca352f9	0.019937025
170	0x3da6f9ba	0.081531
171	0x3ca17d70	0.019713134
172	0x3c9b32c3	0.018945104
173	0xbae2e3d6	-0.0017310332
174	0x3b810106	0.0039368896
175	0x3c3ca19a	0.011513138
176	0xbc85b0cb	-0.016319653
177	0x3cfe33ba	0.031030525
178	0x3c96cb4c	0.018407486
179	0xbc1171b6	-0.008877208
180	0xbd05a6d9	-0.03262982
181	0xbd6f43ec	-0.058414385
182	0xbcf2476d	-0.029575074
183	0x3d017edb	0.03161512
184	0x3c9c0696	0.01904611
185	0x3bd1bbe5	0.0064005726
186	0x3d0f7ce7	0.035031226
187	0x3ac43798	0.0014970182
188	0x3c5d10ee	0.013492806
189	0x3d751f05	0.059844036
190	0x3d08d6bc	0.03340791
191	0x3d4ff7a6	0.050773285
192	0x3bd28329	0.006424327
193	0xbbfba369	-0.007679392
194	0x3ae921c0	0.0017786548
195	0xbc5b9754	-0.013402779
196	0x3bc07719	0.0058735725
197	0x3c4fbdec	0.012679558
198	0x3c5430b9	0.0129510695
199	0xbc4a32a6	-0.012341177
200	0x3c5a46cc	0.013322543
201	0x3b55dc8c	0.0032632677
202	0x3b9c505a	0.004770321
203	0x3c8019c3	0.015637284
204	0x3c23553b	0.009969051
205	0xbbe9b418	-0.0071320646
206	0x3d0b59dd	0.034021247
207	0xbd057d04	-0.032589927
208	0xbcb8da36	-0.022564989
209	0xbba8299d	-0.005131914
210	0x3ced0b9c	0.0289362
211	0x3c1b6e11	0.009486691
212	0x3c9f863b	0.019473186
213	0xbca319b7	-0.019909723
214	0xbc7deea4	-0.015498791
215	0xbcfe7c17	-0.03106503
216	0xbd785cda	-0.060635425
217	0xbd6f260e	-0.0583859
218	0xbd2069d1	-0.039163414
219	0xbd2cfb6a	-0.042231955
220	0xbd262d2e	-0.04057043
221	0xbc7d7e27	-0.015471972
222	0xbbab22bd	-0.005222647
223	0x3c21e21b	0.009880568
224	0xba3e72c2	-0.0007265025
225	0x3c8b7067	0.017021371
226	0xbafeb3d2	-0.0019432253
227	0x3c35f1e4	0.0111050345
228	0xbc14036a	-0.009034017
229	0x3b3ebfd7	0.0029106045
230	0xbbae54ab	-0.005320152
231	0xbd292d1e	-0.041302793
232	0xbc8f8da0	-0.017523587
233	0xbca8e12b	-0.020615181
234	0x3c91f2cd	0.017815972
235	0xbc76e4ff	-0.015069245
236	0xbc3569f8	-0.011072628
237	0xbc363920	-0.011122018
238	0xbc8b52eb	-0.017007312
239	0xbcda3d95	-0.026640693
240	0x3a93924a	0.0011258807
241	0xbc2acb20	-0.010424405
242	0x3a9bf86f	0.00118996
243	0xbcffca33	-0.031224346
244	0xbd30d8f8	-0.043175668
245	0xbce9673e	-0.028491613
246	0x3abd729a	0.001445371
247	0xbbd886c6	-0.006607863
248	0x3b11ae10	0.0022228993
249	0x3c49e3d8	0.012322389
250	0xbcfb47a9	-0.030673819
251	0xbc7e7d55	-0.015532811
252	0xbcbb3f07	-0.022857202
253	0xbc90588c	-0.017620347
254	0xbcee836b	-0.0291154
255	0xbbc290e5	-0.005937683

92 f4 [64]
0	0x3e3f783d	0.18698211
1	0xbc98a728	-0.018634394
2	0xbd897e04	-0.06713489
3	0x3e27382e	0.16330025
4	0x3e3af3bd	0.18257041
5	0xbbf5ed22	-0.007505075
6	0xbc36b854	-0.011152346
7	0xbd5a674c	-0.053321168
8	0xbde84605	-0.1134148
9	0xbdcf40da	-0.10119791
10	0x39c7c700	0.00038104504
11	0xbd064862	-0.032783873
12	0xbcbf4fc5	-0.023353467
13	0x3d0ac0ac	0.033875152
14	0xbda700ae	-0.081544265
15	0xbcd3733f	-0.02581179
16	0xbc355872	-0.01106845
17	0xbea3a6bc	-0.31963146
18	0x3bda1058	0.0066547804
19	0xbed0fcab	-0.4081777
20	0xbd2cec21	-0.042217378
21	0xb59b7f2d	-1.1585413e-06
22	0xbd8159fa	-0.0631599
23	0xbcff8234	-0.031190015
24	0xbe1834d1	-0.14863898
25	0xbd1f2893	-0.038857054
26	0xbc572600	-0.0131316185
27	0xb9f62100	-0.00046945363
28	0xbc24c9e6	-0.010057902
29	0xbd87abba	-0.06624551
30	0xbd7ff7a9	-0.062492047
31	0xbe77c512	-0.2419627
32	0xbe29d0c2	-0.16583541
33	0xbe5913da	-0.21198979
34	0x3d8e4e88	0.069485724
35	0xbddb66f0	-0.10712993
36	0xbbcc0f45	-0.006227406
37	0xbd2f7a65	-0.042841334
38	0x3dc4505e	0.09585641
39	0xbd84df0c	-0.06487855
40	0xbe93fef6	-0.28905457
41	0x3db2bee9	0.087278195
42	0x3d410d94	0.04713209
43	0x3c9f9fac	0.019485317
44	0x3e590db9	0.21196641
45	0x3e8e18d1	0.27753308
46	0xbeaaa113	-0.33326015
47	0x3d0d15c1	0.034444574
48	0x3d23e30b	0.040011447
49	0x3e13b8bd	0.14425941
50	0xbd17903a	-0.03700278
51	0x3cd22f62	0.02565736
52	0x3de47734	0.11155549
53	0xbd934d84	-0.07192519
54	0xbe35e96d	-0.17764826
55	0xbe21d69d	-0.15804525
56	0xbda56da8	-0.08077556
57	0xbd8d84d0	-0.069100976
58	0xbe272572	-0.16322878
59	0x3e1d790c	0.15378207
60	0xbeb6690a	-0.35627013
61	0xbdcf6d24	-0.10128239
62	0xbd22dbbc	-0.039760336
63	0xbd82b19f	-0.06381535
