server/model/formiga.onnx (onnx, 301496 bytes, 16 tensors)

fc.weight f4 [2, 256]
000000 98 ae 7c 80 bf d5 7c 80 a3 c9 65 80 e8 7a 68 80
       -1.1450234e-38 -1.1464279e-38 -9.347719e-39 -9.594982e-39
000010 15 4b 60 be 85 74 5c be 72 1f 37 be b5 ea 2d be
       -0.21903642 -0.21528824 -0.17883089 -0.16984065
000020 d7 b1 5f 00 33 0e 2c 00 88 59 32 80 2c 68 2f 00
       8.788169e-39 4.045856e-39 -4.623893e-39 4.353638e-39
000030 20 16 3a 00 79 85 3f 00 17 18 44 00 92 35 36 00
       5.334396e-39 5.833517e-39 6.253456e-39 4.978334e-39
000040 06 fa 3c 3e 27 3e 45 3e eb 04 25 3e df da 31 3e
       0.18454751 0.1926199 0.16115157 0.17368649
000050 5b 8c 4b 3e e0 04 5d 3e c7 c3 d5 3d 5d 44 e9 3d
       0.1987776 0.21583891 0.10437732 0.113899924
000060 86 b5 00 00 bb 91 02 80 a9 74 1e 00 8c 5d 19 00
       6.5118e-41 -2.35949e-40 2.796915e-39 2.329446e-39
000070 6d 3b 1c 00 d0 33 21 00 0f f7 24 00 f6 89 19 00
       2.592712e-39 3.049158e-39 3.394706e-39 2.345378e-39
000080 5e 50 64 3e 28 52 69 3e e1 7e 63 3e c4 d0 6b 3e
       0.22296283 0.22785246 0.22216369 0.23028857
000090 7e 9f 46 bd 22 eb 43 bd 09 6a 1a bd d3 40 14 bd
       -0.048491947 -0.047831662 -0.03769878 -0.036194634
0000a0 c3 45 0e 80 db 97 07 00 bf 54 09 80 9d aa 07 80
       -1.310723e-39 6.97324e-40 -8.5692e-40 -7.04053e-40
0000b0 4d 8a 08 00 01 2e 06 00 94 6e 02 80 78 1d 05 80
       7.84297e-40 5.67516e-40 -2.23339e-40 -4.69749e-40
0000c0 1c e3 1f 00 2f c0 13 00 b8 50 10 80 1d 19 26 80
       2.928372e-39 1.813817e-39 -1.498324e-39 -3.498758e-39
0000d0 3c 10 73 3d 56 c6 7a 3d 96 1e b2 3c fc ba ba 3c
       0.059341654 0.061224304 0.0217431 0.02279424
0000e0 14 0a 0d 3d db ab da 3c c1 31 33 3d 64 ec 0f 3d
       0.03443344 0.026693275 0.04374862 0.03513755
0000f0 a2 b2 86 80 1a c8 80 80 cc dc 8d 80 29 52 81 80
       -1.2370038e-38 -1.1826726e-38 -1.3028012e-38 -1.1876253e-38
000100 4b b6 3e 80 6a be 46 80 60 c6 23 81 73 f6 21 81
       -5.759195e-39 -6.496792e-39 -3.00807e-38 -2.9747848e-38
000110 ed d4 33 80 58 b7 33 80 c3 5f 36 80 fa d8 33 80
       -4.759994e-39 -4.749382e-39 -4.99347e-39 -4.761447e-39
000120 88 67 0e 00 ca 13 0c 00 f4 9f 0b 80 c8 dc 08 00
       1.322837e-39 1.109125e-39 -1.067571e-39 8.13885e-40
000130 70 42 06 00 54 57 0a 80 58 e3 4b 80 1a b2 6a 80
       5.74846e-40 -9.49682e-40 -6.969218e-39 -9.798453e-39
000140 6b 1c 0e 80 66 be 10 80 86 54 1c 80 ff f9 16 80
       -1.295891e-39 -1.53767e-39 -2.601715e-39 -2.110063e-39
000150 98 4a 01 80 93 3b 03 80 7c 56 06 00 c0 da 05 00
       -1.18595e-40 -2.96878e-40 5.82038e-40 5.3765e-40
000160 5b df 89 bc 5d 32 da bd 9b ea 31 3b d9 a0 c4 bd
       -0.016830137 -0.10654137 0.0027147892 -0.09600992
000170 6b e8 10 00 1f 06 05 00 99 04 11 80 d7 5d 08 00
       1.552744e-39 4.61373e-40 -1.562853e-39 7.68347e-40
000180 73 3f 05 80 e1 cf 00 00 90 4a 02 00 71 c3 14 80
       -4.81939e-40 7.4573e-41 2.10419e-40 -1.906821e-39
000190 af bd 6e 00 2a bf 69 80 c4 6f 62 00 4a 33 69 80
       1.016995e-38 -9.711304e-39 9.039973e-39 -9.661126e-39
0001a0 de cb 0b 00 b2 ba 0c 00 7e dd 0d 00 e1 72 0c 00
       1.083324e-39 1.169e-39 1.273318e-39 1.143237e-39
0001b0 c1 3e 18 80 7f 63 19 00 97 a6 1a 00 ea 49 16 00
       -2.226564e-39 2.33158e-39 2.447484e-39 2.046896e-39
0001c0 df cc 27 00 ca 6b 28 00 76 02 28 80 e6 53 29 80
       3.655078e-39 3.712087e-39 -3.674303e-39 -3.795352e-39
0001d0 26 ef 66 be 33 a4 83 be 2e 08 3a be 06 d0 61 be
       -0.22552165 -0.25711212 -0.18167183 -0.22052011
0001e0 84 dc bc 3d e4 6b c1 3d c7 c5 b7 3d 49 5a bb 3d
       0.092217475 0.09444407 0.0897327 0.0914808
0001f0 f0 36 02 80 43 b0 06 80 31 8a 09 80 3a 24 06 80
       -2.03379e-40 -6.14244e-40 -8.76093e-40 -5.64009e-40
000200 d7 6d 25 80 23 2b 1f 80 20 15 01 00 19 63 0b 80
       -3.437316e-39 -2.862375e-39 9.9414e-41 -1.04574e-39
000210 53 f6 43 00 ba 27 55 00 2b 24 40 00 f2 28 45 00
       6.241343e-39 7.820268e-39 5.890446e-39 6.351338e-39
000220 be 8c 22 00 7c 3d 1e 00 c5 37 26 00 24 fe 1f 00
       3.172896e-39 2.777121e-39 3.509755e-39 2.938069e-39
000230 79 04 f8 3d 36 17 ff 3d 61 4c ba 3c 79 ae 0b 3d
       0.12110228 0.12455599 0.022741498 0.034101937
000240 9d bf 11 80 0d 9c 16 80 66 90 16 80 5b 1b 12 80
       -1.629941e-39 -2.076361e-39 -2.072181e-39 -1.662852e-39
000250 6c 16 50 00 30 c6 4c 00 53 15 53 00 ed c1 4b 00
       7.354883e-39 7.050594e-39 7.629996e-39 6.95723e-39
000260 94 4d 10 00 48 93 12 00 8c 0e 11 00 fd 64 0e 00
       1.497198e-39 1.705873e-39 1.566422e-39 1.321925e-39
000270 a3 f9 28 3e 50 30 2d 3e 69 32 b5 3d 8f 02 ac 3d
       0.16501479 0.16912961 0.088475056 0.083989255
000280 7c 5c cf 3d 36 f0 e7 3d a7 32 d7 3d 95 eb ef 3d
       0.10125062 0.113251135 0.10507708 0.117148556
000290 98 4e 66 3e 0b 29 69 3e 75 2c ea 3d 4b 5a c7 3d
       0.22490919 0.22769563 0.11434261 0.09734019
0002a0 bd 93 7b bd ba e0 51 bd 0f dc 33 bd b4 9b d5 bc
       -0.06142019 -0.051239707 -0.043911036 -0.026075222
0002b0 ff 5a 0f 00 89 ff 15 00 7e 4d 09 00 72 66 0e 00
       1.410176e-39 2.020214e-39 8.54318e-40 1.322447e-39
0002c0 4a 08 5a 3e 94 ff 5b 3e 50 f9 51 3e 68 90 5e 3e
       0.21292225 0.21484214 0.20505261 0.21734774
0002d0 25 86 30 80 41 c8 0b 00 fd 1a 2b 80 09 5e 06 00
       -4.456226e-39 1.082028e-39 -3.958608e-39 5.84746e-40
0002e0 c8 22 5b be a4 fb d1 bd 1c 96 93 be 67 51 26 be
       -0.21399987 -0.10253075 -0.28825462 -0.1624199
0002f0 a3 fa 11 00 57 5c 0c 00 72 dc 05 80 d5 3c 0c 80
       1.651115e-39 1.135151e-39 -5.38258e-40 -1.123848e-39
000300 33 75 3e 00 fb 80 40 00 7b 6a 3e 00 9d b0 3c 00
       5.735844e-39 5.923741e-39 5.731999e-39 5.573487e-39
000310 6e 48 34 00 e1 57 36 00 7f 96 2f 80 f3 4a 30 80
       4.801429e-39 4.990642e-39 -4.370256e-39 -4.43499e-39
000320 cc fc 3a 00 34 1c 3a 00 84 c2 2e 00 60 5b 2c 00
       5.417145e-39 5.336576e-39 4.294212e-39 4.073541e-39
000330 d7 ab 3d 00 1a 4c 40 00 67 aa 36 00 be ca 35 00
       5.66361e-39 5.904772e-39 5.020246e-39 4.940011e-39
000340 e0 8e 00 00 6b 67 02 00 7e 80 03 00 9b 84 00 00
       5.1254e-41 2.2077e-40 3.21601e-40 4.757e-41
000350 90 8c bc 3d 36 6c bf 3d c9 01 b4 3d 2f e8 b9 3d
       0.09206498 0.093468115 0.08789403 0.09077489
000360 fc d2 13 be 20 71 29 be bf 31 11 be fd ee 1b be
       -0.14435953 -0.1654706 -0.14179133 -0.15227886
000370 66 5c 2e 80 f1 27 2e 80 de 18 2c 80 be 2e 2c 80
       -4.257579e-39 -4.238761e-39 -4.049682e-39 -4.05753e-39
000380 c6 48 13 80 44 7d 12 00 56 28 14 80 56 e1 18 00
       -1.77098e-39 1.697976e-39 -1.85118e-39 2.284887e-39
000390 c0 c8 a6 bd aa 29 3d bc 89 92 af bd 9b 51 46 bc
       -0.08143759 -0.011545578 -0.08572871 -0.012104417
0003a0 b3 e3 2a 80 36 54 29 80 12 39 39 80 93 72 2c 80
       -3.938774e-39 -3.795465e-39 -5.255096e-39 -4.081863e-39
0003b0 64 75 5c 80 b8 f4 58 80 8c 39 56 00 67 65 58 80
       -8.490977e-39 -8.169312e-39 7.918497e-39 -8.1179e-39
0003c0 be 3c 1a 3e 84 dc 23 3e c6 67 19 3e fa dc 21 3e
       0.15062234 0.16002089 0.14980993 0.15806952
0003d0 b6 af 21 00 71 14 22 00 a1 0b 13 80 de 9c 01 00
       3.093605e-39 3.12974e-39 -1.749046e-39 1.48109e-40
0003e0 3e 00 65 00 15 32 5f 00 97 be 62 00 3f 71 5c 00
       9.275472e-39 8.742338e-39 9.06825e-39 8.48949e-39
0003f0 c3 8d 45 80 5a 10 24 80 56 4d 43 80 26 31 23 80
       -6.387504e-39 -3.311944e-39 -6.180721e-39 -3.231874e-39

fc.bias f4 [2]
000000 00 50 9b 3a 55 94 56 3d
       0.0011849403 0.052387554

79 f4 [16, 3, 7, 7]
000000 27 fd 26 bc 19 c1 3e 3d f1 fb 10 3d 27 3c 84 3c
       -0.010192192 0.04657087 0.03539652 0.016141964
000010 93 b9 e5 bd 6b 53 5b bb be 41 0d bd 8c 80 c0 3c
       -0.11217036 -0.003346647 -0.034486525 0.023498796
000020 2c ed 0e 3d 5a 29 a0 3d f6 ad 49 3d 37 e0 b2 bc
       0.034894153 0.07820387 0.049238168 -0.02183543
000030 5b 91 37 ba 59 b5 c3 3d bb 9c 5a 3d 03 bb 24 3e
       -0.00070025556 0.09556074 0.053372126 0.16086964
000040 7c 3b 80 3e b6 63 7a 3e 57 d1 85 3e 41 41 4e 3e
       0.25045383 0.24452099 0.26136276 0.2014208
000050 80 83 2c 3e 96 a4 83 3d 20 6b 1f 3e cf 27 9e 3e
       0.16847038 0.06427877 0.15568209 0.30889747
000060 bb 42 85 3e a4 b4 03 3e c8 90 77 3c 33 36 8a 3c
       0.26027474 0.12861878 0.015110202 0.016871547
000070 2c c8 a1 3d 94 a3 a6 3c b9 8a 98 3d 50 43 11 be
       0.07899508 0.020341672 0.07448334 -0.14185834
000080 69 65 2e be 06 9b 36 be 42 a2 06 be 79 a8 2a 3d
       -0.17030872 -0.17832574 -0.13147834 0.041664574
000090 8b 7b 2a bd 1d 54 dc bd ab 70 b8 be 4f bc cf be
       -0.041621726 -0.10758231 -0.3602346 -0.40573356
0000a0 c1 ca b7 be e5 e0 5d be c2 7c 71 3d 36 db db 3c
       -0.35896876 -0.21667822 0.05895687 0.026837926
0000b0 ca cc 04 be 3d 78 5d be 46 1b 84 be c0 c8 86 be
       -0.12968746 -0.21627899 -0.25802058 -0.26325035
0000c0 5c 11 19 be 1e 63 75 bc ac 29 62 bc 55 56 ff bd
       -0.14948028 -0.014977245 -0.013803881 -0.124676384
0000d0 d7 0f 17 bd 91 8a a4 bd 18 d6 96 bd fe c0 24 bd
       -0.03688034 -0.08034242 -0.07365054 -0.040223114
0000e0 d4 f5 1f 3b 18 bd 87 3b dc 7b 0d 3c a2 bc 0b be
       0.0024408 0.004142415 0.008635487 -0.13646176
0000f0 6a 21 8a bb ec b9 ff bd da 6b a3 3d 24 9d 71 3d
       -0.004215409 -0.12486634 0.079795554 0.05898775
000100 78 8b 84 3c ba b7 74 bd f3 e5 34 3d b2 d8 aa bd
       0.016179785 -0.059745528 0.04416461 -0.083421126
000110 36 a2 17 be 72 2e 34 bb 5a 1c 8d ba 09 9b db 3a
       -0.14807972 -0.0027493504 -0.0010765896 0.0016754578
000120 07 69 15 3e a3 aa 65 3d c3 25 b0 bc f7 b0 43 bd
       0.14590846 0.056070935 -0.021502381 -0.04777619
000130 4a 3f fc bd 29 36 4d 3d 43 1c b9 3d fa 74 ab 3c
       -0.12316759 0.05010048 0.090385936 0.020929802
000140 50 19 d6 3d aa 9f 09 3e 8c e4 8e bc e9 1f 55 3c
       0.10454047 0.13439813 -0.017442964 0.013008096
000150 74 b8 7f 3d 2e fa 34 bc 1b 3e 81 bc 2d ab 54 bd
       0.062431768 -0.011045976 -0.015776685 -0.05192106
000160 3b 2a 91 bd 99 78 a0 bd 6f 1f af bd b0 d5 4d 3c
       -0.07088133 -0.07835502 -0.08550917 0.012563154
000170 23 a2 9d 3d 6c d4 e2 3d 86 57 0c 3e 2a f5 12 3e
       0.07696941 0.110756725 0.13705263 0.14351335
000180 db 4d 5f 3d ac 91 5e 3d 22 19 15 be c3 a8 55 b8
       0.054517608 0.054338142 -0.14560369 -5.094033e-05
000190 5d 8c 44 3d e9 80 20 3e 5d bf f5 3d b6 75 ee 3d
       0.047985423 0.15674175 0.1199939 0.11643545
0001a0 42 be 3f 3e 56 11 45 bd 47 1e f3 bc 5b ff d8 bc
       0.18724921 -0.048112236 -0.029677523 -0.02648895
0001b0 4c d4 09 3d 9b e6 0e 3d 34 f7 55 3d 43 2a a5 3d
       0.033649728 0.03488789 0.052237704 0.080647014
0001c0 79 1e 01 bd c3 54 aa bd a7 0d b0 bd ff 5a 5a bc
       -0.0315232 -0.08316948 -0.08596354 -0.013327359
0001d0 74 41 97 3d 95 6a 93 3d 79 54 86 3c cf f0 91 bd
       0.07385531 0.07198063 0.016397702 -0.07126009
0001e0 b9 10 98 bd 58 91 42 bc 28 40 65 3d fe 11 37 3d
       -0.074250646 -0.011875473 0.055969387 0.044694893
0001f0 b0 6b 6f bc 7e 33 98 bc a4 b7 05 3c 43 66 7b 3c
       -0.014613077 -0.01857924 0.008161459 0.015344205
000200 42 5a 6d 3d c1 c8 41 3d eb 29 22 3d 00 44 1c 3d
       0.057947405 0.047310594 0.039590757 0.038150787
000210 52 8a 0c bd 9e 10 c0 3d 9d cf c6 bc f0 81 e0 3c
       -0.0343116 0.093781695 -0.02426892 0.027405709
000220 7a cc 80 3d 51 f0 9c bc d4 e2 8c bd 60 62 eb bd
       0.06289001 -0.01915756 -0.068792015 -0.11493373
000230 78 01 13 3e 48 43 34 3e 19 16 60 3e 06 ad f4 3d
       0.14356029 0.17603791 0.2188343 0.11947064
000240 42 c8 9e 3d 7d 04 67 39 3d f7 19 bd b9 21 d2 3c
       0.0775304 0.00022031549 -0.0375893 0.025650846
000250 f2 6c 25 3d d5 eb 16 3d fb 03 6b 3c 3b 6c 90 bc
       0.0403871 0.036846 0.014344211 -0.017629733
000260 65 4d 1c bb b1 e4 b5 3c 80 7d 7c bc 9e c3 2a 3c
       -0.0023849842 0.022203775 -0.015410781 0.010422615
000270 97 ab 3a bc 9c db dc bc dc 3f 15 bd dd 81 f5 bc
       -0.011393449 -0.026960187 -0.036437854 -0.02996915
000280 3d 8b c7 bc 36 ea 05 bd 05 fb 0c bd 54 f6 03 bd
       -0.024358386 -0.032694064 -0.03441908 -0.03221734
000290 ec a1 2c bd be fb 83 bd cc 78 a7 bd f9 5d 82 bd
       -0.04214661 -0.064445004 -0.08177337 -0.0636558
0002a0 41 4a fd ba 71 36 ab bc a3 10 54 bc 06 d8 f3 bc
       -0.0019324498 -0.020899983 -0.01294342 -0.029766094
0002b0 79 f3 8d bd 33 67 87 bd fb 4d 06 bd d8 2e b1 3a
       -0.06931204 -0.066114806 -0.03278921 0.0013517989
0002c0 65 93 cb bb 89 c8 96 bb 34 94 e9 bc 11 c3 a3 bd
       -0.006212639 -0.0046015424 -0.028513052 -0.0799619
0002d0 16 77 8e bd f3 f9 0d bd fa 20 38 bc e6 eb 7f bc
       -0.069563076 -0.0346622 -0.011238331 -0.015620207
0002e0 26 b1 13 bc f6 ae 32 bc 8c 77 02 bd b1 64 32 bd
       -0.009014403 -0.010905972 -0.03185229 -0.043553058
0002f0 b2 cd 3e bd 49 77 a6 bc 02 28 88 bb 31 83 e9 3c
       -0.046582885 -0.020320551 -0.00415516 0.02850494
000300 d2 f0 03 3c 4e da 52 3b f1 b3 82 bb 5d 45 78 bc
       0.0080530215 0.0032173577 -0.003988736 -0.015153256
000310 0f 61 64 bd 27 b1 5b bd e3 3c 6b bd 2f 30 83 bd
       -0.055756625 -0.053635743 -0.057431113 -0.06405675
000320 10 3d a6 bd ef 0a 90 bd d5 05 3c bd cb 40 32 bd
       -0.081171155 -0.070333354 -0.045904 -0.043518823
000330 49 fb 49 bd d0 bc 86 bd 7f 0e 5e bd 6e 2b 57 bd
       -0.04931191 -0.06578982 -0.054213043 -0.052531652
000340 e7 1a 3e bd ab 8d 13 bd 3e d9 c1 bc 2d 79 50 bd
       -0.046412375 -0.036023777 -0.02366316 -0.050896812
000350 b3 5e 64 bd ea ed 1f bd 64 ba 0d bd b3 02 0e bd
       -0.055754375 -0.039045252 -0.034601584 -0.034670543
000360 be fc 93 bc 72 e4 f5 3c 6a 49 8d 3b 7b 79 bb 3c
       -0.018064853 0.030016158 0.00431173 0.022885075
000370 6d 99 ec 3c 9a 56 46 3c d2 bc d6 3c da d8 4c 3d
       0.028881753 0.012105608 0.026213083 0.050011493
000380 49 93 7b 3d 77 eb 86 3d f7 99 9f 3d 4e 14 8a 3d
       0.06141976 0.0658788 0.07793038 0.06742154
000390 e5 88 09 3d f9 84 20 3d 82 ae 7e 3d 54 00 72 3d
       0.03357782 0.039189313 0.062178142 0.059082344
0003a0 a7 7e a2 3d 27 f6 dc 3d 0e 80 df 3d a8 2a 91 3d
       0.07934313 0.10789137 0.10913096 0.07088214
0003b0 91 e3 1a 3d c3 78 22 3d 9b da 4e 3d 02 e4 9c 3d
       0.03781468 0.03966595 0.050501447 0.076606765
0003c0 82 46 f3 3d 8b 99 eb 3d 35 a4 ab 3d 27 65 24 3d
       0.11878683 0.11503895 0.083809294 0.04013553
0003d0 77 2c 38 3c 6e 41 1c 3d 30 f5 6a 3d f6 36 80 3d
       0.01124107 0.038148336 0.057362735 0.06260483
0003e0 97 0d 32 3d 83 53 58 39 3d b6 14 3c 92 bb e3 3b
       0.04346999 0.00020630476 0.009076652 0.0069498504
0003f0 70 b4 86 3d d8 5f ce 3d 17 f7 de 3d 09 49 d5 3d
       0.065773845 0.100768745 0.108869724 0.10414321

80 f4 [16]
000000 9a 48 80 be da ca 90 be 38 a4 cc 3e 2c 00 c3 3d
       -0.2505539 -0.28279763 0.3996904 0.09521517
000010 a1 f3 cd 3e b0 fe d1 3c 8b 35 e9 3d 12 ad 28 80
       0.40224937 0.02563414 0.11387166 -3.735506e-39
000020 85 1c 85 bd 7c b7 7b be fe 46 16 3d f0 fd 07 3f
       -0.0649958 -0.24581712 0.036688797 0.5312185
000030 b8 13 05 bf b2 06 22 3e 3a dd dd 3d a4 35 ce 3e
       -0.51983213 0.15822867 0.10833211 0.402753

82 f4 [32, 16, 3, 3]
000000 00 00 00 00 00 00 00 00 00 00 00 00 00 00 00 00
       0.0 0.0 0.0 0.0
000010 00 00 00 00 00 00 00 00 00 00 00 00 00 00 00 00
       0.0 0.0 0.0 0.0
000020 00 00 00 00 00 00 00 80 00 00 00 80 00 00 00 80
       0.0 -0.0 -0.0 -0.0
000030 00 00 00 00 00 00 00 80 00 00 00 80 00 00 00 00
       0.0 -0.0 -0.0 0.0
000040 00 00 00 00 00 00 00 80 00 00 00 00 00 00 00 80
       0.0 -0.0 0.0 -0.0
000050 00 00 00 80 00 00 00 00 00 00 00 00 00 00 00 80
       -0.0 0.0 0.0 -0.0
000060 00 00 00 00 00 00 00 00 00 00 00 80 00 00 00 00
       0.0 0.0 -0.0 0.0
000070 00 00 00 00 00 00 00 00 00 00 00 80 00 00 00 80
       0.0 0.0 -0.0 -0.0
000080 00 00 00 00 00 00 00 00 00 00 00 00 00 00 00 00
       0.0 0.0 0.0 0.0
000090 00 00 00 00 00 00 00 80 00 00 00 80 00 00 00 80
       0.0 -0.0 -0.0 -0.0
0000a0 00 00 00 80 00 00 00 80 00 00 00 00 00 00 00 80
       -0.0 -0.0 0.0 -0.0
0000b0 00 00 00 80 00 00 00 00 00 00 00 00 00 00 00 00
       -0.0 0.0 0.0 0.0
0000c0 00 00 00 80 00 00 00 80 00 00 00 00 00 00 00 80
       -0.0 -0.0 0.0 -0.0
0000d0 00 00 00 80 00 00 00 80 00 00 00 00 00 00 00 80
       -0.0 -0.0 0.0 -0.0
0000e0 00 00 00 80 00 00 00 00 00 00 00 00 00 00 00 80
       -0.0 0.0 0.0 -0.0
0000f0 00 00 00 00 00 00 00 00 00 00 00 00 00 00 00 80
       0.0 0.0 0.0 -0.0
000100 00 00 00 80 00 00 00 00 00 00 00 00 00 00 00 00
       -0.0 0.0 0.0 0.0
000110 00 00 00 00 00 00 00 80 00 00 00 00 00 00 00 00
       0.0 -0.0 0.0 0.0
000120 00 00 00 80 00 00 00 80 00 00 00 80 00 00 00 80
       -0.0 -0.0 -0.0 -0.0
000130 00 00 00 80 00 00 00 80 00 00 00 80 00 00 00 80
       -0.0 -0.0 -0.0 -0.0
000140 00 00 00 80 00 00 00 80 00 00 00 80 00 00 00 80
       -0.0 -0.0 -0.0 -0.0
000150 00 00 00 80 00 00 00 80 00 00 00 80 00 00 00 80
       -0.0 -0.0 -0.0 -0.0
000160 00 00 00 80 00 00 00 80 00 00 00 00 00 00 00 00
       -0.0 -0.0 0.0 0.0
000170 00 00 00 00 00 00 00 00 00 00 00 00 00 00 00 00
       0.0 0.0 0.0 0.0
000180 00 00 00 00 00 00 00 00 00 00 00 00 00 00 00 00
       0.0 0.0 0.0 0.0
000190 00 00 00 00 00 00 00 00 00 00 00 80 00 00 00 00
       0.0 0.0 -0.0 0.0
0001a0 00 00 00 00 00 00 00 80 00 00 00 80 00 00 00 80
       0.0 -0.0 -0.0 -0.0
0001b0 00 00 00 00 00 00 00 00 00 00 00 00 00 00 00 80
       0.0 0.0 0.0 -0.0
0001c0 00 00 00 80 00 00 00 80 00 00 00 00 00 00 00 80
       -0.0 -0.0 0.0 -0.0
0001d0 00 00 00 80 00 00 00 00 00 00 00 80 00 00 00 80
       -0.0 0.0 -0.0 -0.0
0001e0 00 00 00 00 00 00 00 80 00 00 00 80 00 00 00 00
       0.0 -0.0 -0.0 0.0
0001f0 00 00 00 80 00 00 00 80 00 00 00 80 00 00 00 80
       -0.0 -0.0 -0.0 -0.0
000200 00 00 00 80 00 00 00 80 00 00 00 80 00 00 00 80
       -0.0 -0.0 -0.0 -0.0
000210 00 00 00 00 00 00 00 80 00 00 00 80 00 00 00 00
       0.0 -0.0 -0.0 0.0
000220 00 00 00 00 00 00 00 00 00 00 00 00 00 00 00 00
       0.0 0.0 0.0 0.0
000230 00 00 00 00 00 00 00 80 00 00 00 00 00 00 00 00
       0.0 -0.0 0.0 0.0
000240 00 00 00 00 00 00 00 80 00 00 00 80 00 00 00 80
       0.0 -0.0 -0.0 -0.0
000250 00 00 00 00 00 00 00 80 00 00 00 00 00 00 00 00
       0.0 -0.0 0.0 0.0
000260 00 00 00 00 00 00 00 80 00 00 00 00 00 00 00 80
       0.0 -0.0 0.0 -0.0
000270 00 00 00 00 00 00 00 80 00 00 00 80 00 00 00 00
       0.0 -0.0 -0.0 0.0
000280 00 00 00 80 00 00 00 00 00 00 00 00 00 00 00 00
       -0.0 0.0 0.0 0.0
000290 00 00 00 00 00 00 00 00 00 00 00 00 00 00 00 00
       0.0 0.0 0.0 0.0
0002a0 00 00 00 00 00 00 00 00 00 00 00 00 00 00 00 00
       0.0 0.0 0.0 0.0
0002b0 00 00 00 00 00 00 00 80 00 00 00 00 00 00 00 00
       0.0 -0.0 0.0 0.0
0002c0 00 00 00 00 00 00 00 00 00 00 00 80 00 00 00 80
       0.0 0.0 -0.0 -0.0
0002d0 00 00 00 00 00 00 00 00 00 00 00 00 00 00 00 00
       0.0 0.0 0.0 0.0
0002e0 00 00 00 00 00 00 00 00 00 00 00 00 00 00 00 00
       0.0 0.0 0.0 0.0
0002f0 00 00 00 00 00 00 00 00 00 00 00 00 00 00 00 00
       0.0 0.0 0.0 0.0
000300 00 00 00 00 00 00 00 80 00 00 00 00 00 00 00 00
       0.0 -0.0 0.0 0.0
000310 00 00 00 00 00 00 00 00 00 00 00 00 00 00 00 00
       0.0 0.0 0.0 0.0
000320 00 00 00 00 00 00 00 00 00 00 00 00 00 00 00 00
       0.0 0.0 0.0 0.0
000330 00 00 00 00 00 00 00 00 00 00 00 00 00 00 00 80
       0.0 0.0 0.0 -0.0
000340 00 00 00 00 00 00 00 00 00 00 00 80 00 00 00 00
       0.0 0.0 -0.0 0.0
000350 00 00 00 00 00 00 00 00 00 00 00 00 00 00 00 80
       0.0 0.0 0.0 -0.0
000360 00 00 00 80 00 00 00 80 00 00 00 00 00 00 00 80
       -0.0 -0.0 0.0 -0.0
000370 00 00 00 00 00 00 00 00 00 00 00 80 00 00 00 00
       0.0 0.0 -0.0 0.0
000380 00 00 00 00 00 00 00 80 00 00 00 80 00 00 00 00
       0.0 -0.0 -0.0 0.0
000390 00 00 00 00 00 00 00 00 00 00 00 80 00 00 00 00
       0.0 0.0 -0.0 0.0
0003a0 00 00 00 00 00 00 00 00 00 00 00 00 00 00 00 00
       0.0 0.0 0.0 0.0
0003b0 00 00 00 80 00 00 00 00 00 00 00 80 00 00 00 80
       -0.0 0.0 -0.0 -0.0
0003c0 00 00 00 00 00 00 00 00 00 00 00 00 00 00 00 80
       0.0 0.0 0.0 -0.0
0003d0 00 00 00 80 00 00 00 80 00 00 00 00 00 00 00 80
       -0.0 -0.0 0.0 -0.0
0003e0 00 00 00 00 00 00 00 00 00 00 00 80 00 00 00 80
       0.0 0.0 -0.0 -0.0
0003f0 00 00 00 80 00 00 00 80 00 00 00 80 00 00 00 80
       -0.0 -0.0 -0.0 -0.0

83 f4 [32]
000000 41 ea 23 80 b9 d6 07 80 c2 b0 16 3e 92 a9 c9 3d
       -3.298277e-39 -7.19876e-40 0.14715865 0.09846796
000010 f0 7b 26 80 82 b4 b2 3e 38 5a 80 3c 20 20 3e 3e
       -3.534209e-39 0.34903342 0.01566802 0.18566942
000020 80 a4 06 bb 20 37 0c 80 cd 07 11 80 56 70 0b 80
       -0.0020544827 -1.121801e-39 -1.564002e-39 -1.050489e-39
000030 ee f2 15 80 68 56 64 3d a6 5f 61 bd 52 74 17 be
       -2.015692e-39 0.055746466 -0.055022858 -0.14790466
000040 01 bd 15 80 58 72 01 80 50 17 17 80 ec 07 53 80
       -1.996347e-39 -1.32854e-40 -2.12058e-39 -7.625188e-39
000050 a3 01 0b 80 eb b0 40 80 0c a5 9c bc 36 00 8e bd
       -1.010778e-39 -5.940938e-39 -0.01912167 -0.06933634
000060 d7 91 03 be 1b d9 27 80 75 1d 97 3d a1 28 80 3d
       -0.12848602 -3.659467e-39 0.07378665 0.06257749
000070 f5 71 bb 3d d7 52 1b 80 27 f0 24 80 0d e8 3c 80
       0.09152595 -2.509276e-39 -3.392228e-39 -5.593374e-39

85 f4 [32, 32, 3, 3]
000000 4c 0a c7 00 2a af 11 00 e5 84 a7 00 33 f7 28 01
       1.8278958e-38 1.62404e-39 1.5384201e-38 3.1034083e-38
000010 1f 14 13 01 c9 00 76 80 fe 0e 98 00 bb 3e 1d 81
       2.7014072e-38 -1.083687e-38 1.3964374e-38 -2.8881353e-38
000020 0d 20 42 80 19 8a 97 00 15 cb 0d 80 16 0c 53 80
       -6.07264e-39 1.39167e-38 -1.266714e-39 -7.626682e-39
000030 3b 68 81 00 30 d1 51 80 ad b2 04 80 09 fe 09 00
       1.188417e-38 -7.513718e-39 -4.31439e-40 9.1765e-40
000040 d8 3c 85 00 a0 be 2d 00 0f dd 72 bb bd 9a cc bd
       1.2235948e-38 4.20098e-39 -0.003705803 -0.099904515
000050 99 0a ea bd 95 f3 95 3c 6d 6f cd bd 08 88 02 be
       -0.114278026 0.018304626 -0.100310184 -0.12747204
000060 8b f1 17 be 05 c3 6e be 56 ed 9d be 5b 33 8a 3d
       -0.14838235 -0.23316582 -0.30845135 0.067480765
000070 0f 15 e5 3c fd 9a a5 bc 31 02 62 3b bd 34 fb bb
       0.027964143 -0.020215506 0.003448617 -0.007666199
000080 fb 5c 90 bb 39 64 b8 bb 39 d4 6c 3c a1 77 23 3d
       -0.0044056154 -0.005627182 0.014454895 0.03990901
000090 7b fe 0a 80 0d 6b 19 80 a7 2a 18 80 d4 ba 81 80
       -1.009645e-39 -2.33429e-39 -2.219353e-39 -1.19138e-38
0000a0 4c 8d 6c 80 30 93 79 00 d1 23 71 80 2e c5 63 80
       -9.968921e-39 1.1164896e-38 -1.039026e-38 -9.162449e-39
0000b0 32 18 75 80 02 de 22 3e 00 d0 e7 3b 95 59 9f 3d
       -1.0753433e-38 0.15905002 0.007074356 0.07780758
0000c0 5b 51 af 3b 65 4f 31 be 9f 02 5f bd 5a 92 9a bd
       0.0053502745 -0.17315443 -0.05444586 -0.075474456
0000d0 64 3b 33 bd d1 6e ca 3d ea e6 f1 bd d6 7c 0c bd
       -0.04375781 0.09884418 -0.118116215 -0.03429874
0000e0 72 13 56 be fe 7d 1a 3e e2 06 00 3e 0f 33 c0 bd
       -0.20905855 0.15087125 0.12502626 -0.09384739
0000f0 26 3f 88 3e 38 7d 5f 3e 8e cc 87 3d cf 39 eb bc
       0.26610678 0.21825111 0.066308126 -0.028714089
000100 80 1b 84 3c 80 8a 04 3d 07 f9 ed bd 49 d6 d6 3c
       0.016126394 0.032358646 -0.11619764 0.026225226
000110 e8 13 8d 3c f3 e7 3d be fe 74 2b be e6 52 26 be
       0.017221406 -0.18545513 -0.16743848 -0.1624256
000120 d2 01 84 bb 81 70 23 bd 66 d1 74 bc 36 99 aa bd
       -0.0040285373 -0.039902214 -0.014942503 -0.08330004
000130 a6 f3 9c bd c4 aa 58 bd 97 03 6a bd 84 03 81 bd
       -0.0766366 -0.05289723 -0.05713233 -0.06299499
000140 d4 e3 80 bd 3c 74 0c 00 79 61 ae 00 1d ed 58 00
       -0.06293455 1.143723e-39 1.6014343e-38 8.166584e-39
000150 41 85 5d 00 f1 9f 5b 00 b9 08 2e 80 a8 c8 68 80
       8.588504e-39 8.414406e-39 -4.227562e-39 -9.622873e-39
000160 67 28 5b 00 d6 7e 16 00 4e 77 d5 00 53 4d 42 80
       8.371524e-39 2.065881e-39 1.9603759e-38 -6.088881e-39
000170 55 c7 00 80 ac e9 d0 80 97 92 36 00 f6 ce 21 80
       -7.1507e-41 -1.9185609e-38 5.011703e-39 -3.104815e-39
000180 da 91 88 00 e1 68 72 00 2a 09 a9 80 e5 0d 2d 80
       1.2541949e-38 1.050687e-38 -1.5523486e-38 -4.137582e-39
000190 21 d4 96 80 7b 69 3b 80 ab e2 cc 80 ab a2 5a 00
       -1.3851422e-38 -5.456134e-39 -1.8815754e-38 8.323549e-39
0001a0 3c dd 64 00 30 10 b7 00 41 a2 2c 00 b8 c9 80 00
       9.262914e-39 1.6811703e-38 4.098968e-39 1.1827307e-38
0001b0 6f c0 e2 00 9d bd 79 00 c6 16 65 00 c1 91 43 00
       2.0823854e-38 1.1180115e-38 9.283555e-39 6.205265e-39
0001c0 63 8b ce 00 3a 58 29 80 7e f5 75 80 4a 31 0d 00
       1.8968115e-38 -3.796905e-39 -1.0832819e-38 1.211543e-39
0001d0 85 ef 02 01 d5 41 cc bd 2f 15 e4 bd 2d e4 5d bd
       2.4049076e-38 -0.09973494 -0.11136853 -0.054172684
0001e0 52 3e 1b bd b6 56 b3 bd 21 93 85 bd 79 3d a1 3d
       -0.03790123 -0.08756773 -0.06522203 0.07873053
0001f0 2e c1 26 bd dd 79 fb bb 0d 16 76 bc 46 c5 83 3d
       -0.040711574 -0.0076744393 -0.015019906 0.06434111
000200 7c ae a8 3d 09 fe 2e be 55 a3 06 be 50 aa 9a bd
       0.08236405 -0.17089094 -0.13148244 -0.07552016
000210 75 6d 4a bd 85 b8 41 bd c4 46 85 bd 1f 9e d3 bd
       -0.049420793 -0.047295112 -0.06507638 -0.103328936
000220 c7 b1 c6 bd 9d 72 d3 bd 05 cd 0e be c8 86 8b bd
       -0.09701877 -0.10324595 -0.13945396 -0.06812817
000230 cc 39 90 bd e4 b3 4b be 5e bb 73 bd dd b1 2c 3c
       -0.07042274 -0.19892842 -0.05950486 0.010540453
000240 55 60 3d 02 12 e0 35 02 83 a8 30 00 fd 50 b3 81
       1.3913173e-37 1.3362085e-37 4.468554e-39 -6.587043e-38
000250 b6 56 3c 80 ca 08 e0 81 5e fa 69 80 6a aa b2 81
       -5.541236e-39 -8.2297216e-38 -9.732542e-39 -6.5631405e-38
000260 92 9f 77 81 6e e6 96 00 26 90 8f 80 c2 bc 10 80
       -4.548122e-38 1.3857987e-38 -1.3184187e-38 -1.537081e-39
000270 cd ba 1c 81 fe 30 98 80 64 c5 17 00 14 60 69 00
       -2.8786698e-38 -1.397657e-38 2.183027e-39 9.677193e-39
000280 ee 51 d1 80 b6 5b a5 80 23 1a 12 00 e5 a1 1e 80
       -1.922301e-38 -1.5185757e-38 1.662415e-39 -2.813142e-39
000290 67 47 42 80 e2 ee 4b 00 d7 df 36 00 01 ea 25 00
       -6.086757e-39 6.973357e-39 5.039415e-39 3.481858e-39
0002a0 19 b1 00 80 b3 0b 77 00 4e 52 3a 00 02 b7 37 00
       -6.353e-41 1.0932621e-38 5.355984e-39 5.116603e-39
0002b0 0e 79 99 00 4d 7a 97 00 39 99 b4 80 94 0c dc 00
       1.4094257e-38 1.3911033e-38 -1.6585355e-38 2.0208321e-38
0002c0 68 bc bb 00 1d 63 e1 80 1f 8c f4 00 4e 27 e6 00
       1.7240825e-38 -2.0698542e-38 2.2458127e-38 2.1136264e-38
0002d0 e0 46 c3 80 9d 6b b5 00 7b 3b 02 80 49 be 0b 00
       -1.7933347e-38 1.6660829e-38 -2.05009e-40 1.078452e-39
0002e0 3d e1 6a 80 5c cc 1e 00 72 44 25 80 8d 43 08 00
       -9.815363e-39 2.828375e-39 -3.422467e-39 7.58917e-40
0002f0 24 c0 c1 80 ee f5 de 00 61 25 0e 01 13 51 de 00
       -1.7793178e-38 2.0475703e-38 2.61081e-38 2.0416564e-38
000300 dc d9 f8 00 f9 d0 13 01 89 a6 19 00 89 1a e5 00
       2.2853356e-38 2.7149566e-38 2.355629e-39 2.1039848e-38
000310 72 8e 31 80 e9 c7 57 00 8a 58 36 3e 6c c0 53 3e
       -4.551039e-39 8.061402e-39 0.17807212 0.20678872
000320 12 a2 10 bc 0d c3 77 3e 84 d2 f8 3d 4a af ae bc
       -0.008827703 0.241955 0.12149528 -0.021323819
000330 02 7a 78 be 49 cc a9 be 2e 4a f8 be 22 ef 45 be
       -0.24265292 -0.3316367 -0.48494095 -0.19329503
000340 e9 c3 14 bd 57 5f bb 3d c7 e2 e6 bd cd bb 4e bd
       -0.036319647 0.09149044 -0.11273723 -0.05047207
000350 29 57 07 3e 6b 25 74 bc 44 97 a9 bd 89 1f bb 3d
       0.13216843 -0.014901499 -0.08280805 0.09136874
000360 53 43 8d be c6 33 29 be 9e 64 cf bd 8a 81 1c be
       -0.27590427 -0.16523656 -0.10126613 -0.1528379
000370 2b 55 e9 bd f4 46 a1 bd 68 45 9c bd e5 4f cf bd
       -0.113931976 -0.07874861 -0.07630426 -0.101226605
000380 f8 52 ad bd 29 6e a2 00 65 61 e2 02 da 98 58 00
       -0.08463091 1.4916868e-38 3.3263617e-37 8.136356e-39
000390 ea 00 d8 80 73 3f 0a 03 ce e5 ce 82 44 5e ce 80
       -1.9836795e-38 4.062739e-37 -3.040088e-37 -1.8951928e-38
0003a0 c5 88 87 00 56 51 27 01 83 66 f2 3d 16 ef a7 3c
       1.2446856e-38 3.073141e-38 0.11835959 0.020499747
0003b0 48 7c e3 bd 7b 82 bb 3c 14 8e bd 3c c4 c4 38 bd
       -0.11107689 0.022889366 0.023139037 -0.045109525
0003c0 02 f3 0f 3c 11 a4 3f bc 2a 49 06 bd 54 be 11 bd
       0.008785965 -0.011696831 -0.03278462 -0.0355819
0003d0 dc 49 e1 bd 01 ce 13 be 6e 65 a3 3d 72 64 99 bc
       -0.11000416 -0.14434053 0.079783306 -0.018724654
0003e0 61 57 81 bd 86 09 22 3e 12 f1 27 bd 78 c6 d1 bd
       -0.06315494 0.15823945 -0.041001387 -0.10242933
0003f0 6e 9a 75 3e ad 80 48 3e 03 3c 35 3e 16 95 86 be
       0.23984692 0.19580336 0.17698674 -0.2628562

86 f4 [32]
000000 49 28 74 3e 42 ce 0c 80 cd df 18 80 2c 49 03 80
       0.23843493 -1.176017e-39 -2.284337e-39 -3.01756e-40
000010 c6 81 14 80 f9 47 05 80 06 1e ef 3d e3 17 0a 80
       -1.883264e-39 -4.84996e-40 0.116756484 -9.26924e-40
000020 52 fd 76 bd 80 80 3b 80 cc d7 08 80 5c 68 ce bc
       -0.06030018 -5.464391e-39 -8.12097e-40 -0.025196247
000030 0a bc 66 3d ff 21 15 80 f2 44 a1 3d 44 20 c7 be
       0.05633167 -1.940741e-39 0.078744784 -0.38891804
000040 23 08 15 80 24 6e 8c be 8c a7 06 80 8f 27 06 80
       -1.931464e-39 -0.2742778 -6.11117e-40 -5.65204e-40
000050 94 ed fe 3d 0e e3 bc bd 22 9d 8b be f5 cd 0f 80
       0.12447658 -0.09222995 -0.2726832 -1.451416e-39
000060 bf b9 ad 3d 55 aa 09 bd e2 7f 15 80 27 5a 14 80
       0.08482694 -0.033609707 -1.974421e-39 -1.86905e-39
000070 43 d2 27 80 6a af 15 3e 78 4b e7 bb c6 d5 d1 3c
       -3.657012e-39 0.14617696 -0.007058557 0.02561463

88 f4 [32, 16, 1, 1]
000000 26 65 2b 3d d6 4f b6 bd 54 a4 5a be c3 38 58 3b
       0.04184451 -0.08901946 -0.21351749 0.0032992817
000010 7d 5f 73 3e 76 ed 4a bc a6 15 19 3e 85 b8 29 00
       0.23766895 -0.012385717 0.14949664 3.831448e-39
000020 cb c0 07 3e c0 1d 3e be a0 3d 38 3c ca a1 6f 3e
       0.13257138 -0.18566036 0.011245161 0.23401561
000030 11 ac 65 3c a3 33 8d 3d 32 e8 f3 bd 39 4b 36 3e
       0.014018075 0.068946145 -0.11909522 0.17802133
000040 00 00 00 80 00 00 00 80 00 00 00 80 00 00 00 00
       -0.0 -0.0 -0.0 0.0
000050 00 00 00 80 00 00 00 00 00 00 00 00 00 00 00 80
       -0.0 0.0 0.0 -0.0
000060 00 00 00 00 00 00 00 80 00 00 00 80 00 00 00 80
       0.0 -0.0 -0.0 -0.0
000070 00 00 00 80 00 00 00 00 00 00 00 80 00 00 00 00
       -0.0 0.0 -0.0 0.0
000080 00 00 00 00 00 00 00 80 00 00 00 00 00 00 00 00
       0.0 -0.0 0.0 0.0
000090 00 00 00 00 00 00 00 00 00 00 00 80 00 00 00 00
       0.0 0.0 -0.0 0.0
0000a0 00 00 00 80 00 00 00 00 00 00 00 00 00 00 00 00
       -0.0 0.0 0.0 0.0
0000b0 00 00 00 00 00 00 00 80 00 00 00 80 00 00 00 80
       0.0 -0.0 -0.0 -0.0
0000c0 00 00 00 80 00 00 00 80 00 00 00 80 00 00 00 80
       -0.0 -0.0 -0.0 -0.0
0000d0 00 00 00 80 00 00 00 00 00 00 00 80 00 00 00 00
       -0.0 0.0 -0.0 0.0
0000e0 00 00 00 80 00 00 00 00 00 00 00 80 00 00 00 00
       -0.0 0.0 -0.0 0.0
0000f0 00 00 00 00 00 00 00 80 00 00 00 00 00 00 00 80
       0.0 -0.0 0.0 -0.0
000100 00 00 00 80 00 00 00 00 00 00 00 00 00 00 00 80
       -0.0 0.0 0.0 -0.0
000110 00 00 00 00 00 00 00 80 00 00 00 00 00 00 00 80
       0.0 -0.0 0.0 -0.0
000120 00 00 00 80 00 00 00 00 00 00 00 80 00 00 00 00
       -0.0 0.0 -0.0 0.0
000130 00 00 00 80 00 00 00 00 00 00 00 80 00 00 00 80
       -0.0 0.0 -0.0 -0.0
000140 00 00 00 00 00 00 00 00 00 00 00 00 00 00 00 00
       0.0 0.0 0.0 0.0
000150 00 00 00 00 00 00 00 00 00 00 00 80 00 00 00 80
       0.0 0.0 -0.0 -0.0
000160 00 00 00 80 00 00 00 00 00 00 00 80 00 00 00 80
       -0.0 0.0 -0.0 -0.0
000170 00 00 00 00 00 00 00 80 00 00 00 80 00 00 00 80
       0.0 -0.0 -0.0 -0.0
000180 03 56 13 3d fc b0 b8 bc 28 4b dc bc a0 20 ab 3d
       0.0359707 -0.02254533 -0.026891306 0.08355832
000190 92 b1 4f 3c 4b 52 0a bc b6 ac 87 3d 34 51 26 80
       0.012676613 -0.008442472 0.06624739 -3.518879e-39
0001a0 e9 0b f2 3c d1 36 18 3c 73 d3 91 3d 72 16 27 3d
       0.029546695 0.009290413 0.07120409 0.04079289
0001b0 e5 f9 8a 3b 7a e2 6d 3d 2f b1 6a bb d3 f0 76 bd
       0.0042412155 0.058077313 -0.0035811176 -0.06028826
0001c0 00 00 00 00 00 00 00 00 00 00 00 00 00 00 00 00
       0.0 0.0 0.0 0.0
0001d0 00 00 00 80 00 00 00 80 00 00 00 00 00 00 00 00
       -0.0 -0.0 0.0 0.0
0001e0 00 00 00 80 00 00 00 00 00 00 00 00 00 00 00 80
       -0.0 0.0 0.0 -0.0
0001f0 00 00 00 00 00 00 00 00 00 00 00 00 00 00 00 00
       0.0 0.0 0.0 0.0
000200 cc 90 b1 bc b5 26 bb bc d2 87 45 bc 74 a2 19 bc
       -0.02167549 -0.022845605 -0.012056308 -0.009377111
000210 e9 00 71 3c ef 37 b3 3c c4 68 45 3d e1 62 bd 00
       0.01470969 0.021877257 0.048195615 1.739238e-38
000220 18 42 18 3d 96 03 75 bb 61 32 34 3b 87 0d ff 3c
       0.037172407 -0.003738617 0.0027495848 0.03113438
000230 b6 65 3d bc b4 dc 5d 3d 87 53 cd 3c ae d4 09 bd
       -0.011559894 0.054165557 0.025064243 -0.033650093
000240 00 00 00 00 00 00 00 80 00 00 00 00 00 00 00 80
       0.0 -0.0 0.0 -0.0
000250 00 00 00 80 00 00 00 80 00 00 00 80 00 00 00 80
       -0.0 -0.0 -0.0 -0.0
000260 00 00 00 00 00 00 00 80 00 00 00 80 00 00 00 80
       0.0 -0.0 -0.0 -0.0
000270 00 00 00 80 00 00 00 80 00 00 00 00 00 00 00 00
       -0.0 -0.0 0.0 0.0
000280 00 00 00 80 00 00 00 80 00 00 00 00 00 00 00 80
       -0.0 -0.0 0.0 -0.0
000290 00 00 00 00 00 00 00 00 00 00 00 00 00 00 00 80
       0.0 0.0 0.0 -0.0
0002a0 00 00 00 00 00 00 00 00 00 00 00 00 00 00 00 00
       0.0 0.0 0.0 0.0
0002b0 00 00 00 00 00 00 00 00 00 00 00 00 00 00 00 00
       0.0 0.0 0.0 0.0
0002c0 0a 88 5f be 07 f3 3c bd a4 59 56 be 83 e2 b3 bd
       -0.21829239 -0.046130206 -0.20932633 -0.08783438
0002d0 3e a5 34 3d f3 11 3b bd 93 d5 72 bd 00 6e 15 00
       0.0441029 -0.045671415 -0.05928571 1.968006e-39
0002e0 fd 7e 32 bc b3 b3 cc bd 54 f4 8e 3d e5 8a 81 3e
       -0.010894534 -0.099952124 0.06980196 0.2530128
0002f0 c2 3d 9f 3d 65 41 19 3e 8f bc a8 bd 6a 38 34 bd
       0.07775451 0.14966352 -0.0823909 -0.043999113
000300 fc 61 b3 3b 3b 4f 84 3c dd 33 00 38 2b 1d 02 3d
       0.005474327 0.016151061 3.056588e-05 0.031766098
000310 42 b4 c1 bc 09 9a 60 ba 46 17 35 bc a2 2d 28 00
       -0.023645524 -0.0008567875 -0.011052912 3.68979e-39
000320 46 50 a7 3c a5 c9 e8 bb 06 95 f9 3c d3 6e 89 3c
       0.02042402 -0.007104116 0.030466568 0.016776478
000330 0f 3e 8b 3b c0 f8 ca 3c ad 48 2b 3c e2 b9 f6 3b
       0.0042493413 0.024776816 0.010454339 0.007529483
000340 00 00 00 00 00 00 00 80 00 00 00 00 00 00 00 00
       0.0 -0.0 0.0 0.0
000350 00 00 00 00 00 00 00 00 00 00 00 00 00 00 00 80
       0.0 0.0 0.0 -0.0
000360 00 00 00 80 00 00 00 80 00 00 00 00 00 00 00 80
       -0.0 -0.0 0.0 -0.0
000370 00 00 00 80 00 00 00 00 00 00 00 80 00 00 00 00
       -0.0 0.0 -0.0 0.0
000380 a0 a7 82 3d 35 42 33 3d 18 6e 00 3d 45 93 34 3d
       0.06379628 0.04376431 0.031354994 0.04408576
000390 3c e4 ed bc 18 86 e2 bd 51 00 c2 3d 86 f9 20 80
       -0.029039495 -0.110607326 0.094727166 -3.028248e-39
0003a0 ad 5e 8e 3d 0b af 85 bd a3 77 36 3b 41 a5 d6 3d
       0.06951652 -0.065275274 0.0027842305 0.104807384
0003b0 4f c0 39 bd 6d be e4 3d d5 3d 98 3d 2e 85 0b bc
       -0.045349415 0.11169133 0.074336685 -0.008515639
0003c0 3d 4a ae 3d 56 69 25 3d 5e 45 3c bd 96 be 79 3e
       0.085102536 0.04038366 -0.04596459 0.24389109
0003d0 86 49 1a bd d8 5a 30 bd ca e9 94 3c 8c 09 1b 00
       -0.037667774 -0.043055385 0.018177886 2.482983e-39
0003e0 cf 70 8c bc 27 f3 c7 bc 4d b6 9a 3d c7 8e 68 3d
       -0.017143635 -0.024407936 0.07554302 0.056776788
0003f0 34 4d fe bc 51 a0 79 bc 17 5e 6e 3e 53 93 29 bd
       -0.031042673 -0.015235976 0.2327808 -0.041400265

89 f4 [32]
000000 00 28 84 be 42 ce 0c 80 cd df 18 80 2c 49 03 80
       -0.25811768 -1.176017e-39 -2.284337e-39 -3.01756e-40
000010 c6 81 14 80 f9 47 05 80 9f 32 ee bd e3 17 0a 80
       -1.883264e-39 -4.84996e-40 -0.11630749 -9.26924e-40
000020 54 14 5c bd 80 80 3b 80 cc d7 08 80 16 7c 8a bd
       -0.053730324 -5.464391e-39 -8.12097e-40 -0.06761949
000030 a0 69 12 bd ff 21 15 80 f4 7d 47 be 3d 7d 82 be
       -0.035745263 -1.940741e-39 -0.19481641 -0.25486174
000040 23 08 15 80 2c aa 4a be 8c a7 06 80 8f 27 06 80
       -1.931464e-39 -0.19791478 -6.11117e-40 -5.65204e-40
000050 87 52 76 3d 0a d0 8d be 72 a3 d2 be f5 cd 0f 80
       0.060137298 -0.27697784 -0.41140324 -1.451416e-39
000060 a4 f2 70 bc ca 69 ec bc e2 7f 15 80 27 5a 14 80
       -0.0147062875 -0.028859038 -1.974421e-39 -1.86905e-39
000070 43 d2 27 80 7d 46 5f 3d 5c a3 4b bd c5 92 92 3d
       -3.657012e-39 0.054510582 -0.04971634 0.071569

91 f4 [64, 32, 3, 3]
000000 00 00 00 80 00 00 00 00 00 00 00 00 00 00 00 80
       -0.0 0.0 0.0 -0.0
000010 00 00 00 80 00 00 00 80 00 00 00 00 00 00 00 00
       -0.0 -0.0 0.0 0.0
000020 00 00 00 00 00 00 00 00 00 00 00 80 00 00 00 80
       0.0 0.0 -0.0 -0.0
000030 00 00 00 80 00 00 00 00 00 00 00 80 00 00 00 80
       -0.0 0.0 -0.0 -0.0
000040 00 00 00 80 00 00 00 80 00 00 00 80 00 00 00 80
       -0.0 -0.0 -0.0 -0.0
000050 00 00 00 80 00 00 00 80 00 00 00 00 00 00 00 00
       -0.0 -0.0 0.0 0.0
000060 00 00 00 00 00 00 00 80 00 00 00 00 00 00 00 00
       0.0 -0.0 0.0 0.0
000070 00 00 00 00 00 00 00 00 00 00 00 00 00 00 00 80
       0.0 0.0 0.0 -0.0
000080 00 00 00 00 00 00 00 00 00 00 00 00 00 00 00 00
       0.0 0.0 0.0 0.0
000090 00 00 00 80 00 00 00 00 00 00 00 00 00 00 00 00
       -0.0 0.0 0.0 0.0
0000a0 00 00 00 00 00 00 00 80 00 00 00 00 00 00 00 00
       0.0 -0.0 0.0 0.0
0000b0 00 00 00 00 00 00 00 00 00 00 00 80 00 00 00 00
       0.0 0.0 -0.0 0.0
0000c0 00 00 00 80 00 00 00 00 00 00 00 00 00 00 00 80
       -0.0 0.0 0.0 -0.0
0000d0 00 00 00 80 00 00 00 80 00 00 00 00 00 00 00 00
       -0.0 -0.0 0.0 0.0
0000e0 00 00 00 00 00 00 00 80 00 00 00 80 00 00 00 80
       0.0 -0.0 -0.0 -0.0
0000f0 00 00 00 00 00 00 00 00 00 00 00 00 00 00 00 80
       0.0 0.0 0.0 -0.0
000100 00 00 00 00 00 00 00 00 00 00 00 00 00 00 00 00
       0.0 0.0 0.0 0.0
000110 00 00 00 80 00 00 00 00 00 00 00 80 00 00 00 00
       -0.0 0.0 -0.0 0.0
000120 00 00 00 00 00 00 00 00 00 00 00 00 00 00 00 00
       0.0 0.0 0.0 0.0
000130 00 00 00 00 00 00 00 00 00 00 00 00 00 00 00 00
       0.0 0.0 0.0 0.0
000140 00 00 00 00 00 00 00 00 00 00 00 00 00 00 00 00
       0.0 0.0 0.0 0.0
000150 00 00 00 00 00 00 00 00 00 00 00 00 00 00 00 00
       0.0 0.0 0.0 0.0
000160 00 00 00 00 00 00 00 00 00 00 00 00 00 00 00 00
       0.0 0.0 0.0 0.0
000170 00 00 00 00 00 00 00 00 00 00 00 00 00 00 00 00
       0.0 0.0 0.0 0.0
000180 00 00 00 00 00 00 00 00 00 00 00 00 00 00 00 80
       0.0 0.0 0.0 -0.0
000190 00 00 00 80 00 00 00 80 00 00 00 00 00 00 00 00
       -0.0 -0.0 0.0 0.0
0001a0 00 00 00 00 00 00 00 80 00 00 00 80 00 00 00 80
       0.0 -0.0 -0.0 -0.0
0001b0 00 00 00 00 00 00 00 00 00 00 00 00 00 00 00 80
       0.0 0.0 0.0 -0.0
0001c0 00 00 00 00 00 00 00 00 00 00 00 00 00 00 00 80
       0.0 0.0 0.0 -0.0
0001d0 00 00 00 80 00 00 00 00 00 00 00 00 00 00 00 80
       -0.0 0.0 0.0 -0.0
0001e0 00 00 00 00 00 00 00 00 00 00 00 00 00 00 00 80
       0.0 0.0 0.0 -0.0
0001f0 00 00 00 00 00 00 00 00 00 00 00 00 00 00 00 00
       0.0 0.0 0.0 0.0
000200 00 00 00 00 00 00 00 00 00 00 00 00 00 00 00 80
       0.0 0.0 0.0 -0.0
000210 00 00 00 00 00 00 00 00 00 00 00 00 00 00 00 00
       0.0 0.0 0.0 0.0
000220 00 00 00 80 00 00 00 00 00 00 00 00 00 00 00 80
       -0.0 0.0 0.0 -0.0
000230 00 00 00 80 00 00 00 00 00 00 00 00 00 00 00 80
       -0.0 0.0 0.0 -0.0
000240 00 00 00 80 00 00 00 80 00 00 00 00 00 00 00 00
       -0.0 -0.0 0.0 0.0
000250 00 00 00 00 00 00 00 00 00 00 00 80 00 00 00 80
       0.0 0.0 -0.0 -0.0
000260 00 00 00 00 00 00 00 80 00 00 00 00 00 00 00 00
       0.0 -0.0 0.0 0.0
000270 00 00 00 00 00 00 00 00 00 00 00 80 00 00 00 00
       0.0 0.0 -0.0 0.0
000280 00 00 00 80 00 00 00 00 00 00 00 00 00 00 00 80
       -0.0 0.0 0.0 -0.0
000290 00 00 00 80 00 00 00 80 00 00 00 80 00 00 00 80
       -0.0 -0.0 -0.0 -0.0
0002a0 00 00 00 00 00 00 00 80 00 00 00 80 00 00 00 00
       0.0 -0.0 -0.0 0.0
0002b0 00 00 00 00 00 00 00 00 00 00 00 00 00 00 00 00
       0.0 0.0 0.0 0.0
0002c0 00 00 00 00 00 00 00 00 00 00 00 00 00 00 00 00
       0.0 0.0 0.0 0.0
0002d0 00 00 00 80 00 00 00 80 00 00 00 80 00 00 00 00
       -0.0 -0.0 -0.0 0.0
0002e0 00 00 00 80 00 00 00 80 00 00 00 00 00 00 00 80
       -0.0 -0.0 0.0 -0.0
0002f0 00 00 00 80 00 00 00 80 00 00 00 80 00 00 00 80
       -0.0 -0.0 -0.0 -0.0
000300 00 00 00 80 00 00 00 80 00 00 00 00 00 00 00 00
       -0.0 -0.0 0.0 0.0
000310 00 00 00 80 00 00 00 00 00 00 00 00 00 00 00 00
       -0.0 0.0 0.0 0.0
000320 00 00 00 00 00 00 00 80 00 00 00 80 00 00 00 00
       0.0 -0.0 -0.0 0.0
000330 00 00 00 80 00 00 00 80 00 00 00 00 00 00 00 00
       -0.0 -0.0 0.0 0.0
000340 00 00 00 00 00 00 00 00 00 00 00 00 00 00 00 00
       0.0 0.0 0.0 0.0
000350 00 00 00 00 00 00 00 00 00 00 00 00 00 00 00 00
       0.0 0.0 0.0 0.0
000360 00 00 00 80 00 00 00 80 00 00 00 80 00 00 00 00
       -0.0 -0.0 -0.0 0.0
000370 00 00 00 00 00 00 00 00 00 00 00 00 00 00 00 00
       0.0 0.0 0.0 0.0
000380 00 00 00 00 00 00 00 00 00 00 00 00 00 00 00 00
       0.0 0.0 0.0 0.0
000390 00 00 00 00 00 00 00 00 00 00 00 80 00 00 00 00
       0.0 0.0 -0.0 0.0
0003a0 00 00 00 00 00 00 00 00 00 00 00 00 00 00 00 80
       0.0 0.0 0.0 -0.0
0003b0 00 00 00 80 00 00 00 80 00 00 00 80 00 00 00 80
       -0.0 -0.0 -0.0 -0.0
0003c0 00 00 00 80 00 00 00 00 00 00 00 00 00 00 00 00
       -0.0 0.0 0.0 0.0
0003d0 00 00 00 80 00 00 00 00 00 00 00 80 00 00 00 80
       -0.0 0.0 -0.0 -0.0
0003e0 00 00 00 80 00 00 00 80 00 00 00 80 00 00 00 80
       -0.0 -0.0 -0.0 -0.0
0003f0 00 00 00 00 00 00 00 80 00 00 00 80 00 00 00 80
       0.0 -0.0 -0.0 -0.0

92 f4 [64]
000000 7a 95 13 80 af 7c 0f 80 c1 3c 00 80 ad c3 16 80
       -1.798497e-39 -1.42226e-39 -2.1794e-41 -2.090576e-39
000010 53 98 0a 80 cb 46 17 80 e6 61 0d 80 84 6d 0a 80
       -9.72999e-40 -2.137612e-39 -1.228981e-39 -9.57642e-40
000020 b9 39 07 80 c5 1d 0b 80 34 a7 3f 3c cd a2 08 80
       -6.63555e-40 -1.02087e-39 0.011697579 -7.93086e-40
000030 dc 3a 0c 80 b9 b4 1c 80 50 e4 06 80 db b3 1f 80
       -1.123141e-39 -2.636225e-39 -6.32916e-40 -2.91142e-39
000040 a3 4c 17 80 21 eb 08 80 a2 7c 16 80 79 a7 29 80
       -2.139708e-39 -8.19032e-40 -2.065091e-39 -3.825333e-39
000050 0a 95 08 80 15 dd 02 80 18 fc 13 80 29 c3 07 80
       -7.88149e-40 -2.6298e-40 -1.835309e-39 -7.12859e-40
000060 f4 2a 04 80 8f 3c 05 80 a9 3d bf bd 78 5a 03 80
       -3.8275e-40 -4.80902e-40 -0.093379326 -3.0796e-40
000070 4b ca 0a 80 f6 67 04 80 f8 4d 0c 80 2d 1f 07 80
       -9.90924e-40 -4.04636e-40 -1.129996e-39 -6.54032e-40
000080 06 79 17 80 26 9b 0a 80 60 2b 12 80 1b 00 12 80
       -2.155631e-39 -9.74012e-40 -1.668599e-39 -1.653077e-39
000090 62 05 06 80 ff 74 3e 80 4c 01 0f 80 d8 6d 4b 80
       -5.52944e-40 -5.735771e-39 -1.377998e-39 -6.927067e-39
0000a0 18 8f d5 bd b0 18 15 80 4c f1 03 bd 25 7a 05 80
       -0.104276836 -1.937402e-39 -0.03221254 -5.02995e-40
0000b0 16 c7 12 80 24 75 36 be 55 37 07 80 cd db 17 80
       -1.724458e-39 -0.17818123 -6.62698e-40 -2.191066e-39
0000c0 e9 f3 11 80 dd a5 0b 80 58 9c 01 80 52 a2 02 80
       -1.648702e-39 -1.069691e-39 -1.47921e-40 -2.419e-40
0000d0 7d 74 0b 80 80 b1 07 80 a8 01 a9 3d 50 8a 0d 80
       -1.051979e-39 -7.06523e-40 0.08252269 -1.243479e-39
0000e0 00 d0 32 3a d0 01 13 80 bd 8c 06 80 ed b5 04 80
       0.00068211555 -1.745525e-39 -6.015e-40 -4.32605e-40
0000f0 57 96 02 80 5c 04 17 80 5a 4d 0c 80 6c 75 04 80
       -2.37603e-40 -2.11378e-39 -1.129774e-39 -4.09465e-40

94 f4 [64, 64, 3, 3]
000000 00 00 00 80 00 00 00 00 00 00 00 00 00 00 00 00
       -0.0 0.0 0.0 0.0
000010 00 00 00 80 00 00 00 80 00 00 00 00 00 00 00 80
       -0.0 -0.0 0.0 -0.0
000020 00 00 00 80 00 00 00 00 00 00 00 80 00 00 00 80
       -0.0 0.0 -0.0 -0.0
000030 00 00 00 80 00 00 00 00 00 00 00 80 00 00 00 00
       -0.0 0.0 -0.0 0.0
000040 00 00 00 00 00 00 00 80 00 00 00 00 00 00 00 80
       0.0 -0.0 0.0 -0.0
000050 00 00 00 00 00 00 00 80 00 00 00 80 00 00 00 00
       0.0 -0.0 -0.0 0.0
000060 00 00 00 00 00 00 00 80 00 00 00 80 00 00 00 00
       0.0 -0.0 -0.0 0.0
000070 00 00 00 80 00 00 00 80 00 00 00 00 00 00 00 80
       -0.0 -0.0 0.0 -0.0
000080 00 00 00 80 00 00 00 00 00 00 00 00 00 00 00 00
       -0.0 0.0 0.0 0.0
000090 00 00 00 00 00 00 00 80 00 00 00 80 00 00 00 80
       0.0 -0.0 -0.0 -0.0
0000a0 00 00 00 80 00 00 00 00 00 00 00 00 00 00 00 00
       -0.0 0.0 0.0 0.0
0000b0 00 00 00 00 00 00 00 00 00 00 00 80 00 00 00 80
       0.0 0.0 -0.0 -0.0
0000c0 00 00 00 00 00 00 00 00 00 00 00 00 00 00 00 80
       0.0 0.0 0.0 -0.0
0000d0 00 00 00 80 00 00 00 80 00 00 00 00 00 00 00 80
       -0.0 -0.0 0.0 -0.0
0000e0 00 00 00 80 00 00 00 00 00 00 00 00 00 00 00 00
       -0.0 0.0 0.0 0.0
0000f0 00 00 00 80 00 00 00 00 00 00 00 00 00 00 00 00
       -0.0 0.0 0.0 0.0
000100 00 00 00 00 00 00 00 80 00 00 00 00 00 00 00 00
       0.0 -0.0 0.0 0.0
000110 00 00 00 80 00 00 00 80 00 00 00 00 00 00 00 00
       -0.0 -0.0 0.0 0.0
000120 00 00 00 80 00 00 00 80 00 00 00 80 00 00 00 00
       -0.0 -0.0 -0.0 0.0
000130 00 00 00 00 00 00 00 80 00 00 00 80 00 00 00 80
       0.0 -0.0 -0.0 -0.0
000140 00 00 00 00 00 00 00 80 00 00 00 80 00 00 00 80
       0.0 -0.0 -0.0 -0.0
000150 00 00 00 80 00 00 00 80 00 00 00 80 00 00 00 80
       -0.0 -0.0 -0.0 -0.0
000160 00 00 00 00 00 00 00 80 00 00 00 80 00 00 00 00
       0.0 -0.0 -0.0 0.0
000170 00 00 00 00 00 00 00 80 00 00 00 00 00 00 00 00
       0.0 -0.0 0.0 0.0
000180 00 00 00 80 00 00 00 00 00 00 00 00 00 00 00 80
       -0.0 0.0 0.0 -0.0
000190 00 00 00 00 00 00 00 80 00 00 00 80 00 00 00 80
       0.0 -0.0 -0.0 -0.0
0001a0 00 00 00 80 00 00 00 80 00 00 00 80 00 00 00 80
       -0.0 -0.0 -0.0 -0.0
0001b0 00 00 00 80 00 00 00 00 00 00 00 00 00 00 00 00
       -0.0 0.0 0.0 0.0
0001c0 00 00 00 80 00 00 00 80 00 00 00 80 00 00 00 80
       -0.0 -0.0 -0.0 -0.0
0001d0 00 00 00 80 00 00 00 00 00 00 00 80 00 00 00 00
       -0.0 0.0 -0.0 0.0
0001e0 00 00 00 80 00 00 00 00 00 00 00 80 00 00 00 00
       -0.0 0.0 -0.0 0.0
0001f0 00 00 00 80 00 00 00 00 00 00 00 80 00 00 00 00
       -0.0 0.0 -0.0 0.0
000200 00 00 00 00 00 00 00 00 00 00 00 00 00 00 00 80
       0.0 0.0 0.0 -0.0
000210 00 00 00 00 00 00 00 80 00 00 00 80 00 00 00 00
       0.0 -0.0 -0.0 0.0
000220 00 00 00 80 00 00 00 00 00 00 00 80 00 00 00 00
       -0.0 0.0 -0.0 0.0
000230 00 00 00 80 00 00 00 80 00 00 00 80 00 00 00 80
       -0.0 -0.0 -0.0 -0.0
000240 00 00 00 80 00 00 00 80 00 00 00 00 00 00 00 00
       -0.0 -0.0 0.0 0.0
000250 00 00 00 80 00 00 00 00 00 00 00 00 00 00 00 00
       -0.0 0.0 0.0 0.0
000260 00 00 00 00 00 00 00 00 00 00 00 00 00 00 00 00
       0.0 0.0 0.0 0.0
000270 00 00 00 00 00 00 00 80 00 00 00 80 00 00 00 00
       0.0 -0.0 -0.0 0.0
000280 00 00 00 00 00 00 00 80 00 00 00 00 00 00 00 00
       0.0 -0.0 0.0 0.0
000290 00 00 00 00 00 00 00 00 00 00 00 80 00 00 00 00
       0.0 0.0 -0.0 0.0
0002a0 00 00 00 80 00 00 00 80 00 00 00 80 00 00 00 00
       -0.0 -0.0 -0.0 0.0
0002b0 00 00 00 00 00 00 00 80 00 00 00 80 00 00 00 80
       0.0 -0.0 -0.0 -0.0
0002c0 00 00 00 80 00 00 00 00 00 00 00 80 00 00 00 00
       -0.0 0.0 -0.0 0.0
0002d0 00 00 00 00 00 00 00 80 00 00 00 00 00 00 00 80
       0.0 -0.0 0.0 -0.0
0002e0 00 00 00 80 00 00 00 80 00 00 00 00 00 00 00 00
       -0.0 -0.0 0.0 0.0
0002f0 00 00 00 80 00 00 00 00 00 00 00 00 00 00 00 80
       -0.0 0.0 0.0 -0.0
000300 00 00 00 80 00 00 00 00 00 00 00 80 00 00 00 80
       -0.0 0.0 -0.0 -0.0
000310 00 00 00 80 00 00 00 80 00 00 00 00 00 00 00 80
       -0.0 -0.0 0.0 -0.0
000320 00 00 00 80 00 00 00 80 00 00 00 80 00 00 00 80
       -0.0 -0.0 -0.0 -0.0
000330 00 00 00 00 00 00 00 80 00 00 00 80 00 00 00 80
       0.0 -0.0 -0.0 -0.0
000340 00 00 00 80 00 00 00 80 00 00 00 00 00 00 00 80
       -0.0 -0.0 0.0 -0.0
000350 00 00 00 00 00 00 00 00 00 00 00 00 00 00 00 00
       0.0 0.0 0.0 0.0
000360 00 00 00 80 00 00 00 80 00 00 00 80 00 00 00 00
       -0.0 -0.0 -0.0 0.0
000370 00 00 00 80 00 00 00 00 00 00 00 00 00 00 00 00
       -0.0 0.0 0.0 0.0
000380 00 00 00 80 00 00 00 00 00 00 00 00 00 00 00 80
       -0.0 0.0 0.0 -0.0
000390 00 00 00 80 00 00 00 00 00 00 00 00 00 00 00 80
       -0.0 0.0 0.0 -0.0
0003a0 00 00 00 80 00 00 00 80 00 00 00 00 00 00 00 00
       -0.0 -0.0 0.0 0.0
0003b0 00 00 00 80 00 00 00 00 00 00 00 00 00 00 00 00
       -0.0 0.0 0.0 0.0
0003c0 00 00 00 00 00 00 00 00 00 00 00 00 00 00 00 00
       0.0 0.0 0.0 0.0
0003d0 00 00 00 80 00 00 00 80 00 00 00 80 00 00 00 00
       -0.0 -0.0 -0.0 0.0
0003e0 00 00 00 80 00 00 00 80 00 00 00 80 00 00 00 80
       -0.0 -0.0 -0.0 -0.0
0003f0 00 00 00 80 00 00 00 00 00 00 00 00 00 00 00 80
       -0.0 0.0 0.0 -0.0

95 f4 [64]
000000 15 43 14 80 6f 0d f7 bd 23 92 60 80 c9 b3 17 80
       -1.860774e-39 -0.12063109 -8.868632e-39 -2.176711e-39
000010 49 60 6a be 94 42 71 be 17 15 09 80 86 f3 18 80
       -0.22888292 -0.23560554 -8.34085e-40 -2.291412e-39
000020 71 83 a1 be 4a dd 8c bc 0f 5d 0a 80 7e 86 1b 80
       -0.31545594 -0.017195363 -9.51738e-40 -2.527805e-39
000030 2a 20 41 80 18 b7 67 bd 97 76 2e 3b 70 1c 39 80
       -5.980846e-39 -0.056571096 0.0026620978 -5.244825e-39
000040 0b e0 e4 80 cc b4 3d 80 dc 26 07 80 55 3e 27 80
       -2.1018865e-38 -5.666823e-39 -6.56789e-40 -3.603945e-39
000050 32 a0 28 80 74 54 24 80 ac be c4 bb 44 8d 43 80
       -3.730887e-39 -3.336374e-39 -0.006004175 -6.203655e-39
000060 9d 18 04 80 09 ba 59 80 9c cd 28 80 dd 75 34 80
       -3.76172e-40 -8.240096e-39 -3.747179e-39 -4.817727e-39
000070 c3 f7 1b 80 9a 2d 5b 3e f0 0a fa bd b9 ff 2a 80
       -2.568439e-39 0.21404114 -0.122091174 -3.948827e-39
000080 87 91 11 80 79 25 16 80 35 b2 06 80 0a 36 03 be
       -1.613409e-39 -2.033824e-39 -6.14942e-40 -0.12813583
000090 45 cb 24 80 63 28 28 80 15 77 16 80 d8 56 43 be
       -3.378997e-39 -3.687908e-39 -2.0631e-39 -0.19076097
0000a0 b1 78 16 be 55 32 82 be f8 0e 3d bc fd de 1c 80
       -0.14694478 -0.25429025 -0.011539213 -2.651387e-39
0000b0 45 f0 96 be 6e f8 3e 80 25 3a 0a be b6 75 0c 80
       -0.29480186 -5.78292e-39 -0.13498743 -1.144253e-39
0000c0 1f 8a 14 80 62 81 0d 80 f6 43 12 80 63 47 13 80
       -1.886258e-39 -1.240275e-39 -1.677419e-39 -1.770483e-39
0000d0 40 14 09 80 2d a8 ea bd a7 4f 02 3e 8d f5 40 80
       -8.33784e-40 -0.11457858 0.12725697 -5.965559e-39
0000e0 b9 8a 2d 80 ca 92 c3 3b cb 9f 18 80 80 cf 4c 80
       -4.182362e-39 0.0059684264 -2.261375e-39 -7.053935e-39
0000f0 58 bc 4d be 79 ff 27 80 46 2c 61 80 59 57 1e 80
       -0.20091379 -3.67323e-39 -8.923925e-39 -2.7864e-39
