server/model/fruta_larana.onnx (onnx, 302121 bytes, 16 tensors)

fc.weight f4 [2, 256]
0	0x3dc0d3ae	0.09415375
1	0x3d3cd342	0.04609991
2	0x3d0e0df4	0.034681275
3	0x3dda4d5e	0.10659288
4	0xbdf49a63	-0.119435094
5	0xbcd72bd0	-0.026266009
6	0xbdbaf14e	-0.091280565
7	0xbd13d4d2	-0.036091633
8	0x3d812ff7	0.06307977
9	0x3dc828d3	0.097734116
10	0xbb1a94ee	-0.0023587304
11	0xbcb2cdbd	-0.02182662
12	0x3d8611ae	0.06546341
13	0x3c54c6a3	0.012986812
14	0x3d3cd525	0.046101708
15	0x3d9fb57b	0.077982865
16	0xbdf45725	-0.11930684
17	0xbd75270b	-0.059851687
18	0xbd5cf3da	-0.053943492
19	0x3d2f01ca	0.042726316
20	0xbd3ae1f5	-0.045625646
21	0xbd9d1427	-0.076698594
22	0xbd5a87d8	-0.053352207
23	0xbd8867d2	-0.06660427
24	0x3d71c9eb	0.059030455
25	0x3d85b916	0.06529443
26	0x3cce2fea	0.025169332
27	0x3ccf382b	0.025295338
28	0x3c9d9202	0.019234661
29	0x3dec3a37	0.11534541
30	0xbb3b768d	-0.0028604597
31	0x3d00a800	0.031410217
32	0x3dcb9e16	0.09942262
33	0x3d91f5be	0.0712695
34	0xbbf5ac1b	-0.007497323
35	0xbdc8b3eb	-0.09799942
36	0xbdd113be	-0.10208844
37	0xbcc3d1dd	-0.023903782
38	0x3da64618	0.08118838
39	0xbc9248cc	-0.017856978
40	0x3aa7b45c	0.001279484
41	0x3d2d4ea3	0.042311322
42	0x3cbfb273	0.02340052
43	0xbd80a1d5	-0.06280867
44	0x3d24bba7	0.04021802
45	0x3bdd7f60	0.006759569
46	0xbbb60e0d	-0.005555874
47	0xbd0f899a	-0.035043336
48	0x3d6ac606	0.057317756
49	0x3dee3b19	0.11632366
50	0x3d8201b5	0.06347982
51	0x3d236e9f	0.03990042
52	0x3d041d70	0.032254636
53	0x3ddbc6b7	0.10731261
54	0xbcf86c08	-0.03032495
55	0xbd729f0a	-0.059233703
56	0xbd9580f9	-0.0729999
57	0xbd76011f	-0.060059663
58	0xbd1e6df5	-0.038679082
59	0xbce1fe66	-0.027587127
60	0xbd37bf0b	-0.044859927
61	0xbc923ad2	-0.017850313
62	0xbc4eac3b	-0.012614305
63	0x3d332ed8	0.043745846
64	0x3c027b51	0.007963971
65	0x3cd5b241	0.026085975
66	0x3ddf8c14	0.1091539
67	0x3de385ba	0.11109491
68	0x3c14dc11	0.009085671
69	0x3d3bf06a	0.045883574
70	0x3d354559	0.04425559
71	0xbd053eff	-0.03253078
72	0xbda95afb	-0.08269306
73	0xbd34c1b6	-0.04413005
74	0x3d68ba4f	0.056818303
75	0x3d60a502	0.054844864
76	0x3cae6724	0.021289416
77	0x3bfa2d4d	0.007634795
78	0xbcd85f7a	-0.026412714
79	0x3d1cc264	0.038271323
80	0x3c0a9287	0.008457786
81	0xbc64dfa3	-0.013969335
82	0x3c1d2723	0.00959185
83	0x3db956f3	0.09049787
84	0x3c85ae38	0.016318426
85	0x3d2b4227	0.041811135
86	0x3d098633	0.033575248
87	0xbd38a2cc	-0.04507713
88	0xbda391fa	-0.07986827
89	0xbcf229c1	-0.029560925
90	0x3d8790ac	0.06619391
91	0x3db98b96	0.09059827
92	0x3d4a42fc	0.049380288
93	0x3de70f47	0.11282211
94	0x3dcaff7c	0.09912011
95	0x3d80fdd8	0.06298417
96	0xbda5ed43	-0.08101895
97	0xbd62d094	-0.055374697
98	0x3d9fc7d7	0.07801788
99	0x3d084219	0.03326616
100	0xbd12f955	-0.035882313
101	0xbd9a3deb	-0.07531341
102	0x3ca069d9	0.019581722
103	0x3da36aff	0.07979392
104	0xbd8e5d86	-0.06951432
105	0xbd92b076	-0.071625635
106	0x3d1b18c1	0.037865404
107	0x3d6c7172	0.057725377
108	0x3d1abaa5	0.037775654
109	0xbb834262	-0.004005716
110	0xbd35eefc	-0.044417366
111	0x3c97d8d4	0.018536009
112	0x3d580719	0.052741144
113	0x3d836cdf	0.0641725
114	0x3c429fe9	0.011878946
115	0xbd311a90	-0.043238223
116	0x3d2e3132	0.042527385
117	0x3d031c89	0.032009635
118	0xbd792f57	-0.060836162
119	0xbcefe01c	-0.029281668
120	0xbb39946c	-0.0028317226
121	0xbd7febbe	-0.06248068
122	0x3d8e6643	0.069530986
123	0xbd000e90	-0.031263888
124	0x3d9e025e	0.07715295
125	0x3e0720ab	0.13196056
126	0x3ddeac8c	0.108727545
127	0x3db7927e	0.08963488
128	0x3d22fc88	0.039791614
129	0x3d870fa2	0.065947786
130	0x3cedfd20	0.029051363
131	0xbcbc7290	-0.023003846
132	0xbd931867	-0.07182389
133	0x3b1a8335	0.002357674
134	0xbca9ec89	-0.020742672
135	0x3d3dc301	0.04632855
136	0xbd420c6a	-0.04737512
137	0xbdb3cc26	-0.087791726
138	0x3d2499da	0.040185787
139	0x3db518c7	0.088426165
140	0xbd21fab6	-0.039545737
141	0x3c6a9c2b	0.01431946
142	0xbdc27694	-0.09495273
143	0xbc10ae65	-0.008830641
144	0xbc8a66a0	-0.016894639
145	0xbd6ac8ea	-0.057320513
146	0x3d5bb1e6	0.053636454
147	0x3d761836	0.060081683
148	0xbc9c64b5	-0.01909099
149	0x3c68ae51	0.0142017165
150	0xbe04c3f0	-0.12965369
151	0xbde73dcd	-0.112910844
152	0xbdbfb4f3	-0.09360685
153	0xbe02baf7	-0.12766634
154	0xbd88d4d6	-0.0668122
155	0xbd9e153a	-0.077188924
156	0x3c236ffb	0.009975429
157	0x3b577eb1	0.003288191
158	0xbcf1dbd3	-0.029523766
159	0xba7b5419	-0.00095874217
160	0x3a694b6f	0.0008899485
161	0x3d0eb2f3	0.034838628
162	0xbd8ae667	-0.06782227
163	0xbdbd6c41	-0.092491634
164	0xbd8d2b76	-0.06893055
165	0xbd45e6f6	-0.048315965
166	0x3d5247ae	0.05133789
167	0x3d8fe42c	0.07025942
168	0xbce97dcd	-0.02850237
169	0xbd865922	-0.065599695
170	0xbd2ace91	-0.041700903
171	0xbcc49af6	-0.023999672
172	0x3d53d061	0.051712397
173	0xbd12f886	-0.03588154
174	0xbc9fcd56	-0.019507091
175	0xbc5160a8	-0.012779392
176	0x3d8e4f86	0.06948762
177	0xbc9ac72a	-0.018893797
178	0x3cbc7bb6	0.023008209
179	0xbcd8dad7	-0.026471538
180	0xbd2e0457	-0.042484608
181	0xbc2a500a	-0.010395059
182	0xbdcb1afa	-0.09917255
183	0xbdfb3e89	-0.12267787
184	0x3da02858	0.07820195
185	0x3d2989b6	0.041391097
186	0x3c849e15	0.01618866
187	0x3dcd104a	0.100128725
188	0xbdc34b98	-0.09535903
189	0xbd718aa6	-0.058970116
190	0x3d9c883c	0.07643172
191	0x3d8de3b4	0.069281965
192	0x3d07958a	0.033101596
193	0xbce8471b	-0.028354218
194	0x3c8ef2e8	0.017449811
195	0xbcc5b945	-0.024136195
196	0xbd13eda3	-0.0361153
197	0xbde2a149	-0.11065919
198	0xbcd78c94	-0.02631215
199	0x3d72a0e3	0.059235465
200	0xbd12f701	-0.035880093
201	0xbd389559	-0.045064304
202	0x3d7fc862	0.06244696
203	0x3d0abead	0.03387325
204	0xbb83a524	-0.004017489
205	0x3de90bc0	0.11379194
206	0x3d01c462	0.031681426
207	0x3db03a51	0.08604873
208	0x3d80e698	0.06293982
209	0x3d4dc867	0.050239947
210	0xbd4db704	-0.050223365
211	0xbd6d8d81	-0.057996277
212	0xbd43cf4c	-0.047805116
213	0x3c602f7a	0.013683194
214	0x3d85bee8	0.06530553
215	0x3dcb9b78	0.09941763
216	0x3da1932f	0.07889401
217	0x3d4e5f56	0.05038389
218	0xbc79985f	-0.015234082
219	0xbdf7a433	-0.120918654
220	0xba99213a	-0.0011682876
221	0x3b87095f	0.00412099
222	0x3ceb9f41	0.028762462
223	0xbdc1806d	-0.094483234
224	0xbcbe985a	-0.023266006
225	0xbd986ff3	-0.074432276
226	0xbd99a24c	-0.07501659
227	0xbe0081cd	-0.12549515
228	0x3cdaa5df	0.026690422
229	0x3d68e548	0.056859285
230	0x3dab088b	0.08351239
231	0x3d4088bc	0.0470054
232	0x3cd7d4ad	0.026346529
233	0x3d93d006	0.07217412
234	0x3d31ad4d	0.043378163
235	0x3ba05224	0.0048926044
236	0xbd01e16c	-0.03170912
237	0xbdcc998b	-0.099902235
238	0x3ce9b779	0.02852987
239	0xbdb96688	-0.090527594
240	0xbdb5aeb4	-0.088712126
241	0xbda7336c	-0.08164105
242	0x3cf38f89	0.029731529
243	0xbd2cb45e	-0.0421642
244	0x3c7a63e6	0.015282607
245	0xbc556a46	-0.013025826
246	0x3db543b8	0.08850807
247	0x3e04e054	0.129762
248	0x3d822ff5	0.06356803
249	0xbcd7324e	-0.026269104
250	0x3de3c951	0.111223824
251	0x3c8161e5	0.01579375
252	0xbc47c200	-0.012192249
253	0xbda18dc1	-0.078883655
254	0xbd1a74e8	-0.037709147
255	0x3c2aa6d4	0.0104157515

fc.bias f4 [2]
0	0xbced9a81	-0.029004337
1	0x3cb39037	0.021919353

onnx::Conv_80 f4 [16, 3, 7, 7]
0	0xbde25312	-0.11051001
1	0x3da49655	0.08036486
2	0x3dd36c73	0.103234194
3	0x3e6100b2	0.21972921
4	0x3dee846e	0.11646353
5	0x3de45da5	0.11150674
6	0x3da85800	0.0821991
7	0xbd7d2746	-0.061805032
8	0xbd14e38d	-0.03634982
9	0x3a414156	0.00073721015
10	0x3e81e570	0.2537036
11	0x3e29ce2c	0.16582555
12	0xbc04b20f	-0.008099093
13	0xbd42bace	-0.047541432
14	0xbe616a49	-0.22013201
15	0x3d86e2d1	0.065862305
16	0x3e1a5b3b	0.15073864
17	0x3e139870	0.14413619
18	0x3ea2848d	0.31741753
19	0x3e06f6d5	0.13180096
20	0x3d155fba	0.036468245
21	0xbe212dab	-0.15740077
22	0x3e6579e9	0.22409786
23	0x3daa519e	0.083163485
24	0x3e9073b4	0.28213274
25	0x3e90c727	0.2827694
26	0xbd0e6302	-0.03476239
27	0xbe181393	-0.14851217
28	0xbe103271	-0.14081742
29	0x3e8a7fc6	0.27050608
30	0x3e553a2a	0.20822969
31	0x3e14b944	0.14523798
32	0x3ea5c268	0.32374883
33	0xbc38cab4	-0.011278797
34	0xbdc5c235	-0.09656183
35	0x3d55e8eb	0.05222408
36	0x3d440c43	0.047863256
37	0x3e945323	0.28969678
38	0x3e4bba5e	0.19895312
39	0x3e9c4399	0.30520323
40	0xbd71a755	-0.05899747
41	0xbd2e0cb2	-0.042492576
42	0xbe73823c	-0.23780149
43	0x3e6a0b17	0.22855793
44	0x3e27882d	0.1636054
45	0x3e9967d5	0.2996203
46	0x3d05bb94	0.03264959
47	0x3de34456	0.110970184
48	0x3d318130	0.043336093
49	0xbea1a3bd	-0.31570235
50	0xbe9709b4	-0.2949959
51	0xbe04ef18	-0.12981832
52	0xbe572b3d	-0.21012588
53	0xbe582d1d	-0.2111096
54	0x3dfcbbdf	0.12340521
55	0x3c2436f1	0.010022865
56	0xbd9ac428	-0.07556945
57	0x3d83d2b5	0.064366736
58	0x3dd1b143	0.10238888
59	0xbb2cedfc	-0.0026386967
60	0xbc283609	-0.010266789
61	0xbe0fb373	-0.14033298
62	0xbe30b54d	-0.17256661
63	0x3b4b9183	0.0031062074
64	0x3d2d279c	0.042274103
65	0x3be718e7	0.007052529
66	0xbde17b5d	-0.11009858
67	0x3dac5e04	0.084163696
68	0x3d93d738	0.07218784
69	0xbd9b72ae	-0.07590233
70	0xbe9de5a1	-0.30839255
71	0xbe1caf6a	-0.1530129
72	0xbd8dcf40	-0.069242954
73	0xbe87e032	-0.26538235
74	0xbe1732df	-0.147655
75	0xbd70ffcf	-0.058837708
76	0xbe6ddc8c	-0.23228663
77	0xbe9a8213	-0.30177364
78	0xbc04a5b6	-0.008096149
79	0x3dcd8fce	0.10037194
80	0x3cf1fa6a	0.029538352
81	0x3c8078de	0.015682634
82	0xbd39641f	-0.0452615
83	0xbe71175b	-0.23544066
84	0xbd8534f7	-0.06504243
85	0x3dd9c3aa	0.10633023
86	0x3ce58287	0.028016342
87	0x3de52886	0.1118937
88	0x3d046fda	0.032333232
89	0xbe18d934	-0.14926606
90	0xbdbb464c	-0.091442674
91	0x3d867b62	0.06566502
92	0xbd58cb4f	-0.052928265
93	0x3e1a9ff2	0.15100077
94	0xbdcc5823	-0.09977748
95	0x3db07001	0.08615113
96	0xbdf7209a	-0.12066765
97	0xbe58180d	-0.21102925
98	0x3e320e60	0.17388296
99	0xbd9ea182	-0.07745649
100	0x3de0523b	0.10953184
101	0x3c549863	0.012975785
102	0x3d7fa92f	0.062417205
103	0xbcda76b9	-0.02666794
104	0x3e5ae5f1	0.21376778
105	0xbddd8591	-0.108164914
106	0x3d2f51a9	0.042802487
107	0x3e420f72	0.18951204
108	0xbd60f2b1	-0.05491895
109	0x3d0ff3ba	0.035144545
110	0xbd39d38c	-0.045367762
111	0x3d380b57	0.04493269
112	0x3d96aa84	0.07356742
113	0xbdb0ddaf	-0.08636033
114	0xbe0dab4b	-0.13834874
115	0xbdd76240	-0.105167866
116	0xbe06bb6c	-0.13157433
117	0x3bb1637c	0.005413471
118	0xbe333772	-0.1750162
119	0xbdc54fd2	-0.09634365
120	0x3e3cf6df	0.18453549
121	0xbd885bbf	-0.06658124
122	0xbb5130b9	-0.003191991
123	0xbd44d519	-0.04805479
124	0xbc37bf27	-0.011215008
125	0xbe7604ea	-0.24025312
126	0xbc7476fa	-0.014920944
127	0x3db6e9b5	0.08931295
128	0x3d49e5a3	0.049291264
129	0x3ddede18	0.10882205
130	0xbdcf88a9	-0.10133488
131	0xbc623999	-0.013807678
132	0xbdee65a1	-0.11640478
133	0xbd2ed592	-0.042684145
134	0x3e021340	0.12702656
135	0xbd613824	-0.05498518
136	0xbe35d374	-0.17756444
137	0xbe59c0a0	-0.21264887
138	0xbe8ca8ca	-0.27472526
139	0xbe083651	-0.1330197
140	0xbdad2001	-0.0845337
141	0xbda512d6	-0.08060233
142	0xbe4fc261	-0.20288993
143	0xbe1ea5e1	-0.15492965
144	0xbe107c1c	-0.14109844
145	0x3d96ca83	0.07362845
146	0xbe073d59	-0.13206996
147	0x3cd3f00a	0.025871295
148	0x3e1b1f31	0.15148617
149	0x3ea90d00	0.3301773
150	0x3e715332	0.23566893
151	0x3babc23d	0.005241661
152	0x3e086d6a	0.13322988
153	0x3d525d8d	0.05135875
154	0x3d8bb2c1	0.06821204
155	0x3d266476	0.04062315
156	0x3dcecf7b	0.100981675
157	0x3dd1e786	0.10249238
158	0x3d826fba	0.063689664
159	0xbe1fbd86	-0.15599641
160	0x3dee41c9	0.11633641
161	0x3e28c567	0.16481553
162	0xbdea26f3	-0.1143321
163	0x3de0d2f5	0.10977737
164	0x3dd58134	0.10425034
165	0xbdacd58a	-0.08439167
166	0xbe30bb82	-0.17259029
167	0xbdfa7faa	-0.12231381
168	0x3bef3937	0.0073005217
169	0x3d8d8e09	0.06911857
170	0xbcea9fd1	-0.02864066
171	0xbdb7fa17	-0.08983248
172	0xbd97286d	-0.073807575
173	0xbd217dea	-0.03942672
174	0xbe04dc93	-0.12974767
175	0x3dbd93c5	0.092567004
176	0x3da51638	0.080608785
177	0xbda162cc	-0.07880172
178	0x3d1a85b4	0.037725165
179	0x3d8bea2a	0.068317726
180	0xbe003e72	-0.12523821
181	0xbdec47c2	-0.11537124
182	0xbe0d1f6e	-0.1378152
183	0x3e37bafa	0.1794242
184	0x3e748f8f	0.23882888
185	0xbd236cbe	-0.039898627
186	0x3dc7767a	0.097393945
187	0xbe0d6d8e	-0.13811323
188	0xbe6838bc	-0.22677892
189	0xbd869ce4	-0.06572893
190	0x3e87ac73	0.26498756
191	0x3e1d3270	0.15351272
192	0x3e863d5f	0.26218697
193	0x3e31b4b1	0.17354085
194	0xbe3efc9f	-0.18651055
195	0x3bee1504	0.007265689
196	0x3adf90a3	0.0017056655
197	0xbd835b67	-0.06413918
198	0x3e2009d7	0.15628754
199	0xbd1a8a36	-0.037729464
200	0x3c1f60d1	0.009727673
201	0xbd924c2b	-0.07143434
202	0xbdb296d1	-0.08720172
203	0xbdae56af	-0.08512627
204	0x3e107fcf	0.14111255
205	0x3d2d32c4	0.042284742
206	0xbdb2c745	-0.08729414
207	0x3def8c66	0.11696701
208	0xbcae9858	-0.021312878
209	0xbd1d065b	-0.03833614
210	0xbe14bd50	-0.14525342
211	0x3ddefd34	0.108881384
212	0x3c43f3dc	0.011959996
213	0xbd6ae7e6	-0.05735006
214	0xbcb52798	-0.022113606
215	0x3deeef78	0.11666769
216	0xbe0bb450	-0.13643003
217	0xbcc2544a	-0.023721833
218	0xbc3628c9	-0.011118122
219	0x3c53e8a9	0.0129338885
220	0x3cc7510c	0.024330638
221	0xbe25448a	-0.16139427
222	0x3d0c9a06	0.034326576
223	0x3d56898f	0.05237728
224	0xbdedbdcd	-0.11608467
225	0x3da0a87a	0.07844634
226	0xbb7ac87d	-0.0038266473
227	0x3c42a118	0.011879228
228	0xbe003567	-0.12520371
229	0x3d2bc2bc	0.04193376
230	0xbe11ddfc	-0.14244837
231	0x3b96a324	0.0045970846
232	0x3dd5934d	0.10428486
233	0xbd0c66d9	-0.03427777
234	0xbe21ad56	-0.15788779
235	0x3d2ca34a	0.042147912
236	0xbe0f2ef9	-0.13982762
237	0xbe06ced6	-0.13164839
238	0xbd519835	-0.051170547
239	0x3d8cc563	0.06873586
240	0xbcdf47bf	-0.02725589
241	0x3cce4bb6	0.025182586
242	0x3d8bf8cc	0.068345636
243	0x3dcc19a8	0.09965831
244	0x3d4fb39d	0.050708402
245	0xbe96d323	-0.2945796
246	0xbcbd4e35	-0.023108581
247	0xbd61ba81	-0.055109505
248	0xbb5865fe	-0.0033019776
249	0xbe1b06a4	-0.15139252
250	0xbdcb5279	-0.0992784
251	0x3da8b542	0.08237697
252	0xbdcea546	-0.10090117
253	0x3d62dd19	0.055386636
254	0x3e2168fb	0.15762703
255	0xbbad7ca4	-0.0052943993

onnx::Conv_81 f4 [16]
0	0xbf05c400	-0.522522
1	0xbfa27f2d	-1.2695061
2	0xbfaefb3f	-1.3670424
3	0x3f936492	1.1515067
4	0x3f70372f	0.93834203
5	0x3f71959e	0.9436892
6	0x3fa27616	1.2692287
7	0x3f9c7518	1.2223234
8	0x3f2b15b7	0.6683001
9	0xbf18c1bb	-0.5967061
10	0x3f3fd7ca	0.7493864
11	0x3f5c8a39	0.8614841
12	0x3e0df8ba	0.13864413
13	0x3f2db5f5	0.6785577
14	0x3f189cc8	0.5961423
15	0xbeb66bd5	-0.35629144

onnx::Conv_83 f4 [32, 16, 3, 3]
0	0xbd10f65d	-0.0353912
1	0xbc8a1bd2	-0.016858969
2	0xbb29cba4	-0.0025908733
3	0x3cb3f9db	0.021969726
4	0xbce286fe	-0.02765226
5	0x3d06ee52	0.032942124
6	0xbd306286	-0.04306271
7	0xbcfd7bfd	-0.030942911
8	0xbd2a86f6	-0.041632615
9	0xbccfdacf	-0.02537289
10	0xbcbcb078	-0.023033366
11	0xbd5a354a	-0.053273477
12	0x3bf787fb	0.007554052
13	0x3adb3c1b	0.0016726287
14	0x3c952e21	0.018210473
15	0xbd6006c8	-0.054693967
16	0xbbfd762e	-0.0077350354
17	0xbd73d29e	-0.059527032
18	0x3c410fd8	0.011783563
19	0x3d528f3b	0.051406126
20	0x3d98025e	0.074223265
21	0x3c668dd2	0.014071899
22	0x3ccd4390	0.02505663
23	0x3cccaadc	0.024983816
24	0x3b4e274f	0.0031456535
25	0xbd442ac6	-0.047892354
26	0x3ca14315	0.019685308
27	0x3c83f7dd	0.016109401
28	0x39039b0a	0.0001255089
29	0xba676694	-0.0008827236
30	0xbd03a8fd	-0.03214358
31	0x3cba9b3c	0.0227791
32	0xbc3fb0fc	-0.011699911
33	0xba01659c	-0.00049361004
34	0x3c5fb6ab	0.013654391
35	0xbd036052	-0.03207428
36	0x3d5d433f	0.05401921
37	0xbb097d42	-0.00209792
38	0xbc9f64d2	-0.019457255
39	0x3d0ac86b	0.03388254
40	0x3d7dddb3	0.061979007
41	0x3cff2a2f	0.031148044
42	0x3cf67fec	0.030090295
43	0x3ce0e270	0.027451724
44	0x3d79fc09	0.061031375
45	0x3d1c8778	0.03821513
46	0x3d4a7043	0.049423467
47	0x3c951b84	0.018201597
48	0xbc851bbd	-0.016248578
49	0x3cab7028	0.020927504
50	0x3ca21805	0.019786844
51	0xbbe98061	-0.0071258997
52	0xbb494fa0	-0.0030717626
53	0xbc91411b	-0.01773124
54	0x3bf7366d	0.00754433
55	0x3d094936	0.033517085
56	0x3b3f7bdb	0.002921811
57	0xbd37afab	-0.044845264
58	0xbb876cfb	-0.0041328645
59	0xbc93795c	-0.018002205
60	0x3bc1727c	0.00590354
61	0xbb51c369	-0.0032007343
62	0x3c0e3b93	0.008681196
63	0x3cc441b7	0.023957117
64	0x3c9618a4	0.018322296
65	0x3a7b95e1	0.0009597224
66	0xbc2259b3	-0.009909081
67	0xbc9c9938	-0.01911603
68	0x3cfbee32	0.030753229
69	0xbcb11001	-0.021614077
70	0xbc63e6c3	-0.013909998
71	0x3d5430c0	0.051804304
72	0x3d3cce2c	0.04609506
73	0xbca58787	-0.020206226
74	0x3d33e809	0.043922458
75	0xbd01161b	-0.031515222
76	0x3b24ea43	0.0025164045
77	0xbc070e30	-0.008243129
78	0xbd8ef2b6	-0.06979887
79	0xbd4f8cae	-0.050671272
80	0xbc5103c6	-0.012757247
81	0x3c8c3717	0.017116113
82	0x3d5ae165	0.05343761
83	0x3c6cef90	0.014461413
84	0x3c938639	0.018008338
85	0x3dc2359b	0.09482881
86	0x3d6c37c9	0.05767039
87	0xbcc92cd1	-0.024557503
88	0xbc01f70b	-0.007932435
89	0xbd05acb5	-0.03263541
90	0xbc9c843e	-0.019106027
91	0x3c66876a	0.014070371
92	0x3c40bcfb	0.011763806
93	0xbd91655b	-0.0709941
94	0xbd63c5a7	-0.055608418
95	0xbc85061b	-0.016238263
96	0xbc6ace2d	-0.014331383
97	0xbb3c1e27	-0.0028704496
98	0x3d8a3a69	0.06749422
99	0xba2b6d3d	-0.000653941
100	0x3d30503c	0.043045267
101	0x3c8f95ee	0.017527547
102	0x3c8a1796	0.01685695
103	0xbb015bee	-0.0019738632
104	0xbc803939	-0.015652286
105	0xba03ccdb	-0.0005027779
106	0x3bd6a33b	0.0065502203
107	0xbc3feec9	-0.011714646
108	0x3b441e92	0.0029925448
109	0xbc3f0b13	-0.011660355
110	0x3d5bcb04	0.053660408
111	0x3ce5c217	0.02804665
112	0x3be3229b	0.0069316155
113	0x3d50d577	0.050984826
114	0xbd2bcac0	-0.041941404
115	0xbca047a9	-0.01956542
116	0xbd8ddc65	-0.069268025
117	0xbcc03cc4	-0.023466475
118	0xbd25c218	-0.040468305
119	0xbd82b5b8	-0.06382316
120	0xbca4825c	-0.020081691
121	0xbd57572c	-0.052573368
122	0xbb2efaf6	-0.0026699877
123	0xbd8274b6	-0.06369917
124	0xba16211d	-0.000572698
125	0xbd9c5b2c	-0.07634577
126	0xbd0d4e07	-0.03449824
127	0xbc340efa	-0.010989899
128	0xbc26af20	-0.010173589
129	0xbd445f26	-0.047942303
130	0x3c28565c	0.010274496
131	0xbd2ad68c	-0.041708514
132	0x3c851bdc	0.016248636
133	0x3d92e77b	0.07173058
134	0xbc78a840	-0.015176833
135	0xbc9cf840	-0.019161344
136	0xbd11d2c5	-0.035601396
137	0xbd8c175d	-0.06840394
138	0xbcda5a4c	-0.026654385
139	0xbd8e8bc5	-0.06960253
140	0xbd6bfae6	-0.057612322
141	0xbd74aabe	-0.059733145
142	0xbd092ab0	-0.033487976
143	0xbc740073	-0.014892685
144	0xbd900af8	-0.07033342
145	0xbd193e5f	-0.037412997
146	0xbd06a050	-0.03286773
147	0xbde7f6b7	-0.11326354
148	0xbc03359b	-0.008008386
149	0xbbe5e98b	-0.007016366
150	0x3d506d8a	0.050885715
151	0xbbeafd1d	-0.0071712867
152	0x3c38c62f	0.011277719
153	0xbcf6e0b6	-0.030136447
154	0xbd9804f8	-0.07422823
155	0xbdf8547d	-0.1212549
156	0x3c87bd3b	0.016569724
157	0x3d145e22	0.036222585
158	0xbca7a48a	-0.0204642
159	0x3e14c8d8	0.14529741
160	0x3ca91ea2	0.02064449
161	0x3e164202	0.14673617
162	0xbd90753a	-0.07053609
163	0xbcac27b9	-0.021015035
164	0xbd9d8467	-0.07691269
165	0x3c6aac42	0.014323296
166	0xbd9a0615	-0.07520691
167	0xbddc8937	-0.10768359
168	0x3dce559e	0.10074924
169	0x3d882aa7	0.0664876
170	0xbcef87cb	-0.029239556
171	0x3dc5e6bd	0.096631505
172	0x3d8feada	0.07027216
173	0x3de35393	0.11099925
174	0x3c1fe8e0	0.009760112
175	0xbd409d92	-0.04702527
176	0x3ca1cace	0.019750025
177	0xbc0a2b52	-0.00843318
178	0xbd73998f	-0.059472617
179	0xbd215344	-0.03938605
180	0xbc5b7a53	-0.013395864
181	0x3ce9d09e	0.02854186
182	0x3da4fb09	0.08055694
183	0x3d62188e	0.0551992
184	0xbcbf016d	-0.02331611
185	0x3d4f8618	0.05066499
186	0xbd8620e1	-0.0654924
187	0xbc5ddbbb	-0.013541157
188	0xbdb4721d	-0.08810828
189	0x3c450875	0.012025942
190	0x3d9f1962	0.07768513
191	0x3d961581	0.0732832
192	0x3cd1cca6	0.02561028
193	0x3c1630da	0.009166921
194	0x3d02f754	0.03197415
195	0x3c8ab924	0.016933985
196	0xbd8598e5	-0.06523303
197	0xbd613702	-0.0549841
198	0x3db68767	0.08912545
199	0x3d2d42b1	0.04229993
200	0x3e0ca039	0.13732995
201	0x3a7da098	0.00096751144
202	0xbc6f41e1	-0.014603109
203	0x3d1a9dc2	0.037748106
204	0xbd8ab52b	-0.06772836
205	0xbd213057	-0.03935274
206	0xbda2fd37	-0.07958453
207	0xbc9b1c32	-0.018934343
208	0x3d928aec	0.071554035
209	0xbc8edcb8	-0.017439231
210	0xbcd0a295	-0.02546815
211	0x3c79ace4	0.015238974
212	0x39c966d8	0.00038414332
213	0x3dc918a8	0.09819156
214	0xbd43aad5	-0.04777034
215	0xbda87e60	-0.08227229
216	0xbc609a5f	-0.01370868
217	0xbc5f3dd5	-0.013625582
218	0xbb99bf5f	-0.0046920027
219	0x3d2967af	0.041358646
220	0xbc79bf52	-0.015243368
221	0xbdaf7c21	-0.085685976
222	0xbcd3516b	-0.025795659
223	0xbb9a86df	-0.004715785
224	0xbd0cc7b3	-0.034370136
225	0x3d2839f5	0.041070897
226	0x3d6398f4	0.05556579
227	0x3d1a2dca	0.037641324
228	0xbcb92183	-0.022598987
229	0xbbb052f1	-0.005380981
230	0xbd44ceab	-0.048048656
231	0xbde9ef14	-0.11422554
232	0xbdb10167	-0.086428456
233	0x3b9cf3a8	0.0047897883
234	0x3d48cf93	0.049026083
235	0x3c9f0698	0.019412324
236	0xbd67f51c	-0.05663024
237	0xbcb7373c	-0.022365205
238	0xbc8eba44	-0.017422803
239	0xbdce2650	-0.10065901
240	0xbd068d6e	-0.03284972
241	0x3cd17fde	0.025573667
242	0x3d06ed72	0.03294129
243	0xbdc0b2c4	-0.09409097
244	0xbcd74b52	-0.026281033
245	0xbd7bb945	-0.061455984
246	0x3d30910c	0.043107077
247	0x3da0f341	0.07858897
248	0x3b78ba1e	0.0037952731
249	0xbdb30b47	-0.08742385
250	0xbd29384c	-0.041313455
251	0xbd86dc0c	-0.06584939
252	0x3d9f7450	0.07785857
253	0x3d8460e7	0.06463795
254	0xbc6186d1	-0.013765053
255	0xbcfcff79	-0.030883538

onnx::Conv_84 f4 [32]
0	0x3e9e76c5	0.3094999
1	0x3e2a2784	0.16616637
2	0x3e6356cc	0.22201079
3	0x3f0091bc	0.50222373
4	0xbea73fa4	-0.3266574
5	0xbe677535	-0.22603305
6	0x3f2b2110	0.66847324
7	0x3d08d2c4	0.033404127
8	0x3edfff1a	0.43749315
9	0x3f479732	0.7796508
10	0x3abe49c0	0.0014517829
11	0xbe9fbb46	-0.31197566
12	0x3f0ef81d	0.5584734
13	0x3efa8074	0.48926127
14	0xbeba0dd8	-0.36338687
15	0xbea91000	-0.3302002
16	0x3e0b2f5a	0.13592282
17	0x3e45ebbe	0.1932821
18	0xbea4692c	-0.3211149
19	0x3ef5a281	0.47975543
20	0xbf05a451	-0.5220385
21	0x3eb5c673	0.35502967
22	0xbf449028	-0.76782465
23	0x3e9f4c27	0.31112787
24	0x3e99e61c	0.30058372
25	0xbe9e2a1a	-0.30891496
26	0x3e655688	0.2239629
27	0x3f97f717	1.1872281
28	0xbf03ceb7	-0.51487297
29	0x3f0359a5	0.5130866
30	0xbec13561	-0.37736037
31	0x3f2db3c3	0.6785242

onnx::Conv_86 f4 [32, 32, 3, 3]
0	0x3c53e194	0.0129322
1	0xb9ff9e0d	-0.00048755147
2	0xbc6d6fa1	-0.014491946
3	0xbb3f7e12	-0.002921943
4	0x3cb2590a	0.021770973
5	0x39fef15d	0.00048626485
6	0x3d777648	0.060415536
7	0x3d8a13f6	0.067420885
8	0x3b1de68b	0.0024093713
9	0x3bac8ec4	0.0052660424
10	0x3d35b08d	0.044357825
11	0xbc2028f9	-0.009775394
12	0x3c93bab6	0.018033367
13	0x3d82a80e	0.0637971
14	0x3cf7f8b4	0.030269958
15	0x3dbe632f	0.092962615
16	0x3dde5545	0.108561076
17	0x3db2e7cd	0.08735619
18	0xbda67b52	-0.0812899
19	0xbd3328f3	-0.043740224
20	0xbd871f0c	-0.065977186
21	0x3d7259f2	0.05916781
22	0x3b8ba7e0	0.0042619556
23	0x3da20e4e	0.07912885
24	0x3d9c7ca8	0.07640964
25	0x3dd42698	0.10358924
26	0x3e1ba8b8	0.1520108
27	0xbd8e435a	-0.0694644
28	0x3d321c8e	0.043484263
29	0xbc993769	-0.01870318
30	0xbcc275fd	-0.023737902
31	0x3b337c5a	0.0027387352
32	0x3d2e6378	0.04257533
33	0xbcc53573	-0.024073338
34	0xbb7f58e8	-0.0038962904
35	0xbcbb863a	-0.022891153
36	0xbcfd1930	-0.0308958
37	0xbdc7cd15	-0.09755913
38	0xbda5d72b	-0.08097681
39	0x3c7ccaa8	0.015429176
40	0xbca92596	-0.020647805
41	0x3cfba50f	0.030718355
42	0xbcbb756e	-0.022883143
43	0x3c084e14	0.0083193965
44	0x3c9c5443	0.019083148
45	0x3bae9726	0.005328077
46	0x3d2c5eb6	0.04208251
47	0x3c3b1e3c	0.011420783
48	0xbd98f0ac	-0.074677795
49	0xbd1ab54e	-0.037770562
50	0xbd34fa80	-0.044184208
51	0xbdbd9c41	-0.09258319
52	0xbd96a6a7	-0.07356005
53	0xbdbfb6ee	-0.09361063
54	0x3c5b1daa	0.013373772
55	0x3d602e96	0.054731928
56	0x3c87f30d	0.016595388
57	0x3daa1a11	0.08305753
58	0x3de01ebf	0.10943364
59	0x3d6fe8cc	0.05857162
60	0x3d8b2c87	0.06795602
61	0x3d1cc210	0.03827101
62	0x3d047664	0.03233947
63	0x3d1d5ee1	0.03842056
64	0xbc732f4d	-0.01484282
65	0xbc5dac88	-0.013529904
66	0x3b82e10e	0.0039941138
67	0x3b30b597	0.0026963705
68	0x3cf6ee07	0.030142797
69	0xbd231e52	-0.039823838
70	0xbc1c7dc3	-0.009551468
71	0xbb84e022	-0.004055039
72	0xbdc85426	-0.09781675
73	0xbda04c08	-0.07827002
74	0xbd429875	-0.047508676
75	0xbd844946	-0.06459288
76	0xbda0dab0	-0.07854211
77	0xbcf08ec3	-0.02936495
78	0xbd7d44ad	-0.061833072
79	0xbcefa831	-0.029255005
80	0xbd76b748	-0.060233384
81	0x3d071aa3	0.032984387
82	0x3d57a281	0.05264521
83	0x3cc0399c	0.02346497
84	0x3cb28d69	0.021795945
85	0x3d64f0f2	0.055893846
86	0xbc332e90	-0.010936394
87	0x3d081758	0.033225387
88	0x3dfc1c6b	0.12310108
89	0x3dc206d1	0.094739564
90	0xbd5b61dd	-0.053560127
91	0xbc465d93	-0.012107271
92	0x3bb49a3b	0.0055115498
93	0xbd42ec7c	-0.04758881
94	0xbc6a8cb2	-0.014315771
95	0xbc0794a1	-0.008275182
96	0x3d782bbb	0.06058858
97	0x3d86a0c7	0.065736346
98	0x3d7c0bab	0.061534565
99	0xbd5eadaf	-0.054364856
100	0xbd58f87a	-0.05297134
101	0xbc4e37e9	-0.012586572
102	0x3d913076	0.07089321
103	0x3d6523b7	0.055942263
104	0x3cb0bec8	0.021575347
105	0x3c8297fb	0.01594161
106	0x3c297709	0.010343322
107	0x3c14e04a	0.009086678
108	0xbb482aa9	-0.0030543006
109	0xbc80329a	-0.015649129
110	0xbc60831b	-0.013703133
111	0xb9719b93	-0.00023041507
112	0x3d016ae5	0.031596083
113	0xbd8a5399	-0.06754226
114	0xbd3da3d6	-0.046298824
115	0xbd477de9	-0.04870406
116	0xbcae4084	-0.021270998
117	0xbd3e180e	-0.04640966
118	0xbce15487	-0.027506126
119	0xbd904dfb	-0.070461236
120	0x3a0c5e33	0.0005354613
121	0xbc1bbb60	-0.009505123
122	0xbd57637f	-0.05258512
123	0x3dc0103e	0.09378098
124	0x3d028ca4	0.031872407
125	0xbb883d22	-0.004157678
126	0xbdbd2196	-0.09234922
127	0xbdb9fad0	-0.09081042
128	0xbc83e411	-0.016099961
129	0xbd7e7693	-0.0621248
130	0xbd6aa5d6	-0.05728706
131	0xbbca12b4	-0.0061667804
132	0x3d78f81f	0.0607835
133	0x3d1e833b	0.03869937
134	0x3cdff10c	0.02733662
135	0x3b3af857	0.002852937
136	0x3d59cd03	0.05317403
137	0x3c084a70	0.0083185285
138	0xbab43697	-0.0013749179
139	0x3bec2393	0.007206389
140	0xbd0dccb5	-0.034619052
141	0xbc4eacf8	-0.012614481
142	0xbd01461c	-0.031561002
143	0x3b71e0d0	0.003690768
144	0xba599dd5	-0.0008301412
145	0xbd9180f3	-0.07104673
146	0xbc8fdd00	-0.017561436
147	0xbd2108d7	-0.03931507
148	0xbdbbd1bb	-0.09170862
149	0xbd67770f	-0.056510027
150	0xbbc033fd	-0.0058655725
151	0x3c197654	0.0093665905
152	0xbac8c34b	-0.0015316991
153	0xbd40baf0	-0.047053277
154	0x3a850a02	0.0010150077
155	0xbc1bcc0b	-0.009509097
156	0x3c675039	0.014118248
157	0x3d535270	0.05159229
158	0x3ce4ec55	0.027944723
159	0x3d0b4761	0.03400362
160	0x3bcfb9e7	0.0063393
161	0xba6685f7	-0.0008793766
162	0xbba497a2	-0.005022959
163	0xbd8492d6	-0.06473319
164	0xbd6f3b50	-0.058406174
165	0xbd8414e0	-0.06449294
166	0xbd8d4de7	-0.06899624
167	0xbd9eebe2	-0.07759835
168	0xbcb35541	-0.021891238
169	0xbcde489d	-0.027134234
170	0xbd504cf0	-0.050854623
171	0xbcffa5d0	-0.031206995
172	0x3d0ce0c2	0.034394033
173	0x3d5166f5	0.051123578
174	0x3d50e0cb	0.05099563
175	0x3d0cc5e1	0.0343684
176	0x3d00dba2	0.03145946
177	0x3dfcc743	0.12342694
178	0x3dd7a66d	0.1052979
179	0x3bf2f8b4	0.0074149016
180	0x3d9906d5	0.07472006
181	0xbc8265df	-0.015917717
182	0x3d211ea5	0.039335866
183	0x3beffe0b	0.0073239855
184	0xbd763ba5	-0.060115475
185	0xbd46927e	-0.04847955
186	0xbd557fb1	-0.05212373
187	0xbd169750	-0.036765397
188	0xbda3386a	-0.079697445
189	0x3d5012c0	0.05079913
190	0x3d202f67	0.039107706
191	0x3d2be6b4	0.041968063
192	0x3d6e89da	0.058236934
193	0x3da66431	0.08124579
194	0x3d5cd798	0.053916544
195	0x3d32ba31	0.043634597
196	0x3d163820	0.03667462
197	0x3cee1c3d	0.0290662
198	0xbcedd118	-0.029030368
199	0x3cb5325e	0.022118744
200	0xbc0f003b	-0.008728082
201	0xbddedde2	-0.108821645
202	0xbe264845	-0.16238506
203	0xbe0d7756	-0.13815054
204	0xbd694b43	-0.05695654
205	0xbceb0fd5	-0.028694073
206	0xbc52d8e9	-0.012869098
207	0xbd0b287c	-0.033974156
208	0xbc6fef38	-0.014644437
209	0xbc0d6383	-0.0086296825
210	0xbc234401	-0.009964944
211	0x3d0779b7	0.03307506
212	0xbd098ebc	-0.033583388
213	0x3d8927e5	0.066970624
214	0x3d29c27d	0.041445244
215	0xbc0ac31c	-0.008469369
216	0x3d3660bb	0.044525843
217	0x3d3d5256	0.0462211
218	0x3cef5b11	0.029218229
219	0xbca96faa	-0.020683128
220	0x3cbc7ad1	0.023007782
221	0x3c205af2	0.009787308
222	0xbc9e5ba3	-0.019330805
223	0xbc86b460	-0.016443431
224	0xbca04844	-0.019565709
225	0xbd01f9df	-0.031732436
226	0x3c80365d	0.015650922
227	0x3c92c378	0.017915472
228	0xbd14cf60	-0.03633058
229	0x3c8b9cd0	0.017042547
230	0xbc0ac8bf	-0.008470713
231	0x3cbadc2b	0.022810062
232	0x3d1172d9	0.035509918
233	0x3d71adf3	0.05900378
234	0xbc1df8c1	-0.009641827
235	0xbcdcf77e	-0.026973482
236	0xbd11a940	-0.0355618
237	0xbced8412	-0.02899364
238	0xbc84771c	-0.016170077
239	0xbcce12c9	-0.025155442
240	0xbad73f15	-0.0016421998
241	0x3c2c88c8	0.010530658
242	0x3c51618a	0.012779603
243	0xbcb2abd2	-0.021810446
244	0x3cf730cc	0.030174635
245	0xbb632494	-0.0034659253
246	0x3c1b6e93	0.009486812
247	0x3d8cb0ab	0.06869634
248	0x3d89fc69	0.067375965
249	0xbd3d4943	-0.046212446
250	0x3d6aa959	0.05729041
251	0xbd29e339	-0.041476462
252	0x3ccf09fd	0.025273317
253	0xbd9ea764	-0.07746771
254	0xbdeb2ddb	-0.114833556
255	0xbe105564	-0.14095074

onnx::Conv_87 f4 [32]
0	0x3dbdb3fe	0.092628464
1	0xbdcc5bd2	-0.09978451
2	0xbd953953	-0.07286324
3	0x3e8a752a	0.27042514
4	0x3e8c1782	0.27361685
5	0xbe33aa2f	-0.17545389
6	0x3dfbfea6	0.1230443
7	0x3e80cff4	0.25158656
8	0x3e98f48d	0.29874077
9	0xbe7a4f2f	-0.24444269
10	0x3f1a9204	0.6037905
11	0x3f0db3bc	0.5535238
12	0x3e917d69	0.28415993
13	0xbebea21c	-0.37233055
14	0x3f29a0aa	0.6626078
15	0x3e869215	0.26283327
16	0x3d84e642	0.06489231
17	0x3f76215b	0.96144646
18	0xbe9127be	-0.28350633
19	0xbe26aa32	-0.16275862
20	0x3e3183c8	0.17335427
21	0x3ec49cde	0.3840093
22	0xbeb77cf6	-0.35837525
23	0xbd9ab22b	-0.07553514
24	0x3e924d64	0.2857467
25	0xbe59719b	-0.21234743
26	0x3db56396	0.08856885
27	0x3e969cbb	0.2941645
28	0xbebed10f	-0.37268874
29	0xbe98db5c	-0.29854858
30	0x3e877341	0.2645512
31	0x3e3ae6e9	0.18252148

onnx::Conv_89 f4 [32, 16, 1, 1]
0	0x3ed82082	0.42212301
1	0xbda315b1	-0.07963122
2	0xbed7ba99	-0.4213455
3	0xbd8e9fd5	-0.06964079
4	0xbecb35ec	-0.39689577
5	0x3e6959f8	0.22788227
6	0x3ec1e9b0	0.37873602
7	0x3e6924c1	0.22767927
8	0x3eb9e6b1	0.36308816
9	0xbd524db9	-0.051343653
10	0x3ddcdc1a	0.107841685
11	0x3e39efa0	0.18157816
12	0xbdf9fff2	-0.12207021
13	0x3ca629f5	0.020283679
14	0x3eadd5ce	0.33952183
15	0x3eba3efc	0.36376178
16	0x3e2155f9	0.15755452
17	0x3e48cffb	0.19610588
18	0x3e360511	0.1777537
19	0x3d03efca	0.032211103
20	0x3cfb9fdb	0.030715873
21	0x3cbd21d1	0.023087414
22	0xbddee853	-0.10884156
23	0x3e49ba75	0.19700034
24	0x3e317d34	0.17332917
25	0x3e4063f5	0.1878813
26	0xbe22194d	-0.15829964
27	0x3e87c6b6	0.26518792
28	0x3eb79f59	0.3586376
29	0xbe05f2ff	-0.13080977
30	0x3e752d59	0.2394308
31	0xbdecdca5	-0.11565522
32	0x3e802bf2	0.25033528
33	0xbf06c106	-0.5263828
34	0x3ee20d50	0.44150782
35	0x3e7d48c2	0.24734786
36	0x3e55656f	0.20839475
37	0x3c35ebb7	0.011103562
38	0x3daa1134	0.083040625
39	0xbecd9746	-0.40154475
40	0xbf11dc63	-0.5697691
41	0xbcb3b504	-0.0219369
42	0xbd8dd208	-0.06924826
43	0x3eab21f7	0.3342435
44	0x3eb5f2cc	0.35536802
45	0xbf01ba21	-0.50674635
46	0x3d7dd9db	0.06197534
47	0x3e21f2bd	0.15815254
48	0x3dd30473	0.10303583
49	0xbd7582be	-0.05993914
50	0xbe94db41	-0.29073527
51	0xbe812ee3	-0.25231084
52	0x3e008868	0.12552035
53	0xbdd33422	-0.10312678
54	0x3db7db37	0.08977359
55	0x3e2d8271	0.1694429
56	0x3d911d29	0.0708564
57	0x3daafd1e	0.083490595
58	0x3e284494	0.1643241
59	0x3e45583f	0.19271944
60	0x3e2ff0e1	0.17181732
61	0x3e40bf76	0.18823037
62	0xbddbb07b	-0.1072702
63	0x3da5b898	0.08091849
64	0x3eb5368d	0.3539318
65	0x3e048add	0.12943597
66	0xbe4a02e8	-0.19727671
67	0xbe135565	-0.14388044
68	0xbcc8e213	-0.024521863
69	0xbe08d0e8	-0.13360941
70	0x3def60cc	0.116883844
71	0x3d6aae99	0.057295416
72	0x3e09ad2a	0.13444963
73	0x3e06009f	0.13086174
74	0xbeac5708	-0.3366015
75	0x3df5e97e	0.12007426
76	0x3ebc4051	0.3676782
77	0x3dee8852	0.11647095
78	0xbdb0c87a	-0.08631988
79	0xbef53bdd	-0.47897235
80	0xbec25c43	-0.37961015
81	0x3e4ed8b3	0.20199852
82	0xbdc245d1	-0.09485973
83	0xbe68f15c	-0.22748321
84	0xbea4293f	-0.32062718
85	0xbe281b79	-0.1641673
86	0xbdbdd64c	-0.092693895
87	0xbe2a9e7d	-0.16662021
88	0x3d65b132	0.05607719
89	0xbe6268a4	-0.2211023
90	0x3eaec104	0.34131634
91	0x3e89bd9f	0.26902482
92	0x3b3b06bd	0.0028537952
93	0x3e27d454	0.1638959
94	0xbe451de8	-0.1924969
95	0x3dd68266	0.1047409
96	0x3e073328	0.13203108
97	0xbde4e960	-0.11177325
98	0xbdad487e	-0.084610924
99	0xbe095eeb	-0.13415115
100	0xbd993f83	-0.07482817
101	0x3e29fdad	0.16600676
102	0x3e3a9f5f	0.18224858
103	0x3d941824	0.07231167
104	0x3c1f79c8	0.009733625
105	0xbe8bde03	-0.2731782
106	0xbe979af4	-0.29610407
107	0x3d0a1702	0.03371335
108	0x3eb35dde	0.35032552
109	0xbeb02d78	-0.3440969
110	0xbe3c4b35	-0.18388064
111	0xbde5e965	-0.11226157
112	0x3e335abf	0.17515086
113	0xbde06632	-0.10956992
114	0x3eacead0	0.33772898
115	0xbd78053e	-0.060551874
116	0xbcc221e6	-0.023697805
117	0xbe0cbd7d	-0.13744159
118	0xbbb885ea	-0.005631198
119	0x3de0d047	0.10977226
120	0x3c86be0e	0.016448047
121	0xbd348406	-0.04407122
122	0x3de54ff4	0.111968905
123	0x3e34aa80	0.17643166
124	0x3e4173c1	0.18891813
125	0xbe6cc32a	-0.23121324
126	0xbdddccdd	-0.1083009
127	0x3e102273	0.14075641
128	0xbea82bd9	-0.32845953
129	0xbde7f9d2	-0.11326946
130	0x3f1206a5	0.5704139
131	0xbef329f6	-0.4749295
132	0x3eed1ecb	0.46312556
133	0x3e6b4675	0.22976096
134	0xbeea6998	-0.45783687
135	0xbe72a257	-0.2369474
136	0xbedebb72	-0.43502384
137	0x3d9155f4	0.070964724
138	0xbdc6d82b	-0.097091995
139	0x3f2fe1d5	0.6870397
140	0x3f1a7eed	0.60349923
141	0x3df4930c	0.119421095
142	0xbec1c3b6	-0.37844628
143	0xbeb29c14	-0.34884703
144	0x3d22482b	0.039619606
145	0x3f1180c5	0.5683711
146	0xbe79a7fd	-0.24380489
147	0xbe4a9e31	-0.19786908
148	0x3e575f21	0.21032383
149	0xbec1679f	-0.3777437
150	0xbe2994d9	-0.16560687
151	0x3db93b13	0.09044471
152	0x3e056478	0.13026607
153	0xbe752f79	-0.2394389
154	0xbb96634f	-0.004589475
155	0x3eccdd07	0.4001238
156	0x3d26a8fa	0.040688492
157	0xbea3ff69	-0.320308
158	0xbdc22dc2	-0.09481384
159	0xbd8ebe44	-0.06969884
160	0x3edf5186	0.43616885
161	0xbebd4c5a	-0.36972314
162	0xbc1f5805	-0.009725575
163	0xbd2f4c3c	-0.042797312
164	0xbed8e06b	-0.42358717
165	0x3e8686ad	0.26274624
166	0xbeb0520d	-0.344376
167	0x3eb64fc8	0.35607743
168	0x3e306e6e	0.17229626
169	0x3ebb6e5a	0.3660763
170	0x3f08a5a5	0.53377753
171	0xbec511a4	-0.3849002
172	0xbe980f7a	-0.29699308
173	0xbd090f45	-0.033461828
174	0xbd278111	-0.04089457
175	0x3ed77464	0.42080986
176	0xbc100272	-0.0087896455
177	0x3e3adf86	0.1824933
178	0x3e599112	0.21246746
179	0xbdfc8b6b	-0.12331279
180	0x3ea0ab27	0.3138058
181	0xbd9a8ecf	-0.0754677
182	0xbe3d8462	-0.18507531
183	0x3f0b53b6	0.5442461
184	0xbe49b4f2	-0.19697931
185	0xbe84f4f9	-0.2596815
186	0xbea0f0ab	-0.31433615
187	0x3c0c2f77	0.008556238
188	0xbe8feb59	-0.28109244
189	0x3e700d36	0.2344254
190	0x3e7c4ceb	0.24638717
191	0x3df3da30	0.1190685
192	0xbd9cba14	-0.07652679
193	0xbe7fc083	-0.24975781
194	0x3ec15c37	0.37765667
195	0xbe9c9924	-0.30585587
196	0x3d9881b5	0.07446615
197	0x3d033b3f	0.032038923
198	0x3e3059f4	0.17221814
199	0x3e0d5b9c	0.13804477
200	0x3df59dc0	0.11992979
201	0xbd15528c	-0.036455676
202	0xbde15e6c	-0.11004338
203	0xbd73954e	-0.05946856
204	0x3e2232c0	0.15839672
205	0xbeb5d229	-0.35511902
206	0x3e51e411	0.20497157
207	0x3e16bf4e	0.14721414
208	0x3d17cc08	0.037059814
209	0x3ebb3780	0.3656578
210	0xbe30a8c2	-0.17251876
211	0xbd47afcb	-0.048751634
212	0xbe02aa2f	-0.12760232
213	0x3dd9638d	0.10614691
214	0xbd176927	-0.036965515
215	0x3c36a0e1	0.011146755
216	0xbd4c3679	-0.049856637
217	0x3e2f8f4b	0.17144506
218	0x3d51b787	0.051200416
219	0xbd0808f6	-0.03321167
220	0xbe6a5ba7	-0.22886525
221	0x3d71f925	0.059075493
222	0x3e35df1a	0.17760888
223	0xbe47c15a	-0.19507352
224	0xbe8f4010	-0.27978563
225	0xbe906452	-0.28201538
226	0x3d3a45a1	0.04547656
227	0x3e050ab4	0.12992364
228	0xbea2a189	-0.31763867
229	0xbebb99bb	-0.36640725
230	0xbcaf49c1	-0.021397473
231	0x3e31d3e0	0.1736598
232	0xbec5609d	-0.38550273
233	0xbe8aaf4b	-0.27086863
234	0xbeacd981	-0.33759692
235	0x3d310315	0.04321583
236	0x3e7b2434	0.24525529
237	0x3e9c810a	0.305672
238	0xbdff6d61	-0.12472034
239	0xbe81b8ab	-0.25336203
240	0x3dc5e9cc	0.09663734
241	0x3d0df841	0.03466058
242	0xbe18556d	-0.14876337
243	0x3d44878a	0.047980823
244	0x3c1c5d4f	0.009543731
245	0x3d612d0e	0.054974608
246	0x3ddc5675	0.10758678
247	0xbbc25cd0	-0.0059314743
248	0xbb40c1e7	-0.002941245
249	0x3e590e38	0.2119683
250	0x3e028369	0.12745441
251	0x3d5ef5a4	0.05443348
252	0x3d8fbe98	0.07018775
253	0xbcc0533c	-0.02347719
254	0x3d27751a	0.04088316
255	0x3d3dc74a	0.046332635

onnx::Conv_90 f4 [32]
0	0xbf6617af	-0.8987989
1	0xbf612429	-0.879458
2	0x3c2aab80	0.010416865
3	0xbededc16	-0.43527287
4	0xbe1d8624	-0.15383202
5	0x3e94f0f2	0.29090077
6	0x3ed99d59	0.4250286
7	0xbeae340e	-0.3402409
8	0x3e3a31a6	0.18183002
9	0x3d7c7b90	0.061641276
10	0xbf18323f	-0.5945167
11	0xbec0b6f0	-0.3763957
12	0xbe251d7d	-0.1612453
13	0xbe29e5fa	-0.16591635
14	0x3f5af78c	0.85533977
15	0xbed217ee	-0.41033882
16	0xbec87ebe	-0.39159197
17	0x3ec9434a	0.3930915
18	0xbf76d10e	-0.9641274
19	0x3ec9b31e	0.39394468
20	0xbb04ee00	-0.002028346
21	0xbebe9e0d	-0.37229958
22	0xbf4cb4b9	-0.7996326
23	0x3e466de2	0.19377854
24	0xbdce251c	-0.10065672
25	0xbf0c3416	-0.54766977
26	0x3eee0bc1	0.46493343
27	0xbe7578b3	-0.23971824
28	0xbd0ca2e2	-0.034335025
29	0xbc879004	-0.016548164
30	0xbedb7717	-0.42864296
31	0xbe9301cb	-0.28712305

onnx::Conv_92 f4 [64, 32, 3, 3]
0	0x3a9a4f66	0.001177293
1	0x3cc5c27b	0.024140587
2	0x3c88480e	0.01663592
3	0xbb57391f	-0.0032840443
4	0x3ccafe74	0.024779536
5	0x3c47a915	0.012186308
6	0x3c4ebde5	0.012618517
7	0x3d46d82a	0.048545994
8	0x3c5a9af8	0.0133426115
9	0xbb3c270c	-0.0028709797
10	0xbcdd7bc8	-0.027036563
11	0x3c8f0f06	0.017463218
12	0xba282683	-0.000641443
13	0xbb0df1bd	-0.002165898
14	0xbd3dd8bf	-0.046349283
15	0xbca95afc	-0.020673268
16	0xbd11da84	-0.035608783
17	0xbc40cb99	-0.011767291
18	0x3cfc1883	0.030773407
19	0x3c9162ea	0.017747361
20	0x3b5deb4d	0.0033862174
21	0xbb76ef08	-0.0037679095
22	0x3cb92218	0.022599265
23	0xbaca3355	-0.0015426675
24	0xbd0f2ce6	-0.034954928
25	0xbc45a372	-0.012062894
26	0xbcfc024a	-0.03076281
27	0xbc46443d	-0.01210123
28	0xbcc12cba	-0.023580898
29	0xbbec260f	-0.0072066854
30	0xbca0fbb4	-0.019651271
31	0xbc03126d	-0.0079999985
32	0xbbc428e7	-0.0059863213
33	0xbbece989	-0.007229988
34	0xbb93d975	-0.004512007
35	0x3bee163d	0.0072658346
36	0x3d2e2fd8	0.042526096
37	0x3ccd8b00	0.025090694
38	0xbcabcac8	-0.020970717
39	0xb9da10c0	-0.0004159268
40	0xbcb9c6cc	-0.022677802
41	0xbd706af7	-0.05869576
42	0x3c416567	0.011803961
43	0xbb8b7530	-0.004255913
44	0xbc6e93e6	-0.014561629
45	0xbd06fd62	-0.03295649
46	0xbd14769d	-0.03624593
47	0xbd00f724	-0.03148569
48	0xbd2b17c3	-0.041770708
49	0xbd2a04b0	-0.041508377
50	0xbcf52609	-0.029925363
51	0xbd1006aa	-0.035162605
52	0xbce583b5	-0.028016904
53	0xbc8ed2ed	-0.017434562
54	0x3b87490a	0.00412858
55	0x3c8cc8d3	0.017185604
56	0xbc9e2a8d	-0.0193074
57	0x3d249c53	0.040188145
58	0x3d1462c0	0.036226988
59	0xb9cd3ae6	-0.0003914453
60	0x3d06b57c	0.03288792
61	0x3bdb065e	0.0066841086
62	0xbcf75d6d	-0.030195916
63	0x3c86f63e	0.01647484
64	0x3cb1597a	0.021649111
65	0xbbf018cb	-0.0073271743
66	0x3c97b8ec	0.018520795
67	0x3d126115	0.035737116
68	0xbc8e1e70	-0.017348498
69	0xbbb91b5d	-0.005649014
70	0xbc8ccbd9	-0.017187046
71	0x3c1c5117	0.009540818
72	0x3c3cc11e	0.011520652
73	0xbbb4b01d	-0.0055141584
74	0x3b4c40df	0.0031166596
75	0x3c86f0f3	0.016472315
76	0x3c70d118	0.014698289
77	0xbcd28fec	-0.025703393
78	0xbcfa606e	-0.03056356
79	0xbc319133	-0.010837841
80	0xbd112843	-0.035438787
81	0x3c46a70d	0.012124789
82	0x3ca0542b	0.019571384
83	0x3ce10c71	0.027471753
84	0xbc422d7c	-0.011851665
85	0x3cc45c70	0.023969859
86	0x3cf438c8	0.029812232
87	0xbb691a2d	-0.003556858
88	0x3c0fca22	0.00877622
89	0x3cf53365	0.029931733
90	0xbc851016	-0.016243022
91	0xbd03b46e	-0.032154493
92	0xbb45cd02	-0.0030182009
93	0xbc52d325	-0.012867724
94	0xbcbc54d5	-0.02298967
95	0xbbdb69be	-0.006695955
96	0xbcdcd6c4	-0.026957877
97	0xbc4531fe	-0.012035845
98	0x3b61aec6	0.0034436448
99	0x3c66bc96	0.014083048
100	0x3bc2f780	0.0059499145
101	0x3c1fa5d7	0.009744129
102	0xba66e456	-0.00088078284
103	0x3ca51337	0.020150764
104	0x3c1de5ed	0.009637338
105	0xbce7a4e9	-0.028276877
106	0xbc7c4185	-0.01539648
107	0x3c27a38c	0.010231864
108	0x3d0d17e6	0.03444662
109	0x3cecf55a	0.028925586
110	0x3b71c4d8	0.003689101
111	0x3c9a88d8	0.01886408
112	0x39098efd	0.00013118605
113	0xbc6206f7	-0.013795606
114	0xbd3d61cc	-0.046235844
115	0xbcae3bf2	-0.021268819
116	0xbce40f68	-0.027839378
117	0x3ba55efb	0.005046723
118	0xbc29bf75	-0.010360588
119	0xbc9366bd	-0.017993325
120	0xbbf5f2a8	-0.0075057335
121	0xbcbefa5c	-0.02331274
122	0xbcc1ec31	-0.023672195
123	0xbad625df	-0.0016338191
124	0xbc615b6a	-0.013754705
125	0xbc9d92ac	-0.019234978
126	0x3ce63b27	0.028104378
127	0x3d1a97e4	0.03774251
128	0x3ce37edb	0.02777045
129	0xbd189670	-0.037252843
130	0xbc3867ef	-0.011255248
131	0x3bf30de9	0.0074174297
132	0xbd38700c	-0.04502873
133	0xbd4608d2	-0.048348255
134	0xbd864a77	-0.06557172
135	0x3cd3e3f1	0.025865527
136	0xbbe01ad6	-0.0068391366
137	0x3ca23c6a	0.019804198
138	0x3ac96490	0.0015365053
139	0xbc4a4b8c	-0.012347113
140	0x3b0f4b31	0.0021864886
141	0xbb70e8cf	-0.0036759858
142	0x3ca89785	0.020580063
143	0x3b95a4ca	0.0045667635
144	0x3b0be839	0.0021348132
145	0xbc5da70d	-0.013528598
146	0x3be1c071	0.006889396
147	0xbc8b1c6a	-0.016981322
148	0xbc7bd008	-0.015369423
149	0x3bb67623	0.005568282
150	0xbc69c55e	-0.014268247
151	0x3bdf9f06	0.006824377
152	0xbc221a31	-0.00989394
153	0x3be85b57	0.0070909667
154	0x3c4e0f81	0.012576939
155	0xbc9d6a19	-0.01921563
156	0xbd044888	-0.032295734
157	0xbc86afc3	-0.016441232
158	0xbcf3f880	-0.02978158
159	0xbd82612f	-0.063661925
160	0xbd27b18a	-0.0409408
161	0xbd418166	-0.047242545
162	0x3b8dc670	0.004326634
163	0xbcc14899	-0.023594188
164	0xbc8ea2cd	-0.017411614
165	0xbc722e11	-0.014781491
166	0xbd214fc9	-0.03938273
167	0xbb2e9e16	-0.002664452
168	0xbd762632	-0.06009502
169	0xbd5274f8	-0.05138108
170	0xbd619301	-0.055071834
171	0xbbf97fc7	-0.007614109
172	0xbbc73986	-0.0060798554
173	0x3ce9f6b4	0.02856002
174	0x3a8c7a47	0.0010717594
175	0xbc55b045	-0.013042514
176	0x3c7278a4	0.014799271
177	0xbc2e1996	-0.010626217
178	0x3baf640b	0.005352502
179	0xbbeb47a3	-0.0071801706
180	0x3d350030	0.044189632
181	0x3d7ea746	0.062171243
182	0x3d9f09d7	0.07765549
183	0x3d0a51f3	0.03376956
184	0x3d51632f	0.05111998
185	0x3d812bdc	0.06307194
186	0x3c498a72	0.012301074
187	0x3c5811f4	0.013187874
188	0x3c32c0cf	0.010910227
189	0xbc8512e5	-0.016244361
190	0xbca439b1	-0.02004704
191	0xbc89c134	-0.01681576
192	0x3d5eda0b	0.05440716
193	0x3ce5fccb	0.028074643
194	0x3caa6557	0.020800276
195	0xbc5af8f6	-0.013365021
196	0x3bb27faa	0.0054473476
197	0x3cce1fff	0.025161741
198	0xbc06532d	-0.008198542
199	0xbc80cc80	-0.015722513
200	0x3b25d803	0.0025305755
201	0xbc9556fd	-0.018229956
202	0xbb341b0c	-0.0027481942
203	0x3b6b81fd	0.0035935633
204	0xbc88e722	-0.016711775
205	0xbba3cb86	-0.004998627
206	0x3cfbc3a8	0.030732945
207	0xbcca0326	-0.024659704
208	0xbb2d8e38	-0.0026482474
209	0x3c8ca612	0.017169032
210	0xbd5787d7	-0.05261978
211	0xbd211819	-0.039329622
212	0xbd1bd370	-0.03804344
213	0xbcb7427f	-0.022370575
214	0xbbe2ec47	-0.006925139
215	0xbb93b8c2	-0.004508109
216	0xbcb3901e	-0.021919306
217	0x3b27a471	0.0025580192
218	0xbc49b7ad	-0.012311858
219	0xbd3a1745	-0.045432348
220	0xbd173295	-0.036913473
221	0xbd22e291	-0.03976685
222	0xbd6569a5	-0.056008954
223	0xbd690c90	-0.056896746
224	0xbd598637	-0.053106513
225	0x3d127027	0.035751488
226	0x3cc743d6	0.024324339
227	0xbcb3857e	-0.02191424
228	0x3d7971c8	0.060899526
229	0x3d5f7ea4	0.054564133
230	0xbbe57aab	-0.0070031486
231	0xbc6a9b60	-0.014319271
232	0x3b857f70	0.0040740296
233	0xbc7d2c7e	-0.015452502
234	0x3c6617e1	0.014043779
235	0x3cb8e655	0.022570768
236	0x3d25669e	0.040381067
237	0xbc83ec5a	-0.016103912
238	0xbca11759	-0.019664453
239	0x3ab4031e	0.0013733839
240	0x3c78bea7	0.015182174
241	0xbb1a2834	-0.0023522498
242	0xbb9309af	-0.0044872384
243	0x3cbad35c	0.022805862
244	0x3d5fdff7	0.05465695
245	0x3d4fbf58	0.05071959
246	0x3c890e85	0.016730556
247	0x3d43d530	0.047810733
248	0x3cd0a025	0.025466988
249	0x3d1dd9e0	0.03853786
250	0x3d8dca72	0.06923379
251	0x3d64fb1e	0.055903547
252	0xbca45c7b	-0.02006363
253	0xbcb3072f	-0.021854011
254	0xbc9dd2eb	-0.019265613
255	0x39bf266a	0.0003645898

onnx::Conv_93 f4 [64]
0	0x3e3330f0	0.17499137
1	0xbe8b83de	-0.27249044
2	0x3d01e176	0.031709157
3	0xbe1c8c16	-0.15287814
4	0x3ae10940	0.0017168894
5	0x3ee95e27	0.45579645
6	0x3ed2f79c	0.41204536
7	0xbe53feda	-0.20702687
8	0xbe09bc2f	-0.13450693
9	0x3e3d140e	0.18464682
10	0x3d76bd87	0.06023934
11	0x3bd64e50	0.0065400973
12	0xbda6d8ec	-0.08146843
13	0x3e544475	0.2072924
14	0x3e2105a5	0.1572481
15	0x3d4d8d0c	0.05018334
16	0x3e0050f7	0.12530886
17	0x3e817b93	0.25289592
18	0xbd9da7d8	-0.07698029
19	0xbe97ceb4	-0.2964989
20	0x3ceb1ce8	0.028700307
21	0xbd2c8a3c	-0.042124018
22	0xbe80b4a1	-0.2513781
23	0xbc04a304	-0.008095507
24	0xbda482f2	-0.08032788
25	0xbe1df7cc	-0.15426558
26	0xbd063cd0	-0.03277284
27	0x3ce63e0d	0.02810576
28	0x3d813610	0.0630914
29	0x3eafa6e7	0.34307024
30	0x3d0c9e24	0.034330502
31	0x3cbc6140	0.022995591
32	0xbe56ad44	-0.20964533
33	0xbe1bfd64	-0.1523338
34	0xbd0451f5	-0.032304723
35	0xbdbc72b2	-0.09201564
36	0x3e6cec77	0.23137079
37	0x3deead06	0.11654095
38	0x3e04c2b2	0.12964895
39	0x3e435614	0.19075805
40	0x3dac9191	0.08426202
41	0x3df7fbc1	0.12108565
42	0xbc8c0d30	-0.017096132
43	0xbd5b2efc	-0.053511605
44	0xbeb36b85	-0.35042968
45	0x3f09808b	0.53711766
46	0xbdaa7e0b	-0.08324822
47	0xbcc0edee	-0.023550954
48	0x3d994a42	0.07484867
49	0x3e99079e	0.29888624
50	0x3e71d8ea	0.23617902
51	0x3c508a4c	0.012728285
52	0x3e55e890	0.20889497
53	0x3eac8c63	0.33700857
54	0x3f0fa32c	0.56108356
55	0xbdf25dc0	-0.11834288
56	0x3ee96244	0.45582783
57	0x3d91be0d	0.071163274
58	0xbdec2c1e	-0.11531852
59	0xbc8a2da7	-0.016867472
60	0xbbcce518	-0.006252896
61	0xbed6db46	-0.41964167
62	0xbe9d66f1	-0.307426
63	0x3e42a940	0.19009876
