server/model/item_que_pessoa_normalmente_usa_nos_pes.onnx (onnx, 302121 bytes, 16 tensors)

fc.weight f4 [2, 256]
3.646e-40 8.0753e-40 1.34002e-39 2.308292e-39 -0.23910981 -0.14830932 -0.14514436 -0.061690554
1.032973e-39 2.079852e-39 3.057776e-39 4.588974e-39 0.10289776 0.26205444 0.09172681 0.2885626
-0.06604003 -0.05251401 0.0056504435 0.030376408 -0.13993463 -0.15806577 -0.21249515 -0.2293454
1.6798e-40 2.8004e-40 8.0163e-41 8.9131e-41 0.06081304 0.4097425 0.050778996 0.37896237
-8.56911e-40 -7.5534e-40 -7.76929e-40 -1.491786e-39 3.600894e-39 4.056805e-39 6.070348e-39 5.187796e-39
1.21235e-39 1.140081e-39 1.050234e-39 1.152087e-39 -2.739243e-39 -2.213897e-39 -2.444267e-39 -2.449851e-39
2.21311e-40 7.89e-42 2.40778e-40 3.3853e-41 -2.661287e-39 -2.404255e-39 -2.838153e-39 -2.721259e-39
-0.22383504 -0.21026449 -0.26826108 -0.24810004 -4.799074e-39 -6.305592e-39 -5.391206e-39 -5.182955e-39
0.14929426 0.16118084 0.2457989 0.2671175 0.008893383 0.21225013 0.00083084544 0.19134848
-5.831609e-39 -5.536803e-39 -5.627214e-39 -5.356312e-39 2.099938e-39 3.595632e-39 1.98137e-39 1.840486e-39
-1.118867e-39 3.17967e-39 -3.604028e-39 9.97097e-40 -5.65287e-40 -6.39673e-40 -4.82337e-40 -2.97812e-40
-4.977011e-39 -6.461157e-39 -6.249085e-39 -6.247901e-39 -2.40845e-40 -2.62368e-40 -4.49765e-40 -1.484806e-39
1.967747e-39 2.25999e-39 2.401115e-39 3.246343e-39 3.897786e-39 3.651234e-39 3.729812e-39 3.371448e-39
-0.2658754 -0.2605902 -0.16855277 -0.14689612 1.037723e-39 -1.9153e-41 5.50305e-40 -2.64648e-40
2.174887e-39 -2.207096e-39 -2.302998e-39 -2.31121e-39 -2.255597e-39 -2.310094e-39 -1.972325e-39 -2.081133e-39
-8.28825e-40 2.657848e-39 7.09521e-40 -8.04037e-40 0.06588764 0.40764436 0.076928094 0.39007077
-1.336203e-39 -1.29344e-39 -1.36321e-39 -1.551194e-39 -5.82895e-40 -6.10396e-40 -3.52268e-40 -5.74747e-40
0.032328762 0.042154875 0.13172762 0.16566849 -0.26817164 -0.15839082 -0.2380636 -0.11976645
2.76813e-39 2.936031e-39 2.990406e-39 3.252433e-39 -0.09089129 -0.09602803 -0.15151414 -0.16770634
-0.21953434 -0.26272988 -0.21930355 -0.25879326 5.33655e-40 6.19273e-40 5.34098e-40 5.91623e-40
5.957896e-39 4.591013e-39 -4.328348e-39 -7.238082e-39 -0.103558965 -0.098331854 -0.030201383 -0.007371366
3.83701e-40 5.3821e-40 -1.60706e-39 -3.228586e-39 -1.869296e-39 -2.358485e-39 -2.30745e-39 -2.08117e-39
-3.42741e-39 3.491872e-39 -1.978434e-39 3.291773e-39 -0.15147169 -0.15433939 -0.17441814 -0.19114606
1.0331531e-38 1.0288443e-38 1.0003728e-38 8.055545e-39 -0.22119091 -0.18188271 -0.009018592 0.033443842
-1.581597e-39 -1.722518e-39 -1.551548e-39 -1.546184e-39 7.80598e-40 4.359198e-39 -3.615777e-39 -4.660974e-39
2.670481e-39 3.038906e-39 -2.928704e-39 -2.25319e-39 2.238517e-39 6.692429e-39 -3.44197e-39 -6.6562e-39
1.310228e-39 3.66913e-40 1.163536e-39 1.394958e-39 5.123713e-39 5.627533e-39 5.030541e-39 5.705918e-39
1.353957e-39 1.329018e-39 1.36422e-39 1.364554e-39 -1.478691e-39 -2.7505e-39 -2.612536e-39 -2.04976e-39
-0.0915641 -0.14143254 -0.20284007 -0.26800618 0.18761444 0.30936575 0.17322856 0.26532587
0.014809657 0.13519846 0.0017618119 0.12422328 2.60473e-40 2.65993e-40 2.19135e-40 2.83186e-40
-6.860864e-39 6.843242e-39 -6.635314e-39 -6.99793e-39 0.03597972 0.043179605 0.16783993 0.19759835
-1.729435e-39 -2.050786e-39 -1.759291e-39 -2.025444e-39 -1.399206e-39 -1.385684e-39 -1.323926e-39 -1.201524e-39
00000000: 5bf8 0300 11cb 0800 6e97 0e00 9422 1900
00000010: 34d9 74be 66de 17be b9a0 14be 3caf 7cbd
00000020: 823f 0b00 c8a5 1600 d64b 2100 31f8 3100
00000030: 10bc d23d 002c 863e 44db bb3d 7abe 933e
00000040: ff3f 87bd ee18 57bd 5b27 b93b f2d7 f83c
00000050: 064b 0fbe fedb 21be 5498 59be 85d9 6abe
00000060: 43d4 0100 a30c 0300 76df 0000 76f8 0000
00000070: 1817 793d c5c9 d13e a3fd 4f3d 5b07 c23e
00000080: b854 0980 9539 0880 c375 0880 7e3e 1080
00000090: d435 2700 b92c 2c00 a919 4200 777d 3800
000000a0: 8a33 0d00 156a 0c00 a06f 0b00 8d8b 0c00
000000b0: e5d3 1d80 721b 1880 9f9d 1a80 30ad 1a80
000000c0: ed68 0200 fe15 0000 319f 0200 5e5e 0000
000000d0: 96fa 1c80 162e 1a80 9ee7 1e80 c3a1 1d80
000000e0: 0335 65be 934f 57be 8459 89be f00d 7ebe
000000f0: de41 3480 6da9 4480 7db4 3a80 f86f 3880
00000100: 98e0 183e 970c 253e b5b2 7b3e a0c3 883e
00000110: 8db5 113c 1958 593e 18cd 593a dbf0 433e
00000120: 2780 3f80 5b4a 3c80 6246 3d80 3853 3a80
00000130: c6dd 1600 2927 2700 4193 1500 870a 1400
00000140: f22e 0c80 a09f 2200 903e 2780 80db 0a00
00000150: ca27 0680 26f7 0680 8f40 0580 2e3e 0380
00000160: e231 3680 145b 4680 e80b 4480 9b08 4480
00000170: 619f 0280 60db 0280 c3e5 0480 092b 1080
00000180: 476d 1500 ef9b 1800 5525 1a00 7c59 2300
00000190: 7171 2a00 28c2 2700 339d 2800 3ab6 2400
000001a0: d220 88be 146c 85be 1999 2cbe f06b 16be
000001b0: c04c 0b00 6435 0080 07fe 0500 bbe1 0280
000001c0: b3ae 1700 7c08 1880 d213 1980 b72a 1980
000001d0: b08f 1880 9a27 1980 0a7a 1580 5aa9 1680
000001e0: 6d06 0980 00f1 1c00 dbb9 0700 54c1 0880
000001f0: 19f0 863d c3b6 d03e 7a8c 9d3d 5bb7 c73e
00000200: ca8c 0e80 9615 0e80 13d8 0e80 19e4 1080
00000210: e058 0680 89a5 0680 fbd5 0380 2942 0680
00000220: 2a6b 043d 97aa 2c3d 9be3 063e 00a5 293e
00000230: cb4d 89be 3431 22be f2c6 73be 1d48 f5bd
00000240: 6c24 1e00 76f8 1f00 0990 2000 766a 2300
00000250: 3625 babd 58aa c4bd 8626 1bbe 36bb 2bbe
00000260: 9ccd 60be 8884 86be 1c91 60be 8d80 84be
00000270: 9dcf 0500 48be 0600 d9d0 0500 3471 0600
00000280: 31e0 4000 e0fd 3100 ac21 2f80 d4d0 4e80
00000290: b916 d4bd 3662 c9bd e468 f7bc 808b f1bb
000002a0: 9a2d 0400 4fdc 0500 d47f 1180 fc27 2380
000002b0: d65a 1480 7fae 1980 3b20 1980 75a9 1680
000002c0: 3a52 2580 eb05 2600 128b 1580 20d8 2300
000002d0: 651b 1bbe 250b 1ebe ab9a 32be cbbb 43be
000002e0: 1b80 7000 fe07 7000 53ee 6c00 95b7 5700
000002f0: df7f 62be 763f 3abe b7c2 13bc 69fc 083d
00000300: d938 1180 aec1 1280 16e5 1080 22d6 1080
00000310: fd7f 0800 ac77 2f00 515f 2780 e6c0 3280
00000320: 3714 1d00 3c17 2100 09e4 1f80 fa88 1880
00000330: 1360 1800 c5df 4800 d07a 2580 c77a 4880
00000340: 6244 0e00 cefe 0300 77ab 0c00 9330 0f00
00000350: d4ca 3700 4647 3d00 1ac7 3600 c721 3e00
00000360: 48be 0e00 c378 0e00 e4da 0e00 d2db 0e00
00000370: fd19 1080 46f3 1d80 b072 1c80 e651 1680
00000380: f585 bbbd b1d3 10be 4fb5 4fbe 1b38 89be
00000390: 001e 403e 3065 9e3e d462 313e cbd8 873e
000003a0: 34a4 723c 7771 0a3e 99ec e63a c668 fe3d
000003b0: 18d6 0200 7be5 0200 dc62 0200 6815 0300
000003c0: 4cb5 4a80 2d84 4a00 8e40 4880 6233 4c80
000003d0: 795f 133d 19dd 303d 3bde 2b3e 3957 4a3e
000003e0: f6d4 1280 c254 1680 3028 1380 1d0e 1680
000003f0: 6b3c 0f80 b916 0f80 916a 0e80 5c15 0d80

fc.bias f4 [2]
-0.0067411647 0.001614891
00000000: fde4 dcbb c0aa d33a

onnx::Conv_80 f4 [16, 3, 7, 7]
0.14066367 0.082705595 0.037568644 0.040666632 0.015438934 -0.061476782 -0.047831696 0.12201524
0.023986677 -0.027522594 -0.013010945 -0.028137246 -0.09060037 -0.075576894 0.1429781 0.08949236
0.011554673 -0.038025524 -0.01719795 -0.07059652 -0.053927243 0.10066284 0.113194846 0.039437782
-0.01854332 -0.041876774 -0.10381315 -0.06499552 0.06448565 0.09573155 0.07289432 -0.04209944
-0.059237983 -0.09350689 -0.056947216 0.07871121 0.06851797 0.07929858 -0.00050502113 -0.0374451
-0.084725626 -0.05171601 0.056893833 0.06940358 0.06703273 0.056301884 -0.03665306 -0.0582037
-0.067431755 0.054357488 0.0037986638 -0.010391698 -0.00076205854 0.017165767 0.013029038 0.027362907
0.07843553 0.03213038 0.0057296935 0.00045141505 0.013697263 -0.0075483415 0.011586125 0.12186281
0.08074024 0.017237078 -0.0148682315 0.0061983895 -0.0052639074 0.008463082 0.04243292 0.053280137
0.036968816 -0.03338601 -0.038001455 -0.038177535 -0.0074117035 0.009044358 0.04165376 0.061067116
-0.019565754 -0.05968977 -0.04592536 -0.026230069 0.010689508 0.04113425 0.039387453 0.0044094697
-0.052750114 -0.056194708 -0.033070236 0.029742002 0.007750542 0.053434476 0.01869846 -0.015566853
-0.050337337 -0.06631651 -0.00024894028 -0.048787173 -0.042415414 -0.024997838 5.4566823e-05 -0.036036313
0.0026719312 -0.027708875 -0.054874036 -0.06817066 -0.08346207 -0.06175834 -0.07219956 -0.04710445
0.047777195 -0.0068349205 -0.07829726 -0.10041386 -0.09892102 -0.09015487 -0.07642737 0.021011084
0.055473875 -0.009240878 -0.06383615 -0.087421216 -0.09386485 -0.07242031 0.032933272 0.06382476
0.053768896 -0.025813295 -0.08548416 -0.07149764 -0.07068675 0.03729435 0.086415745 0.05331003
-0.009475381 -0.059649013 -0.064768404 -0.07123471 0.03877442 0.047389302 0.043339003 0.033083897
-0.015116697 -0.017587308 -0.07148684 0.04107794 -3.953089e-06 -0.012289644 -0.03924866 -0.05856943
-0.05594616 -0.0679526 0.098829225 0.051839218 0.031754453 -0.002671132 -0.020218845 -0.018771367
0.004375636 0.060079888 0.04810905 0.06084643 0.037167773 0.022823963 0.035680797 0.030421983
0.030589962 0.035566166 0.0859393 0.11446118 0.11501982 0.1013857 0.079456076 0.026596216
0.030434692 0.055735793 0.059299048 0.06350894 0.05718491 0.07398261 0.008943477 0.015883395
0.024042979 0.012295874 0.013643846 0.00086234295 0.027640529 0.012177232 -0.0098963715 -0.021980511
-0.018748134 -0.0032429018 -0.012996342 0.0059647528 0.05937705 0.027614828 0.016658137 -0.018419024
-0.01805012 -0.03573453 -0.0439206 0.08061633 0.057739325 0.037853442 0.002869304 -0.013728469
-0.015660932 -0.015869685 0.03710347 0.0532307 0.06908444 0.052122965 0.04111799 0.051997054
0.025994781 -0.025836198 -0.009469507 0.051078722 0.09810065 0.10817891 0.09899297 0.07483107
-0.056754287 -0.031568956 -0.006709674 0.0024780112 0.014750758 0.017912222 0.041902497 -0.03206501
-0.020825306 -0.028936068 -0.030281665 -0.02485879 -0.03763965 -0.0051345252 -0.0012399146 -0.0077634943
-0.018256746 -0.019734314 -0.0026636927 -0.0067260563 -0.0153563 -0.021380506 -0.024074797 -0.06376298
-0.07311165 -0.08381522 -0.08210326 -0.0645289 0.037971605 0.017353186 -0.0068833544 -0.051237017
00000000: 230a 103e 8d61 a93d 94e1 193d 0e92 263d
00000010: 95f3 7c3c 14cf 7bbd 2beb 43bd 20e3 f93d
00000020: b57f c43c 1077 e1bc dc2b 55bc 1580 e6bc
00000030: b08c b9bd 0fc8 9abd da68 123e c547 b73d
00000040: d04f 3d3c a7c0 1bbd b7e2 8cbc e994 90bd
00000050: d0e2 5cbd 5228 ce3d b3d2 e73d 8389 213d
00000060: 29e8 97bc fb86 2bbd fd9b d4bd 5f1c 85bd
00000070: 0d11 843d e70e c43d 9e49 953d 7670 2cbd
00000080: 87a3 72bd 8a80 bfbd 7c41 69bd 5833 a13d
00000090: 2653 8c3d 4b67 a23d 6563 04ba 0860 19bd
000000a0: a184 adbd 2bd4 53bd 8209 693d 7723 8e3d
000000b0: 7548 893d ce9c 663d 8521 16bd 0167 6ebd
000000c0: a919 8abd f5a5 5e3d 01f3 783b f141 2abc
000000d0: e2c4 47ba 399f 8c3c bf77 553c 2d28 e03c
000000e0: cfa2 a03d 259b 033d 27c0 bb3b e7ab ec39
000000f0: 7c6a 603c 1458 f7bb bbd3 3d3c 3593 f93d
00000100: 245b a53d c634 8d3c e299 73bc dc1b cb3b
00000110: db7c acbb bda8 0a3c 24ce 2d3d 463c 5a3d
00000120: 9d6c 173d c5bf 08bd 6aa7 1bbd 0c60 1cbd
00000130: e0dd f2bb c92e 143c 229d 2a3d 8321 7a3d
00000140: 5c48 a0bc 437d 74bd 3b1c 3cbd 71e0 d6bc
00000150: 0c23 2f3c 637c 283d bd54 213d 507d 903b
00000160: 8110 58bd 6c2c 66bd a874 07bd 80a5 f33c
00000170: 42f8 fd3b 1cde 5a3d 832d 993c 1d0c 7fbc
00000180: 862e 4ebd f3d0 87bd 3384 82b9 0fd5 47bd
00000190: c9bb 2dbd 44c8 ccbc aede 6438 d09a 13bd
000001a0: 911b 2f3b b9fd e2bc 99c3 60bd 0f9d 8bbd
000001b0: 29ee aabd 50f6 7cbd 5ddd 93bd 99f0 40bd
000001c0: 05b2 433d 78f7 dfbb 505a a0bd c8a5 cdbd
000001d0: 1b97 cabd 1ea3 b8bd f485 9cbd 701f ac3c
000001e0: 9338 633d 0d67 17bc 87bc 82bd e509 b3bd
000001f0: 373c c0bd 1951 94bd 0ae5 063d 8eb6 823d
00000200: c63c 5c3d 6776 d3bc 5212 afbd 5b6d 92bd
00000210: 37c4 90bd f6c1 183d bdfa b03d 9e5b 5a3d
00000220: a13e 1bbc 8652 74bd 4ca5 84bd 81e3 91bd
00000230: edd1 1e3d 491b 423d 3d84 313d fb82 073d
00000240: 06ac 77bc 4213 90bc b167 92bd 5841 283d
00000250: c7a4 84b6 815a 49bc 34c3 20bd 80e6 6fbd
00000260: cd27 65bd bc2a 8bbd fa66 ca3d 5c55 543d
00000270: f510 023d 290e 2fbb fea1 a5bc 69c6 99bc
00000280: 7f61 8f3b 5416 763d ff0d 453d 1b3a 793d
00000290: 3c3d 183d 52f9 ba3c 0726 123d 8637 f93c
000002a0: cd97 fa3c d4ad 113d f200 b03d a06a ea3d
000002b0: 838f eb3d 4ea3 cf3d deb9 a23d 4fe0 d93c
000002c0: 2d52 f93c 374b 643d 8fe3 723d fa10 823d
000002d0: b93a 6a3d 3284 973d a987 123c e51d 823c
000002e0: c8f5 c43c a274 493c 708a 5f3c db0e 623a
000002f0: 646e e23c 0383 473c 6424 22bc 7910 b4bc
00000300: b095 99bc dd86 54bb 9cee 54bc f973 c33b
00000310: 5935 733d 7e38 e23c a576 883c 7ee3 96bc
00000320: d8dd 93bc 5f5e 12bd 16e6 33bd 2d1a a53d
00000330: 1280 6c3d 360c 1b3d ef0a 3c3b 5fed 60bc
00000340: 5b4b 80bc 2401 82bc cff9 173d 6f08 5a3d
00000350: 257c 8d3d e47e 553d 566b 283d ddfa 543d
00000360: 02f3 d43c 6fa6 d3bc fe25 1bbc ec37 513d
00000370: fee8 c83d e88c dd3d d4bc ca3d 0841 993d
00000380: 2f77 68bd 734e 01bd d3dc dbbb 2166 223b
00000390: 2aad 713c a7bc 923c f4a1 2b3d 9a56 03bd
000003a0: d599 aabc 550b edbc 4111 f8bc a9a4 cbbc
000003b0: 092c 1abd 853f a8bb a184 a2ba e964 febb
000003c0: 2c8f 95bc dba9 a1bc 5991 2ebb 4066 dcbb
000003d0: fe98 7bbc 2c26 afbc 8238 c5bc 2a96 82bd
000003e0: 90bb 95bd 50a7 abbd c125 a8bd ba27 84bd
000003f0: 1d88 1b3d 4528 8e3c c38d e1bb e8dd 51bd

onnx::Conv_81 f4 [16]
0.27015173 -0.82750857 0.18383294 0.27908987 0.6290589 -0.036412865 -0.0019352883 -0.006763678
0.32876536 -0.11768077 0.1848693 -0.03955931 -0.043626845 0.13326865 0.46820182 -0.005648572
00000000: 5451 8a3e 9ad7 53bf b43e 3c3e dee4 8e3e
00000010: 010a 213f a825 15bd 80a9 fdba d8a1 ddbb
00000020: ef53 a83e 9e02 f1bd 614e 3d3e f108 22bd
00000030: 10b2 32bd 9477 083e 26b8 ef3e a817 b9bb

onnx::Conv_83 f4 [32, 16, 3, 3]
-0.04586387 -0.009116657 0.042669903 0.00034817576 -0.04008218 -0.03204992 -0.07071835 -0.056296855
-0.020727355 0.037105232 0.04270069 -0.00049820147 -0.08059628 -0.05577163 -0.043121126 -0.06915225
-0.05443642 -0.07343796 -0.02826386 -0.03613554 -0.011076932 0.025981782 0.020734126 0.063001715
-0.015482648 -0.002830176 0.02856903 0.0069025727 0.005956595 0.012243171 0.03788337 0.027650008
0.035093807 -0.03533959 -0.041983083 -0.018545039 0.05403457 0.016371077 0.0006660614 0.083537444
0.05620713 0.061793197 -0.02903479 -0.061621487 -0.0006708276 0.04893526 0.010205039 -0.0151457945
0.03021012 0.01628515 0.01958164 0.03549643 0.035241626 0.049594983 -0.09526587 -0.04168481
0.01709249 -0.04755071 -0.07324799 0.011611795 -0.0028671364 -0.05428859 -0.03265082 0.00039972385
-0.00072347047 -0.0017678384 0.002119166 -0.00019856404 -0.0013871678 0.00012666719 9.784479e-05 -0.0011127101
0.020835672 0.024308048 0.025114076 -0.024209818 -0.0337428 -0.044448793 -0.061938297 -0.09833514
-0.085344024 -0.017064203 -0.012587202 0.017126353 0.008171033 -0.0004608941 0.017041309 -0.011685522
-0.01416168 -0.016441854 -0.01658245 -0.029998358 -0.013018553 -0.0036124915 -0.017741388 -0.009593548
-0.011894192 -0.040482678 -0.026045505 -0.06499529 0.0013632098 0.11201275 0.05415751 -0.034717537
-0.059711505 0.038787276 -0.10865868 -0.067408696 -0.00902335 -0.0011422519 0.0048273676 0.02175786
0.009186761 0.011417673 0.01357828 -0.0037429738 -0.014645313 6.0602368e-05 -0.0075911838 -0.011060452
0.003276541 0.009995064 0.018442694 -0.026833378 -0.026180122 -0.00717056 0.027733961 0.005703151
0.020864068 -0.033080455 -0.045802645 -0.016008046 -0.009858804 -0.046342745 -0.048316754 0.0999804
0.08801039 0.060919948 0.029357417 -0.09377633 -0.042074434 -0.042762782 -0.009398206 0.05357807
-0.0 0.0 0.0 -0.0 0.0 0.0 -0.0 -0.0
0.0 0.0 0.0 0.0 -0.0 0.0 0.0 0.0
0.0 0.0 0.0 0.0 0.0 -0.0 -0.0 -0.0
0.0 0.0 0.0 0.0 0.0 0.0 -0.0 -0.0
0.0 -0.0 0.0 -0.0 -0.0 -0.0 -0.0 0.0
0.0 -0.0 0.0 0.0 0.0 -0.0 -0.0 -0.0
0.0 0.0 -0.0 0.0 0.0 0.0 0.0 -0.0
0.0 0.0 0.0 0.0 0.0 0.0 -0.0 0.0
0.0 0.0 0.0 -0.0 -0.0 0.0 0.0 0.0
-0.0 -0.0 -0.0 -0.0 -0.0 -0.0 -0.0 -0.0
-0.0 0.0 0.0 0.0 0.0 0.0 0.0 0.0
0.0 0.0 0.0 -0.0 0.0 0.0 -0.0 -0.0
0.0 -0.0 0.0 -0.0 -0.0 0.0 -0.0 -0.0
0.0 -0.0 -0.0 -0.0 -0.0 -0.0 -0.0 -0.0
00000000: c1db 3bbd 085e 15bc a3c6 2e3d 5c8b b639
00000010: 362d 24bd c746 03bd c8d4 90bd 8897 66bd
00000020: 6acc a9bc a8fb 173d ebe6 2e3d bc99 02ba
00000030: aa0f a5bd cb70 64bd c79f 30bd b29f 8dbd
00000040: b9f8 5ebd a466 96bd 9c89 e7bc dc02 14bd
00000050: 057c 35bc bfd7 d43c 9dda a93c 0b07 813d
00000060: efaa 7dbc 797a 39bb 9909 ea3c fa2e e23b
00000070: 8a2f c33b 9597 483c 982b 1b3d 4582 e23c
00000080: 86be 0f3d 3fc0 10bd 74f6 2bbd c4eb 97bc
00000090: 5a53 5d3d a31c 863c a09a 2e3a ae15 ab3d
000000a0: 7339 663d dd1a 7d3d 5eda edbc d066 7cbd
000000b0: 7ada 2fba 5770 483d 0933 273c 1126 78bc
000000c0: 377b f73c 6f68 853c ad69 a03c b464 113d
000000d0: 8659 103d 1c24 4b3d c11a c3bd b1bd 2abd
000000e0: 8d05 8c3c 89c4 42bd 0b03 96bd 663f 3e3c
000000f0: 91e6 3bbb b65d 5ebd debc 05bd 0792 d139
00000100: 48a7 3dba d0b6 e7ba b5e1 0a3b a135 50b9
00000110: a1d1 b5ba f7d1 0439 0632 cd38 5bd8 91ba
00000120: 92af aa3c ac21 c73c 09bc cd3c ab53 c6bc
00000130: e435 0abd f00f 36bd 03b3 7dbd ef63 c9bd
00000140: d9c8 aebd 3aca 8bbc 8d3a 4ebc 914c 8c3c
00000150: ccdf 053c 29a4 f1b9 379a 8b3c a274 3fbc
00000160: 6406 68bc 11b1 86bc ebd7 87bc 1ebf f5bc
00000170: c54b 55bc 8dbf 6cbb 6356 91bc 422e 1dbc
00000180: dbdf 42bc 2ad1 25bd 625d d5bc 401c 85bd
00000190: bbad b23a f166 e53d 44d4 5d3d fa33 0ebd
000001a0: 0d94 74bd 68df 1e3d 7188 debd 920d 8abd
000001b0: acd6 13bc 9db7 95ba e52e 9e3b 8a3d b23c
000001c0: 1284 163c 3111 3b3c 6f77 5e3c ae4c 75bb
000001d0: e5f2 6fbc 4c2f 7e38 77bf f8bb e636 35bc
000001e0: 3cbb 563b 56c2 233c 2215 973c acd1 dbbc
000001f0: b277 d6bc 04f7 eabb 5532 e33c 80e1 ba3b
00000200: 1feb aa3c 5f7f 07bd 8e9b 3bbd 4e23 83bc
00000210: d286 21bc e4d1 3dbd cae7 45bd 86c2 cc3d
00000220: cb3e b43d 3287 793d f77e f03c ce0d c0bd
00000230: 3e56 2cbd 0728 2fbd effa 19bc ae74 5b3d
00000240: 0000 0080 0000 0000 0000 0000 0000 0080
00000250: 0000 0000 0000 0000 0000 0080 0000 0080
00000260: 0000 0000 0000 0000 0000 0000 0000 0000
00000270: 0000 0080 0000 0000 0000 0000 0000 0000
00000280: 0000 0000 0000 0000 0000 0000 0000 0000
00000290: 0000 0000 0000 0080 0000 0080 0000 0080
000002a0: 0000 0000 0000 0000 0000 0000 0000 0000
000002b0: 0000 0000 0000 0000 0000 0080 0000 0080
000002c0: 0000 0000 0000 0080 0000 0000 0000 0080
000002d0: 0000 0080 0000 0080 0000 0080 0000 0000
000002e0: 0000 0000 0000 0080 0000 0000 0000 0000
000002f0: 0000 0000 0000 0080 0000 0080 0000 0080
00000300: 0000 0000 0000 0000 0000 0080 0000 0000
00000310: 0000 0000 0000 0000 0000 0000 0000 0080
00000320: 0000 0000 0000 0000 0000 0000 0000 0000
00000330: 0000 0000 0000 0000 0000 0080 0000 0000
00000340: 0000 0000 0000 0000 0000 0000 0000 0080
00000350: 0000 0080 0000 0000 0000 0000 0000 0000
00000360: 0000 0080 0000 0080 0000 0080 0000 0080
00000370: 0000 0080 0000 0080 0000 0080 0000 0080
00000380: 0000 0080 0000 0000 0000 0000 0000 0000
00000390: 0000 0000 0000 0000 0000 0000 0000 0000
000003a0: 0000 0000 0000 0000 0000 0000 0000 0080
000003b0: 0000 0000 0000 0000 0000 0080 0000 0080
000003c0: 0000 0000 0000 0080 0000 0000 0000 0080
000003d0: 0000 0080 0000 0000 0000 0080 0000 0080
000003e0: 0000 0000 0000 0080 0000 0080 0000 0080
000003f0: 0000 0080 0000 0080 0000 0080 0000 0080

onnx::Conv_84 f4 [32]
0.20961282 -1.64738e-39 -0.02831 0.19647864 -4.3356e-41 0.040738232 -2.78112e-40 -1.724656e-39
0.033839475 -0.22354254 -1.508115e-39 -0.13926463 0.05339496 -7.43839e-40 -0.1443607 -3.44598e-40
-0.19400872 -9.15936e-40 -1.152606e-39 0.16040698 0.11569372 -1.00996e-40 0.00041033328 -0.013611421
0.21315174 -0.094901696 -4.764413e-39 0.086910084 -4.054659e-39 -2.71497e-40 -9.484949e-39 -0.2555237
00000000: bea4 563e 3af0 1180 60ea e7bc b231 493e
00000010: dc78 0080 22dd 263d 4307 0380 a4c7 1280
00000020: 439b 0a3d 56e8 64be 036c 1080 639b 0ebe
00000030: acb4 5a3d 8519 0880 4bd3 13be 99c0 0380
00000040: 39aa 46be 42f9 0980 ff8c 0c80 ba41 243e
00000050: d4f0 ec3d 8919 0180 0022 d739 7002 5fbc
00000060: 7344 5a3e d25b c2bd 3fe1 3380 eafd b13d
00000070: bd26 2c80 d3f4 0280 2e48 6780 01d4 82be

onnx::Conv_86 f4 [32, 32, 3, 3]
-0.0 -0.0 -0.0 -0.0 -0.0 -0.0 0.0 0.0
-0.0 -0.0 -0.0 0.0 0.0 -0.0 -0.0 0.0
0.0 -0.0 0.0 -0.0 0.0 -0.0 -0.0 -0.0
-0.0 0.0 0.0 -0.0 -0.0 -0.0 0.0 0.0
-0.0 0.0 0.0 -0.0 -0.0 -0.0 -0.0 0.0
-0.0 -0.0 0.0 0.0 0.0 -0.0 -0.0 -0.0
-0.0 0.0 -0.0 -0.0 -0.0 -0.0 0.0 -0.0
-0.0 0.0 0.0 -0.0 0.0 -0.0 0.0 0.0
0.0 0.0 0.0 0.0 0.0 -0.0 0.0 -0.0
0.0 0.0 -0.0 0.0 0.0 -0.0 -0.0 -0.0
0.0 0.0 -0.0 0.0 -0.0 0.0 -0.0 0.0
-0.0 0.0 -0.0 0.0 0.0 0.0 0.0 -0.0
0.0 0.0 0.0 -0.0 -0.0 -0.0 0.0 0.0
-0.0 0.0 -0.0 0.0 0.0 -0.0 -0.0 -0.0
0.0 0.0 0.0 -0.0 -0.0 -0.0 -0.0 -0.0
0.0 0.0 0.0 -0.0 -0.0 -0.0 0.0 0.0
-0.0 0.0 0.0 0.0 0.0 0.0 0.0 -0.0
-0.0 0.0 0.0 -0.0 0.0 -0.0 0.0 -0.0
0.0 0.0 0.0 0.0 -0.0 0.0 -0.0 0.0
0.0 -0.0 0.0 -0.0 0.0 -0.0 0.0 0.0
-0.0 -0.0 -0.0 -0.0 -0.0 -0.0 0.0 0.0
-0.0 0.0 -0.0 -0.0 0.0 -0.0 -0.0 -0.0
0.0 0.0 -0.0 0.0 -0.0 -0.0 -0.0 0.0
0.0 -0.0 -0.0 -0.0 -0.0 0.0 0.0 -0.0
0.0 0.0 -0.0 -0.0 -0.0 -0.0 -0.0 0.0
-0.0 0.0 -0.0 0.0 -0.0 -0.0 0.0 0.0
0.0 0.0 0.0 0.0 0.0 0.0 -0.0 -0.0
-0.0 -0.0 -0.0 -0.0 -0.0 0.0 0.0 0.0
0.0 0.0 0.0 0.0 0.0 -0.0 0.0 0.0
0.0 0.0 0.0 0.0 -0.0 -0.0 -0.0 -0.0
-0.0 -0.0 0.0 -0.0 -0.0 -0.0 -0.0 0.0
-0.0 0.0 0.0 0.0 0.0 -0.0 0.0 0.0
00000000: 0000 0080 0000 0080 0000 0080 0000 0080
00000010: 0000 0080 0000 0080 0000 0000 0000 0000
00000020: 0000 0080 0000 0080 0000 0080 0000 0000
00000030: 0000 0000 0000 0080 0000 0080 0000 0000
00000040: 0000 0000 0000 0080 0000 0000 0000 0080
00000050: 0000 0000 0000 0080 0000 0080 0000 0080
00000060: 0000 0080 0000 0000 0000 0000 0000 0080
00000070: 0000 0080 0000 0080 0000 0000 0000 0000
00000080: 0000 0080 0000 0000 0000 0000 0000 0080
00000090: 0000 0080 0000 0080 0000 0080 0000 0000
000000a0: 0000 0080 0000 0080 0000 0000 0000 0000
000000b0: 0000 0000 0000 0080 0000 0080 0000 0080
000000c0: 0000 0080 0000 0000 0000 0080 0000 0080
000000d0: 0000 0080 0000 0080 0000 0000 0000 0080
000000e0: 0000 0080 0000 0000 0000 0000 0000 0080
000000f0: 0000 0000 0000 0080 0000 0000 0000 0000
00000100: 0000 0000 0000 0000 0000 0000 0000 0000
00000110: 0000 0000 0000 0080 0000 0000 0000 0080
00000120: 0000 0000 0000 0000 0000 0080 0000 0000
00000130: 0000 0000 0000 0080 0000 0080 0000 0080
00000140: 0000 0000 0000 0000 0000 0080 0000 0000
00000150: 0000 0080 0000 0000 0000 0080 0000 0000
00000160: 0000 0080 0000 0000 0000 0080 0000 0000
00000170: 0000 0000 0000 0000 0000 0000 0000 0080
00000180: 0000 0000 0000 0000 0000 0000 0000 0080
00000190: 0000 0080 0000 0080 0000 0000 0000 0000
000001a0: 0000 0080 0000 0000 0000 0080 0000 0000
000001b0: 0000 0000 0000 0080 0000 0080 0000 0080
000001c0: 0000 0000 0000 0000 0000 0000 0000 0080
000001d0: 0000 0080 0000 0080 0000 0080 0000 0080
000001e0: 0000 0000 0000 0000 0000 0000 0000 0080
000001f0: 0000 0080 0000 0080 0000 0000 0000 0000
00000200: 0000 0080 0000 0000 0000 0000 0000 0000
00000210: 0000 0000 0000 0000 0000 0000 0000 0080
00000220: 0000 0080 0000 0000 0000 0000 0000 0080
00000230: 0000 0000 0000 0080 0000 0000 0000 0080
00000240: 0000 0000 0000 0000 0000 0000 0000 0000
00000250: 0000 0080 0000 0000 0000 0080 0000 0000
00000260: 0000 0000 0000 0080 0000 0000 0000 0080
00000270: 0000 0000 0000 0080 0000 0000 0000 0000
00000280: 0000 0080 0000 0080 0000 0080 0000 0080
00000290: 0000 0080 0000 0080 0000 0000 0000 0000
000002a0: 0000 0080 0000 0000 0000 0080 0000 0080
000002b0: 0000 0000 0000 0080 0000 0080 0000 0080
000002c0: 0000 0000 0000 0000 0000 0080 0000 0000
000002d0: 0000 0080 0000 0080 0000 0080 0000 0000
000002e0: 0000 0000 0000 0080 0000 0080 0000 0080
000002f0: 0000 0080 0000 0000 0000 0000 0000 0080
00000300: 0000 0000 0000 0000 0000 0080 0000 0080
00000310: 0000 0080 0000 0080 0000 0080 0000 0000
00000320: 0000 0080 0000 0000 0000 0080 0000 0000
00000330: 0000 0080 0000 0080 0000 0000 0000 0000
00000340: 0000 0000 0000 0000 0000 0000 0000 0000
00000350: 0000 0000 0000 0000 0000 0080 0000 0080
00000360: 0000 0080 0000 0080 0000 0080 0000 0080
00000370: 0000 0080 0000 0000 0000 0000 0000 0000
00000380: 0000 0000 0000 0000 0000 0000 0000 0000
00000390: 0000 0000 0000 0080 0000 0000 0000 0000
000003a0: 0000 0000 0000 0000 0000 0000 0000 0000
000003b0: 0000 0080 0000 0080 0000 0080 0000 0080
000003c0: 0000 0080 0000 0080 0000 0000 0000 0080
000003d0: 0000 0080 0000 0080 0000 0080 0000 0000
000003e0: 0000 0080 0000 0000 0000 0000 0000 0000
000003f0: 0000 0000 0000 0080 0000 0000 0000 0000

onnx::Conv_87 f4 [32]
-2.53541e-40 0.19582886 -4.76824e-40 -1.834567e-39 -1.559431e-39 0.15904838 -0.039326113 -9.14567e-40
-0.0422616 -1.751294e-39 0.14217183 0.018538393 -0.10417858 -0.09667223 -0.03988331 -1.931899e-39
0.55583566 0.10575877 -0.08386743 0.108272284 -6.03557e-40 -0.105816975 -0.14536081 0.15292478
0.112951696 0.1935206 -8.0065e-40 0.060609564 0.18866502 -8.31057e-40 -2.201263e-39 -7.71712e-40
00000000: c5c2 0280 5c87 483e 3131 0580 07fa 1380
00000010: 0ffb 1080 94dd 223e 6b14 21bd 71f5 0980
00000020: 801a 2dbd e511 1380 7e95 113e d4dd 973c
00000030: 945b d5bd 17fc c5bd af5c 23bd 5909 1580
00000040: 3f4b 0e3f 0e98 d83d b0c2 abbd dcbd dd3d
00000050: 7992 0680 92b6 d8bd 77d9 14be 5098 1c3e
00000060: 3853 e73d 442a 463e e3b7 0880 bc41 783d
00000070: 6731 413e a60c 0980 3af8 1780 3867 0880

onnx::Conv_89 f4 [32, 16, 1, 1]
0.0 0.0 -0.0 -0.0 -0.0 0.0 0.0 0.0
-0.0 0.0 -0.0 -0.0 -0.0 -0.0 -0.0 0.0
0.49279088 0.0753553 0.38050976 -0.046259247 -0.43060145 0.21043956 -0.11326082 -0.00303277
0.27714723 0.12049908 0.074681446 0.2509167 -0.017035551 -0.12607852 0.59078664 -0.06247949
0.0 -0.0 -0.0 -0.0 -0.0 -0.0 -0.0 -0.0
-0.0 -0.0 -0.0 0.0 -0.0 -0.0 -0.0 -0.0
-0.0 -0.0 -0.0 0.0 0.0 -0.0 -0.0 0.0
-0.0 -0.0 0.0 -0.0 0.0 0.0 -0.0 -0.0
0.0 -0.0 -0.0 -0.0 0.0 -0.0 0.0 -0.0
-0.0 -0.0 -0.0 0.0 0.0 0.0 0.0 0.0
-0.11351334 0.2428172 0.015800638 -0.03700692 -0.117889054 0.15424497 -0.10938544 -0.0037883518
-0.06961201 -0.15109655 -0.01617834 0.077270105 0.043409914 0.08486287 -0.21783856 0.07611877
-0.029568082 -0.007988797 0.07416041 0.0428808 -0.29277444 -0.115473896 -0.22457044 0.0009748015
-0.10682878 -0.13252318 0.043846246 0.16580346 -0.04541438 -0.03350099 -0.091153204 -0.19736858
0.0 -0.0 0.0 0.0 0.0 -0.0 0.0 -0.0
0.0 -0.0 0.0 -0.0 -0.0 0.0 0.0 0.0
-0.019009233 -0.015420545 -0.050102428 0.011874189 -0.019800846 0.018166702 0.099313386 0.0045533604
-0.089766696 -0.05929737 0.05759968 0.22372825 -0.08377195 -0.013338923 -0.012941682 -0.123373
0.0 -0.0 -0.0 0.0 -0.0 -0.0 -0.0 -0.0
-0.0 -0.0 -0.0 -0.0 -0.0 -0.0 -0.0 0.0
0.11508184 -0.05242938 0.07557006 -0.09071089 -0.1695082 0.124990836 -0.08599153 -0.0010542851
0.023470487 -0.017223984 -0.04906164 -0.10841057 0.0024379992 -0.05174055 0.027622243 0.13292149
-0.11846931 0.01394859 0.016656512 -0.030508753 -0.053283095 -0.0854831 -0.28162283 -0.0021509854
0.06206294 -0.07326896 -0.04737849 0.03259099 -0.03673836 -0.013398529 0.052024525 0.05035001
-0.12234796 -0.2085766 0.23916163 -0.09054225 -0.0788147 -0.13281335 0.11503668 -0.008149269
0.31050682 -0.09941448 -0.041883063 -0.16826785 0.0385817 -0.021425152 0.17560077 0.11144604
0.05916206 0.08781448 -0.0686252 0.020937955 0.01350733 0.043200552 0.019829465 0.0006314104
-0.034588892 -0.012401958 0.047536332 -0.069886565 0.0031256403 0.020246234 0.019887418 -0.07068452
-0.14454266 -0.008360915 -0.019219717 0.036181953 -0.009142979 0.113429375 -0.032100957 -0.0019163237
-0.029320322 -0.12892355 0.03051312 -0.06497668 -0.026330605 0.054042537 0.07728265 -0.045080435
-0.0 0.0 -0.0 0.0 0.0 0.0 0.0 0.0
-0.0 0.0 0.0 0.0 -0.0 0.0 0.0 -0.0
00000000: 0000 0000 0000 0000 0000 0080 0000 0080
00000010: 0000 0080 0000 0000 0000 0000 0000 0000
00000020: 0000 0080 0000 0000 0000 0080 0000 0080
00000030: 0000 0080 0000 0080 0000 0080 0000 0000
00000040: 164f fc3e e153 9a3d 2dd2 c23e 567a 3dbd
00000050: cb77 dcbe 787d 573e 4af5 e7bd 70c1 46bb
00000060: 3ee6 8d3e 39c8 f63d 96f2 983d 2778 803e
00000070: 248e 8bbc ba1a 01be cb3d 173f 7eea 7fbd
00000080: 0000 0000 0000 0080 0000 0080 0000 0080
00000090: 0000 0080 0000 0080 0000 0080 0000 0080
000000a0: 0000 0080 0000 0080 0000 0080 0000 0000
000000b0: 0000 0080 0000 0080 0000 0080 0000 0080
000000c0: 0000 0080 0000 0080 0000 0080 0000 0000
000000d0: 0000 0000 0000 0080 0000 0080 0000 0000
000000e0: 0000 0080 0000 0080 0000 0000 0000 0080
000000f0: 0000 0000 0000 0000 0000 0080 0000 0080
00000100: 0000 0000 0000 0080 0000 0080 0000 0080
00000110: 0000 0000 0000 0080 0000 0000 0000 0080
00000120: 0000 0080 0000 0080 0000 0080 0000 0000
00000130: 0000 0000 0000 0000 0000 0000 0000 0000
00000140: af79 e8bd 12a5 783e 5770 813c 9194 17bd
00000150: d16f f1bd 65f2 1d3e 7905 e0bd ff45 78bb
00000160: be90 8ebd 0eb9 1abe 7088 84bc ca3f 9e3d
00000170: 98ce 313d 96cc ad3d 1211 5fbe 28e4 9b3d
00000180: c338 f2bc 71e3 02bc 6ae1 973d c7a3 2f3d
00000190: 88e6 95be 947d ecbd cbf5 65be d289 7f3a
000001a0: 0cc9 dabd 28b4 07be 1f98 333d 62c8 293e
000001b0: 6e04 3abd 5638 09bd 88ae babd fd1a 4abe
000001c0: 0000 0000 0000 0080 0000 0000 0000 0000
000001d0: 0000 0000 0000 0080 0000 0000 0000 0080
000001e0: 0000 0000 0000 0080 0000 0000 0000 0080
000001f0: 0000 0080 0000 0000 0000 0000 0000 0000
00000200: 40b9 9bbc 74a6 7cbc 3438 4dbd f58b 423c
00000210: 6235 a2bc 56d2 943c d164 cb3d 5b34 953b
00000220: 9ad7 b7bd cde1 72bd a4ed 6b3d 0519 653e
00000230: a190 abbd 808b 5abc 5909 54bc fcaa fcbd
00000240: 0000 0000 0000 0080 0000 0080 0000 0000
00000250: 0000 0080 0000 0080 0000 0080 0000 0080
00000260: 0000 0080 0000 0080 0000 0080 0000 0080
00000270: 0000 0080 0000 0080 0000 0080 0000 0000
00000280: 07b0 eb3d 31c0 56bd 7ac4 9a3d a2c6 b9bd
00000290: 8f93 2dbe 32fb ff3d 541c b0bd f02f 8aba
000002a0: 2e45 c03c 5019 8dbc dcf4 48bd 5c06 debd
000002b0: d7c6 1f3b e6ed 53bd 0b48 e23c 921c 083e
000002c0: 0aa0 f2bd a088 643c 3d73 883c 7eed f9bc
000002d0: 603f 5abd c311 afbd de30 90be 8cf7 0cbb
000002e0: b635 7e3d 090e 96bd f30f 42bd 217e 053d
000002f0: f67a 16bd 8185 5bbc ab17 553d d03b 4e3d
00000300: 9191 fabd 1b95 55be c9e6 743e 376e b9bd
00000310: 9a69 a1bd 3900 08be 5a98 eb3d 8384 05bc
00000320: c0fa 9e3e d299 cbbd 938d 2bbd 684e 2cbe
00000330: d807 1e3d cd83 afbc b0d0 333e d23d e43d
00000340: eb53 723d 14d8 b33d 5e8b 8cbd 1386 ab3c
00000350: d94d 5d3c 10f3 303d 6771 a23c 3c85 253a
00000360: 15ad 0dbd 9531 4bbc 75b5 423d b020 8fbd
00000370: 8bd7 4c3b 6edb a53c f0ea a23c 0cc3 90bd
00000380: fe02 14be 38fc 08bc ab72 9dbc 8733 143d
00000390: 6fcc 15bc a94d e83d 4b7c 03bd 272d fbba
000003a0: 2c31 f0bc 8904 04be a7f6 f93c 7e12 85bd
000003b0: 48b3 d7bc b55b 5d3d 5e46 9e3d 43a6 38bd
000003c0: 0000 0080 0000 0000 0000 0080 0000 0000
000003d0: 0000 0000 0000 0000 0000 0000 0000 0000
000003e0: 0000 0080 0000 0000 0000 0000 0000 0000
000003f0: 0000 0080 0000 0000 0000 0000 0000 0080

onnx::Conv_90 f4 [32]
-2.53541e-40 -0.6171675 -4.76824e-40 -1.834567e-39 -1.559431e-39 -0.055732142 0.24754158 -9.14567e-40
-0.05062318 -1.751294e-39 -0.09653044 0.099875614 -0.03589287 -0.06682814 0.097576216 -1.931899e-39
-0.17405826 0.3282051 -0.032108437 -0.025106182 -6.03557e-40 0.07141915 -0.109340034 -0.3118607
-0.2401157 0.017356295 -8.0065e-40 -0.17556241 -0.037560042 -8.31057e-40 -2.201263e-39 -7.71712e-40
00000000: c5c2 0280 b0fe 1dbf 3131 0580 07fa 1380
00000010: 0ffb 1080 6347 64bd 8a7b 7d3e 71f5 0980
00000020: 405a 4fbd e511 1380 c0b1 c5bd 968b cc3d
00000030: 6704 13bd 31dd 88bd 0ad6 c73d 5909 1580
00000040: 543c 32be 800a a83e 2384 03bd 7bab cdbc
00000050: 7992 0680 3444 923d abed dfbd 35ac 9fbe
00000060: e4e0 75be ca2e 8e3c e3b7 0880 a2c6 33be
00000070: 8fd8 19bd a60c 0980 3af8 1780 3867 0880

onnx::Conv_92 f4 [64, 32, 3, 3]
-0.0 -0.0 -0.0 -0.0 -0.0 -0.0 -0.0 -0.0
0.0 -0.0 -0.0 -0.0 -0.0 -0.0 -0.0 0.0
-0.0 -0.0 0.0 -0.0 0.0 -0.0 0.0 0.0
-0.0 0.0 0.0 -0.0 -0.0 -0.0 -0.0 -0.0
-0.0 -0.0 -0.0 -0.0 0.0 -0.0 -0.0 0.0
-0.0 0.0 0.0 -0.0 0.0 -0.0 -0.0 -0.0
-0.0 -0.0 -0.0 -0.0 -0.0 -0.0 -0.0 -0.0
0.0 -0.0 -0.0 0.0 -0.0 0.0 0.0 -0.0
0.0 0.0 -0.0 -0.0 -0.0 -0.0 -0.0 0.0
-0.0 -0.0 -0.0 -0.0 -0.0 -0.0 0.0 -0.0
-0.0 0.0 0.0 0.0 0.0 -0.0 -0.0 -0.0
0.0 0.0 -0.0 -0.0 0.0 0.0 -0.0 0.0
0.0 0.0 0.0 0.0 0.0 0.0 0.0 0.0
0.0 0.0 0.0 0.0 -0.0 0.0 -0.0 0.0
0.0 0.0 -0.0 -0.0 -0.0 -0.0 0.0 -0.0
-0.0 -0.0 -0.0 -0.0 -0.0 -0.0 0.0 -0.0
0.0 0.0 0.0 0.0 0.0 0.0 0.0 0.0
-0.0 -0.0 0.0 -0.0 -0.0 0.0 0.0 -0.0
-0.0 -0.0 -0.0 -0.0 -0.0 -0.0 -0.0 -0.0
-0.0 0.0 0.0 -0.0 -0.0 -0.0 -0.0 0.0
-0.0 -0.0 0.0 0.0 0.0 0.0 0.0 0.0
-0.0 -0.0 -0.0 0.0 -0.0 -0.0 0.0 -0.0
-0.0 -0.0 -0.0 -0.0 0.0 0.0 0.0 -0.0
-0.0 0.0 0.0 -0.0 0.0 -0.0 -0.0 -0.0
-0.0 -0.0 -0.0 -0.0 -0.0 -0.0 -0.0 -0.0
-0.0 -0.0 -0.0 -0.0 -0.0 -0.0 -0.0 0.0
-0.0 -0.0 0.0 -0.0 -0.0 0.0 -0.0 -0.0
-0.0 -0.0 -0.0 -0.0 -0.0 -0.0 0.0 -0.0
-0.0 0.0 -0.0 0.0 -0.0 -0.0 0.0 -0.0
-0.0 0.0 0.0 0.0 0.0 0.0 -0.0 -0.0
0.0 0.0 -0.0 0.0 0.0 0.0 0.0 0.0
-0.0 0.0 0.0 -0.0 0.0 -0.0 -0.0 0.0
00000000: 0000 0080 0000 0080 0000 0080 0000 0080
00000010: 0000 0080 0000 0080 0000 0080 0000 0080
00000020: 0000 0000 0000 0080 0000 0080 0000 0080
00000030: 0000 0080 0000 0080 0000 0080 0000 0000
00000040: 0000 0080 0000 0080 0000 0000 0000 0080
00000050: 0000 0000 0000 0080 0000 0000 0000 0000
00000060: 0000 0080 0000 0000 0000 0000 0000 0080
00000070: 0000 0080 0000 0080 0000 0080 0000 0080
00000080: 0000 0080 0000 0080 0000 0080 0000 0080
00000090: 0000 0000 0000 0080 0000 0080 0000 0000
000000a0: 0000 0080 0000 0000 0000 0000 0000 0080
000000b0: 0000 0000 0000 0080 0000 0080 0000 0080
000000c0: 0000 0080 0000 0080 0000 0080 0000 0080
000000d0: 0000 0080 0000 0080 0000 0080 0000 0080
000000e0: 0000 0000 0000 0080 0000 0080 0000 0000
000000f0: 0000 0080 0000 0000 0000 0000 0000 0080
00000100: 0000 0000 0000 0000 0000 0080 0000 0080
00000110: 0000 0080 0000 0080 0000 0080 0000 0000
00000120: 0000 0080 0000 0080 0000 0080 0000 0080
00000130: 0000 0080 0000 0080 0000 0000 0000 0080
00000140: 0000 0080 0000 0000 0000 0000 0000 0000
00000150: 0000 0000 0000 0080 0000 0080 0000 0080
00000160: 0000 0000 0000 0000 0000 0080 0000 0080
00000170: 0000 0000 0000 0000 0000 0080 0000 0000
00000180: 0000 0000 0000 0000 0000 0000 0000 0000
00000190: 0000 0000 0000 0000 0000 0000 0000 0000
000001a0: 0000 0000 0000 0000 0000 0000 0000 0000
000001b0: 0000 0080 0000 0000 0000 0080 0000 0000
000001c0: 0000 0000 0000 0000 0000 0080 0000 0080
000001d0: 0000 0080 0000 0080 0000 0000 0000 0080
000001e0: 0000 0080 0000 0080 0000 0080 0000 0080
000001f0: 0000 0080 0000 0080 0000 0000 0000 0080
00000200: 0000 0000 0000 0000 0000 0000 0000 0000
00000210: 0000 0000 0000 0000 0000 0000 0000 0000
00000220: 0000 0080 0000 0080 0000 0000 0000 0080
00000230: 0000 0080 0000 0000 0000 0000 0000 0080
00000240: 0000 0080 0000 0080 0000 0080 0000 0080
00000250: 0000 0080 0000 0080 0000 0080 0000 0080
00000260: 0000 0080 0000 0000 0000 0000 0000 0080
00000270: 0000 0080 0000 0080 0000 0080 0000 0000
00000280: 0000 0080 0000 0080 0000 0000 0000 0000
00000290: 0000 0000 0000 0000 0000 0000 0000 0000
000002a0: 0000 0080 0000 0080 0000 0080 0000 0000
000002b0: 0000 0080 0000 0080 0000 0000 0000 0080
000002c0: 0000 0080 0000 0080 0000 0080 0000 0080
000002d0: 0000 0000 0000 0000 0000 0000 0000 0080
000002e0: 0000 0080 0000 0000 0000 0000 0000 0080
000002f0: 0000 0000 0000 0080 0000 0080 0000 0080
00000300: 0000 0080 0000 0080 0000 0080 0000 0080
00000310: 0000 0080 0000 0080 0000 0080 0000 0080
00000320: 0000 0080 0000 0080 0000 0080 0000 0080
00000330: 0000 0080 0000 0080 0000 0080 0000 0000
00000340: 0000 0080 0000 0080 0000 0000 0000 0080
00000350: 0000 0080 0000 0000 0000 0080 0000 0080
00000360: 0000 0080 0000 0080 0000 0080 0000 0080
00000370: 0000 0080 0000 0080 0000 0000 0000 0080
00000380: 0000 0080 0000 0000 0000 0080 0000 0000
00000390: 0000 0080 0000 0080 0000 0000 0000 0080
000003a0: 0000 0080 0000 0000 0000 0000 0000 0000
000003b0: 0000 0000 0000 0000 0000 0080 0000 0080
000003c0: 0000 0000 0000 0000 0000 0080 0000 0000
000003d0: 0000 0000 0000 0000 0000 0000 0000 0000
000003e0: 0000 0080 0000 0000 0000 0000 0000 0080
000003f0: 0000 0000 0000 0080 0000 0080 0000 0000

onnx::Conv_93 f4 [64]
-5.05692e-40 -4.9607e-40 0.11607989 -1.953313e-39 -1.01985e-40 -9.52199e-40 -0.16706474 -2.94175e-40
-6.51686e-40 -7.95967e-40 -1.072814e-39 -8.68968e-40 -9.1855e-40 -1.008138e-39 -1.669316e-39 -9.58216e-40
-1.38748e-40 -2.081574e-39 -1.043021e-39 -4.09989e-40 -7.58739e-40 -2.142601e-39 -1.182057e-39 -6.105732e-39
-1.042395e-39 -3.364354e-39 -6.53828e-40 -4.82913e-40 -8.96455e-40 -6.50508e-40 -5.811167e-39 -9.36175e-40
0.16647044 -2.324657e-39 -5.31685e-40 -0.11712022 -1.15301e-39 -1.815187e-39 -0.029849522 -1.009299e-39
-6.22988e-40 -3.444491e-39 -3.88053e-40 -1.001486e-39 -8.89366e-40 -5.88876e-40 -2.0634e-39 -1.656559e-39
-2.183138e-39 0.06641944 -1.08348e-39 -8.11367e-40 -1.500129e-39 -2.582922e-39 0.15643424 -1.018102e-39
-8.58105e-40 -2.3777e-41 0.108820304 -2.168193e-39 -2.293563e-39 0.024051752 -7.14522e-40 -5.3439e-41
00000000: aa81 0580 d766 0580 4bbb ed3d 0b45 1580
00000010: 4b1c 0180 585e 0a80 0513 2bbe 0a34 0380
00000020: a318 0780 d5aa 0880 92ae 0b80 5476 0980
00000030: 8b00 0a80 47fa 0a80 602d 1280 1e6f 0a80
00000040: c682 0180 95aa 1680 855b 0b80 e276 0480
00000050: 0e43 0880 b354 1780 18df 0c80 4c7c 4280
00000060: c659 0b80 73a2 2480 9b1e 0780 2a42 0580
00000070: f4c2 0980 5a15 0780 2b47 3f80 ad31 0a80
00000080: 3a77 2a3e 3350 1980 1fca 0580 badc efbd
00000090: 1f8e 0c80 01c4 1380 fc86 f4bc 84fd 0a80
000000a0: a3c8 0680 d781 2580 bc39 0480 bce7 0a80
000000b0: 31af 0980 8c69 0680 eb77 1680 d009 1280
000000c0: b3c5 1780 ea06 883d 4dcc 0b80 c3d5 0880
000000d0: c055 1080 2320 1c80 4c30 203e 0e16 0b80
000000e0: 0c58 0980 4842 0080 2edd de3d 0a9c 1780
000000f0: 85f9 1880 2e08 c53c ccc7 0780 f794 0080

onnx::Conv_95 f4 [64, 64, 3, 3]
0.0 -0.0 -0.0 -0.0 -0.0 -0.0 0.0 -0.0
0.0 0.0 0.0 -0.0 0.0 -0.0 0.0 0.0
0.0 0.0 0.0 0.0 -0.0 -0.0 -0.0 0.0
0.0 0.0 -0.0 -0.0 -0.0 0.0 0.0 -0.0
-0.0 -0.0 0.0 -0.0 -0.0 0.0 -0.0 0.0
0.0 -0.0 -0.0 -0.0 0.0 -0.0 -0.0 0.0
-0.0 0.0 -0.0 -0.0 0.0 0.0 0.0 -0.0
-0.0 0.0 -0.0 0.0 0.0 0.0 0.0 -0.0
0.0 -0.0 0.0 0.0 0.0 0.0 0.0 -0.0
0.0 0.0 0.0 0.0 0.0 -0.0 -0.0 0.0
-0.0 0.0 0.0 -0.0 -0.0 -0.0 0.0 0.0
-0.0 0.0 0.0 0.0 -0.0 -0.0 0.0 -0.0
-0.0 -0.0 -0.0 -0.0 -0.0 0.0 0.0 0.0
0.0 -0.0 0.0 0.0 -0.0 -0.0 -0.0 0.0
-0.0 -0.0 0.0 -0.0 -0.0 -0.0 -0.0 -0.0
-0.0 -0.0 0.0 0.0 -0.0 -0.0 0.0 0.0
-0.0 -0.0 -0.0 -0.0 0.0 -0.0 0.0 -0.0
-0.0 0.0 0.0 0.0 0.0 -0.0 0.0 0.0
0.0 -0.0 -0.0 0.0 0.0 -0.0 0.0 0.0
-0.0 0.0 0.0 0.0 -0.0 -0.0 -0.0 -0.0
-0.0 0.0 0.0 -0.0 0.0 0.0 0.0 -0.0
-0.0 0.0 -0.0 -0.0 -0.0 0.0 0.0 0.0
-0.0 -0.0 0.0 0.0 -0.0 0.0 -0.0 -0.0
-0.0 0.0 -0.0 0.0 0.0 0.0 0.0 0.0
0.0 0.0 0.0 0.0 0.0 -0.0 -0.0 0.0
0.0 -0.0 -0.0 0.0 -0.0 0.0 -0.0 0.0
0.0 -0.0 0.0 -0.0 0.0 0.0 -0.0 -0.0
0.0 0.0 0.0 -0.0 0.0 -0.0 -0.0 -0.0
-0.0 0.0 -0.0 -0.0 -0.0 0.0 0.0 0.0
-0.0 -0.0 -0.0 0.0 0.0 0.0 -0.0 0.0
0.0 -0.0 -0.0 -0.0 -0.0 0.0 0.0 -0.0
0.0 0.0 -0.0 0.0 -0.0 0.0 -0.0 0.0
00000000: 0000 0000 0000 0080 0000 0080 0000 0080
00000010: 0000 0080 0000 0080 0000 0000 0000 0080
00000020: 0000 0000 0000 0000 0000 0000 0000 0080
00000030: 0000 0000 0000 0080 0000 0000 0000 0000
00000040: 0000 0000 0000 0000 0000 0000 0000 0000
00000050: 0000 0080 0000 0080 0000 0080 0000 0000
00000060: 0000 0000 0000 0000 0000 0080 0000 0080
00000070: 0000 0080 0000 0000 0000 0000 0000 0080
00000080: 0000 0080 0000 0080 0000 0000 0000 0080
00000090: 0000 0080 0000 0000 0000 0080 0000 0000
000000a0: 0000 0000 0000 0080 0000 0080 0000 0080
000000b0: 0000 0000 0000 0080 0000 0080 0000 0000
000000c0: 0000 0080 0000 0000 0000 0080 0000 0080
000000d0: 0000 0000 0000 0000 0000 0000 0000 0080
000000e0: 0000 0080 0000 0000 0000 0080 0000 0000
000000f0: 0000 0000 0000 0000 0000 0000 0000 0080
00000100: 0000 0000 0000 0080 0000 0000 0000 0000
00000110: 0000 0000 0000 0000 0000 0000 0000 0080
00000120: 0000 0000 0000 0000 0000 0000 0000 0000
00000130: 0000 0000 0000 0080 0000 0080 0000 0000
00000140: 0000 0080 0000 0000 0000 0000 0000 0080
00000150: 0000 0080 0000 0080 0000 0000 0000 0000
00000160: 0000 0080 0000 0000 0000 0000 0000 0000
00000170: 0000 0080 0000 0080 0000 0000 0000 0080
00000180: 0000 0080 0000 0080 0000 0080 0000 0080
00000190: 0000 0080 0000 0000 0000 0000 0000 0000
000001a0: 0000 0000 0000 0080 0000 0000 0000 0000
000001b0: 0000 0080 0000 0080 0000 0080 0000 0000
000001c0: 0000 0080 0000 0080 0000 0000 0000 0080
000001d0: 0000 0080 0000 0080 0000 0080 0000 0080
000001e0: 0000 0080 0000 0080 0000 0000 0000 0000
000001f0: 0000 0080 0000 0080 0000 0000 0000 0000
00000200: 0000 0080 0000 0080 0000 0080 0000 0080
00000210: 0000 0000 0000 0080 0000 0000 0000 0080
00000220: 0000 0080 0000 0000 0000 0000 0000 0000
00000230: 0000 0000 0000 0080 0000 0000 0000 0000
00000240: 0000 0000 0000 0080 0000 0080 0000 0000
00000250: 0000 0000 0000 0080 0000 0000 0000 0000
00000260: 0000 0080 0000 0000 0000 0000 0000 0000
00000270: 0000 0080 0000 0080 0000 0080 0000 0080
00000280: 0000 0080 0000 0000 0000 0000 0000 0080
00000290: 0000 0000 0000 0000 0000 0000 0000 0080
000002a0: 0000 0080 0000 0000 0000 0080 0000 0080
000002b0: 0000 0080 0000 0000 0000 0000 0000 0000
000002c0: 0000 0080 0000 0080 0000 0000 0000 0000
000002d0: 0000 0080 0000 0000 0000 0080 0000 0080
000002e0: 0000 0080 0000 0000 0000 0080 0000 0000
000002f0: 0000 0000 0000 0000 0000 0000 0000 0000
00000300: 0000 0000 0000 0000 0000 0000 0000 0000
00000310: 0000 0000 0000 0080 0000 0080 0000 0000
00000320: 0000 0000 0000 0080 0000 0080 0000 0000
00000330: 0000 0080 0000 0000 0000 0080 0000 0000
00000340: 0000 0000 0000 0080 0000 0000 0000 0080
00000350: 0000 0000 0000 0000 0000 0080 0000 0080
00000360: 0000 0000 0000 0000 0000 0000 0000 0080
00000370: 0000 0000 0000 0080 0000 0080 0000 0080
00000380: 0000 0080 0000 0000 0000 0080 0000 0080
00000390: 0000 0080 0000 0000 0000 0000 0000 0000
000003a0: 0000 0080 0000 0080 0000 0080 0000 0000
000003b0: 0000 0000 0000 0000 0000 0080 0000 0000
000003c0: 0000 0000 0000 0080 0000 0080 0000 0080
000003d0: 0000 0080 0000 0000 0000 0000 0000 0080
000003e0: 0000 0000 0000 0000 0000 0080 0000 0000
000003f0: 0000 0080 0000 0000 0000 0080 0000 0000

onnx::Conv_96 f4 [64]
-1.342929e-39 -0.38122177 -1.780467e-39 0.04110618 -0.045251712 0.19490258 -1.615389e-39 0.058486372
-6.49732e-40 -2.778901e-39 -3.262314e-39 -2.30036e-40 -6.858068e-39 -1.18423e-39 -0.020826448 -1.670177e-39
-0.039527696 0.011257914 -5.563966e-39 -2.598139e-39 -5.567949e-39 -4.32847e-40 -1.551715e-39 -6.7095e-40
-1.760479e-39 -2.42279e-40 -0.21517757 -1.833188e-39 -2.011795e-39 -5.45884e-40 -2.108276e-39 0.06777191
-6.0496e-40 -3.237637e-39 -0.021719076 -0.48934254 -8.8801e-40 0.20163834 -0.051502712 -2.22315e-40
-2.52183e-39 -0.06710657 -2.556502e-39 -5.62445e-40 -1.432662e-39 0.32818255 -1.0313564e-38 -0.2377408
-8.39746e-40 -3.176721e-39 -1.0843654e-38 -3.887108e-39 -1.769065e-39 -2.914706e-39 -1.751842e-39 -8.69738e-40
0.35715845 0.050371632 0.0070184236 -1.777896e-39 -3.96081e-39 -0.02514971 -1.62595e-40 -1.832209e-39
00000000: 8a9f 0e80 802f c3be 3863 1380 f45e 283d
00000010: dc59 39bd 8b94 473e 0c97 1180 688f 6f3d
00000020: 3013 0780 7242 1e80 0186 2380 3f81 0280
00000030: 81ad 4a80 27e5 0c80 3a9c aabc c62f 1280
00000040: cbe7 21bd 1d73 383c 1396 3c80 8e4a 1c80
00000050: 2da1 3c80 9ab6 0480 8de5 1080 564e 0780
00000060: 802b 1380 60a3 0280 8257 5cbe 2ff6 1380
00000070: 11e8 1580 b4f1 0580 04f5 1680 00cc 8a3d
00000080: 6296 0680 3741 2380 34ec b1bc 1b8b fabe
00000090: 69ab 0980 487a 4e3e 82f4 52bd b96b 0280
000000a0: d675 1b80 2b6f 89bd 7dd6 1b80 de1f 0680
000000b0: ae99 0f80 8b07 a83e 054e 7080 5372 73be
000000c0: df24 0980 6897 2280 b213 7680 ad53 2a80
000000d0: 6f43 1380 04bd 1f80 6c13 1380 7a78 0980
000000e0: 79dd b63e 7c52 4e3d cefa e53b 0d5c 1380
000000f0: 2021 2b80 c406 cebc 40c5 0180 74f3 1380

onnx::Conv_98 f4 [64, 32, 1, 1]
0.0 0.0 -0.0 0.0 -0.0 0.0 0.0 0.0
0.0 0.0 0.0 0.0 -0.0 0.0 -0.0 0.0
0.0 0.0 0.0 -0.0 -0.0 0.0 -0.0 0.0
-0.0 0.0 0.0 -0.0 0.0 -0.0 -0.0 -0.0
3.940846e-39 0.59177315 3.709708e-39 -4.183585e-39 8.32273e-39 0.26757118 -0.5344369 3.7957787e-38
-0.22882551 2.7318768e-38 0.1889301 -0.32998455 -0.49425507 0.013757142 -0.10333681 4.71277e-39
-0.0023961908 0.14428285 -0.41633794 -0.8097979 -1.9866441e-38 -0.10832111 -0.41734183 0.10977504
-0.91727465 0.12081496 -1.748298e-39 -0.6111129 -0.007874506 -4.6924996e-38 4.869053e-39 -6.317781e-39
-0.0 -0.0 -0.0 0.0 -0.0 0.0 -0.0 0.0
-0.0 0.0 -0.0 -0.0 0.0 -0.0 -0.0 0.0
-0.0 0.0 0.0 0.0 0.0 0.0 -0.0 0.0
0.0 0.0 0.0 -0.0 0.0 0.0 -0.0 0.0
-3.791025e-39 -0.6091436 -1.652643e-38 1.0033724e-38 -5.707161e-39 0.831048 -0.7374522 8.634094e-38
0.20603925 -2.2698273e-38 -0.6115968 -0.3247198 -0.62870324 0.23132947 -0.8828445 -1.3081994e-38
0.32017776 -0.07209227 0.51147634 0.028399466 -2.325114e-39 -0.44939968 0.22959869 1.0303801
0.4056388 0.9090797 -1.6382688e-38 -0.09139133 0.52323455 -1.2013255e-38 1.2039599e-38 -3.423078e-39
1.126988e-38 0.075270966 2.577907e-39 -4.982988e-39 2.749056e-39 0.041809324 -0.000564838 -1.8768292e-38
-0.025028642 -5.967188e-39 0.10195593 -0.024641633 -0.041387014 -0.003148468 0.010961146 4.311379e-39
0.040223807 -0.005719481 0.022596654 -0.05074028 4.904912e-39 -0.02059453 -0.030456493 0.01651996
-0.05387911 0.021947157 2.263833e-39 -0.046439108 0.004098167 2.450476e-38 6.025617e-39 5.54266e-39
3.649543e-39 -0.019279692 1.2889712e-38 1.0135411e-38 -2.248829e-39 0.08082678 -0.23506464 4.0112311e-38
-0.39789417 3.232367e-38 -0.37275767 0.21018101 0.40029764 -0.028535366 -0.6016895 1.3549169e-38
-0.024005342 0.5419266 -0.20821226 0.7494937 2.4360254e-38 0.37654227 0.5948405 -0.18808132
0.90094393 0.6623648 -4.362015e-39 0.6574174 -0.0665726 3.875581e-38 1.0731036e-38 -4.305896e-39
0.0 0.0 -0.0 0.0 0.0 0.0 -0.0 -0.0
-0.0 -0.0 0.0 -0.0 0.0 -0.0 0.0 -0.0
0.0 0.0 0.0 0.0 -0.0 0.0 0.0 -0.0
0.0 -0.0 0.0 -0.0 0.0 0.0 -0.0 0.0
-5.186993e-39 -0.62055296 8.029681e-39 3.0896843e-38 -2.623032e-38 0.41228825 -0.70234025 -2.666709e-39
0.49226946 -2.7851438e-38 -0.5182236 -0.40385023 0.11586017 0.25576207 -1.0673561 1.4661632e-38
0.35943726 -0.1405974 0.31447506 0.36520246 -1.7765188e-38 -0.5910251 0.19413383 1.7883368
0.56881225 1.0028723 6.759544e-39 0.39043194 0.6414317 1.0460221e-38 -1.2536651e-38 -5.846954e-39
00000000: 0000 0000 0000 0000 0000 0080 0000 0000
00000010: 0000 0080 0000 0000 0000 0000 0000 0000
00000020: 0000 0000 0000 0000 0000 0000 0000 0000
00000030: 0000 0080 0000 0000 0000 0080 0000 0000
00000040: 0000 0000 0000 0000 0000 0000 0000 0080
00000050: 0000 0080 0000 0000 0000 0080 0000 0000
00000060: 0000 0080 0000 0000 0000 0000 0000 0080
00000070: 0000 0000 0000 0080 0000 0080 0000 0080
00000080: 7ae9 2a00 727e 173f 2865 2800 228e 2d80
00000090: 63a0 5a00 17ff 883e dbd0 08bf 6fa9 4e01
000000a0: 3c51 6abe cebc 1401 e476 413e bcf3 a8be
000000b0: 000f fdbe a365 613c 40a2 d3bd 4951 3300
000000c0: 6909 1dbb e2be 133e 3f2a d5be ea4e 4fbf
000000d0: 8e53 d880 75d7 ddbd d4ad d5be bcd1 e03d
000000e0: 83d2 6abf d56d f73d 8b09 1380 e571 1cbf
000000f0: 1204 01bc e67b 7f81 f004 3500 67cb 4480
00000100: 0000 0080 0000 0080 0000 0080 0000 0000
00000110: 0000 0080 0000 0000 0000 0080 0000 0000
00000120: 0000 0080 0000 0000 0000 0080 0000 0080
00000130: 0000 0000 0000 0080 0000 0080 0000 0000
00000140: 0000 0080 0000 0000 0000 0000 0000 0000
00000150: 0000 0000 0000 0000 0000 0080 0000 0000
00000160: 0000 0000 0000 0000 0000 0000 0000 0080
00000170: 0000 0000 0000 0000 0000 0080 0000 0000
00000180: d647 2980 d6f0 1bbf f7f4 b380 f141 6d00
00000190: 3e25 3e80 90bf 543f abc9 3cbf da0a eb01
000001a0: f4fb 523e 8d29 f780 9c91 1cbf ac41 a6be
000001b0: b2f2 20bf a2e1 6c3e 1902 62bf 4773 8e80
000001c0: 57ee a33e 1da5 93bd 1df0 023f ffa5 e83c
000001d0: 7951 1980 b717 e6be eb1b 6b3e 7fe3 833f
000001e0: e4af cf3e 72b9 683f 4564 b280 612b bbbd
000001f0: b3f2 053f 11d0 8280 8119 8300 2646 2580
00000200: d7b7 7a00 aa27 9a3d 2812 1c00 8b42 3680
00000210: 40ef 1d00 4140 2b3d a311 14ba 5d5e cc80
00000220: de08 cdbc 18fa 4080 45ce d03d 40dd c9bc
00000230: 6e85 29bd 8756 4ebb 6196 333c 5ff2 2e00
00000240: b8c1 243d 7c6a bbbb 9e1c b93c 0ad5 4fbd
00000250: e668 3500 dcb5 a8bc e57f f9bc de54 873c
00000260: 57b0 5cbd 86ca b33c a5a6 1800 ef36 3ebd
00000270: eb49 863b a76a 0501 f89c 4100 ae5a 3c00
00000280: 71bd 2700 72f0 9dbc 465b 8c00 675d 6e00
00000290: d27c 1880 8388 a53d c9b4 70be 6764 5a01
000002a0: c9b8 cbbe 9ffc 2f01 18da bebe b139 573e
000002b0: d0f3 cc3e 00c3 e9bc 5308 1abf 9289 9300
000002c0: daa6 c4bc b4bb 0a3f 9835 55be d2de 3f3f
000002d0: 3da1 0401 26ca c03e 7847 183f 6498 40be
000002e0: 43a4 663f bd90 293f 867f 2f80 824c 283f
000002f0: 3757 88bd b701 5301 c3d9 7400 16e3 2e80
00000300: 0000 0000 0000 0000 0000 0080 0000 0000
00000310: 0000 0000 0000 0000 0000 0080 0000 0080
00000320: 0000 0080 0000 0080 0000 0000 0000 0080
00000330: 0000 0000 0000 0080 0000 0000 0000 0080
00000340: 0000 0000 0000 0000 0000 0000 0000 0000
00000350: 0000 0080 0000 0000 0000 0000 0000 0080
00000360: 0000 0000 0000 0080 0000 0000 0000 0080
00000370: 0000 0000 0000 0000 0000 0080 0000 0000
00000380: 3a7b 3880 8fdc 1ebf 7c6f 5700 ea37 2801
00000390: bbcf 0e81 7217 d33e 92cc 33bf b309 1d80
000003a0: be0a fc3e 3da3 1781 4daa 04bf 75c5 cebe
000003b0: 1948 ed3d 3ff3 823e 209f 88bf aaa6 9f00
000003c0: 2908 b83e c4f8 0fbe e002 a13e d1fb ba3e
000003d0: 1e72 c180 6c4d 17bf 05cb 463e 38e8 e43f
000003e0: ae9d 113f 1f5e 803f dc9a 4900 b2e6 c73e
000003f0: de34 243f d7e6 7100 1583 8880 eeaa 3f80
