server/model/libelula.onnx (onnx, 301496 bytes, 16 tensors)

fc.weight f4 [2, 256]
00000000: 2541 1ebe 415d 26be 57d5 22be b992 2cbe
00000010: 8008 a4be e3ce abbe a3e2 17bd b43a 1dbd
00000020: b787 1600 34c1 1700 42cb 1700 2614 1900
00000030: 39fd 1500 c945 1500 67f3 1780 5d35 1680
00000040: 713d 2200 5193 2100 9292 1f00 ef90 2180
00000050: 01f5 1c00 7362 1000 896f 1f00 93c2 0700
00000060: d07a 3780 d07a 3780 6b53 3980 51d1 3c80
00000070: 2898 0b00 f693 0080 f8ca 0200 77fc 0200
00000080: dc15 2680 b2de 2580 6396 0b80 f39d 0680
00000090: f6dd 25be 8fef 2cbe 5631 86bc 134f 9fbc
000000a0: 5944 0600 8a1f 0c00 5309 0700 3fb1 0300
000000b0: 7364 1280 77b4 1280 1129 1180 b5d9 1280
000000c0: d16c 2580 90f5 2680 86e2 1a80 a433 1b80
000000d0: 712f 373e 42e3 5c3e 0077 363e 4429 5e3e
000000e0: dedf 2c3e f3aa 423e df67 2d3e d407 493e
000000f0: aab7 2480 7064 1b80 f94d 0a80 4230 1880
00000100: 8221 2600 d808 2600 0b07 0e80 ffb2 0e80
00000110: 522b 0d00 66ff 1000 2f66 0500 a95d 0a00
00000120: 2614 0a80 bf85 0b80 5eb0 0800 78eb 0b00
00000130: 65ce 0480 c4c0 0180 0da9 0780 a4d9 0680
00000140: 96f7 0c80 584b 0b80 9c67 0c80 6ba8 0780
00000150: 7287 0680 1b8e 0980 0c1c 0a00 6860 0900
00000160: e7e3 dbbd d447 f3bd f927 b4bc b792 36bd
00000170: 1236 53be 6f2b 62be a4d5 89bc cf04 33bd
00000180: de3a 0200 3986 0500 aa3c 0400 9a3d 0500
00000190: 74a5 1480 6d09 1680 c6aa 1480 487f 1400
000001a0: 046c 1300 c7b2 0e00 f105 0200 4e47 1580
000001b0: 4d41 78bd 9ee4 7fbd ab64 2fbc d812 79bc
000001c0: 0098 1900 fbf4 1800 1e4b 1a80 1adc 1680
000001d0: e62a 1fbe dc5c 2abe 50e5 0dbe 73e8 1cbe
000001e0: 7259 0500 d14a 0900 daab 0580 5d76 0600
000001f0: 5ac6 1780 ddc2 1880 7bbc 1800 7cc5 1700
00000200: 45c0 1f80 4558 1f80 36fe 1b80 4558 1f80
00000210: f426 ab81 beee 9981 03fb 2802 7901 2602
00000220: ab6d 3d3d 36ec 543d cb6f 3b3d 49db 523d
00000230: cf06 473e d2b7 663e 09d9 343e dfce 603e
00000240: c32b 1500 85c6 1400 5706 1100 cd4e 0700
00000250: 6d48 1d80 488b 1380 c116 1880 4154 1c80
00000260: 33d8 0180 b7e0 0100 f688 0c00 0ac6 0f00
00000270: 655d 1b80 4d25 1b00 9040 2780 720a 1700
00000280: 21f0 4d3e c08b 763e 7b52 613e c36c 833e
00000290: 3e37 0280 40dd 0680 08fb 1500 305d 1c00
000002a0: ea2b b4be 1f18 bbbe 1431 0abd f89f 36bd
000002b0: 1a65 1980 4708 1a80 041b 1c00 0e6a 1900
000002c0: 294c 1000 ed96 1a00 869b 2900 dbf2 0a00
000002d0: a579 1200 5ae8 1600 a96d 1400 64aa 1a00
000002e0: 046e 2abe 51c3 2fbe 223d 6bbe 5462 74be
000002f0: dc43 1080 4b4d 0f80 a182 1180 7a1f 0f80
00000300: a720 1000 0c36 1300 6483 1200 f39d 1000
00000310: 1672 1a00 3db8 1800 9e78 0c00 c78c 1100
00000320: 5b37 2a3e 2cd2 463e c73e 363e 170f 593e
00000330: 9ae1 0200 8949 0400 4b30 0d00 f4bc 1600
00000340: 2c59 07be 8214 11be 70d8 efbd e543 02be
00000350: e17d 0900 b799 1600 3b59 0800 6612 1000
00000360: d6bf 0180 4265 0180 8463 0580 3489 0480
00000370: 667a 0980 0735 0880 868b 1280 17a9 1680
00000380: edb1 1000 f1f6 2200 bbea 0f00 74fe 2000
00000390: b41a 2200 2dc5 2200 688e 2300 ec68 2100
000003a0: 68a6 1680 1fcd 1a80 cb04 3c80 fced 3680
000003b0: 0a9c 1980 6715 1a80 428c 1880 8851 1b80
000003c0: 28d3 1480 2a52 1180 67a7 0e80 4f74 0980
000003d0: c180 0280 7047 0180 4f57 0080 4ed5 0080
000003e0: 6ec1 4fbe d2b1 5cbe 5442 81bc b7db 05bd
000003f0: 2427 1080 95b8 1c80 51cc 2180 7ee4 1380
-0.15454538 -0.16246511 -0.15901695 -0.16852845 -0.32037735 -0.3355628 -0.037081372 -0.03838606
2.069066e-39 2.181525e-39 2.185132e-39 2.303115e-39 2.019385e-39 1.95358e-39 -2.199533e-39 -2.039524e-39
3.144448e-39 3.083419e-39 2.89948e-39 -3.082564e-39 2.659285e-39 1.504685e-39 2.886912e-39 7.12649e-40
-5.095009e-39 -5.095009e-39 -5.264548e-39 -5.585218e-39 1.064774e-39 -5.3078e-41 2.56482e-40 2.74238e-40
-3.49759e-39 -3.477801e-39 -1.064139e-39 -6.07674e-40 -0.16197953 -0.1688826 -0.016380947 -0.019446885
5.75531e-40 1.11334e-39 6.46193e-40 3.3909e-40 -1.689073e-39 -1.717778e-39 -1.575935e-39 -1.731137e-39
-3.43695e-39 -3.57784e-39 -2.468984e-39 -2.498084e-39 0.17889191 0.21571067 0.17818832 0.21695429
0.16882274 0.19010524 0.16934155 0.19631892 -3.371964e-39 -2.515589e-39 -9.46326e-40 -2.221364e-39
3.501769e-39 3.492921e-39 -1.288223e-39 -1.349909e-39 1.209402e-39 1.560988e-39 4.95834e-40 9.51954e-40
-9.25583e-40 -1.05817e-39 7.97953e-40 1.094661e-39 -4.41382e-40 -1.60987e-40 -7.03492e-40 -6.29088e-40
-1.190843e-39 -1.037219e-39 -1.139194e-39 -7.03265e-40 -5.99602e-40 -8.77497e-40 9.28416e-40 8.61104e-40
-0.10736828 -0.118789345 -0.021991717 -0.044573512 -0.20626095 -0.22086881 -0.016825505 -0.043705758
2.04789e-40 5.07327e-40 3.89104e-40 4.81276e-40 -1.896063e-39 -2.023762e-39 -1.897972e-39 1.88237e-39
1.783623e-39 1.34983e-39 1.85802e-40 -1.954125e-39 -0.06060915 -0.062473886 -0.010705153 -0.015202247
2.350415e-39 2.291934e-39 -2.41467e-39 -2.099338e-39 -0.15543708 -0.16636986 -0.13857007 -0.15323047
4.91264e-40 8.53359e-40 -5.20826e-40 5.93474e-40 -2.183372e-39 -2.273956e-39 2.271666e-39 2.18306e-39
-2.915874e-39 -2.878566e-39 -2.570752e-39 -2.878566e-39 -6.2871374e-38 -5.65459e-38 1.2414728e-37 1.2196177e-37
0.046247166 0.05198308 0.04576091 0.051478658 0.19436191 0.2253106 0.17660917 0.21953915
1.944244e-39 1.907925e-39 1.563478e-39 6.71117e-40 -2.689211e-39 -1.794839e-39 -2.212214e-39 -2.601618e-39
-1.69393e-40 1.72448e-40 1.151158e-39 1.448575e-39 -2.513062e-39 2.49294e-39 -3.604745e-39 2.115963e-39
0.20111133 0.24076748 0.2200412 0.25668916 -2.03488e-40 -6.30383e-40 2.018598e-39 2.604823e-39
-0.35189754 -0.3654184 -0.03373821 -0.04458615 -2.332156e-39 -2.390692e-39 2.581085e-39 2.333933e-39
1.496689e-39 2.441865e-39 3.821047e-39 1.005475e-39 1.696677e-39 2.103733e-39 1.876049e-39 2.448848e-39
-0.1664353 -0.17164351 -0.22972539 -0.23865634 -1.493711e-39 -1.40526e-39 -1.608064e-39 -1.388824e-39
1.481081e-39 1.764263e-39 1.700173e-39 1.52603e-39 2.428649e-39 2.270144e-39 1.145295e-39 1.611705e-39
0.16622679 0.19416112 0.17797385 0.21197163 2.64602e-40 3.93721e-40 1.211186e-39 2.088165e-39
-0.1321761 -0.1416798 -0.11711204 -0.12721212 8.71676e-40 2.075523e-39 7.66694e-40 1.475968e-39
-1.60653e-40 -1.2816e-40 -4.94877e-40 -4.16561e-40 -8.70428e-40 -7.53707e-40 -1.70309e-39 -2.081039e-39
1.533196e-39 3.210993e-39 1.461738e-39 3.030016e-39 3.131986e-39 3.19314e-39 3.265328e-39 3.06821e-39
-2.080076e-39 -2.461306e-39 -5.511849e-39 -5.04449e-39 -2.351864e-39 -2.3954e-39 -2.254367e-39 -2.508806e-39
-1.912459e-39 -1.590678e-39 -1.34575e-39 -8.68243e-40 -2.29859e-40 -1.17462e-40 -3.132e-41 -7.652e-41
-0.20288631 -0.21552208 -0.015778698 -0.03268024 -1.483409e-39 -2.63761e-39 -3.103866e-39 -1.826842e-39

fc.bias f4 [2]
00000000: c61e 5e3d b4b5 edbb
0.054228567 -0.0072543267

79 f4 [16, 3, 7, 7]
00000000: 3919 3d3d 7efc db3c 5ca7 90bc 6d67 09bd
00000010: 395d 80bd c040 a0bb a202 3abd a179 213e
00000020: b10c bb3d dc59 ac3d e577 913d a99d adbb
00000030: eb99 193c 5d6f 073d 4642 8c3d bdcc ca3c
00000040: 0c8f d53c e055 21bc c7f8 edbc 2346 53bd
00000050: 58ab 83bc c46f c63d 572e 6d3d 0074 dc3c
00000060: ad41 38bc 9aef 63bd c78a 40bd 8b77 5f3c
00000070: f927 883c 771f a939 506a 19bb c589 76bd
00000080: faac 95bd 57c3 6abd 1799 babc 26f3 c3bc
00000090: ac6d a43c 242a 7d3c 9d08 c3bc e72b acbc
000000a0: b788 b83b 7c20 d93c 99b0 e0bc 9fd7 9d3c
000000b0: 09a3 18bd fc34 acbc 2e78 c3bc 88f7 28bc
000000c0: 8c5c 823c 29f0 73be 2016 3bbe 0307 0fbe
000000d0: e8e1 97bd e42f 98bd 366a c1bd e7f1 f9bd
000000e0: 620b eebd e67e fabd 984b 84bd bcc4 48bb
000000f0: f144 e7bc 7dff 99bc 2695 9dbc 6078 ecbd
00000100: 6f2d 0bbe 2586 96bd d87e b6bc 710b bebc
00000110: ee15 00bd eae0 f9bb 02c9 b13c ea66 933b
00000120: cdbe 803c 208c 263d d2d4 3d3d 7e45 853d
00000130: eaaa ac3d 22c0 79bc b098 c03b 9453 e83b
00000140: 3375 6d3d 27de 333d f444 e73b ba9e 733c
00000150: 148c 3abd 078b 123c f08a 413c 6b71 1c3c
00000160: 567d 0cbc be85 8bbc e41a 38bd 4af4 afbc
00000170: 04f9 043d c725 9dbc 0caf 10bd 7397 86bd
00000180: 7b62 b0bd 2e14 cbbd 16af 6bbc ac5c 913b
00000190: 3332 cfbb 1a0c ed3b ab87 943c 0203 573c
000001a0: bbb8 573c e974 e2bb af93 a8bc ad3f e0bb
000001b0: d0b4 cbbb 4751 30bd 7efa cebc 4503 a9bc
000001c0: 090d 1cbd add2 0cbd bee7 273c 0a87 7a3c
000001d0: 1abc 8b3c 1ab0 bc3c 19cd 3a3d 35e7 f43b
000001e0: f79a e43c 008f 003d a77a 2a3d 975a 593d
000001f0: 5cf7 9a3d 56c1 ce3d 3acd dcbc e440 3b3c
00000200: 5289 b93c f718 dc3b 16a4 54bc 882a 06bb
00000210: 827e 4dbc f7ca 29bd dc21 253b 4a76 513b
00000220: 33b5 fdbb e916 41bc 9f16 93bb 4cdd febc
00000230: 55e5 93bd 817b 17bd c705 89bd 8458 49bd
00000240: e283 33bd c24a 75bd 66fd d0bd 0000 0080
00000250: 0000 0080 0000 0080 0000 0080 0000 0080
00000260: 0000 0080 0000 0080 0000 0080 0000 0080
00000270: 0000 0080 0000 0080 0000 0000 0000 0000
00000280: 0000 0000 0000 0080 0000 0080 0000 0080
00000290: 0000 0000 0000 0000 0000 0000 0000 0000
000002a0: 0000 0080 0000 0000 0000 0000 0000 0000
000002b0: 0000 0000 0000 0000 0000 0000 0000 0080
000002c0: 0000 0000 0000 0000 0000 0080 0000 0080
000002d0: 0000 0080 0000 0080 0000 0000 0000 0000
000002e0: 0000 0000 0000 0080 0000 0000 0000 0000
000002f0: 0000 0080 0000 0000 0000 0000 0000 0000
00000300: 0000 0000 0000 0080 0000 0000 0000 0080
00000310: 0000 0080 0000 0080 0000 0080 0000 0080
00000320: 0000 0000 0000 0000 0000 0080 0000 0080
00000330: 0000 0080 0000 0080 0000 0000 0000 0000
00000340: 0000 0000 0000 0000 0000 0080 0000 0080
00000350: 0000 0000 0000 0000 0000 0000 0000 0000
00000360: 0000 0000 0000 0000 0000 0000 0000 0000
00000370: 0000 0000 0000 0080 0000 0080 0000 0000
00000380: 0000 0080 0000 0000 0000 0080 0000 0080
00000390: 0000 0080 0000 0080 0000 0080 0000 0080
000003a0: 0000 0080 0000 0080 0000 0080 0000 0080
000003b0: 0000 0080 0000 0080 0000 0080 0000 0080
000003c0: 0000 0080 0000 0080 0000 0080 0000 0080
000003d0: 0000 0080 0000 0080 0000 0080 0000 0080
000003e0: 0000 0080 0000 0080 0000 0080 0000 0080
000003f0: 0000 0080 0000 0080 0000 0080 0000 0080
0.046166632 0.026853796 -0.017657928 -0.0335459 -0.06267781 -0.0048905313 -0.045412667 0.15769054
0.0913328 0.08415577 0.07102946 -0.0052983356 0.009375076 0.03306519 0.06848578 0.02475583
0.026069187 -0.009847134 -0.02904929 -0.05158056 -0.016072914 0.09689286 0.05790552 0.026910782
-0.011246127 -0.055648424 -0.04700735 0.013639341 0.016620623 0.00032257635 -0.0023409314 -0.06018998
-0.07308383 -0.057315197 -0.022778077 -0.023919653 0.020071827 0.015451942 -0.023807818 -0.021017028
0.005631532 0.026504748 -0.027427958 0.019267855 -0.037264857 -0.021021359 -0.023861017 -0.010312922
0.01591327 -0.23822083 -0.18270159 -0.13967519 -0.07416135 -0.074310094 -0.09444086 -0.12204342
-0.11623265 -0.12231235 -0.06459731 -0.003063484 -0.028231116 -0.018798584 -0.019236159 -0.11546397
-0.1359155 -0.07349805 -0.02227728 -0.023198815 -0.031270914 -0.007625689 0.021702293 0.0044983523
0.01571598 0.040660977 0.04634554 0.06507395 0.08431037 -0.015243562 0.005877577 0.0070900414
0.057973098 0.043913033 0.0070577804 0.014869386 -0.045543745 0.0089442795 0.01181291 0.009548525
-0.008574804 -0.017031547 -0.04494752 -0.02147879 0.032464042 -0.019183053 -0.035323188 -0.065718554
-0.08612534 -0.09915958 -0.014385005 0.004436096 -0.006323123 0.0072341086 0.018131098 0.013123276
0.013166602 -0.0069109094 -0.020578234 -0.0068435282 -0.006216623 -0.043046262 -0.025265928 -0.020631442
-0.03809837 -0.034380604 0.010248123 0.015290985 0.017057467 0.02303319 0.045605753 0.007473851
0.027905924 0.031386375 0.041620877 0.05306491 0.07566711 0.1009547 -0.026953328 0.011429045
0.022648487 0.006716843 -0.012978574 -0.0020472128 -0.012542369 -0.041453328 0.0025197184 0.0031961375
-0.007742548 -0.011785247 -0.0044887806 -0.031111382 -0.07221476 -0.036983017 -0.06690555 -0.04915668
-0.043826945 -0.059885748 -0.10204582 -0.0 -0.0 -0.0 -0.0 -0.0
-0.0 -0.0 -0.0 -0.0 -0.0 -0.0 0.0 0.0
0.0 -0.0 -0.0 -0.0 0.0 0.0 0.0 0.0
-0.0 0.0 0.0 0.0 0.0 0.0 0.0 -0.0
0.0 0.0 -0.0 -0.0 -0.0 -0.0 0.0 0.0
0.0 -0.0 0.0 0.0 -0.0 0.0 0.0 0.0
0.0 -0.0 0.0 -0.0 -0.0 -0.0 -0.0 -0.0
0.0 0.0 -0.0 -0.0 -0.0 -0.0 0.0 0.0
0.0 0.0 -0.0 -0.0 0.0 0.0 0.0 0.0
0.0 0.0 0.0 0.0 0.0 -0.0 -0.0 0.0
-0.0 0.0 -0.0 -0.0 -0.0 -0.0 -0.0 -0.0
-0.0 -0.0 -0.0 -0.0 -0.0 -0.0 -0.0 -0.0
-0.0 -0.0 -0.0 -0.0 -0.0 -0.0 -0.0 -0.0
-0.0 -0.0 -0.0 -0.0 -0.0 -0.0 -0.0 -0.0

80 f4 [16]
00000000: 767e 183f f915 4180 1869 163e 4052 d53e
00000010: 36f1 bb3e d2b8 c93e 3c37 3980 4a43 46be
00000020: 2293 a03e 4552 debe fa49 703e 1d42 cabe
00000030: 32a0 f33e 2e76 0980 9843 b33c de32 523d
0.59567964 -5.97719e-39 0.14688528 0.41664314 0.36707467 0.3939882 -5.254438e-39 -0.19361606
0.31362253 -0.43422142 0.2346572 -0.39503565 0.47583157 -8.68914e-40 0.021882817 0.051318042

82 f4 [32, 16, 3, 3]
00000000: 1dbf 9dbc 355e 33bd 3594 99bc 2b3d 523b
00000010: 6d5e 1ebd 1d8f ca3a e861 4e3d 82ec cdbc
00000020: 5f97 54bc d8f1 1d00 f1c7 4e00 d6fb 1180
00000030: d3ec 4900 4469 3d00 6d26 4a00 5f7a 4300
00000040: 01a4 4900 c728 4800 582d 76bd e3cb 23bd
00000050: c59c e53b 3133 533b ac51 8b3c 293c 603d
00000060: d42e 9c3d 84d8 4f3d 8e29 8b3d 77a8 d1bb
00000070: 1597 18bb 87a3 b33d 0c82 82bd 2435 e2bc
00000080: 9a2c 163d b8f6 2ebd bcf4 e9ba e0f8 ab3c
00000090: 10ba 2b3d 5045 ddbb 8069 b1bc 6a46 fb3c
000000a0: b4d1 b7bc 85c4 b6bc 7275 0f3c 6486 95bc
000000b0: 6db8 513b 771d fa39 6b1d aabc 8539 62bc
000000c0: 4215 973c b8d3 0dbc 890d 59bc 25cf 2b3d
000000d0: bc87 ae3a 62be 343b 9fc9 2480 45b9 2380
000000e0: 3aa1 3380 3179 1d80 66b0 2280 2fff 4e80
000000f0: dfcc 1780 9ad4 2180 807a 1c80 c906 e7bc
00000100: 4d59 d0b7 b60a 8abc fc48 62bc 8b94 8d3c
00000110: cd88 cfbc c55e a239 7744 e73c 0b18 53bd
00000120: 031c 123d 11a2 c53a efd9 143e 6504 17bd
00000130: a967 5fbd e75b 933d 6456 a5bd 1faf 8ebd
00000140: 78be 78bb f8dd 7ebd 2129 6ebd 6572 5dbd
00000150: 877e a0bd 5023 85bd 9a89 24bd 09cd 68bd
00000160: 870c d0bc 9906 90bc ae85 3fbd 41d7 b5bc
00000170: 0e78 833d 9b38 1abd ab7b 63bc eebe 413d
00000180: c538 ca3d 2648 cb3d a23b 273e b336 b9bd
00000190: 4547 fbbc 4700 a6bd 4b10 87bc d131 903b
000001a0: f6c9 573c 054e fe3d f2e5 d53d d6e7 923d
000001b0: 884d c33c 32be f43c 95bb 223d 5127 52bd
000001c0: 2a79 5cbd 41af 98bc d9ca 1dbe efee 14be
000001d0: 5f1c dcbd 8adc 2400 010e 1700 88bc 3c00
000001e0: bc88 2600 772f 1b00 f09e 2700 92c5 3b80
000001f0: 87bf 3880 d68e 1800 7fe3 e5bc a462 9dbd
00000200: 0a12 96bd 025f 58bc df9d c6bd 10e5 e1bd
00000210: 3e2c e43c f7b4 f1bc f32d 76bd 9851 333d
00000220: 3bc3 0e3d ba3c e73c 2b9b 703c 8f02 113c
00000230: faa0 fa3b a041 a4bb 1a65 15bd 9afb 18bd
00000240: ceed af3d 8935 253d 9f5b e43c c1e6 fa3c
00000250: fbac 7ebc aec6 89bc 659e 0f3c a034 19bd
00000260: de96 37bd 109d 5780 b0f0 4080 7481 3180
00000270: 3f59 4580 76ba 4280 67ca 2780 7150 2380
00000280: 0088 3f80 ae58 2a80 fe56 53bd ad4d 4ebd
00000290: e676 eabc 9d4b cb3c 45e0 b5bb 3936 debc
000002a0: 188e 5e3d 201c b23c 5c13 20bc 6565 32bc
000002b0: 0992 813c 1599 adbb 4f52 8cbc 57f3 ab3a
000002c0: 58c2 c3bc 977f 1bbd 8583 ddbc da0d 2fbd
000002d0: 398b 3f3d 72b8 01bc 75a8 49bc ea7d d83c
000002e0: 3ab1 b3bc 1dde c0bc ec7f 943c 8895 a9bc
000002f0: 6831 8cbc 8d1e 803c 7086 99bc 69ba b8bc
00000300: a431 733b bfe3 fabc 96b5 f1bc 32db b1bb
00000310: b635 1fbd 5f87 10bd 02c2 0f80 1787 2380
00000320: b92c 1c80 dce3 2780 7016 1e80 5304 1180
00000330: 36bf 3480 a491 2680 e4b0 0e80 2fcd 1f3d
00000340: c449 16ba b731 44bd c5ac 0d3d 3bca beba
00000350: 762a 19bd b1ef a73b 292d cebc 449f 3bbd
00000360: 1eec 373d 7ce6 3b3c 3a89 683d abf2 2f3d
00000370: 543d c0bb afa0 8b3b 1e0b 3f3d 2ae8 fcb9
00000380: 78b6 4bbc ffcf 763d 4584 1b3d 2387 b83c
00000390: 15b5 453d 9610 e83c d598 ed3c c42b 173d
000003a0: 2d64 a43c c713 cc3c bd22 183c 25f3 a7bd
000003b0: 137d e6bd 5c80 bdbc 2c87 9ebd 30e5 8bbd
000003c0: ea73 7cbd b8bc afbd 70ce 54bd 9835 12bd
000003d0: 41c0 36bd 86f6 17bc 93ac a33c 6151 e63a
000003e0: f122 ae3c 89d2 2c3d 9d81 af3c c492 383d
000003f0: d44e a33d 0644 44bc b701 0b3d cca9 f33d
-0.019256169 -0.043791015 -0.018747428 0.0032079916 -0.03866427 0.0015454028 0.05038634 -0.02513719
-0.012975543 2.749987e-39 7.234894e-39 -1.651545e-39 6.788948e-39 5.639727e-39 6.809611e-39 6.196877e-39
6.762825e-39 6.626784e-39 -0.060101837 -0.039989363 0.007007214 0.0032226557 0.017006718 0.054744873
0.07626119 0.050743595 0.06795035 -0.0063982564 -0.0023283411 0.08771425 -0.06372461 -0.02761323
0.03666363 -0.042715758 -0.0017849426 0.020992696 0.04192549 -0.0067526475 -0.021656752 0.030673224
-0.022438861 -0.022310505 0.0087560285 -0.018252559 0.0032000795 0.0004770567 -0.02076598 -0.013807659
0.018442754 -0.008656435 -0.013247856 0.041945595 0.0013315598 0.0027579297 -3.378406e-39 -3.280705e-39
-4.741447e-39 -2.706705e-39 -3.185687e-39 -7.254711e-39 -2.18571e-39 -3.106838e-39 -2.615339e-39 -0.028201478
-2.4837116e-05 -0.01685081 -0.013811346 0.017282745 -0.025333786 0.00030969657 0.028230889 -0.0515366
0.035671245 0.0015078207 0.1453626 -0.036869425 -0.054542217 0.07195263 -0.08073118 -0.069669954
-0.0037955325 -0.062223405 -0.058144692 -0.054064173 -0.07836633 -0.06500876 -0.04017029 -0.05683616
-0.025396599 -0.017581271 -0.046758346 -0.022197368 0.06419383 -0.03765164 -0.013884465 0.047301225
0.09874109 0.099258706 0.16331342 -0.09043636 -0.030673632 -0.08105522 -0.016487261 0.00440047
0.01317071 0.12417225 0.10444249 0.071731254 0.02384068 0.029875848 0.039729673 -0.051307026
-0.05382649 -0.018638255 -0.15409411 -0.14544271 -0.10747599 3.385192e-39 2.11724e-39 5.577762e-39
3.5388e-39 2.496586e-39 3.6386e-39 -5.489169e-39 -5.211495e-39 2.255292e-39 -0.02806258 -0.0768483
-0.073276594 -0.013206245 -0.0969808 -0.11030018 0.027853128 -0.029505236 -0.060102414 0.043778986
0.034854155 0.028227199 0.014685432 0.008850708 0.0076485844 -0.005012706 -0.03647337 -0.03734932
0.085902795 0.04033426 0.02787572 0.03062761 -0.015544171 -0.01681837 0.008765792 -0.037403703
-0.044821613 -8.046032e-39 -5.963814e-39 -4.546378e-39 -6.368665e-39 -6.128032e-39 -3.654193e-39 -3.2431e-39
-5.834424e-39 -3.888903e-39 -0.051596634 -0.050367046 -0.028621148 0.024816329 -0.0055504167 -0.027125465
0.05433473 0.021741927 -0.009770241 -0.010888432 0.015816705 -0.00529779 -0.017129092 0.0013118786
-0.023896381 -0.037963476 -0.027040252 -0.04273782 0.046763632 -0.00791751 -0.01230823 0.026427228
-0.021935094 -0.023543412 0.018127404 -0.020701185 -0.017113402 0.015639568 -0.018740863 -0.022549825
0.0037108446 -0.030626176 -0.029505532 -0.0054277414 -0.038869582 -0.03528535 -1.44713e-39 -3.262703e-39
-2.587437e-39 -3.663325e-39 -2.763114e-39 -1.562755e-39 -4.84404e-39 -3.541995e-39 -1.349153e-39 0.039014038
-0.0005733038 -0.047898974 0.034588594 -0.0014556119 -0.03739401 0.005125009 -0.025168018 -0.045806184
0.044902913 0.011468526 0.056771494 0.042956036 -0.005866686 0.0042610983 0.04664146 -0.0004823816
-0.012433641 0.060256954 0.03796794 0.022525376 0.048268396 0.028328221 0.02900354 0.036906973
0.020067299 0.024911774 0.009285626 -0.08200673 -0.11254325 -0.023132496 -0.07740626 -0.068308234
-0.06163398 -0.08580917 -0.051954687 -0.035695642 -0.04461694 -0.009275084 0.01997975 0.001757186
0.021256896 0.04219297 0.02142411 0.04506184 0.0797402 -0.011979109 0.033937182 0.118976206

83 f4 [32]
00000000: 1b3b 5b3d 5579 713d 1ca3 0b80 d329 0b80
00000010: ad02 1180 e9d9 0d80 ebca 1480 36ab 0e80
00000020: b9da 4a3e e0ad e13b 35cc 0580 3a3e a7bc
00000030: 23e3 2880 055d 65be 64d5 0d80 14ec 0f80
00000040: 5843 653c 56a5 0480 b8af eb3b de40 1280
00000050: 6858 423d 8287 5e80 86ac 1ebd abe6 dcbe
00000060: 4248 0b80 ec72 0680 a5de 1380 a2ea 653e
00000070: 8b81 0f80 06b1 1380 daed 0580 e1d4 1f80
0.053523164 0.058953602 -1.068703e-39 -1.025194e-39 -1.562163e-39 -1.272033e-39 -1.909503e-39 -1.347116e-39
0.19809999 0.0068871826 -5.32433e-40 -0.020415414 -3.754901e-39 -0.22398765 -1.270412e-39 -1.462221e-39
0.013993107 -4.26653e-40 0.007192578 -1.676309e-39 0.047447592 -8.681148e-39 -0.03873875 -0.43144736
-1.036112e-39 -5.92239e-40 -1.824744e-39 0.22452787 -1.424004e-39 -1.808378e-39 -5.44503e-40 -2.923267e-39

85 f4 [32, 32, 3, 3]
00000000: 0000 0080 0000 0080 0000 0000 0000 0000
00000010: 0000 0080 0000 0000 0000 0080 0000 0000
00000020: 0000 0000 0000 0080 0000 0080 0000 0000
00000030: 0000 0000 0000 0000 0000 0000 0000 0080
00000040: 0000 0000 0000 0080 0000 0080 0000 0080
00000050: 0000 0000 0000 0080 0000 0080 0000 0000
00000060: 0000 0000 0000 0000 0000 0000 0000 0000
00000070: 0000 0000 0000 0000 0000 0080 0000 0000
00000080: 0000 0000 0000 0080 0000 0000 0000 0080
00000090: 0000 0000 0000 0000 0000 0080 0000 0080
000000a0: 0000 0000 0000 0000 0000 0000 0000 0000
000000b0: 0000 0080 0000 0000 0000 0080 0000 0080
000000c0: 0000 0000 0000 0000 0000 0080 0000 0000
000000d0: 0000 0080 0000 0000 0000 0080 0000 0080
000000e0: 0000 0080 0000 0000 0000 0080 0000 0000
000000f0: 0000 0000 0000 0080 0000 0080 0000 0080
00000100: 0000 0080 0000 0000 0000 0080 0000 0000
00000110: 0000 0000 0000 0080 0000 0080 0000 0000
00000120: 0000 0000 0000 0080 0000 0080 0000 0000
00000130: 0000 0080 0000 0000 0000 0080 0000 0080
00000140: 0000 0000 0000 0000 0000 0080 0000 0080
00000150: 0000 0000 0000 0000 0000 0000 0000 0000
00000160: 0000 0080 0000 0080 0000 0080 0000 0080
00000170: 0000 0080 0000 0080 0000 0000 0000 0080
00000180: 0000 0080 0000 0000 0000 0080 0000 0080
00000190: 0000 0000 0000 0000 0000 0000 0000 0000
000001a0: 0000 0080 0000 0000 0000 0080 0000 0000
000001b0: 0000 0080 0000 0080 0000 0000 0000 0080
000001c0: 0000 0080 0000 0080 0000 0080 0000 0000
000001d0: 0000 0080 0000 0000 0000 0080 0000 0000
000001e0: 0000 0000 0000 0080 0000 0000 0000 0080
000001f0: 0000 0000 0000 0080 0000 0080 0000 0080
00000200: 0000 0080 0000 0080 0000 0000 0000 0000
00000210: 0000 0080 0000 0080 0000 0000 0000 0000
00000220: 0000 0080 0000 0080 0000 0000 0000 0000
00000230: 0000 0000 0000 0080 0000 0000 0000 0080
00000240: 0000 0000 0000 0000 0000 0080 0000 0000
00000250: 0000 0080 0000 0000 0000 0000 0000 0080
00000260: 0000 0000 0000 0080 0000 0000 0000 0080
00000270: 0000 0080 0000 0080 0000 0080 0000 0000
00000280: 0000 0000 0000 0000 0000 0080 0000 0080
00000290: 0000 0080 0000 0080 0000 0080 0000 0000
000002a0: 0000 0000 0000 0000 0000 0000 0000 0080
000002b0: 0000 0000 0000 0000 0000 0080 0000 0080
000002c0: 0000 0080 0000 0080 0000 0080 0000 0000
000002d0: 0000 0080 0000 0080 0000 0000 0000 0000
000002e0: 0000 0000 0000 0000 0000 0080 0000 0000
000002f0: 0000 0000 0000 0080 0000 0000 0000 0080
00000300: 0000 0000 0000 0080 0000 0000 0000 0080
00000310: 0000 0080 0000 0080 0000 0080 0000 0000
00000320: 0000 0000 0000 0080 0000 0080 0000 0000
00000330: 0000 0080 0000 0000 0000 0000 0000 0000
00000340: 0000 0000 0000 0080 0000 0080 0000 0080
00000350: 0000 0000 0000 0000 0000 0000 0000 0000
00000360: 0000 0080 0000 0000 0000 0000 0000 0080
00000370: 0000 0080 0000 0080 0000 0080 0000 0080
00000380: 0000 0080 0000 0080 0000 0000 0000 0000
00000390: 0000 0080 0000 0000 0000 0080 0000 0000
000003a0: 0000 0000 0000 0080 0000 0000 0000 0080
000003b0: 0000 0000 0000 0000 0000 0080 0000 0080
000003c0: 0000 0080 0000 0080 0000 0000 0000 0000
000003d0: 0000 0000 0000 0080 0000 0000 0000 0000
000003e0: 0000 0000 0000 0000 0000 0000 0000 0080
000003f0: 0000 0000 0000 0080 0000 0000 0000 0000
-0.0 -0.0 0.0 0.0 -0.0 0.0 -0.0 0.0
0.0 -0.0 -0.0 0.0 0.0 0.0 0.0 -0.0
0.0 -0.0 -0.0 -0.0 0.0 -0.0 -0.0 0.0
0.0 0.0 0.0 0.0 0.0 0.0 -0.0 0.0
0.0 -0.0 0.0 -0.0 0.0 0.0 -0.0 -0.0
0.0 0.0 0.0 0.0 -0.0 0.0 -0.0 -0.0
0.0 0.0 -0.0 0.0 -0.0 0.0 -0.0 -0.0
-0.0 0.0 -0.0 0.0 0.0 -0.0 -0.0 -0.0
-0.0 0.0 -0.0 0.0 0.0 -0.0 -0.0 0.0
0.0 -0.0 -0.0 0.0 -0.0 0.0 -0.0 -0.0
0.0 0.0 -0.0 -0.0 0.0 0.0 0.0 0.0
-0.0 -0.0 -0.0 -0.0 -0.0 -0.0 0.0 -0.0
-0.0 0.0 -0.0 -0.0 0.0 0.0 0.0 0.0
-0.0 0.0 -0.0 0.0 -0.0 -0.0 0.0 -0.0
-0.0 -0.0 -0.0 0.0 -0.0 0.0 -0.0 0.0
0.0 -0.0 0.0 -0.0 0.0 -0.0 -0.0 -0.0
-0.0 -0.0 0.0 0.0 -0.0 -0.0 0.0 0.0
-0.0 -0.0 0.0 0.0 0.0 -0.0 0.0 -0.0
0.0 0.0 -0.0 0.0 -0.0 0.0 0.0 -0.0
0.0 -0.0 0.0 -0.0 -0.0 -0.0 -0.0 0.0
0.0 0.0 -0.0 -0.0 -0.0 -0.0 -0.0 0.0
0.0 0.0 0.0 -0.0 0.0 0.0 -0.0 -0.0
-0.0 -0.0 -0.0 0.0 -0.0 -0.0 0.0 0.0
0.0 0.0 -0.0 0.0 0.0 -0.0 0.0 -0.0
0.0 -0.0 0.0 -0.0 -0.0 -0.0 -0.0 0.0
0.0 -0.0 -0.0 0.0 -0.0 0.0 0.0 0.0
0.0 -0.0 -0.0 -0.0 0.0 0.0 0.0 0.0
-0.0 0.0 0.0 -0.0 -0.0 -0.0 -0.0 -0.0
-0.0 -0.0 0.0 0.0 -0.0 0.0 -0.0 0.0
0.0 -0.0 0.0 -0.0 0.0 0.0 -0.0 -0.0
-0.0 -0.0 0.0 0.0 0.0 -0.0 0.0 0.0
0.0 0.0 0.0 -0.0 0.0 -0.0 0.0 0.0

86 f4 [32]
00000000: 6d7a 1e80 546e 2480 a350 1380 b97f 88be
00000010: c06a 0180 e476 8e3d 03b3 1280 a2d5 7bbd
00000020: 5586 3c3d 4534 1180 6a03 1c80 b1b6 21be
00000030: d83b 0a80 4cdb 82be 7e1b 0d80 33af cc3d
00000040: 18f4 0a80 002f ae3e 5117 7380 9a37 0880
00000050: 9c5d 13be b04a 0580 b281 2180 067e 1180
00000060: 6f9a 0580 38e8 2f3c c20b 0180 4a95 7c3e
00000070: ddd6 0b80 13e8 0280 e43c ca3d 05d9 0f3e
-2.798983e-39 -3.345656e-39 -1.773801e-39 -0.26659945 -1.3013e-40 0.0695627 -1.717256e-39 -0.061483033
0.046026547 -1.579954e-39 -2.572619e-39 -0.15792347 -9.39823e-40 -0.25557935 -1.203724e-39 0.09994354
-1.00592e-39 0.34020233 -1.0569446e-38 -7.5463e-40 -0.14391178 -4.8597e-40 -3.077097e-39 -1.606412e-39
-5.14578e-40 0.010736518 -9.6053e-41 0.24666324 -1.087269e-39 -2.66924e-40 0.09874895 0.1404763

88 f4 [32, 16, 1, 1]
00000000: 0000 0000 0000 0080 0000 0080 0000 0080
00000010: 0000 0000 0000 0000 0000 0000 0000 0000
00000020: 0000 0080 0000 0080 0000 0080 0000 0000
00000030: 0000 0000 0000 0080 0000 0000 0000 0000
00000040: 0000 0080 0000 0080 0000 0080 0000 0080
00000050: 0000 0000 0000 0080 0000 0000 0000 0080
00000060: 0000 0080 0000 0000 0000 0000 0000 0000
00000070: 0000 0080 0000 0000 0000 0080 0000 0080
00000080: 0000 0080 0000 0080 0000 0000 0000 0000
00000090: 0000 0000 0000 0080 0000 0080 0000 0080
000000a0: 0000 0000 0000 0080 0000 0000 0000 0000
000000b0: 0000 0000 0000 0000 0000 0080 0000 0080
000000c0: 3d04 233b 5c69 1200 84e5 d83b d6a8 c93a
000000d0: 4eff 81ba 1143 043b e61f 1880 2253 9139
000000e0: d7c8 9a3a b94d 9dba de83 863b 2aee 90ba
000000f0: 149e 133c ae7a 1080 efe9 17bb 87d4 0e38
00000100: 0000 0080 0000 0000 0000 0080 0000 0000
00000110: 0000 0000 0000 0000 0000 0080 0000 0080
00000120: 0000 0000 0000 0080 0000 0080 0000 0000
00000130: 0000 0080 0000 0080 0000 0000 0000 0000
00000140: 2ca5 63bd e0e8 3c00 eb03 0dbe 59b4 7c3e
00000150: 853a f4bc e6e1 753e a95e 4680 3504 a6be
00000160: e844 f83e 2934 9bbd 324e 85be d041 093e
00000170: 51f2 5cbe 5589 2480 edf5 aebd 44db 1a3e
00000180: 0000 0080 0000 0080 0000 0080 0000 0000
00000190: 0000 0000 0000 0000 0000 0080 0000 0080
000001a0: 0000 0000 0000 0080 0000 0000 0000 0080
000001b0: 0000 0080 0000 0000 0000 0000 0000 0080
000001c0: e89b d03d e8fb 1300 79ce 633d a384 46bd
000001d0: d75e 573d d1a0 eb3d dcae 2500 022a 07bd
000001e0: 89af f33d 8a93 05bd f269 9bbd 1edd 86bd
000001f0: e8fb 5c3d b5a3 0900 1d19 0d3e c71e 113d
00000200: b346 7dbd 10b0 3900 6062 a4bd b0a1 de3d
00000210: 69c8 7b3d 8fda 383d c073 2f80 9f2b 35bd
00000220: e805 8fbc 1642 57bd cec8 2b3e 5f2b 8dbd
00000230: f6d8 073d 8f77 1f80 abf4 cd3c 9a3d 9c3c
00000240: 0000 0080 0000 0000 0000 0080 0000 0000
00000250: 0000 0000 0000 0080 0000 0080 0000 0000
00000260: 0000 0000 0000 0080 0000 0080 0000 0000
00000270: 0000 0080 0000 0000 0000 0080 0000 0000
00000280: 0000 0000 0000 0080 0000 0080 0000 0000
00000290: 0000 0080 0000 0000 0000 0080 0000 0000
000002a0: 0000 0000 0000 0000 0000 0080 0000 0080
000002b0: 0000 0000 0000 0000 0000 0000 0000 0000
000002c0: 3bcc 1cbe 027a 6680 7725 f5bd c4fd cabd
000002d0: 78bd 6d3e 1c66 fa3d c497 5780 c147 49be
000002e0: 7c5b 52bd d010 1cbe b712 0d3e 4880 18be
000002f0: 1ec2 14bd 374a 1f80 fa6f ddbd 2639 c43d
00000300: 0000 0080 0000 0000 0000 0000 0000 0000
00000310: 0000 0000 0000 0000 0000 0080 0000 0080
00000320: 0000 0000 0000 0080 0000 0000 0000 0080
00000330: 0000 0000 0000 0000 0000 0000 0000 0000
00000340: 73b6 51bd 8a95 6100 c7dc 793d 2f95 aabc
00000350: 3023 abbc 122f d83d f329 5b00 c103 8ebe
00000360: befc b93c 3abb 9dbd feef 71be 5146 82bd
00000370: 2e18 adbd d4e8 3400 d122 10bd e509 3c3d
00000380: 0000 0000 0000 0000 0000 0080 0000 0080
00000390: 0000 0080 0000 0080 0000 0000 0000 0080
000003a0: 0000 0080 0000 0080 0000 0000 0000 0000
000003b0: 0000 0080 0000 0000 0000 0000 0000 0080
000003c0: a93b cfbb d73d 8700 b372 3c3d 2e1a b43d
000003d0: dad5 2abd a429 15bd 59d6 1800 fb32 493e
000003e0: 6728 b3bb f2e4 27bd 7ee6 74bd 8081 e6bd
000003f0: e6e9 043e 0a81 2300 13c5 633e 1c7d 6dbd
0.0 -0.0 -0.0 -0.0 0.0 0.0 0.0 0.0
-0.0 -0.0 -0.0 0.0 0.0 -0.0 0.0 0.0
-0.0 -0.0 -0.0 -0.0 0.0 -0.0 0.0 -0.0
-0.0 0.0 0.0 0.0 -0.0 0.0 -0.0 -0.0
-0.0 -0.0 0.0 0.0 0.0 -0.0 -0.0 -0.0
0.0 -0.0 0.0 0.0 0.0 0.0 -0.0 -0.0
0.0024874352 1.690835e-39 0.0066191573 0.00153854 -0.0009918006 0.0020181576 -2.215495e-39 0.00027718494
0.0011809123 -0.0012001313 0.0041050753 -0.0011057307 0.009009857 -1.513377e-39 -0.0023180207 3.405337e-05
-0.0 0.0 -0.0 0.0 0.0 0.0 -0.0 -0.0
0.0 -0.0 -0.0 0.0 -0.0 -0.0 0.0 0.0
-0.055577442 5.59367e-39 -0.13771026 0.24678172 -0.02981306 0.24011955 -6.462442e-39 -0.32425085
0.4849007 -0.07578308 -0.2603622 0.13404012 -0.21576811 -3.355343e-39 -0.08543 0.15122706
-0.0 -0.0 -0.0 0.0 0.0 0.0 -0.0 -0.0
0.0 -0.0 0.0 -0.0 -0.0 0.0 0.0 -0.0
0.10185987 1.835241e-39 0.05561683 -0.048466336 0.05258068 0.11505283 3.460641e-39 -0.032999046
0.11898715 -0.032611407 -0.07588567 -0.065851435 0.053951174 8.85246e-40 0.13779111 0.035429742
-0.061835002 5.297783e-39 -0.08026576 0.10870683 0.061470423 0.04513031 -4.357792e-39 -0.044231053
-0.017458871 -0.05255326 0.1677582 -0.06893038 0.033165894 -2.88979e-39 0.02514108 0.019072343
-0.0 0.0 -0.0 0.0 0.0 -0.0 -0.0 0.0
0.0 -0.0 -0.0 0.0 -0.0 0.0 -0.0 0.0
0.0 -0.0 -0.0 0.0 -0.0 0.0 -0.0 0.0
0.0 0.0 -0.0 -0.0 0.0 0.0 0.0 0.0
-0.15312283 -9.410989e-39 -0.119700365 -0.09911683 0.23216808 0.12226507 -8.044131e-39 -0.19656278
-0.051356778 -0.15240788 0.1377667 -0.14892685 -0.036317937 -2.873524e-39 -0.108123735 0.09581213
-0.0 0.0 0.0 0.0 0.0 0.0 -0.0 -0.0
0.0 -0.0 0.0 -0.0 0.0 0.0 0.0 0.0
-0.051199388 8.961688e-39 0.061001565 -0.02082309 -0.020890802 0.10555853 8.372079e-39 -0.2773724
0.022703525 -0.07701726 -0.23626706 -0.06361068 -0.084518775 4.858969e-39 -0.035189454 0.045907874
0.0 0.0 -0.0 -0.0 -0.0 -0.0 0.0 -0.0
-0.0 -0.0 0.0 0.0 -0.0 0.0 0.0 -0.0
-0.0063242507 1.2419976e-38 0.046007823 0.08794056 -0.04170785 -0.036416665 2.280945e-39 0.19648354
-0.005467463 -0.040989824 -0.059790127 -0.11255169 0.1297985 3.260533e-39 0.22243147 -0.05798064

89 f4 [32]
00000000: 6d7a 1e80 546e 2480 a350 1380 08e1 13bd
00000010: c06a 0180 9c3b b9bd 03b3 1280 8cfb a3bd
00000020: fde9 82bd 4534 1180 6a03 1c80 181c ad3d
00000030: d83b 0a80 80c3 393c 7e1b 0d80 7810 b6bd
00000040: 18f4 0a80 516c 46be 5117 7380 9a37 0880
00000050: 08f4 dabd b04a 0580 b281 2180 067e 1180
00000060: 6f9a 0580 5c38 7fbe c20b 0180 a0bc a03d
00000070: ddd6 0b80 13e8 0280 97b4 82bd 7215 e73d
-2.798983e-39 -3.345656e-39 -1.773801e-39 -0.03610328 -1.3013e-40 -0.09044573 -1.717256e-39 -0.08006963
-0.06392286 -1.579954e-39 -2.572619e-39 0.08452624 -9.39823e-40 0.011338115 -1.203724e-39 -0.0888986
-1.00592e-39 -0.19377257 -1.0569446e-38 -7.5463e-40 -0.106910765 -4.8597e-40 -3.077097e-39 -1.606412e-39
-5.14578e-40 -0.24923843 -9.6053e-41 0.07848477 -1.087269e-39 -2.66924e-40 -0.06382101 0.11283387

91 f4 [64, 32, 3, 3]
00000000: 0000 0080 0000 0080 0000 0000 0000 0080
00000010: 0000 0080 0000 0000 0000 0000 0000 0000
00000020: 0000 0000 0000 0080 0000 0080 0000 0080
00000030: 0000 0080 0000 0080 0000 0080 0000 0080
00000040: 0000 0080 0000 0080 0000 0080 0000 0080
00000050: 0000 0080 0000 0000 0000 0000 0000 0080
00000060: 0000 0080 0000 0080 0000 0080 0000 0000
00000070: 0000 0000 0000 0000 0000 0000 0000 0000
00000080: 0000 0000 0000 0080 0000 0000 0000 0000
00000090: 0000 0080 0000 0080 0000 0080 0000 0080
000000a0: 0000 0080 0000 0080 0000 0000 0000 0000
000000b0: 0000 0080 0000 0000 0000 0000 0000 0000
000000c0: 0000 0000 0000 0000 0000 0080 0000 0000
000000d0: 0000 0080 0000 0080 0000 0000 0000 0080
000000e0: 0000 0000 0000 0000 0000 0000 0000 0000
000000f0: 0000 0000 0000 0000 0000 0000 0000 0000
00000100: 0000 0000 0000 0000 0000 0000 0000 0000
00000110: 0000 0000 0000 0080 0000 0080 0000 0080
00000120: 0000 0080 0000 0080 0000 0080 0000 0000
00000130: 0000 0080 0000 0080 0000 0080 0000 0080
00000140: 0000 0080 0000 0080 0000 0000 0000 0000
00000150: 0000 0080 0000 0080 0000 0080 0000 0080
00000160: 0000 0080 0000 0080 0000 0080 0000 0000
00000170: 0000 0000 0000 0080 0000 0000 0000 0000
00000180: 0000 0000 0000 0000 0000 0000 0000 0080
00000190: 0000 0000 0000 0000 0000 0000 0000 0000
000001a0: 0000 0000 0000 0000 0000 0000 0000 0000
000001b0: 0000 0000 0000 0080 0000 0000 0000 0000
000001c0: 0000 0080 0000 0080 0000 0000 0000 0080
000001d0: 0000 0000 0000 0000 0000 0000 0000 0000
000001e0: 0000 0000 0000 0000 0000 0000 0000 0000
000001f0: 0000 0000 0000 0000 0000 0080 0000 0080
00000200: 0000 0080 0000 0080 0000 0000 0000 0080
00000210: 0000 0080 0000 0000 0000 0000 0000 0000
00000220: 0000 0000 0000 0000 0000 0000 0000 0000
00000230: 0000 0000 0000 0000 0000 0000 0000 0000
00000240: 0000 0000 0000 0000 0000 0000 0000 0000
00000250: 0000 0000 0000 0000 0000 0080 0000 0000
00000260: 0000 0000 0000 0000 0000 0080 0000 0080
00000270: 0000 0080 0000 0000 0000 0080 0000 0080
00000280: 0000 0000 0000 0080 0000 0080 0000 0000
00000290: 0000 0080 0000 0080 0000 0080 0000 0000
000002a0: 0000 0080 0000 0080 0000 0080 0000 0000
000002b0: 0000 0000 0000 0000 0000 0000 0000 0000
000002c0: 0000 0080 0000 0000 0000 0000 0000 0000
000002d0: 0000 0000 0000 0000 0000 0000 0000 0080
000002e0: 0000 0080 0000 0000 0000 0080 0000 0080
000002f0: 0000 0000 0000 0000 0000 0000 0000 0080
00000300: 0000 0080 0000 0000 0000 0000 0000 0080
00000310: 0000 0000 0000 0080 0000 0000 0000 0000
00000320: 0000 0080 0000 0080 0000 0080 0000 0080
00000330: 0000 0000 0000 0000 0000 0000 0000 0080
00000340: 0000 0000 0000 0000 0000 0080 0000 0080
00000350: 0000 0000 0000 0000 0000 0000 0000 0000
00000360: 0000 0080 0000 0080 0000 0080 0000 0080
00000370: 0000 0080 0000 0080 0000 0080 0000 0080
00000380: 0000 0080 0000 0080 0000 0000 0000 0000
00000390: 0000 0080 0000 0080 0000 0000 0000 0000
000003a0: 0000 0000 0000 0080 0000 0080 0000 0080
000003b0: 0000 0080 0000 0000 0000 0080 0000 0080
000003c0: 0000 0000 0000 0000 0000 0000 0000 0000
000003d0: 0000 0000 0000 0080 0000 0000 0000 0080
000003e0: 0000 0080 0000 0080 0000 0000 0000 0000
000003f0: 0000 0000 0000 0000 0000 0000 0000 0080
-0.0 -0.0 0.0 -0.0 -0.0 0.0 0.0 0.0
0.0 -0.0 -0.0 -0.0 -0.0 -0.0 -0.0 -0.0
-0.0 -0.0 -0.0 -0.0 -0.0 0.0 0.0 -0.0
-0.0 -0.0 -0.0 0.0 0.0 0.0 0.0 0.0
0.0 -0.0 0.0 0.0 -0.0 -0.0 -0.0 -0.0
-0.0 -0.0 0.0 0.0 -0.0 0.0 0.0 0.0
0.0 0.0 -0.0 0.0 -0.0 -0.0 0.0 -0.0
0.0 0.0 0.0 0.0 0.0 0.0 0.0 0.0
0.0 0.0 0.0 0.0 0.0 -0.0 -0.0 -0.0
-0.0 -0.0 -0.0 0.0 -0.0 -0.0 -0.0 -0.0
-0.0 -0.0 0.0 0.0 -0.0 -0.0 -0.0 -0.0
-0.0 -0.0 -0.0 0.0 0.0 -0.0 0.0 0.0
0.0 0.0 0.0 -0.0 0.0 0.0 0.0 0.0
0.0 0.0 0.0 0.0 0.0 -0.0 0.0 0.0
-0.0 -0.0 0.0 -0.0 0.0 0.0 0.0 0.0
0.0 0.0 0.0 0.0 0.0 0.0 -0.0 -0.0
-0.0 -0.0 0.0 -0.0 -0.0 0.0 0.0 0.0
0.0 0.0 0.0 0.0 0.0 0.0 0.0 0.0
0.0 0.0 0.0 0.0 0.0 0.0 -0.0 0.0
0.0 0.0 -0.0 -0.0 -0.0 0.0 -0.0 -0.0
0.0 -0.0 -0.0 0.0 -0.0 -0.0 -0.0 0.0
-0.0 -0.0 -0.0 0.0 0.0 0.0 0.0 0.0
-0.0 0.0 0.0 0.0 0.0 0.0 0.0 -0.0
-0.0 0.0 -0.0 -0.0 0.0 0.0 0.0 -0.0
-0.0 0.0 0.0 -0.0 0.0 -0.0 0.0 0.0
-0.0 -0.0 -0.0 -0.0 0.0 0.0 0.0 -0.0
0.0 0.0 -0.0 -0.0 0.0 0.0 0.0 0.0
-0.0 -0.0 -0.0 -0.0 -0.0 -0.0 -0.0 -0.0
-0.0 -0.0 0.0 0.0 -0.0 -0.0 0.0 0.0
0.0 -0.0 -0.0 -0.0 -0.0 0.0 -0.0 -0.0
0.0 0.0 0.0 0.0 0.0 -0.0 0.0 -0.0
-0.0 -0.0 0.0 0.0 0.0 0.0 0.0 -0.0

92 f4 [64]
00000000: 9993 0280 72e7 0880 8978 0480 f099 4fbd
00000010: 1d17 0780 325a 0180 d02e 0880 41d0 0780
00000020: 896d 0780 1e77 0f80 f247 85be 3556 0280
00000030: 02b5 0980 8b53 0780 5b97 0280 b153 1180
00000040: 0ff2 0a80 b74f 0280 8fc2 0680 4131 3cbe
00000050: 9db6 0980 72ce 933d d7a6 0d80 6ce5 0880
00000060: d0d6 0280 2e35 0580 1301 2d80 6cff 1380
00000070: 7ec1 0980 d41b 3dbe ff14 2280 1726 0480
00000080: 802d 0780 abbb 0280 083e 0d80 1b62 1180
00000090: 429d 5abe 103d 0480 673a 0e80 2e26 0480
000000a0: 68eb 0180 6890 0c80 386b 1580 908a 1480
000000b0: 359b 0780 04ba 0980 4c6d 1080 9dac 6b80
000000c0: d25d 2780 5f3b 0380 16ca 893d bcca 0380
000000d0: 379e 0980 a455 0c80 2f21 0380 3d41 0980
000000e0: 5cde 9180 c856 0d80 dac8 0380 253b 1280
000000f0: 6771 0980 83be 0480 9be4 c580 ed92 0680
-2.36619e-40 -8.17711e-40 -4.10582e-40 -0.050683916 -6.5114e-40 -1.24191e-40 -7.51477e-40 -7.17556e-40
-6.82142e-40 -1.420264e-39 -0.26031452 -2.14596e-40 -8.91453e-40 -6.72818e-40 -2.37967e-40 -1.591226e-39
-1.005189e-39 -2.12267e-40 -6.20807e-40 -0.18378164 -8.92029e-40 0.07217111 -1.253712e-39 -8.16985e-40
-2.60731e-40 -4.78255e-40 -4.132983e-39 -1.836503e-39 -8.95931e-40 -0.18467647 -3.129939e-39 -3.81006e-40
-6.59171e-40 -2.50994e-40 -1.216114e-39 -1.596397e-39 -0.21349052 -3.89247e-40 -1.306648e-39 -3.81038e-40
-1.76283e-40 -1.153829e-39 -1.967008e-39 -1.886417e-39 -6.98526e-40 -8.93249e-40 -1.508576e-39 -9.88832e-39
-3.615241e-39 -2.96805e-40 0.06727998 -3.48234e-40 -8.83276e-40 -1.132748e-39 -2.8741e-40 -8.49923e-40
-1.3395914e-38 -1.224993e-39 -3.47558e-40 -1.674256e-39 -8.672e-40 -4.35685e-40 -1.8173601e-38 -6.0372e-40

94 f4 [64, 64, 3, 3]
00000000: 3c07 3301 10ab 1701 c7e7 0501 b053 9680
00000010: 1b28 2201 20e7 1701 7a0d 1200 2134 3400
00000020: 713a 4781 32c1 8200 6ce2 ad83 c510 7001
00000030: cdf6 7180 8014 fb01 bb2d 2d02 6818 c103
00000040: d23d da83 a5a4 3902 21ab 4301 b91c 1280
00000050: 377b 7a01 5ba7 9c80 4cfd 0b01 69f9 6d81
00000060: 4cce 5c80 8e75 9681 94ba 0981 2727 153e
00000070: 6eea cdbd e2ba 1abe abf1 b1bd f397 0f3e
00000080: 0127 ccbe aa54 b2be 3898 e6be 849c d8be
00000090: f5c1 2580 49ee 1384 478c 8481 d06b 2183
000000a0: dcd9 3e80 985b 3103 a7ad 4101 6ad1 0182
000000b0: 453b da01 ebc8 c480 b633 2080 27ef 3000
000000c0: 1642 5781 3f7d 6581 854a 0b81 74a0 3680
000000d0: 1bd6 7801 235a 7001 cd21 b780 87fc 4f00
000000e0: 3906 1500 9f39 1a81 7df7 6880 0a1d 5500
000000f0: cffe 1101 2cce 1b01 e5aa da00 9e3a 6c01
00000100: d8b3 6200 6f95 8801 d50f 3380 3ca8 7e80
00000110: f569 aa00 3312 5e01 6c5a 7d01 f804 5d01
00000120: b0a1 c400 7877 3200 1c1b 5d01 2f65 9180
00000130: 5bf1 3e81 1b45 4a00 900b 0480 52c7 1501
00000140: 1ee7 9101 cafc 2582 be52 e881 d598 e483
00000150: 02e3 4e80 8c43 2801 045d ea01 74f7 3a02
00000160: 97c2 5982 b6a9 ad01 6f0b 6abe 5899 3ebe
00000170: b63e a63e 4432 9d3e f219 a13d b943 fc3e
00000180: 9f7a 183f bbbb 363f cd8d 4a3f 6904 0b80
00000190: f7a4 6380 8c9b 9481 4d41 7e00 4841 1201
000001a0: e397 ea80 a1f4 1b81 1e21 7781 da50 8781
000001b0: 812b 0080 b697 4300 261a 7200 96c2 3400
000001c0: de96 2800 a62d 0480 aa96 2080 6562 6180
000001d0: 113e 1b81 9533 1f01 6172 6901 0e07 1b80
000001e0: 5169 9501 e779 1881 89c0 df00 6d69 5b80
000001f0: ee39 8600 0802 8e81 4a4c 1780 44b8 c600
00000200: e8ce 2c80 4d34 2801 1622 d580 16fa 8701
00000210: b6a8 6900 a344 8781 f28b 7d81 a02d 7800
00000220: 4649 7500 b5b3 b900 e51b 8380 1694 8080
00000230: 89b2 3180 8bde 3d00 6670 a000 e24f 7980
00000240: f05e 4c01 ffdb 0001 b9d4 4881 c24b 0a81
00000250: 03be c100 9d63 2581 690c 0501 87be 4401
00000260: 9b59 3201 23f8 4301 2c0b 6601 b556 0900
00000270: 0acd a000 3b43 1801 7ae2 e100 2fd5 3801
00000280: ae5d 3f01 351a 5a80 6bfa 2301 119a 0401
00000290: 84fb 8701 36d2 0e00 3dbc cf00 79e4 7601
000002a0: 48ec 5d00 e184 0700 9cf6 7501 9223 06bf
000002b0: 1cfd 3abf 20b2 31bf 8e01 bcbe ab57 00bf
000002c0: 8e42 06bf 0b8b b9be 473a 4bbe b274 8bbe
000002d0: 39ce 3980 f2b8 4200 2d2e 2080 3a62 0200
000002e0: f4d0 9200 4e44 1c01 3cf4 2680 b172 a600
000002f0: 232a 7c00 bb76 12bf 906c e8be 7d63 c8be
00000300: b332 0abf fd64 bbbe 483e afbe 7581 c53e
00000310: 892c 0b3f b91f 903e 61e7 7001 43af 0580
00000320: 3711 9400 a787 3e01 039a d180 222d 7681
00000330: d9c8 5480 579d 3401 75fe 0901 ec92 b001
00000340: bd3c b201 6dfd 0101 d659 6a81 d01d 7380
00000350: b124 c901 b1d1 fa80 2640 f900 0147 9f81
00000360: fcd3 1101 31f8 b880 5565 2080 8151 8781
00000370: 4cc0 7280 ba2c 6a01 2285 8081 3c3c 7681
00000380: 1abe 8a81 d8c3 e300 e90b 4e81 da3d af00
00000390: 6a04 8f80 3269 3401 3261 2d01 2ad0 3b01
000003a0: f331 3a81 586a 0881 3445 6c01 9a50 8480
000003b0: 9052 d000 5274 5982 e930 0e81 9590 9b01
000003c0: 92cb 8781 6f7b 8781 f7b6 8c81 5db4 fa80
000003d0: 9007 4b01 1b6c 1281 6bca 8081 5417 4381
000003e0: c714 e200 aeaa 2a01 1e62 9c80 7e94 ee00
000003f0: d008 0100 45f2 3880 b090 3101 1159 1d00
3.2882298e-38 2.785705e-38 2.4594534e-38 -1.3805346e-38 2.9783475e-38 2.7900144e-38 1.657873e-39 4.794146e-39
-3.6592457e-38 1.200792e-38 -1.022001e-36 4.409307e-38 -1.0465947e-38 9.2232254e-38 1.2723157e-37 1.1349124e-36
-1.2827082e-36 1.3638904e-37 3.5938622e-38 -1.663343e-39 4.600615e-38 -1.4386373e-38 2.5712e-38 -4.3708968e-38
-8.522871e-39 -5.526998e-38 -2.529679e-38 0.14565717 -0.100544795 -0.15110353 -0.08688673 0.14022808
-0.39873508 -0.3483022 -0.4503801 -0.42306912 -3.467492e-39 -1.7389182e-36 -4.869043e-38 -4.743741e-37
-5.771954e-39 5.212077e-37 3.557309e-38 -9.537522e-38 8.01656e-38 -1.8071833e-38 -2.957286e-39 4.493896e-39
-3.9536678e-38 -4.2150517e-38 -2.5583733e-38 -5.016677e-39 4.570402e-38 4.4145708e-38 -1.6818021e-38 7.345594e-39
1.930778e-39 -2.8326674e-38 -9.639674e-39 7.816434e-39 2.681511e-38 2.8616925e-38 2.0081444e-38 4.338841e-38
9.064394e-39 5.0172937e-38 -4.68929e-39 -1.1631624e-38 1.5650045e-38 4.0788018e-38 4.6533636e-38 4.0594854e-38
1.805776e-38 4.634632e-39 4.061074e-38 -1.3352445e-38 -3.5070653e-38 6.820617e-39 -3.7149e-40 2.7509983e-38
5.3596225e-38 -1.2194832e-37 -8.534207e-38 -1.3435724e-36 -7.244604e-39 3.090519e-38 8.6091495e-38 1.3736137e-37
-1.5998487e-37 6.3793687e-38 -0.22855924 -0.18613183 0.3246972 0.30702412 0.07866277 0.49270418
0.59562105 0.71380204 0.7912262 -1.011773e-39 -9.150892e-39 -5.458981e-38 1.1594698e-38 2.6862802e-38
-2.1543993e-38 -2.8644516e-38 -4.5390496e-38 -4.9707184e-38 -1.5606e-41 6.207402e-39 1.0478627e-38 4.84525e-39
3.727541e-39 -3.83718e-40 -2.992784e-39 -8.94334e-39 -2.8513534e-38 2.9240696e-38 4.2877404e-38 -2.482089e-39
5.488508e-38 -2.8005451e-38 2.0548384e-38 -8.39485e-39 1.2326738e-38 -5.2165477e-38 -2.139584e-39 1.824953e-38
-4.114986e-39 3.089425e-38 -1.9573188e-38 4.9950024e-38 9.703249e-39 -4.9689657e-38 -4.6569167e-38 1.1036627e-38
1.0771039e-38 1.7054034e-38 -1.2040457e-38 -1.1808067e-38 -4.563986e-39 5.681799e-39 1.4734e-38 -1.1140752e-38
3.7536997e-38 2.3667726e-38 -3.688682e-38 -2.540095e-38 1.7792414e-38 -3.0377183e-38 2.4437146e-38 3.613621e-38
3.2757725e-38 3.5993873e-38 4.2252344e-38 8.57624e-40 1.4767234e-38 2.7966226e-38 2.0744231e-38 3.3948414e-38
3.5148371e-38 -8.274596e-39 3.0118038e-38 2.4355108e-38 4.9952075e-38 1.361106e-39 1.9077475e-38 4.5346985e-38
8.625463e-39 6.90516e-40 4.5176327e-38 -0.52398026 -0.73042464 -0.6941242 -0.36719936 -0.5013377
-0.52445304 -0.36238894 -0.1984645 -0.2723747 -5.308602e-39 6.127489e-39 -2.9553e-39 2.18908e-40
1.348294e-38 2.870168e-38 -3.577364e-39 1.5285836e-38 1.1402717e-38 -0.5721242 -0.45395327 -0.39138404
-0.5398361 -0.36600485 -0.34227204 0.3857533 0.5436483 0.28149202 4.4247044e-38 -5.2205e-40
1.3597829e-38 3.4994814e-38 -1.9248868e-38 -4.5215445e-38 -7.786232e-39 3.3173664e-38 2.534549e-38 6.486301e-38
6.547403e-38 2.3875382e-38 -4.3043466e-38 -1.0571777e-38 7.388839e-38 -2.3034097e-38 2.289005e-38 -5.850926e-38
2.6784385e-38 -1.6986766e-38 -2.975087e-39 -4.970812e-38 -1.053823e-38 4.3011102e-38 -4.721081e-38 -4.522628e-38
-5.0965976e-38 2.0916913e-38 -3.784477e-38 1.60934e-38 -1.313406e-38 3.3136253e-38 3.1844816e-38 3.4495826e-38
-3.419864e-38 -2.5055553e-38 4.3396005e-38 -1.21512e-38 1.9131401e-38 -1.5976024e-37 -2.6116372e-38 5.714547e-38
-4.9883277e-38 -4.9768286e-38 -5.169042e-38 -2.3023576e-38 3.7290637e-38 -2.6893527e-38 -4.731023e-38 -3.583258e-38
2.0762276e-38 3.1346525e-38 -1.4361535e-38 2.1910117e-38 9.4997e-41 -5.229698e-39 3.2613574e-38 2.69518e-39

95 f4 [64]
00000000: a32f 2fbe 1970 ecbd 8064 0680 0ea5 0580
00000010: 7818 0c80 321b 0c80 a67e 4380 b7cd 0c80
00000020: eb7b 0b80 6280 45bd b903 1780 9422 0e80
00000030: c06b 3980 bd67 2d3d 31d1 063d 26f0 1080
00000040: 2a22 1c80 96ac 0480 374b 1880 f1e4 0980
00000050: 3ee2 0c80 8f94 1280 29c0 40bd 42b9 90bd
00000060: 2d2b 1580 6ab9 1380 6172 0580 baf9 86bc
00000070: 5d04 1f80 490d 20be 807b 0d80 d093 1780
00000080: 6fa3 3f80 f662 ed81 982f 003c 206b 243d
00000090: b23a 0c80 e024 1280 c71e 0880 7374 2080
000000a0: 65d1 2a3d 4f69 2080 046a 05be ec6c 1180
000000b0: 7355 0f80 681f 1680 d685 6cbe b345 1480
000000c0: e618 2680 9dd4 0980 1cbf 173d d706 0480
000000d0: 15a6 09be 45f2 1380 ce40 1180 d7da 1180
000000e0: 51bb 2380 c18f 0d80 67f8 2080 aca2 0680
000000f0: 34ae 2580 a7b2 0980 a464 85bd 23f5 0a80
-0.17108016 -0.115448184 -5.87066e-40 -5.18388e-40 -1.110804e-39 -1.111782e-39 -6.198411e-39 -1.175823e-39
-1.054644e-39 -0.04821814 -2.113552e-39 -1.298101e-39 -5.273277e-39 0.04233526 0.032914344 -1.555517e-39
-2.58365e-39 -4.29254e-40 -2.231034e-39 -9.08648e-40 -1.183186e-39 -1.706332e-39 -0.04705826 -0.07066585
-1.944034e-39 -1.811388e-39 -5.00209e-40 -0.0164765 -2.848466e-39 -0.15630068 -1.238165e-39 -2.165242e-39
-5.844265e-39 -8.720205e-38 0.007823847 0.040141225 -1.123082e-39 -1.666267e-39 -7.45725e-40 -2.98051e-39
0.0417036 -2.976513e-39 -0.13028723 -1.600277e-39 -1.408186e-39 -2.031647e-39 -0.2309793 -1.861713e-39
-3.498681e-39 -9.02791e-40 0.03704749 -3.69796e-40 -0.13442262 -1.831784e-39 -1.584451e-39 -1.639708e-39
-3.281439e-39 -1.24543e-39 -3.027846e-39 -6.09369e-40 -3.460406e-39 -8.90608e-40 -0.06513336 -1.006293e-39
