server/model/mar_perigoso.onnx (onnx, 302121 bytes, 16 tensors)

fc.weight f4 [2, 256]
-0.0012609501 -0.047850717 0.01806439 0.072498076 -0.043720722 0.02625075 -0.061196417 -0.022784097
0.030336056 0.044788323 0.021079632 -0.0038643987 -0.008180976 -0.05146413 0.05591888 0.087630376
-0.07944629 -0.030041806 -0.010539701 0.076410525 -0.07026903 -0.09585624 -0.10004468 -0.111761674
0.057923935 0.06423791 0.06434363 0.06783886 -0.0045375573 0.08441636 0.054302648 0.101362534
0.08696638 0.06268421 0.08341143 -0.00024112525 -0.084583655 -0.040871024 0.056329284 -0.049045496
0.014506937 0.044381097 0.02037903 -0.07119894 0.03158912 0.01731778 0.014313746 0.013728579
-0.006996258 0.045881946 0.029871853 0.022419183 0.005685623 0.0760371 -0.029128408 -0.057586737
-0.09597342 -0.0881787 -0.04306048 -0.03440437 -0.055494465 -0.04265861 -0.018153362 0.03495095
0.012488882 0.039115127 0.115651794 0.14526099 0.030054143 0.06916142 0.08898721 0.026788207
-0.09174184 -0.062400363 0.04347854 0.03890935 0.023545377 0.012085309 -0.03138217 0.03653714
0.04332835 0.02962462 0.030077724 0.11321356 0.027350994 0.060126487 0.04662325 -0.027859908
-0.109737314 -0.062689476 0.01943889 0.047247194 -0.082582936 -0.029913306 0.041774943 0.0054730596
-0.057865564 -0.036809042 0.075356014 0.032532077 -0.010496262 -0.043627184 0.03815118 0.09917295
-0.093783475 -0.10662826 0.012931598 0.027963083 0.05393085 0.0141655635 -0.06789442 -0.0031843893
0.043026548 0.052376486 -0.029347552 -0.08995646 0.046184603 0.042516325 -0.027354632 0.008762457
-0.038667634 -0.07641139 0.07328492 -0.0022049195 0.052238237 0.09672855 0.11039162 0.0966092
0.040200345 0.07035382 0.0030643046 -0.04171886 -0.08764715 -0.025062816 -0.040099885 0.023883961
-0.048083242 -0.090512075 0.046871297 0.0918325 -0.054654785 -0.019489976 -0.036673747 0.036326513
-0.014418854 -0.05867446 0.0612025 0.06250802 -0.08526238 -0.033296537 -0.07885877 -0.04283723
-0.09512693 -0.11573658 -0.016894117 -0.011195686 -0.021532863 -0.022041518 -0.023606874 0.016821204
0.0020954025 0.037175525 -0.028478174 -0.05366684 -0.061950225 -0.051957037 0.0014861935 0.014677019
-0.030369433 -0.043431897 -0.030153804 -0.0029622058 0.06984081 -0.028199965 -0.02752297 -0.029220404
0.029075602 -0.063174024 0.03524888 -0.026789935 -0.0811398 -0.04222438 -0.06949105 -0.078752205
-0.01625827 -0.049654804 0.020894831 0.09129769 -0.12611918 -0.10702641 0.040405124 0.028608523
0.007824836 -0.056383822 0.035424285 0.003917182 -0.053802133 -0.115502976 -0.02783472 0.068291835
-0.06868139 -0.06468256 0.038740568 0.027092412 -0.052437037 0.035272744 0.035266377 0.070861705
0.061555292 0.06757678 -0.037044067 -0.029786678 -0.042544022 0.022800889 0.11533518 0.15462229
0.06457774 0.043159142 0.019528618 -0.075033836 0.032145504 0.06333861 0.03538992 -0.05092061
-0.026169093 -0.06495967 -0.066565044 -0.102379374 0.060683932 0.10292264 0.100391366 0.07865571
0.058821205 0.10705041 0.035015024 0.0025169246 -0.00096774957 -0.041807715 0.024529101 -0.056668755
-0.10557765 -0.102005765 0.028655816 -0.030670382 -0.0038359982 -0.0392494 0.10493076 0.12427767
0.041692205 -0.035053972 0.07505056 -0.004055144 -0.0035618264 -0.069426656 -0.04214101 -0.008950545
00000000: 7746 a5ba 1dff 43bd c6fb 933c df79 943d
00000010: 8014 33bd d00b d73c 18a9 7abd b7a5 babc
00000020: 5283 f83c f673 373d 31af ac3c da41 7dbb
00000030: 8009 06bc 0dcc 52bd 320b 653d 8e77 b33d
00000040: bdb4 a2bd 3c1a f6bc b6ae 2cbc 1f7d 9c3d
00000050: 36e9 8fbd 4750 c4bd 3ae4 ccbd 4ee3 e4bd
00000060: a641 6d3d 2a8f 833d 98c6 833d 1aef 8a3d
00000070: caaf 94bb 7ce2 ac3d 746c 5e3d 2997 cf3d
00000080: 6e1b b23d 9460 803d 9dd3 aa3d 91d6 7cb9
00000090: 323a adbd 6068 27bd 89b9 663d eee3 48bd
000000a0: 81ae 6d3c f4c8 353d ecf1 a63c c0d0 91bd
000000b0: 9863 013d 04de 8d3c 3484 6a3c d5ed 603c
000000c0: de40 e5bb b5ee 3b3d d1b5 f43c 6fa8 b73c
000000d0: 764e ba3b 57b9 9b3d b39e eebc 12e0 6bbd
000000e0: b68d c4bd 0997 b4bd 3060 30bd 99eb 0cbd
000000f0: 2a4e 63bd cbba 2ebd 5cb6 94bc ba28 0f3d
00000100: 2b9e 4c3c 2f37 203d d9da ec3d 4cbf 143e
00000110: 1b34 f63c 81a4 8d3d ed3e b63d f172 db3c
00000120: 25e3 bbbd 8697 7fbd 8e16 323d 695f 1f3d
00000130: 3ce2 c03c 7601 463c 978a 00bd f8a7 153d
00000140: 1179 313d 55af f23c 8f65 f63c 83dc e73d
00000150: 310f e03c 3147 763d 05f8 3e3d 763a e4bc
00000160: f5bd e0bd 5763 80bd 4f3e 9f3c 4686 413d
00000170: 3e21 a9bd c00c f5bc 341c 2b3d 5a57 b33b
00000180: 7104 6dbd 14c5 16bd 4154 9a3d 5b40 053d
00000190: 84f8 2bbc 6bb2 32bd 6944 1c3d 301b cb3d
000001a0: 8d11 c0bd eb5f dabd 0edf 533c d612 e53c
000001b0: 98e6 5c3d ae16 683c 3b0c 8bbd 30b1 50bb
000001c0: 9b3c 303d ba88 563d 476a f0bc 183b b8bd
000001d0: 112c 3d3d 9925 2e3d d216 e0bc 6990 0f3c
000001e0: f461 1ebd 937d 9cbd 6716 963d 6980 10bb
000001f0: c3f7 553d 9e19 c63d 0015 e23d 0bdb c53d
00000200: 1ea9 243d aa15 903d 80d2 483b 65e1 2abd
00000210: 5980 b3bd 8950 cdbc c73f 24bd 4ca8 c33c
00000220: eff2 44bd 655e b9bd 1efc 3f3d ae12 bc3d
00000230: b2dd 5fbd 71a9 9fbc 3637 16bd 1ccb 143d
00000240: 0f3d 6cbc a154 70bd 79af 7a3d 3404 803d
00000250: 0b9e aebd f361 08bd b580 a1bd 1776 2fbd
00000260: e8d1 c2bd 4d07 edbd 8865 8abc 1c6e 37bc
00000270: b065 b0bc 6a90 b4bc 3463 c1bc 9fcc 893c
00000280: 0553 093b 5d45 183d 0f4b e9bc c3d1 5bbd
00000290: 85bf 7dbd e7d0 54bd 61cc c23a e177 703c
000002a0: 51c9 f8bc a5e5 31bd 1c05 f7bc 9121 42bb
000002b0: b308 8f3d 9d03 e7bc da77 e1bc a15f efbc
000002c0: f52f ee3c 6261 81bd 2161 103d 9176 dbbc
000002d0: a02c a6bd 79f3 2cbd 5351 8ebd d648 a1bd
000002e0: 1030 85bc d662 4bbd a32b ab3c 49fa ba3d
000002f0: 6325 01be aa30 dbbd d87f 253d 6c5c ea3c
00000300: be33 003c b9f2 66bd 0e19 113d b45b 803b
00000310: a05f 5cbd d38c ecbd a405 e4bc 97dc 8b3d
00000320: d4a8 8cbd 4a78 84bd 6eae 1e3d e8f0 dd3c
00000330: 38c8 56bd 277a 103d 7a73 103d f11f 913d
00000340: 6721 7c3d b265 8a3d 85bb 17bd 3103 f4bc
00000350: a442 2ebd eec8 ba3c da34 ec3d 4e55 1e3e
00000360: 5641 843d a4c7 303d 7bfa 9f3c 57ab 99bd
00000370: 01ab 033d acb7 813d 05f5 103d 2192 50bd
00000380: 9160 d6bc 9309 85bd 4153 88bd 47ac d1bd
00000390: b78f 783d 1bc9 d23d fd99 cd3d 3f16 a13d
000003a0: 81ee 703d 3f3d db3d ea6b 0f3d fdf2 243b
000003b0: 93b0 7dba 913e 2bbd 41f1 c83c 7f1d 68bd
000003c0: 1839 d8bd 66e8 d0bd 9abf ea3c 7440 fbbc
000003d0: 5f65 7bbb fbc3 20bd f0e5 d63d 4b85 fe3d
000003e0: 72c5 2a3d c194 0fbd 1cb4 993d 03e1 84bb
000003f0: 886d 69bb 902f 8ebd 0d9c 2cbd 4fa5 12bc

fc.bias f4 [2]
-0.025991315 0.019158334
00000000: bdeb d4bc f0f1 9c3c

onnx::Conv_80 f4 [16, 3, 7, 7]
0.12779273 0.20798738 0.06495424 0.09192854 -0.008795668 0.04177097 0.087005876 0.06271933
-0.15797739 -0.26652893 -0.027007487 -0.09370029 -0.19140342 -0.10404658 -0.13491395 -0.07115721
-0.102758825 -0.17823522 0.111851804 0.048125893 0.09408504 -0.1773369 0.078561485 -0.20563398
-0.03452305 0.019278688 -0.23098509 -0.23272564 -0.11563374 0.18011221 0.060755372 -0.09411819
0.16307853 -0.11738155 -0.1226513 0.16791146 0.0020394817 0.23528612 0.061035473 0.20862761
-0.11938988 -0.026226547 -0.1046016 0.24926487 0.119688176 0.26659384 0.024341982 0.21062005
0.17285906 -0.14126614 -0.17527854 -0.08623413 -0.20086199 -0.18915002 0.15748805 0.07594487
0.066683136 0.11453753 0.10422921 -0.012934252 -0.016608074 -0.122340485 -0.11468015 0.1390514
0.09235825 0.012606643 -0.11904069 0.0817895 0.11508129 0.02635993 -0.23205504 -0.14600895
-0.08351468 -0.28975824 -0.1907675 -0.09104938 -0.24350281 -0.16610019 0.07028607 0.19218946
0.10141993 0.060817737 -0.007251726 -0.21131194 0.11080636 0.2351206 0.17214297 0.2312802
0.12563859 -0.06838804 -0.039874416 0.23467246 0.08017865 0.2900902 0.048033144 0.22830725
0.038317647 -0.08796938 0.14662942 -0.16961345 -0.018589962 -0.15660311 -0.08086404 -0.19847958
0.103273965 -0.18839167 -0.051971752 0.1075335 -0.17677073 -0.074121475 -0.14895023 -0.017258737
0.04202598 -0.1916836 -0.250349 -0.19772844 -0.1835386 0.05827114 -0.106882796 -0.1785263
0.11781928 -0.15500858 -0.033422843 -0.02599691 0.07467101 -0.199021 0.024033178 0.116506346
0.12503327 0.23831755 0.060049463 0.19705407 0.026241183 0.09714093 0.270432 0.11429666
-0.0021774978 -0.02728117 -0.08739311 0.019392837 0.109753005 0.09022686 -0.021757828 0.038130373
0.04589638 0.3135395 0.032185636 -0.15424336 -0.09782635 0.007007149 -0.036216084 -0.12619376
0.031154713 -0.04088905 -0.0051293094 -0.08294868 -0.08644381 -0.040862836 0.031447217 -0.117120594
0.07589521 0.09029956 -0.15759663 -0.021678532 0.013034084 -0.05415544 -0.11346288 -0.074768044
-0.015901804 0.03996709 -0.039982844 -0.06855502 -0.014207757 0.01975986 -0.02734337 0.055469334
0.036021017 -0.08941446 0.026106276 0.116702035 -0.021143502 0.021373052 -0.1418584 0.06740193
0.08748825 -0.10322216 0.09618992 -0.043278355 -0.07298903 -0.121930465 0.09274496 -0.024945436
0.07059085 0.097799085 -0.10731332 0.09746719 -0.030083036 -0.09960794 0.017294958 -0.10753161
-0.016038574 -0.06495746 -0.099990495 -0.042914208 0.09897173 -0.010462019 -0.08142365 0.10964505
0.013784651 -0.033228457 -0.065982446 0.10341261 0.020809723 -0.011446469 0.050706744 0.13171011
-0.05675978 0.017589534 0.05504434 0.08196568 0.10246915 -0.0073587378 0.087986246 0.107629925
-0.03218982 0.10699289 0.08368151 0.11084348 0.04521637 0.12223771 0.017234169 0.03209536
0.110043965 0.040041972 -0.008855244 0.13131826 0.020785043 0.035900448 -0.012846038 0.07498847
0.023850588 0.051666766 0.11004499 0.14908805 0.13178359 -0.13172384 0.075945854 -0.054342564
-0.014366154 -0.09545767 -0.032679923 0.10424107 0.0021403558 0.080514714 0.06822013 -0.053237595
00000000: 19dc 023e a5fa 543e bb06 853d 0845 bc3d
00000010: b51b 10bc 0918 2b3d 2330 b23d fe72 803d
00000020: d3c4 21be 7b76 88be ce3e ddbc f0e5 bfbd
00000030: 42ff 43be 6016 d5bd e226 0abe dfba 91bd
00000040: 3873 d2bd 4b83 36be 8f12 e53d a81f 453d
00000050: a8af c03d ce97 35be d8e4 a03d b791 52be
00000060: 0b68 0dbd 57ee 9d3c 5b87 6cbe a14f 6ebe
00000070: 62d1 ecbd 566f 383e a0da 783d 0ac1 c0bd
00000080: 0ffe 263e bd65 f0bd 9b30 fbbd fbf0 2b3e
00000090: d3a8 053b d8ee 703e 5500 7a3d 7aa2 553e
000000a0: ae82 f4bd 0ed9 d6bc 5d39 d6bd 4a3f 7f3e
000000b0: 131f f53d fd7e 883e d668 c73c c8ac 573e
000000c0: f701 313e 12a8 10be 387c 33be 859b b0bd
000000d0: c4ae 4dbe 8bb0 41be 8c44 213e fc88 9b3d
000000e0: 2b91 883d a792 ea3d 2076 d53d 2fea 53bc
000000f0: a80d 88bc a68d fabd 6ddd eabd 7d63 0e3e
00000100: 5226 bd3d 188c 4e3c 9bcb f3bd 4181 a73d
00000110: bdaf eb3d c8f0 d73c d69f 6dbe 5f83 15be
00000120: bf09 abbd 315b 94be 8e58 43be 1978 babd
00000130: cd58 79be 2b16 2abe 25f2 8f3d 50cd 443e
00000140: 41b5 cf3d 051c 793d e39f edbb 2862 58be
00000150: 72ee e23d 74c3 703e 3f46 303e b7d4 6c3e
00000160: 67a7 003e 070f 8cbd 5b53 23bd fa4d 703e
00000170: b434 a43d b486 943e 67be 443d 60c9 693e
00000180: f7f2 1c3d 4a29 b4bd 0626 163e 26af 2dbe
00000190: fa49 98bc 915c 20be 0c9c a5bd 3b3e 4bbe
000001a0: 4d81 d33d bfe9 40be 55e0 54bd 863a dc3d
000001b0: 6303 35be 00cd 97bd 6986 18be 3262 8dbc
000001c0: 6f23 2c3d b548 44be be2d 80be 5379 4abe
000001d0: 8bf1 3bbe b8ad 6e3d 5ee5 dabd 99cf 36be
000001e0: 3c4b f13d 92ba 1ebe 64e6 08bd 79f7 d4bc
000001f0: 1ded 983d 29cc 4bbe 3ae1 c43c e19a ee3d
00000200: b908 003e 8409 743e 6df6 753d 8bc8 493e
00000210: c0f7 d63c d3f1 c63d 1076 8a3e 5e14 ea3d
00000220: 5ab4 0ebb c37c dfbc 29fb b2bd badd 9e3c
00000230: 2fc6 e03d dcc8 b83d 793d b2bc 982e 1c3d
00000240: d8fd 3b3d 4088 a03e 16d5 033d f9f1 1dbe
00000250: 2e59 c8bd 3a9c e53b 5157 14bd f038 01be
00000260: 2b38 ff3c 477b 27bd c413 a8bb ffe0 a9bd
00000270: 7409 b1bd ca5f 27bd ccce 003d ecdc efbd
00000280: f36e 9b3d faee b83d 0361 21be 2d97 b1bc
00000290: e98c 553c 18d2 5dbd 3a5f e8bd fd1f 99bd
000002a0: 8044 82bc 88b4 233d 0dc5 23bd 9366 8cbd
000002b0: a7c7 68bc 6edf a13c 34ff dfbc d033 633d
000002c0: c68a 133d ee1e b7bd d4dc d53c 7a01 ef3d
000002d0: 2335 adbc 8a16 af3c 5443 11be 060a 8a3d
000002e0: 0a2d b33d 2466 d3bd 39ff c43d a544 31bd
000002f0: 467b 95bd aeb6 f9bd 12f1 bd3d 5f5a ccbc
00000300: f091 903d e34a c83d 16c7 dbbd e19c c73d
00000310: b370 f6bc 3fff cbbd 28ae 8d3c 8839 dcbd
00000320: 5463 83bc 6b08 85bd d1c7 ccbd cfc6 2fbd
00000330: b1b1 ca3d e368 2bbc 71c1 a6bd 958d e03d
00000340: 04d9 613c 901a 08bd ce21 87bd fec9 d33d
00000350: 2779 aa3c f989 3bbc e0b1 4f3d 04df 063e
00000360: f17c 68bd ed17 903c 2d76 613d 9fdd a73d
00000370: 59db d13d 9121 f1bb 2232 b43d 146d dc3d
00000380: 79d9 03bd 171f db3d 3661 ab3d e801 e33d
00000390: cd34 393d c457 fa3d ac2e 8d3c 6d76 033d
000003a0: bb5e e13d 0d03 243d 9615 11bc 4b78 063e
000003b0: 6545 aa3c 590c 133d 3078 52bc 8e93 993d
000003c0: 4f62 c33c 88a0 533d 455f e13d 8aaa 183e
000003d0: 47f2 063e 9de2 06be 8089 9b3d 4f96 5ebd
000003e0: 0460 6bbc 507f c3bd 62db 05bd 587c d53d
000003f0: 3645 0c3b e6e4 a43d ffb6 8b3d aa0f 5abd

onnx::Conv_81 f4 [16]
0.121885076 -1.9223864 -1.496119 0.93517673 0.91325814 0.114245 0.37074736 1.2866557
1.0588647 -0.1156332 1.321946 -0.04875262 1.1499639 -0.9688786 1.2034078 -1.0105815
00000000: e29e f93d c210 f6bf d480 bfbf be67 6f3f
00000010: 49cb 693f 48f9 e93d 99d2 bd3e 22b1 a43f
00000020: e188 873f 19d1 ecbd 8735 a93f d4b0 47bd
00000030: 0432 933f 6e08 78bf 4409 9a3f bc5a 81bf

onnx::Conv_83 f4 [32, 16, 3, 3]
-0.017624104 -0.025138425 -0.02536408 0.060251907 -0.020340284 0.048873935 -0.023359051 -0.021985928
-0.030661328 -0.00062049687 -0.006921674 -0.040507603 0.035473067 0.013289503 0.042806033 -0.04327122
-0.007652952 -0.062477574 0.032440923 0.05887198 0.083552316 0.063597135 0.052281782 0.04721924
0.05952684 -0.029553708 0.04965503 0.036434572 0.00040922148 -0.015191893 -0.01940907 0.07125479
-3.620697e-05 0.018867804 0.046498854 -0.043123417 0.05525138 -0.033255424 -0.03404314 0.0036787654
0.062257122 0.019393135 0.014778829 -0.0061925817 0.024807319 0.072170906 0.07878398 0.029454786
0.014070189 0.062126607 0.08942225 -0.01998279 -0.027783498 -0.03841104 0.015693698 0.036135152
0.0061137653 -0.01143765 0.023822984 0.011026962 0.0031805998 -0.0065021343 -0.0017781939 -0.01376108
0.0022158485 -0.01434965 -0.04144757 -0.036657725 0.013209485 -0.057917513 -0.052875206 -0.005221266
0.04829746 -0.0021170324 0.04331385 -0.036642205 -0.0097679 -0.029060153 -0.07094067 -0.04758839
-0.021288656 0.034100614 0.05632399 0.042944234 -0.01058172 0.03999619 0.02277145 -0.046654884
-0.060092982 -0.07594762 0.024034971 0.044158988 0.029696966 -0.04248206 -0.049286973 -0.021156546
-0.036081027 -0.038045194 -0.0005589097 -0.0514859 0.020167967 0.025934631 0.021865632 -0.029088676
-0.021887021 -0.008001519 -0.020190535 -0.042671047 0.013051921 -0.020123318 0.03454506 0.03931001
0.005596508 0.051185466 -0.020733036 -0.0063754804 -0.054026894 -0.002594039 -0.0049515376 -0.034391493
0.042196676 0.00024907125 0.042137682 -0.024048546 0.009521383 -0.043559574 0.007949311 0.020940173
0.05453943 -0.017372714 0.025916686 -0.011616027 -0.025869487 0.016359072 -0.048072893 -0.0074127777
-0.012929939 -0.05193698 0.013949503 -0.053252477 -0.040056765 -0.060133155 -0.059988912 -0.06002815
-0.00811347 -0.0012315753 9.939805e-05 -0.026987605 0.018979821 0.018056385 0.030369332 -0.0018957786
-0.00015973973 -0.008033363 -0.015064346 -0.019301793 0.021169264 0.036574807 0.0093110865 0.06147933
0.011786787 0.047873776 -0.034283612 -0.023487898 -0.04092826 0.022469731 -0.013841207 -0.018184524
0.034773048 0.03152382 -0.015550231 0.028642222 0.017351799 0.024944237 -0.006952266 -0.033426452
-0.004871061 -0.001375504 -0.0291307 -0.018782021 -0.023745405 -0.0043863878 0.008660589 -0.0019342669
-0.03857374 -0.010671469 -0.016306274 -0.00042700622 -0.021293806 -0.019916689 0.0033008961 -0.005593256
-0.0058716033 -0.019458449 -0.0042294557 0.038871855 -0.018400405 -0.020002069 -0.0050074626 -0.017220503
0.0010998937 -0.019297922 -0.021296866 -0.0057840487 -0.011764476 -0.00805481 -0.009633813 -0.015163117
0.0071071833 -0.026118552 0.027554179 0.049658604 0.043491423 0.0028486429 -0.0050137625 -0.005152643
-0.012564099 -0.014003457 -0.013213901 0.05447158 0.03210298 -0.0049658604 -0.0062909075 -0.0019394804
-0.0032143942 0.0039872457 0.0001511608 -0.010211371 -0.00785943 -0.02128366 -0.04285094 -0.021287896
-0.023652384 0.0045585786 0.021240817 0.018559841 0.0014742556 0.012613069 0.01094506 -0.015967773
-0.013364248 -0.0046173763 -0.004074089 -0.010711875 0.015215324 -0.013913786 -0.0057237474 0.011949873
-0.037346445 -0.038392883 -0.02262498 -0.033504143 0.020825002 0.014609603 -0.0076985834 -0.00641315
00000000: 6d60 90bc 19ef cdbc 55c8 cfbc b4ca 763d
00000010: aba0 a6bc 0930 483d 7b5b bfbc d51b b4bc
00000020: 772d fbbc d7a8 22ba 36cf e2bb 4deb 25bd
00000030: 354c 113d 37bc 593c 6155 2f3d 2a3d 31bd
00000040: 9dc5 fabb 7ce8 7fbd c6e0 043d bf23 713d
00000050: 7a1d ab3d 373f 823d 6c25 563d f668 413d
00000060: 6ad2 733d 9e1a f2bc 1363 4b3d 6b3c 153d
00000070: c78c d639 6be7 78bc c5ff 9ebc 08ee 913d
00000080: f0dc 17b8 a790 9a3c 9575 3e3d 2ea2 30bd
00000090: 454f 623d d736 08bd d270 0bbd 7117 713b
000000a0: 5301 7f3d 5ade 9e3c e722 723c 24eb cabb
000000b0: b838 cb3c 57ce 933d 7f59 a13d 2a4b f13c
000000c0: a686 663c 7878 7e3d 0323 b73d f3b2 a3bc
000000d0: 389a e3bc e554 1dbd 1290 803c 7402 143d
000000e0: fb55 c83b fb64 3bbc 6b28 c33c 6eaa 343c
000000f0: 9c71 503b db0f d5bb 4912 e9ba 2776 61bc
00000100: c537 113b cb1a 6bbc edc4 29bd 6926 16bd
00000110: 996c 583c ea3a 6dbd ac93 58bd 2717 abbb
00000120: 8fd3 453d e9bd 0abb dd69 313d 2316 16bd
00000130: 8b09 20bc 8f0f eebc 5849 91bd 0bec 42bd
00000140: 8c65 aebc 16ad 0b3d fcb3 663d 4be6 2f3d
00000150: f35e 2dbc 0cd3 233d 318b ba3c 3119 3fbd
00000160: 0f24 76bd 6d8a 9bbd fde4 c43c 0ee0 343d
00000170: 0d47 f33c ab01 2ebd 23e1 49bd 7e50 adbc
00000180: b3c9 13bd 47d5 1bbd cc83 12ba e1e2 52bd
00000190: 4b37 a53c dd74 d43c 8e1f b33c 604b eebc
000001a0: 694c b3bc ce18 03bc 9f66 a5bc d6c7 2ebd
000001b0: b9d7 553c a8d9 a4bc 1f7f 0d3d 8803 213d
000001c0: e962 b73b daa7 513d 54d8 a9bc 68e9 d0bb
000001d0: 4e4b 5dbd c100 2abb 8240 a2bb 18de 0cbd
000001e0: 6cd6 2c3d c795 8239 9098 2c3d 7501 c5bc
000001f0: 93ff 1b3c 866b 32bd d43d 023c ba8a ab3c
00000200: bd64 5f3d 3951 8ebc 3b4f d43c 2651 3ebc
00000210: 3fec d3bc 7603 863c 15e8 44bd e3e6 f2bb
00000220: 18d8 53bc dfbb 54bd 758c 643c 451f 5abd
00000230: 9012 24bd 2f4e 76bd efb6 75bd 14e0 75bd
00000240: 5cee 04bc cf6c a1ba ec73 d038 1c15 ddbc
00000250: 927b 9b3c fcea 933c 1bc9 f83c c67b f8ba
00000260: cf7f 27b9 5e9e 03bc 72d0 76bc cb1e 9ebc
00000270: 2a6b ad3c 77cf 153d 878d 183c c0d1 7b3d
00000280: 5e1d 413c 4b17 443d f96c 0cbd b169 c0bc
00000290: 64a4 27bd 7112 b83c 3bc6 62bc b6f7 94bc
000002a0: 2f6e 0e3d 1f1f 013d 65c6 7ebc 18a3 ea3c
000002b0: 5c25 8e3c db57 cc3c d6cf e3bb 2dea 08bd
000002c0: 6c9d 9fbb 414a b4ba 81a3 eebc c1dc 99bc
000002d0: b985 c2bc b0bb 8fbb 25e5 0d3c 3a87 fdba
000002e0: 7fff 1dbd 63d7 2ebc bc94 85bc cedf dfb9
000002f0: 5970 aebc 5328 a3bc d953 583b a247 b7bb
00000300: 9466 c0bb 5367 9fbc 3f97 8abb 1838 1f3d
00000310: 72bc 96bc 61db a3bc a415 a4bb 0312 8dbc
00000320: 4f2a 903a ad16 9ebc c476 aebc 1e88 bdbb
00000330: cabf 40bc 52f8 03bc 24d7 1dbc b96e 78bc
00000340: 60e3 e83b 93f6 d5bc 4db9 e13c d266 4b3d
00000350: 1024 323d 4cb0 3a3b 7d4a a4bb 81d7 a8bb
00000360: a7d9 4dbc c16e 65bc 1e7f 58bc 971d 5f3d
00000370: 6a7e 033d a8b8 a2bb f523 cebb 2a36 feba
00000380: 96a8 52bb 71a7 823b eb80 1e39 984d 27bc
00000390: d7c4 00bc 125b aebc 7884 2fbd f463 aebc
000003a0: a5c2 c1bc 2160 953b 3901 ae3c cf0a 983c
000003b0: cf3b c13a 0ca7 4e3c e952 333c d9ce 82bc
000003c0: b8f5 5abc 5c4d 97bb f07f 85bb dc80 2fbc
000003d0: b249 793c a6f6 63bc 468e bbbb 66c9 433c
000003e0: 96f8 18bd db41 1dbd 0658 b9bc a43b 09bd
000003f0: 3299 aa3c 1e5d 6f3c 6644 fcbb 6725 d2bb

onnx::Conv_84 f4 [32]
-0.15655753 0.15120324 0.5138697 0.81456846 0.19949019 0.1094665 0.8566623 -0.10240993
-0.5475393 -0.028126515 0.39641353 0.12139532 -0.07361948 -0.21681593 -0.13520491 -0.45856705
0.052839957 0.33970478 0.700042 0.62644035 -0.36413133 0.17977029 0.39143956 -0.49432957
0.25356042 -0.07351955 -0.3915932 0.73944443 -0.39489585 0.49701184 0.45683205 0.1759811
00000000: 9e50 20be 06d5 1a3e f78c 033f 8f87 503f
00000010: 2847 4c3e f92f e03d 384e 5b3f 4cbc d1bd
00000020: 892b 0cbf 9469 e6bc b7f6 ca3e 1c9e f83d
00000030: cfc5 96bd ff04 5ebe 2873 0abe 4dc9 eabe
00000040: b66e 583d c9ed ad3e f435 333f 655e 203f
00000050: 6c6f babe b415 383e c46a c83e c418 fdbe
00000060: acd2 813e 6b91 96bd e77e c8be 3b4c 3d3f
00000070: ca2f cabe 5678 fe3e e4e5 e93e 6434 343e

onnx::Conv_86 f4 [32, 32, 3, 3]
0.032481186 -0.018023724 0.0027263253 -0.021022791 0.0020991694 0.0019982518 -0.031439833 -0.012730036
-0.08324712 0.004181268 -0.0014561693 -0.05070418 0.01424505 0.04444713 0.044490352 0.03684451
0.04905216 0.048744295 0.039832387 0.05578645 0.036492147 0.040162448 -0.0108936 0.04849575
-0.025419604 -0.033131965 -0.006397263 0.078869 0.14415 0.023545092 -0.056034885 -0.0923078
-0.032913685 -0.06516792 -0.071468 -0.09891754 0.06330733 0.0062815407 0.019950403 -0.023872059
-0.05006717 0.00937989 -0.07029446 -0.082147956 -0.073550515 0.008959687 0.077271454 0.016262336
-0.12219218 -0.03865608 -0.01425548 -0.07651336 -0.015244059 -0.021979678 0.099466115 0.15452904
0.13176452 0.034274217 0.062045537 0.01606387 -0.035223093 -0.11359419 -0.06328274 0.016213696
-0.097582996 -0.059108 0.048631866 -0.028599408 0.014287221 -0.050920635 -0.054588735 0.015495616
-0.10452296 -0.11112365 -0.046207424 0.0049039526 -0.023310686 0.079095185 -0.023005832 0.112821616
0.076538496 -0.014497603 -0.012943949 -0.048363134 -0.012570594 -0.006709084 -0.07302348 -0.11868038
-0.005984341 -0.02045152 0.05818044 0.07276838 0.05604015 -0.078511775 -0.07412719 -0.051918983
-0.016742416 -0.04473422 -0.004538862 -0.10031545 -0.102064766 -0.0027558282 0.04603945 0.024411406
-0.06847015 0.057196055 0.052244466 0.0072591268 -0.1313798 -0.084824555 0.078402065 -0.05260249
0.08881387 -0.07587403 -0.04950292 -0.07254918 0.08090964 0.032406807 0.101238005 0.03883975
-0.07534006 0.024793943 -0.019717896 -0.023363136 -0.06032507 -0.087139815 -0.0782 -0.15535454
0.003441591 -0.06899359 -0.06812905 0.04982567 0.0889089 0.06776936 0.08216736 -0.0337101
0.019140568 -0.06330556 -0.10219732 -0.032856595 -0.030007534 -0.13817981 -0.10217684 0.06601529
-0.035942253 -0.0445669 0.0041701817 -0.038718905 0.00091479666 0.077339716 -0.06886254 0.06984148
0.05576679 0.08534677 0.15220039 0.062832974 0.08866284 0.10278378 -0.05232826 0.0092561925
-0.05166937 -0.09916666 -0.06660678 -0.04047691 -0.059069958 -0.16297095 -0.069299474 -0.12565847
-0.061973557 0.036521114 0.035416324 -0.12969056 0.035497 0.017026803 0.089172296 0.085809655
0.09090045 0.021215076 0.011615398 -0.14411782 0.03630264 -0.055541314 0.008018534 -0.0023214691
-0.047929846 -0.028652305 0.04434112 0.06536832 0.026168678 0.013004086 -0.00025110177 0.0057844967
0.012418484 0.041193794 0.0061628325 0.011755715 -0.0015007375 0.040177874 -0.058535695 -0.051665515
-0.05354542 0.009354161 -0.08048519 -0.03782377 -0.15994002 -0.11003988 -0.050654694 -0.022483284
-0.020233387 0.058139883 -0.03727143 0.04368225 -0.020893928 -0.019995285 -0.03401658 -0.010480235
0.07313999 0.031854413 0.046568595 -0.021384154 -0.013518263 -0.023377964 0.0008953096 -0.038992524
-0.055553053 -0.086428 0.018660007 0.07757849 -0.07871501 0.029992616 -0.0055940263 -0.0710701
-0.07311179 -0.013643297 0.026370902 -0.07710255 -0.036117002 0.00014410925 -0.05747883 -0.09738477
-0.019178987 -0.037732508 0.020402452 0.061475333 0.08703411 0.048387364 -0.053758867 -0.030711515
-0.022348128 -0.025782902 0.023568474 -0.06448146 0.07028331 -0.10120539 -0.14726368 0.049516246
00000000: fe0a 053d 7da6 93bc 26ac 323b fd37 acbc
00000010: 3892 093b 1af5 023b 0ec7 00bd a491 50bc
00000020: 777d aabd 0503 893b efdc beba 30af 4fbd
00000030: 1264 693c 320e 363d 843b 363d 45ea 163d
00000040: ebea 483d 19a8 473d 4927 233d 5580 643d
00000050: ca78 153d 6181 243d 127b 32bc 7ba3 463d
00000060: c63c d0bc 62b5 07bd 22a0 d1bb 1286 a13d
00000070: 0f9c 133e a3e1 c03c d684 65bd df0b bdbd
00000080: 80d0 06bd c276 85bd d15d 92bd 4795 cabd
00000090: 46a7 813d 62d5 cd3b 076f a33c 568f c3bc
000000a0: 3c13 4dbd 1cae 193c 8bf6 8fbd 303d a8bd
000000b0: a7a1 96bd a7cb 123c 7f40 9e3d 9738 853c
000000c0: e53f fabd d655 1ebd d18f 69bc 09b3 9cbd
000000d0: 38c2 79bc ba0e b4bc e4b4 cb3d dc3c 1e3e
000000e0: 47ed 063e 1f63 0c3d 7623 7e3d 6198 833c
000000f0: 1746 10bd 12a4 e8bd 629a 81bd 96d2 843c
00000100: 98d9 c7bd 3b1b 72bd 3532 473d 4e49 eabc
00000110: f314 6a3c 2892 50bd 7098 5fbd 53e1 7d3c
00000120: 2210 d6bd cc94 e3bd ff43 3dbd 56b1 a03b
00000130: 0df6 bebc a8fc a13d ba76 bcbc 050f e73d
00000140: 37c0 9c3d 5b87 6dbc db12 54bc 6c18 46bd
00000150: e5f4 4dbc e0d7 dbbb 568d 95bd b30e f3bd
00000160: 4a18 c4bb f289 a7bc 9d4e 6e3d 9707 953d
00000170: 5b8a 653d c8ca a0bd ffcf 97bd 00a9 54bd
00000180: 6427 89bc 3b3b 37bd bcba 94bb 3072 cdbd
00000190: 5507 d1bd 209b 34bb dd93 3c3d 6efa c73c
000001a0: 143a 8cbd 6946 6a3d 4bfe 553d f8dd ed3b
000001b0: 6d88 06be 7fb8 adbd 4391 a03d b575 57bd
000001c0: 0ce4 b53d d863 9bbd 93c3 4abd aa94 94bd
000001d0: f4b3 a53d 00bd 043d df55 cf3d 6e16 1f3d
000001e0: e44b 9abd ab1c cb3c 6d87 a1bc 0c64 bfbc
000001f0: 6c17 77bd 5c76 b2bd 5227 a0bd 4315 1fbe
00000200: 518c 613b 834c 8dbd 3e87 8bbd 0016 4c3d
00000210: df15 b63d aaca 8a3d 5c47 a83d 9a13 0abd
00000220: aecc 9c3c 58a6 81bd d44c d1bd a394 06bd
00000230: 5cd2 f5bc 027f 0dbe 1742 d1bd 0633 873d
00000240: 2f38 13bd c88b 36bd 05a6 883b b797 1ebd
00000250: f7ce 6f3a 4964 9e3d ce07 8dbd 0d09 8f3d
00000260: b86b 643d 4aca ae3d 6bda 1b3e 93ae 803d
00000270: dd94 b53d 4d80 d23d 2856 56bd 49a7 173c
00000280: 43a3 53bd e417 cbbd 2369 88bd 1ecb 25bd
00000290: 57f3 71bd dbe1 26be e2ec 8dbd 9dac 00be
000002a0: fcd7 7dbd 2a97 153d b510 113d 9acd 04be
000002b0: 4d65 113d cb7b 8b3c f79f b63d f9bc af3d
000002c0: 042a ba3d 3dcb ad3c 834e 3e3c 9f93 13be
000002d0: 14b2 143d 4a7f 63bd 2b60 033c ca23 18bb
000002e0: 1652 44bd 3db8 eabc 099f 353d d3df 853d
000002f0: b25f d63c 170f 553c 4fa6 83b9 e08b bd3b
00000300: e676 4b3c d3ba 283d 96f1 c93b 0b9b 403c
00000310: 65b4 c4ba 8e91 243d 20c3 6fbd 389f 53bd
00000320: 7152 5bbd 3242 193c 6bd5 a4bd 19ed 1abd
00000330: 51c7 23be 975c e1bd 4c7b 4fbd dd2e b8bc
00000340: 7dc0 a5bc 1624 6e3d eda9 18bd 29ec 323d
00000350: be29 abbc 27cd a3bc f854 0bbd 4bb5 2bbc
00000360: 6bca 953d c679 023d b6be 3e3d d22d afbc
00000370: b47b 5dbc 2583 bfbc 36b3 6a3a a0b6 1fbd
00000380: 998b 63bd 2a01 b1bd dfdc 983c 79e1 9e3d
00000390: 5635 a1bd 13b3 f53c 184e b7bb 338d 91bd
000003a0: a2bb 95bd 2388 5fbc ca07 d83c f1e7 9dbd
000003b0: 6cef 13bd 081c 1739 ec6e 6bbd ab71 c7bd
000003c0: 401d 9dbc 678d 1abd 0b23 a73c 8fcd 7b3d
000003d0: f13e b23d d431 463d 4232 5cbd b796 fbbc
000003e0: 6c13 b7bc aa36 d3bc ac12 c13c db0e 84bd
000003f0: b2f0 8f3d c644 cfbd 4acc 16be 8cd1 4a3d

onnx::Conv_87 f4 [32]
0.42559484 0.8209155 0.6930043 0.3439219 0.67443633 0.033288762 0.1665921 0.124462575
-0.11579617 0.08192657 0.08912193 0.3046116 0.08640327 0.71423984 0.28961614 -0.08060602
0.07474346 0.26847923 0.03080096 -0.21031615 -0.027391966 0.42804578 -0.014312489 0.26929507
-0.10273973 0.49817517 -0.1092685 -0.21842542 -0.25124726 -0.12260947 0.24877268 -0.010123968
00000000: 91e7 d93e 8527 523f bb68 313f 8816 b03e
00000010: dca7 2c3f cc59 083d 1f97 2a3e 3ce6 fe3d
00000020: 8b26 edbd 1ec9 a73d 8f85 b63d 0df6 9b3e
00000030: 33f4 b03d 6cd8 363f 9148 943e c514 a5bd
00000040: 1913 993d 1c76 893e 4b52 fc3c 1e5d 57be
00000050: 1e65 e0bc d128 db3e ee7e 6abc 0be1 893e
00000060: 3569 d2bd d110 ff3e 2ac8 dfbd eaaa 5fbe
00000070: 7ba3 80be ac1a fbbd 44be 7e3e 00df 25bc

onnx::Conv_89 f4 [32, 16, 1, 1]
0.3099127 0.1631455 -0.40179333 -0.08486372 -0.28928053 0.3324714 0.28500926 0.19175456
0.3331446 0.007470851 0.07591929 0.27961406 -0.067325406 0.06731553 0.23868583 0.21472539
0.1325319 0.14606777 0.10486611 0.021053346 -0.029022774 0.11086088 -0.10728892 0.13043062
0.060715448 0.1639117 -0.13130045 0.21934712 0.21002221 -0.06545539 0.16235098 -0.070665285
0.42409083 -0.43806747 0.4923352 0.40282252 0.41431424 0.070361495 0.20324561 -0.55635977
-0.5812117 -0.01894679 -0.058106206 0.4110944 0.4896207 -0.40554476 -0.05446599 0.20203844
0.11898428 -0.05936219 -0.18581688 -0.3600202 0.10852337 -0.17918181 0.12716155 0.1975198
0.111497246 0.12740554 0.10110487 0.0790499 0.16213861 0.2252422 -0.15596917 0.057289783
0.39203888 0.22667493 -0.23132393 -0.2903382 -0.05913516 -0.023774678 0.15541005 0.13955994
0.11937031 -0.020810524 -0.23516242 0.27015245 0.11518181 0.051851943 -0.035570092 -0.5187257
-0.3268939 0.19019404 -0.10793099 -0.12105834 -0.5297564 -0.36566424 -0.11195239 -0.17391878
0.0053306622 -0.29781008 0.41598356 0.3317574 0.1096292 0.10504799 -0.08979529 0.04096794
0.16606301 -0.15144491 -0.054739602 -0.12300111 -0.27428958 0.041357413 0.22334473 -0.048849124
-0.02138575 -0.5287124 -0.17865871 0.06627592 0.34453154 -0.35881448 -0.27991492 -0.15718347
0.08275881 -0.08987641 0.11914844 0.0026198342 -0.02297527 -0.14749709 0.012550145 0.02368573
0.037750624 -0.053272355 0.0037218141 0.10640641 0.14665999 -0.07417679 -0.08782631 0.054811165
-0.22703028 -0.09825672 0.41548824 -0.16221255 0.34092534 0.3772584 -0.18362156 -0.15476035
-0.25159878 0.08855839 -0.11647548 0.4207079 0.44073647 0.17651705 -0.1941006 -0.15532732
0.011420071 0.14501901 -0.07533388 -0.007143971 -0.04896687 -0.14245965 -0.06567555 0.04350129
0.02014221 -0.07053744 -0.011309355 0.025891762 0.079196885 -0.08225597 -0.0086023165 0.04261236
0.106457874 -0.29886666 -0.037077546 -0.12201046 -0.23694687 0.02007257 -0.20590165 0.06585212
0.022738505 0.05070347 0.1999287 -0.23729995 -0.19750887 -0.20596348 -0.05992791 0.22791104
-0.018303895 0.14338532 0.19667698 -0.14084315 0.052002292 -0.12496149 -0.22156084 0.17545441
-0.085027464 -0.23592423 -0.1766307 -0.17900865 -0.16546628 0.2458398 0.16144836 0.08371794
-0.071647555 -0.12234748 0.25116664 -0.22785597 0.0031990653 0.014552402 0.0872886 0.0083861975
0.07933434 -0.09979444 -0.1199288 -0.18336026 0.19473666 -0.11280449 0.06306948 0.090575695
0.106075436 0.31865644 -0.130181 -0.10687222 -0.19415003 0.22235325 -0.048836105 -0.017285272
-0.026173247 0.21142982 -0.054021895 0.048645727 -0.20450257 0.0045085894 0.15078232 -0.32739097
-0.12066006 -0.23321806 -0.011899041 0.0990844 -0.19814196 -0.20997946 -0.056509092 0.038972914
-0.23284143 -0.12133996 -0.21147984 0.06845743 0.27498478 0.21488982 -0.121135324 -0.05695384
0.059031915 0.015687298 -0.09340203 0.1082949 0.086744726 0.01521603 0.050250508 0.07865102
0.041501805 0.19186032 0.028793683 0.0902489 0.11718565 -0.04336605 -0.09100067 0.08751896
00000000: e1ac 9e3e 9d0f 273e dbb7 cdbe 08cd adbd
00000010: 941c 94be b139 aa3e bcec 913e 4f5b 443e
00000020: ee91 aa3e 0ace f43b 937b 9b3d 9329 8f3e
00000030: e7e1 89bd b9dc 893d 0f6a 743e f9e0 5b3e
00000040: 71b6 073e ca92 153e 0bc4 d63d 1178 ac3c
00000050: 2bc1 edbc 070b e33d 4bba dbbd 9b8f 053e
00000060: c3b0 783d 78d8 273e a073 06be 889c 603e
00000070: 1010 573e 7a0d 86bd 563f 263e f6b8 90bd
00000080: 6f22 d93e 614a e0be 5c13 fc3e c13e ce3e
00000090: ff20 d43e b019 903d 9e1f 503e 986d 0ebf
000000a0: 4aca 14bf 4c36 9bbc c600 6ebd f77a d23e
000000b0: 90af fa3e 90a3 cfbe bb17 5fbd 2ae3 4e3e
000000c0: 08ae f33d c525 73bd c846 3ebe 9154 b8be
000000d0: 8041 de3d 707b 37be a336 023e a142 4a3e
000000e0: ab58 e43d 9976 023e 1210 cf3d eae4 a13d
000000f0: aa07 263e e4a5 663e 62b6 1fbe b1a8 6a3d
00000100: 52b9 c83e 791d 683e 2ee0 6cbe 35a7 94be
00000110: b637 72bd 1dc3 c2bc d023 1f3e cde8 0e3e
00000120: 6c78 f43d d57a aabc 6bce 70be 6c51 8a3e
00000130: 71e4 eb3d b462 543d f2b1 11bd 35cb 04bf
00000140: a35e a7be 3ac2 423e ec0a ddbd 6fed f7bd
00000150: 1e9e 07bf 5838 bbbe 4b47 e5bd c417 32be
00000160: d6ac ae3b 907a 98be ccfb d43e 1bdc a93e
00000170: 4685 e03d 6723 d73d 98e6 b7bd 00ce 273d
00000180: 6c0c 2a3e 6014 1bbe a236 60bd 02e8 fbbd
00000190: af6f 8cbe 6466 293d 7bb4 643e 0516 48bd
000001a0: 2b31 afbc b259 07bf 4ff2 36be abbb 873d
000001b0: 7066 b03e 88b6 b7be 0251 8fbe b4f4 20be
000001c0: 737d a93d 2011 b8bd 1904 f43d 86b1 2b3b
000001d0: a236 bcbc 7a09 17be 209f 4d3c 9308 c23c
000001e0: 66a0 1a3d 1d34 5abd aee9 733b 9beb d93d
000001f0: 092e 163e 00ea 97bd 48de b3bd ac81 603d
00000200: a07a 68be d23a c9bd e0ba d43e 0c1b 26be
00000210: c48d ae3e 0328 c13e 4a07 3cbe 7f79 1ebe
00000220: 8ed1 80be 1a5e b53d b28a eebd 0767 d73e
00000230: 36a8 e13e e3c0 343e 4fc2 46be 200e 1fbe
00000240: 401b 3b3c dd7f 143e a648 9abd f917 eabb
00000250: 7c91 48bd f1e0 11be e780 86bd 692e 323d
00000260: 4701 a53c ef75 90bd df4a 39bc f61a d43c
00000270: fa31 a23d d175 a8bd bbf0 0cbc 4c8a 2e3d
00000280: 9606 da3d 0d05 99be a0de 17bd 9fe0 f9bd
00000290: 33a2 72be 3b6f a43c e2d7 52be 7add 863d
000002a0: 1a46 ba3c 71ae 4f3d 1cba 4c3e c2fe 72be
000002b0: c43f 4abe 17e8 52be f876 75bd 8361 693e
000002c0: 0df2 95bc 9ad3 123e b165 493e 3039 10be
000002d0: 5b00 553d cfeb ffbd d8e0 62be 52aa 333e
000002e0: e122 aebd 1f96 71be aede 34be 0b4e 37be
000002f0: fe6f 29be 6ebd 7b3e b852 253e 5074 ab3d
00000300: f4bb 92bd 5191 fabd ea98 803e 1353 69be
00000310: 69a7 513b 336d 6e3c 5ec4 b23d 4366 093c
00000320: 0b7a a23d 0761 ccbd 3b9d f5bd cbc2 3bbe
00000330: 0c69 473e 0a06 e7bd 922a 813d c07f b93d
00000340: 143e d93d f026 a33e 2b4e 05be d3df dabd
00000350: 44cf 46be 92b0 633e 5e08 48bd d899 8dbc
00000360: 4769 d6bc 0f81 583e 1046 5dbd be40 473d
00000370: 1f69 51be cabc 933b ae66 1a3e ca9f a7be
00000380: 9f1c f7bd b7d0 6ebe 32f4 42bc c3ec ca3d
00000390: bae5 4abe db04 57be 1476 67bd 10a2 1f3d
000003a0: fc6d 6ebe 1681 f8bd 2c8e 58be 6933 8c3d
000003b0: ceca 8c3e 140c 5c3e cc15 f8bd 6e48 69bd
000003c0: 73cb 713d a682 803c 9049 bfbd b7c9 dd3d
000003d0: 38a7 b13d a84c 793c 7ad3 4d3d c913 a13d
000003e0: ccfd 293d 0877 443e bbe0 eb3c 6ad4 b83d
000003f0: 08ff ef3d 99a0 31bd 8f5e babd 243d b33d

onnx::Conv_90 f4 [32]
-0.70966613 -0.6661066 -0.74379295 -0.20823145 -0.08687794 0.56776583 0.6610719 -0.09024285
-0.6199183 0.066147484 0.4869013 0.13164648 0.06770433 -0.058725856 0.39080256 -0.38883018
-0.65084803 0.68996656 -0.07123766 0.28023827 -0.34743053 -0.5845212 0.058362093 0.17514117
-0.39235514 -0.37072393 0.46628878 -0.13629982 0.37682208 -0.10189012 0.19846658 -0.10421354
00000000: aeac 35bf f685 2abf 3769 3ebf a03a 55be
00000010: 10ed b1bd 1a59 113f 023c 293f 3ed1 b8bd
00000020: f7b2 1ebf 5578 873d 214b f93e 56ce 063e
00000030: 91a8 8a3d 868a 70bd 4617 c83e c014 c7be
00000040: fa9d 26bf a6a1 303f 0de5 91bd 647b 8f3e
00000050: 6ae2 b1be 2ea3 15bf 170d 6f3d 3558 333e
00000060: c6e2 c8be 87cf bdbe 67bd ee3e 2e92 0bbe
00000070: d3ee c03e c4ab d0bd d33a 4b3e e96d d5bd

onnx::Conv_92 f4 [64, 32, 3, 3]
-0.0061771544 -0.0042795623 -0.0020234834 -0.003307483 -0.004293342 -0.0037283876 -0.009100878 -0.0021711576
-0.0054307776 -0.000690302 -0.00047061013 -0.0031054448 0.00398987 0.0046586394 -1.27564035e-05 -0.0039438996
-0.007683739 -0.0062180175 0.008025827 -0.004480457 0.00092395965 0.029121201 0.019948252 0.031411428
0.007823853 0.001407166 0.0037714932 0.0073744114 0.008487184 0.0026291518 -0.0049649705 -0.0010035789
-0.0031824461 -0.0045993477 -0.010181803 -0.01229465 -0.0098282285 -0.010003106 -0.010190026 0.003835063
0.0025107316 4.8946545e-06 0.002790252 -0.0012473126 -0.007123908 0.019194495 0.015173808 0.015117281
-0.007370256 -0.01607816 -0.013154306 -0.012521455 -0.022878692 -0.020231806 0.0061000837 0.007902359
0.004477515 -0.0062677334 -0.0061896686 -0.0066511813 -0.011684819 -0.018166712 -0.025164345 0.0044820015
0.006330888 0.004117703 0.0027799283 0.006465338 -0.004479568 -0.0069962596 -0.009514294 -0.009759435
-0.010093884 -0.006518504 -0.012015587 0.021095399 0.020891704 0.014561019 0.0030035882 -0.0026970955
-0.012585491 0.004681405 0.0053939773 0.007038483 -0.0023711536 0.0005900057 6.428915e-05 -0.0054443195
-0.0027682597 -0.0012420058 0.016098052 0.016456822 0.017576126 0.0044447817 0.0043854145 -0.0008393263
0.004944425 -0.0009171534 -0.0008375313 0.0003165001 0.004517828 0.0015320807 0.0034052911 0.0070831217
0.0013575837 0.011963248 0.014702752 0.008983103 0.0024287177 0.002130359 0.0022351765 0.0051373737
0.0056278277 0.0046924083 -0.0035699697 -0.0019851085 -0.0028428663 -0.005039769 -0.001182318 -0.0013814685
-0.0006578074 -0.0013152212 0.002431505 -0.0022828851 -0.0036405562 -0.002575469 0.0136511065 0.021701772
0.01253451 -0.008036661 0.0013736482 0.0012547581 -0.0049906336 -0.0060563134 -0.010677105 -0.004625246
-0.0037068848 -0.0014930534 -0.004432619 -0.003379838 -0.002549692 -0.017208235 -0.013462517 -0.019253103
-0.0039942963 0.0014315096 -0.0073632146 -0.0009771457 0.006150925 0.001636701 0.006738008 0.0068346607
-0.01141657 -0.015698755 -0.002182145 -0.006314319 -0.011612125 -0.0049131108 -0.008320613 0.017109081
0.020562546 0.025300479 -0.005584491 -0.006641966 -0.00733028 -0.011857618 -0.010556037 -0.007194241
-0.002825411 -0.0033525825 -0.0028874485 -0.0013706969 0.00066467345 -0.0015205196 -0.009134223 -0.008992396
-0.009243623 -0.0035505306 -0.000940716 -0.0013208644 -0.001845385 -0.0022481908 -0.0018486492 0.0063398145
0.004785647 0.005054761 0.014421241 0.012890161 0.016448941 -0.00925771 -0.0083089275 -0.013254589
0.008767317 0.0034678439 0.005809295 -0.00300163 -0.0015158519 0.0013928169 -0.000796651 -0.006394461
-0.011761457 -0.0040373774 -0.008739394 -0.008945736 -0.002725936 -0.010461723 -0.007683149 0.00013145563
-0.0005631073 0.00081706094 0.0013189894 0.0008159893 0.00034252717 -0.005076664 -0.005796912 -0.0071957884
-0.00921775 -0.010223372 -0.011759866 0.0025566297 0.00026014054 0.0003629354 -0.012389041 -0.010141854
-0.009974983 -0.0013234726 0.0034989293 -0.0016883806 0.005489595 0.0078702215 0.0014275097 -0.0005714904
0.0063555613 0.001093722 0.0014756246 0.0010044173 -0.008180561 -0.0056449245 -0.011644655 -0.017887045
-0.004750028 -0.009794788 -0.015284814 -0.0033881445 -0.002266626 -0.0034835425 -0.0058112084 -0.0050081224
-0.0055479957 -0.006299561 -0.0047002947 -0.005321911 0.005724998 0.00770307 0.00061000185 -0.0060375025
00000000: ba69 cabb 923b 8cbb 6b9c 04bb 5bc2 58bb
00000010: 2aaf 8cbb f757 74bb d91b 15bc fb49 0ebb
00000020: aaf4 b1bb 62f5 34ba 39bc f6b9 b884 4bbb
00000030: 75bd 823b 80a7 983b 5604 56b7 d43b 81bb
00000040: e0c7 fbbb 83c0 cbbb c27e 033c ccd0 92bb
00000050: e235 723a 968f ee3c 846a a33c 45a9 003d
00000060: 9e2f 003c a870 b83a 282b 773b 0ca5 f13b
00000070: d40d 0b3c d94d 2c3b 31b1 a2bb 858a 83ba
00000080: 9690 50bb 20b6 96bb 94d1 26bc 806f 49bc
00000090: 9406 21bc 11e4 23bc 11f4 26bc ae55 7b3b
000000a0: 168b 243b c33c a436 a9dc 363b de7c a3ba
000000b0: ac6f e9bb c63d 9d3c 909b 783c 79ae 773c
000000c0: 3082 f1bb 58b6 83bc 2985 57bc ca26 4dbc
000000d0: 186c bbbc 2cbd a5bc 36e3 c73b e578 013c
000000e0: 1eb8 923b 8f61 cdbb b4d2 cabb 27f2 d9bb
000000f0: af71 3fbc 5bd2 94bc 7525 cebc c1dd 923b
00000100: 5673 cf3b cced 863b 752f 363b 30db d33b
00000110: 57c9 92bb e140 e5bb d7e1 1bbc 0ae6 1fbc
00000120: d160 25bc 2d99 d5bb 06dd 44bc 42d0 ac3c
00000130: 1425 ab3c 5791 6e3c d9d7 443b c1c1 30bb
00000140: 6033 4ebc 7966 993b f6bf b03b 13a3 e63b
00000150: 5b65 1bbb 9daa 1a3a f9d2 8638 4366 b2bb
00000160: b16b 35bb cdca a2ba 10e0 833c 75d0 863c
00000170: cffb 8f3c 88a5 913b 86b3 8f3b 3c06 5cba
00000180: d804 a23b 1f6d 70ba c68d 5bba edef a539
00000190: 4a0a 943b 19d0 c83a 4e2b 5f3b 8819 e83b
000001a0: f3f0 b13a 8001 443c d0e3 703c dd2d 133c
000001b0: 1f2b 1f3b 7e9d 0b3b 0a7c 123b 6a57 a83b
000001c0: a469 b83b c6c2 993b 27f6 69bb 9818 02bb
000001d0: 624f 3abb a624 a5bb 02f8 9aba 6412 b5ba
000001e0: b570 2cba 8063 acba e259 1f3b 759c 15bb
000001f0: 6696 6ebb 33c9 28bb e4a8 5f3c eac7 b13c
00000200: 8c5d 4d3c 33ac 03bc fc0b b43a b276 a43a
00000210: 7888 a3bb 0a74 c6bb 06ef 2ebc 608f 97bb
00000220: 35ef 72bb 8fb2 c3ba 813f 91bb 4680 5dbb
00000230: bc18 27bb 49f8 8cbc e491 5cbc afb8 9dbc
00000240: 96e2 82bb 7ea1 bb3a 1f47 f1bb 9213 80ba
00000250: b38d c93b 9386 d63a 82ca dc3b 4af5 df3b
00000260: 910c 3bbc ad9a 80bc 5102 0fbb 59e8 cebb
00000270: c840 3ebc 29fe a0bb 2e53 08bc 5828 8c3c
00000280: c972 a83c f342 cf3c 1bfe b6bb d9a4 d9bb
00000290: d832 f0bb 7446 42bc 3af3 2cbc abbd ebbb
000002a0: 882a 39bb 00b7 5bbb 593b 3dbb f5a8 b3ba
000002b0: 7b3d 2e3a 2c4c c7ba b5a7 15bc d854 13bc
000002c0: 9172 17bc 05b0 68bb 629a 76ba db20 adba
000002d0: d8e0 f1ba 6256 13bb 604e f2ba 38be cf3b
000002e0: ebd0 9c3b 69a2 a53b 1247 6c3c 4131 533c
000002f0: eebf 863c a6ad 17bc 2b22 08bc c729 59bc
00000300: cba4 0f3c c444 633b e65b be3b ffb6 44bb
00000310: 8daf c6ba 2e8f b63a 58d6 50ba a088 d1bb
00000320: 20b3 40bc fa4b 84bb ad2f 0fbc 2391 12bc
00000330: 9ea5 32bb a667 2bbc edc2 fbbb 5ad7 0939
00000340: 7e9d 13ba 0830 563a f1e1 ac3a 1de8 553a
00000350: 3895 b339 255a a6bb 06f4 bdbb a6ca ebbb
00000360: 0c06 17bc ee7f 27bc 74ac 40bc 218d 273b
00000370: 7963 8839 5d48 be39 67fb 4abc 052a 26bc
00000380: 1c6e 23bc 5f78 adba 4b4e 653b a74c ddba
00000390: 0fe2 b33b 1af2 003c 471b bb3a 12d0 15ba
000003a0: 5042 d03b 385b 8f3a bf69 c13a a7a6 833a
000003b0: c207 06bc 0ff9 b8bb 39c9 3ebc da87 92bc
000003c0: 1fa6 9bbb 527a 20bc 286d 7abc a20b 5ebb
000003d0: ad8b 14bb 254c 64bb f36b bebb 2d1b a4bb
000003e0: f6cb b5bb 8c6c cebb ee04 9abb 6d63 aebb
000003f0: c498 bb3b 096a fc3b 88e8 1f3a 3ed6 c5bb

onnx::Conv_93 f4 [64]
0.07960057 0.046306536 -0.0031461362 0.026176386 0.03754472 0.0827316 -0.03213396 0.018364085
0.0088145025 0.06377903 0.047377117 -0.0071576303 0.14069752 -0.16994393 0.020824943 0.0070191827
0.024087658 -0.030665642 0.02168555 0.029347107 0.12682095 0.10383986 -0.063363194 0.06593261
-0.045794833 -0.03917057 0.054741576 -0.002448272 0.06303296 0.07340703 -0.10230902 0.022653075
0.011121833 0.06343076 0.048737176 0.015861074 0.17327414 -0.009392678 0.014340803 0.014392197
0.12790084 0.048572373 0.038374927 0.06675896 -0.0036234725 0.0070373975 0.061934702 -0.06358711
-0.012753848 0.01026078 0.0344642 0.0014885878 0.025407203 -0.020707378 0.018199693 0.0413385
-0.05348926 -0.06524724 0.06492868 -0.045318134 0.08097301 0.005862423 0.009412518 0.049056426
00000000: a005 a33d ecab 3d3d 682f 4ebb dc6f d63c
00000010: 7ec8 193d 2f6f a93d e69e 03bd 4770 963c
00000020: b46a 103c 959e 823d 820e 423d 8e8a eabb
00000030: 0313 103e c805 2ebe 1299 aa3c 2c01 e63b
00000040: 7b53 c53c 8336 fbbc e5a5 b13c 5869 f03c
00000050: 5add 013e fea9 d43d 90c4 81bd ad07 873d
00000060: 5d93 3bbd 5271 20bd b438 603d 3073 20bb
00000070: 6d17 813d 6d56 963d 6487 d1bd f192 b93c
00000080: 5938 363c fce7 813d a2a0 473d 15ef 813c
00000090: c76e 313e bfe3 19bc b0f5 6a3c 40cd 6b3c
000000a0: 70f8 023e d3f3 463d 072f 1d3d ecb8 883d
000000b0: c877 6dbb f899 e63b 3eaf 7d3d f539 82bd
000000c0: 84f5 50bc d51c 283c 552a 0d3d b81c c33a
000000d0: c422 d03c 85a2 a9bc 8617 953c 8f52 293d
000000e0: 8e17 5bbd 58a0 85bd 54f9 843d 829f 39bd
000000f0: 2dd5 a53d 9219 c03b f636 1a3c 64ef 483d

onnx::Conv_95 f4 [64, 64, 3, 3]
0.0047927885 0.0067220917 0.0065144356 0.004373318 0.0016835964 0.0028804797 0.0012789085 0.0005947156
6.899538e-06 0.007983158 0.014464774 0.021482075 0.025924096 0.019632211 0.028365701 -0.0012279171
-0.0014612258 -0.0039521526 -0.002226946 -0.002415164 -0.0011592705 0.007179724 0.009752381 0.006989821
-0.0022916647 -0.0020450663 -0.0018772826 0.0038660546 0.005044462 0.0056126104 -0.0026868626 -0.0029492488
-0.0029396254 0.00066128874 0.0010972983 0.00092490483 0.0020341843 0.0026567301 0.001688701 0.0029497722
0.003406295 0.008872023 -0.0013522189 -0.0005800029 -0.0010103022 0.0030152574 0.0033171116 0.0019312334
0.008003234 0.010894574 0.007941342 -0.0011982075 -0.0011154299 0.00053609814 -0.0041515743 -0.0041610263
-0.0038555835 0.009769767 0.010288283 0.0096452 -0.000117316195 0.00016667349 -0.00011461122 0.0015834882
0.0014357169 0.002661239 -0.009169553 -0.0057719653 -0.015601066 -0.0036394976 -0.0034322403 -0.0029217673
0.0020667762 0.0027179508 0.002663043 0.00077425246 0.00022446195 0.0023473164 -0.0006556483 -0.00068629364
-0.00082263356 -0.006887866 -0.003944741 -0.0035657252 0.0033137577 0.0065717516 0.006258816 0.009016897
0.009496299 0.0055809026 -0.0041727843 -0.0016240899 -0.0058408207 0.0060487115 0.0051744916 0.003443697
-0.0068044895 -0.010110579 -0.010376072 -3.3088298e-05 -7.198097e-05 -0.00015705875 7.401426e-05 0.00017219335
0.0003375509 0.0001753569 0.00014457952 6.776933e-05 0.002551269 0.0048783435 0.00727668 -0.00419536
-0.004731535 -0.002886172 0.0050676917 0.005149142 0.005085881 -0.0021599461 -0.0031908615 -0.0020661694
-0.011790179 -0.0050414014 -0.0117173875 0.0008088981 -0.00021490021 -0.001673776 -0.00016031627 -0.0010043124
-0.0001116349 0.003390615 0.0054474585 0.0013584102 -0.00058138015 -0.000886996 -0.0012574663 -0.00019944886
3.7414313e-05 -0.00019004819 -0.0007904258 -0.0010803804 -0.000110270856 -0.0012770694 -0.0019772698 -0.0011530403
-0.010354139 -0.008021634 -0.0078008613 0.031953428 0.034109674 0.028660903 0.0049010105 0.008322963
0.005996253 -0.00059266936 -0.0004475489 -0.0008705703 0.004685191 0.0051541086 0.007973747 -0.0008465428
-0.0007942464 -0.0009768198 -0.0018104187 -0.00040941266 -0.0015789039 -0.0005886101 -0.0005369676 0.0018983614
-0.00290602 -0.0024119688 -0.0016169812 -0.0077256165 -0.0101258475 -0.014499094 0.019639948 0.010072426
0.022513058 -0.008054849 -0.012295367 -0.012756201 0.00044722104 0.0019752763 0.0021337208 -0.0027949458
-0.006356931 -0.0015386364 0.0011391374 -0.00070562056 -0.0019276781 -0.019171098 -0.0148158185 -0.015153329
0.0024826855 0.00615633 0.004113975 -0.0042426283 -0.0038159525 -0.0053702453 -0.002534368 -0.0032551337
-0.0048496793 0.00662777 0.0072836466 0.006311048 0.0026335274 0.0021321687 0.001355932 -0.002565257
-0.0012296233 -0.003132253 0.0033380867 0.0058180173 0.0050139953 -0.002431682 -0.0013110514 0.00015848907
0.0030067845 0.004272401 0.0037100604 -0.0035529314 -0.0029157724 -0.0015993667 0.004579621 0.0050373995
0.005706238 -0.00018493168 -5.7079298e-05 -0.00070415065 0.01057015 0.012273243 0.015541473 -0.001772515
-0.0022267 -0.001904174 -0.005369576 -0.007772515 -0.00951341 0.024925653 0.021045458 0.030707726
-0.001724308 -0.0022718539 -0.0016301626 -0.00064929033 -0.0019935723 0.00024567725 -0.00943948 -0.008580148
-0.020123586 -0.0020162123 -0.0010251426 -0.00048546394 -0.0032515866 -0.0027767858 -0.0018254074 0.0021201847
00000000: d30c 9d3b fe44 dc3b 0c77 d53b 0d4e 8f3b
00000010: 1fac dc3a 6ec6 3c3b 0ca1 a73a b0e6 1b3a
00000020: 9582 e736 cbcb 023c a9fd 6c3c 2dfb af3c
00000030: c55e d43c bbd3 a03c 305f e83c 10f2 a0ba
00000040: 9a86 bfba 0f81 81bb f4f1 11bb ba47 1ebb
00000050: aaf2 97ba e443 eb3b 73c8 1f3c de0a e53b
00000060: c12f 16bb 8506 06bb 270f f6ba a25d 7d3b
00000070: 044c a53b fde9 b73b 1316 30bb 2f48 41bb
00000080: bba6 40bb 565a 2d3a 39d3 8f3a 5075 723a
00000090: f34f 053b 891c 2e3b 6757 dd3a f750 413b
000000a0: 263c 5f3b f65b 113c f03c b1ba 560b 18ba
000000b0: 1e6c 84ba a09b 453b e663 593b 7121 fd3a
000000c0: ff1f 033c 287f 323c 671c 023c 2c0d 9dba
000000d0: 9e33 92ba f088 0c3a ee09 88bb 3859 88bb
000000e0: f5ad 7cbb 5f11 203c 3090 283c e706 1e3c
000000f0: a707 f6b8 13c5 2e39 6e5b f0b8 0c8d cf3a
00000100: aa2e bc3a 2e68 2e3b e53b 16bc c122 bdbb
00000110: 9d9b 7fbc a384 6ebb 70ef 60bb 1f7b 3fbb
00000120: c072 073b a61f 323b 7386 2e3b 34f7 4a3a
00000130: 8c5d 6b39 6fd5 193b d0df 2bba 63e8 33ba
00000140: 01a6 57ba 9cb3 e1bb e342 81bb f1ae 69bb
00000150: a12b 593b d957 d73b c116 cd3b 9bbb 133c
00000160: 5d96 1b3c 01e0 b63b dabb 88bb 6adf d4ba
00000170: 5b64 bfbb 4534 c63b c88e a93b a6af 613b
00000180: 32f8 debb d8a6 25bc 6600 2abc 4ac8 0ab8
00000190: 7df4 96b8 23b0 24b9 1a38 9b38 cd8e 3439
000001a0: 51f9 b039 02e0 3739 459a 1739 621f 8e38
000001b0: 3133 273b 83da 9f3b 3771 ee3b 3b79 89bb
000001c0: fe0a 9bbb ee25 3dbb e10e a63b 22ba a83b
000001d0: 76a7 a63b e28d 0dbb c61d 51bb 9268 07bb
000001e0: 982b 41bc 5732 a5bb 49fa 3fbc 3c0c 543a
000001f0: d656 61b9 9a62 dbba 921a 28b9 22a3 83ba
00000200: 881d eab8 1535 5e3b 9880 b23b af0c b23a
00000210: c367 18ba 4b85 68ba 91d1 a4ba 2523 51b9
00000220: 50ed 1c38 ac47 47b9 9434 4fba 8d9b 8dba
00000230: 3741 e7b8 5763 a7ba 1595 01bb 9d21 97ba
00000240: 68a4 29bc 2c6d 03bc 5e9e ffbb 99e1 023d
00000250: 96b6 0b3d 45ca ea3c a898 a03b 095d 083c
00000260: 377c c43b 5e5d 1bba ffa4 eab9 fc36 64ba
00000270: 3b86 993b cce3 a83b 52a4 023c 87ea 5dba
00000280: f934 50ba a208 80ba 924b edba 70a6 d6b9
00000290: 39f3 ceba f54c 1aba 49c3 0cba 70d2 f83a
000002a0: ed72 3ebb 1f12 1ebb e3f0 d3ba 2b27 fdbb
000002b0: e2e6 25bc 9c8d 6dbc f5e3 a03c d106 253c
000002c0: 4e6d b83c 7cf8 03bc 8272 49bc 63ff 50bc
000002d0: fe78 ea39 a373 013b e5d5 0b3b 692b 37bb
000002e0: cd4d d0bb 12ac c9ba 1c4f 953a 65f9 38ba
000002f0: 25aa fcba b50c 9dbc 0cbe 72bc ab45 78bc
00000300: 8db4 223b 0abb c93b 86ce 863b bf05 8bbb
00000310: 0f15 7abb e2f8 afbb a417 26bb 1554 55bb
00000320: 0fea 9ebb c42d d93b a8ab ee3b e8cc ce3b
00000330: 4297 2c3b dbbb 0b3b 87b9 b13a df1d 28bb
00000340: 502b a1ba 7c46 4dbb cdc3 5a3b 11a5 be3b
00000350: 714c a43b db5c 1fbb 96d7 abba 1630 2639
00000360: 790d 453b 7fff 8b3b 7c24 733b 4cd8 68bb
00000370: 8b16 3fbb d7a1 d1ba a510 963b c510 a53b
00000380: 65fb ba3b 38ea 41b9 6e68 6fb8 c096 38ba
00000390: 6c2e 2d3c b615 493c aaa1 7e3c bc53 e8ba
000003a0: d4ed 11bb 7a95 f9ba 45f3 afbb 95b0 febb
000003b0: 22de 1bbc e230 cc3c 8667 ac3c c58e fb3c
000003c0: 2d02 e2ba 62e3 14bb 2eab d5ba 2335 2aba
000003d0: 98a6 02bb 3ece 8039 0ca8 1abc c093 0cbc
000003e0: 38da a4bc 6e22 04bb 145e 86ba de85 feb9
000003f0: 9218 55bb bcfa 35bb 8242 efba ccf2 0a3b
