server/model/mar_calmo.onnx (onnx, 302121 bytes, 16 tensors)

fc.weight f4 [2, 256]
0	0x3d08e82b	0.033424538
1	0x3b277e40	0.0025557429
2	0x3d359547	0.044331815
3	0x3dc09dba	0.09405084
4	0xbd05dab0	-0.03267926
5	0x3ced62ab	0.028977713
6	0xbe17aa3d	-0.14811035
7	0xbdf0dec1	-0.11761237
8	0x3d20cb04	0.03925611
9	0x3d480fd3	0.048843216
10	0xbd3cf144	-0.046128526
11	0xbd8102d2	-0.06299366
12	0x3d925d48	0.07146698
13	0x3cff24b8	0.031145439
14	0x3d8d191a	0.06889553
15	0x3daaa710	0.08332646
16	0xbd87d21b	-0.06631871
17	0xbd17b232	-0.037035175
18	0x3c39ff1c	0.011352327
19	0x3d883f91	0.06652749
20	0xbd34c540	-0.044133425
21	0xbd7fbf31	-0.062438194
22	0xbe176d4a	-0.14787784
23	0xbe26afa8	-0.16277945
24	0x3dd725e9	0.10505278
25	0x3dceb154	0.100924164
26	0x3dd2c067	0.10290604
27	0x3dc62a3e	0.09676026
28	0x3d144842	0.036201723
29	0x3dc9d524	0.098551065
30	0x3d91b5d6	0.071147606
31	0x3dbf3e26	0.09338026
32	0x3dcd5982	0.10026838
33	0x3da6ce5d	0.081448294
34	0xbd85f0b6	-0.065400526
35	0xbdf0aef1	-0.117521174
36	0xbdc84297	-0.09778326
37	0xbd738b3c	-0.059458956
38	0xbce436f6	-0.027858239
39	0xbddaaf8b	-0.106780134
40	0x3d1859c7	0.037194993
41	0x3d831b09	0.06401641
42	0xbd844f8e	-0.06460486
43	0xbdfc4ed0	-0.1231972
44	0x3a214885	0.0006152469
45	0xb982af6d	-0.00024926235
46	0x3ae749c5	0.0017645886
47	0x39b8f1fa	0.000352755
48	0x3bf158d4	0.0073653255
49	0x3c963748	0.018336907
50	0xbc21b446	-0.009869641
51	0xbc729365	-0.014805649
52	0x3d106531	0.035252754
53	0x3dab1c15	0.083549656
54	0xbdd5b46a	-0.10434802
55	0xbdfd3b8b	-0.123648725
56	0xbda92c3e	-0.08260392
57	0xbda8b36d	-0.08237348
58	0xbd37200d	-0.0447083
59	0xbd2c0e60	-0.042005897
60	0x3bdd5b4c	0.006755268
61	0x3cad0864	0.021122165
62	0x3bf7c598	0.007561397
63	0x3d20d58c	0.039266154
64	0x3d93a3dc	0.07208988
65	0x3dbb2d1b	0.091394626
66	0x3e02e298	0.12781751
67	0x3e0cc62a	0.13747469
68	0x3d96ffb0	0.07372987
69	0x3dcdcdc2	0.10049011
70	0x3d94346f	0.072365634
71	0x3c559fc7	0.013038582
72	0xbd9dbeac	-0.077023834
73	0xbd72ec6a	-0.059307493
74	0x3d617d4e	0.05505114
75	0x3d62197b	0.05520008
76	0x3c8e6196	0.017380517
77	0x3c43eab3	0.011957812
78	0xbca13c17	-0.019681973
79	0xbbac729d	-0.0052626864
80	0x3a767172	0.000940106
81	0xbb6937ce	-0.003558624
82	0xba565f5d	-0.00081776624
83	0x3c42cf23	0.011890206
84	0xba2d3b0b	-0.00066082244
85	0x3a98a69e	0.0011646335
86	0x3b800d04	0.0039078016
87	0xba999cf7	-0.0011719753
88	0xbd9985aa	-0.074961975
89	0xbd30c0ef	-0.043152746
90	0xbd36dc57	-0.044643726
91	0xbd15d68e	-0.03658157
92	0xbc969a14	-0.018384017
93	0x3b02f5a6	0.0019982844
94	0x3cd6725d	0.02617758
95	0x3c854eb9	0.01627289
96	0xbd34d3a7	-0.04414716
97	0xbd016137	-0.031586852
98	0x3d5f6c41	0.0545466
99	0x3cf78d8f	0.030218868
100	0xbd1012be	-0.035174124
101	0xbd697c1a	-0.057003118
102	0x3cc9ce60	0.02463454
103	0x3d824a41	0.06361819
104	0xbd1f9e16	-0.038969122
105	0xbd26e807	-0.040748622
106	0x3d005a2a	0.031335987
107	0x3d2d887c	0.04236649
108	0x3da9daca	0.08293684
109	0x3d6a070b	0.057135623
110	0xbd342299	-0.043978307
111	0xbb7dc15e	-0.0038719992
112	0xbc1ae2b7	-0.009453467
113	0x3ab9179b	0.0014121415
114	0xbd3e9fe2	-0.046539195
115	0xbda0db5e	-0.07854341
116	0x3d225874	0.039635137
117	0x3d0c32b1	0.03422803
118	0xbd0499de	-0.0323733
119	0xbca7c34c	-0.020478867
120	0xbd21d3ba	-0.03950856
121	0xbd7eb855	-0.06218751
122	0x3d739e19	0.059476946
123	0x3c944941	0.018101336
124	0x3dd99bf4	0.10625449
125	0x3e15e0e0	0.14636564
126	0x3e017d76	0.12645516
127	0x3de24462	0.11048199
128	0x3c453c77	0.012038342
129	0x3ced42f2	0.028962586
130	0xbd3844bc	-0.044987425
131	0xbd89f4e6	-0.06736164
132	0xbd065ebf	-0.0328052
133	0xbbb89f0e	-0.005634195
134	0xba5d3a34	-0.0008439154
135	0x3d0fa409	0.035068545
136	0xbd8c2ba4	-0.06844261
137	0xbdd1cde0	-0.10244346
138	0x3d6ea17e	0.05825948
139	0x3db6c92c	0.08925089
140	0xbd9efb15	-0.07762734
141	0xbd71a23b	-0.058992606
142	0xbd541371	-0.051776353
143	0x3b88d739	0.004176047
144	0xbcd791a3	-0.026314562
145	0xbd63b124	-0.055588856
146	0xbbfe2b8b	-0.0077566556
147	0xbc746081	-0.014915586
148	0xbd309b59	-0.0431169
149	0xba38f9fe	-0.00070562947
150	0xbe0ce1c5	-0.13757999
151	0xbe01ee1f	-0.12688492
152	0xbdef3b3f	-0.11681222
153	0xbe15c329	-0.14625229
154	0xbdf38e6b	-0.118923984
155	0xbe0a8a2d	-0.13529272
156	0xbc31f604	-0.010861877
157	0xbc640d45	-0.013919179
158	0x3bacc0e6	0.0052720187
159	0x3cbd3845	0.02309812
160	0x3d1d57c3	0.038413774
161	0x3d64efb3	0.055892657
162	0xbd58f7e8	-0.052970797
163	0xbd9368dc	-0.07197735
164	0xbdedafc6	-0.11605792
165	0xbde82981	-0.11336041
166	0xbd79bfd9	-0.060973976
167	0xbd64cf06	-0.055861495
168	0xbd4b6215	-0.049654085
169	0xbd81010f	-0.0629903
170	0xbc8fb5e8	-0.017542794
171	0xbbd177a8	-0.006392438
172	0x3d25f4a9	0.04051653
173	0x3bd6c062	0.0065536955
174	0xbcf1223d	-0.029435271
175	0xbcda0c5e	-0.026617225
176	0x3db13e2b	0.08654436
177	0x3c8ccebf	0.017188428
178	0x3de18a68	0.11012727
179	0x3d77591a	0.06038771
180	0xbd839a66	-0.064259335
181	0xbcf707d9	-0.03015511
182	0xbd99d250	-0.07510817
183	0xbdaec6f5	-0.08534042
184	0xbbbaa227	-0.0056955996
185	0xbcf5ffcb	-0.030029198
186	0x3d5993db	0.05311952
187	0x3de81240	0.11331606
188	0xbdcafb71	-0.0991124
189	0xbd9312e9	-0.07181341
190	0x3da495e0	0.08036399
191	0x3da14c31	0.078758605
192	0x3b82210c	0.0039712247
193	0xbba1da6e	-0.004939369
194	0x3ac5d94a	0.0015094664
195	0xbadc29f7	-0.0016797174
196	0xbda45dae	-0.080256805
197	0xbe0b38af	-0.13595842
198	0x3b04e59d	0.0020278462
199	0x3d9f0d61	0.07766224
200	0xbdea4d76	-0.11440556
201	0xbdf0da7d	-0.11760423
202	0x3d2b7142	0.041856058
203	0x3cf14f6e	0.02945682
204	0xba658af2	-0.0008756361
205	0x3cad4f47	0.021155966
206	0xbc3326e5	-0.010934566
207	0xbbe97dfc	-0.007125614
208	0x3c453009	0.012035378
209	0x3c222353	0.009896117
210	0xbc6bd087	-0.0143929785
211	0xbc70b9db	-0.014692749
212	0xbd691361	-0.056903247
213	0xbcd7189d	-0.026256854
214	0x3d61e26a	0.055147566
215	0x3d92d974	0.07170382
216	0x3c9bd9d3	0.019024765
217	0x3c59c0c3	0.013290587
218	0xbba3b9d9	-0.00499652
219	0xbd00f74b	-0.031485837
220	0x3c103183	0.008800867
221	0x3c7295ce	0.014806224
222	0x3aa6e440	0.0012732819
223	0xbcb726fa	-0.022357453
224	0xbbd972fa	-0.0066360207
225	0xbcfdfea1	-0.031005206
226	0xbe34fedd	-0.17675348
227	0xbe4ea6ab	-0.20180766
228	0x3d96f648	0.07371193
229	0x3de995b0	0.11405504
230	0x3d8d9566	0.06913261
231	0x3d6ec0ef	0.058289465
232	0x3dbf6aac	0.09346518
233	0x3e07df39	0.13268746
234	0xbcb5a737	-0.02217446
235	0xbd51190a	-0.05104927
236	0xbc272f62	-0.010204168
237	0xbd1a63ce	-0.037692837
238	0xbba0d3df	-0.0049080695
239	0xbd441fd5	-0.04788192
240	0xbe00030d	-0.12501164
241	0xbe040f58	-0.12896478
242	0xba0f7b4e	-0.0005473391
243	0xbd7df356	-0.06199964
244	0x3d6eb10b	0.05827431
245	0x3d4c80b7	0.04992744
246	0x3d920cfc	0.07131383
247	0x3dd30d0c	0.10305223
248	0x3c3fa5b6	0.011697223
249	0xbd30e69c	-0.043188676
250	0x3dfc1874	0.123093516
251	0x3d750ee8	0.05982867
252	0xbd771c4d	-0.060329724
253	0xbdf909eb	-0.12160095
254	0xbdb8ae86	-0.09017663
255	0xbd856730	-0.06513822

fc.bias f4 [2]
0	0xbca96ca7	-0.020681692
1	0x3c6880f5	0.014190902

onnx::Conv_80 f4 [16, 3, 7, 7]
0	0xbc7ee8af	-0.015558406
1	0x3cc68fbf	0.024238465
2	0xbc8d8a17	-0.01727776
3	0xb9a9b4a0	-0.00032368768
4	0xbcd7cf10	-0.026343852
5	0xbc8f3d1b	-0.017485192
6	0xbc1d8240	-0.009613574
7	0x3d106d01	0.035260204
8	0x3b262ebc	0.0025357446
9	0xbce09b29	-0.027417736
10	0x3d1f6631	0.038915817
11	0x3c847562	0.016169254
12	0xbd04b9af	-0.032403644
13	0xbcb217b5	-0.02173982
14	0xbc25f399	-0.010128879
15	0x3d201c5f	0.039089557
16	0x3cfae64e	0.030627396
17	0x3c2e088a	0.010622153
18	0x3db63c53	0.08898225
19	0x3d1d4903	0.038399708
20	0x3d136aa1	0.03599036
21	0x3ba741fe	0.0051043024
22	0x3dcc6115	0.099794544
23	0x3cadbf52	0.021209393
24	0x3d89492c	0.067034096
25	0x3daf6d7b	0.085658036
26	0x3bbd8da9	0.0057847095
27	0xbb325e41	-0.0027216824
28	0x3b2e8fcb	0.0026636
29	0x3dd5c4d1	0.104379304
30	0x3d664f21	0.056227807
31	0x3c8eddf5	0.017439822
32	0x3dcdd379	0.10050101
33	0x3c99b502	0.018763069
34	0x3cb2dfe3	0.021835273
35	0x3d79667b	0.06088875
36	0x3cca5ba4	0.0247019
37	0x3d9e3fd9	0.07727022
38	0x3cff2cfe	0.031149384
39	0x3db2d9b0	0.08732927
40	0xbbe0ab77	-0.0068563777
41	0x3ce511ae	0.027962532
42	0xbd31ccf9	-0.043408368
43	0x3d9d62fc	0.076848954
44	0x3cc2d909	0.023785131
45	0x3d8cd483	0.06876471
46	0x3ac0f49d	0.0014721338
47	0x3d5cda04	0.053918853
48	0x3d4ccfe0	0.050002933
49	0xbdc5271e	-0.09626602
50	0xbdc74b13	-0.09731116
51	0xbd8cb4b8	-0.06870407
52	0xbdcadbf1	-0.09905232
53	0xbdbc63f8	-0.09198755
54	0x3c6def24	0.014522348
55	0xbc8e77a0	-0.017391026
56	0x3b9f3ef5	0.0048598
57	0x3d3e4a06	0.046457313
58	0x3d23a200	0.039949417
59	0x3b9f2a55	0.0048573413
60	0xbb373d5b	-0.0027960155
61	0xbd5bb5d1	-0.05364019
62	0xbd813402	-0.06308748
63	0x3cd103fa	0.025514591
64	0x3d1e23d4	0.038608387
65	0x3c61e18a	0.013786683
66	0xbcd1082a	-0.025516588
67	0x3cfd60b8	0.030929908
68	0x3c991114	0.018684901
69	0xbccd2603	-0.02504254
70	0xbd5642c5	-0.05230977
71	0xbab848a7	-0.0014059738
72	0x3c30a25f	0.0107809
73	0xbd243bc2	-0.040096052
74	0xbc3b32b6	-0.011425665
75	0x39038eb6	0.00012546298
76	0xbd556222	-0.05209554
77	0xbd6d99dc	-0.05800806
78	0x3ce9c30b	0.028535387
79	0x3d471f20	0.048613667
80	0x3cf794d0	0.030222327
81	0x3ce20884	0.027591951
82	0x3b857225	0.004072445
83	0xbd535784	-0.051597133
84	0xbc127d8a	-0.008941064
85	0x3d3f36d2	0.04668314
86	0x3c5252e1	0.012837143
87	0x3d1ef3f6	0.038806878
88	0x3c622946	0.013803786
89	0xbd45ec8d	-0.048321296
90	0xbcd9a1db	-0.026566437
91	0x3c18f8ce	0.009336663
92	0xbcab092d	-0.020878399
93	0x3d017baa	0.031612076
94	0xbd2bcbda	-0.041942455
95	0x3c694c94	0.014239449
96	0xbd49d84b	-0.04927854
97	0xbda33179	-0.079684205
98	0x3b8b64ea	0.0042539733
99	0xbd99c617	-0.07508486
100	0xbd00d164	-0.03144969
101	0xbd874e28	-0.06606704
102	0xbd2dc985	-0.042428512
103	0xbdaea016	-0.08526628
104	0xbc32559e	-0.010884671
105	0xbd9dccff	-0.077051155
106	0xbc88366f	-0.016627518
107	0x3c0240f5	0.007950057
108	0xbd275e34	-0.040861323
109	0xbd0c4888	-0.03424886
110	0xbd9dde34	-0.077083975
111	0xbd8f39b0	-0.06993425
112	0xbd146ef9	-0.036238644
113	0xbd4412f0	-0.047869623
114	0xbd7f4a94	-0.062326983
115	0xbd4cb718	-0.0499793
116	0xbd7795c7	-0.060445573
117	0xbd500b1e	-0.050791852
118	0xbdc07c2b	-0.09398683
119	0xbdc106c4	-0.094251186
120	0x3b6a4cd4	0.003575136
121	0xbd6293e3	-0.055316817
122	0xbd184445	-0.037174482
123	0xbd207061	-0.039169673
124	0xbd195d13	-0.037442278
125	0xbde3725f	-0.11105799
126	0xbd8ff459	-0.070290275
127	0xbc956721	-0.018237652
128	0xbd003b49	-0.03130654
129	0xbbf18345	-0.007370385
130	0xbd38d60b	-0.045126002
131	0xbcbb2e9f	-0.02284938
132	0xbd7f9f39	-0.062407706
133	0xbd99f3fb	-0.07517239
134	0x3b4fefb1	0.003172856
135	0xbd617e8c	-0.055052325
136	0xbdb8b304	-0.090185195
137	0xbdc5a5af	-0.09650742
138	0xbe02643f	-0.12733553
139	0xbdab310c	-0.08358964
140	0xbdac7fd3	-0.08422818
141	0xbd6d1438	-0.05788061
142	0xbdd77b63	-0.10521581
143	0xbdb77de4	-0.089595586
144	0xbdbd9e31	-0.09258688
145	0xbc92315e	-0.017845806
146	0xbdd05cad	-0.101739265
147	0xbcd13550	-0.025538117
148	0x3cb9bc81	0.022672893
149	0x3df80cdd	0.121118285
150	0x3dd3fd89	0.10351092
151	0x3d298c97	0.041393843
152	0x3e15b98a	0.14621559
153	0x3da1eaf5	0.079061426
154	0x3d92d5b1	0.07169665
155	0x3d177242	0.0369742
156	0x3d1fc4f5	0.039006192
157	0x3d554921	0.052071694
158	0x3d949b75	0.072562136
159	0xbd32fc44	-0.04369761
160	0x3d180866	0.037117384
161	0x3dc7a992	0.0974914
162	0xbd4e67e5	-0.05039205
163	0x3cdc17f6	0.026866894
164	0x3cd81e2e	0.026381578
165	0xbd34d353	-0.044146847
166	0xbdfc0b0e	-0.12306796
167	0xbdfc8148	-0.12329346
168	0x3bf38967	0.007432151
169	0x3cea7a98	0.02862291
170	0xbd1f526d	-0.038896967
171	0xbdb4725e	-0.08810876
172	0xbda6ac81	-0.08138371
173	0xbdd1dd12	-0.10247244
174	0xbe1bb6e6	-0.15206489
175	0x3cd36ab0	0.025807709
176	0xba975f6e	-0.0011548826
177	0xbdd62605	-0.104564704
178	0xbd8d278b	-0.06892308
179	0xbd33fb11	-0.043940607
180	0xbe163f42	-0.14672568
181	0xbe127285	-0.14301498
182	0xbdac28e1	-0.084062345
183	0x3bd8740c	0.0066056307
184	0xbc2a2a94	-0.010386128
185	0xbe13542d	-0.1438758
186	0xbd6760de	-0.056488864
187	0xbe191750	-0.149503
188	0xbe371c67	-0.17881928
189	0xbde6b15a	-0.11264296
190	0xbd056b1b	-0.032572847
191	0xbde814fd	-0.11332128
192	0xbd999845	-0.07499746
193	0xbda4905f	-0.08035349
194	0xbe493d0a	-0.19652191
195	0xbdc8c241	-0.09802676
196	0xbd4b8541	-0.049687628
197	0xbdbb0a26	-0.09132795
198	0x3cb2c967	0.021824552
199	0xbd89f230	-0.06735647
200	0x3b2c2c57	0.0026271546
201	0xbd2f7fd9	-0.042846534
202	0xbd90068a	-0.07032497
203	0x3d854ca8	0.06508762
204	0x3e271d41	0.16319753
205	0x3dd629d7	0.10457199
206	0x3d374451	0.044742886
207	0x3df93e5f	0.121700995
208	0x3d149a8b	0.036280196
209	0xbc923839	-0.017849075
210	0x3d001f79	0.031280015
211	0x3e1213eb	0.1426541
212	0x3db5ffc6	0.088866755
213	0x3d2a537e	0.04158353
214	0x3d217cba	0.03942559
215	0x3d42b839	0.04753897
216	0xbdb46b0b	-0.08809479
217	0x3dac0c94	0.084008366
218	0x3dde6720	0.10859513
219	0x3dcd7755	0.100325264
220	0x3d8df586	0.069315955
221	0xbd09181b	-0.033470254
222	0xbbee99b7	-0.007281508
223	0xbc570e7e	-0.013126014
224	0x3d5c12fb	0.05372904
225	0x3e08e0c5	0.13366993
226	0x3d969694	0.07352939
227	0x3d4d3e11	0.05010802
228	0xbceeaf8f	-0.029136447
229	0xb9b4e36b	-0.00034501715
230	0xbdbf3f5d	-0.093382575
231	0x3de0dd1d	0.10979674
232	0x3e172029	0.14758362
233	0x3d246dc6	0.04014375
234	0xbd2c1a22	-0.04201711
235	0x3d46c98d	0.048532058
236	0xbd8904de	-0.066903815
237	0xbd9d4f9b	-0.07681199
238	0x3cdef8d9	0.02721827
239	0x3d82f0fe	0.06393622
240	0xbc85fd9f	-0.016356288
241	0xbc54a4ac	-0.012978714
242	0x3c676ff5	0.014125814
243	0x3d197959	0.03746924
244	0x3c6473df	0.013943641
245	0xbdae9e04	-0.08526233
246	0x3da5f0df	0.08102583
247	0x3abba4c2	0.001431607
248	0x3d0e0b73	0.034678888
249	0xbcd40cbe	-0.025884982
250	0x3c82c112	0.015961204
251	0x3dfd1d7c	0.12359139
252	0x3d9cd7ea	0.0765837
253	0x3e15fb98	0.14646757
254	0x3e0e3d2b	0.13890521
255	0x3d5657d7	0.052329864

onnx::Conv_81 f4 [16]
0	0x3fa97748	1.3239527
1	0xbf2d42fe	-0.67680347
2	0xbfa61cea	-1.2977574
3	0x3ed3bd14	0.41355193
4	0xbf482ac3	-0.7819025
5	0x3f68d235	0.9094575
6	0x3f686dd1	0.90792567
7	0x3efa55b3	0.48893508
8	0x3edeaaf5	0.43489805
9	0x3f4183a6	0.75591505
10	0x3f8f68c3	1.1203846
11	0xbf4293b9	-0.76006657
12	0x3e8252fa	0.2545393
13	0x3c98a6fc	0.018634312
14	0x3e64dea5	0.22350557
15	0xbf9a7b87	-1.2068948

onnx::Conv_83 f4 [32, 16, 3, 3]
0	0xbcbf5f2a	-0.023360807
1	0xbcf41605	-0.029795656
2	0xbcfd9e92	-0.030959401
3	0xbac62ecb	-0.0015120147
4	0xbdb8b8d1	-0.09019626
5	0xbcceb9ed	-0.02523514
6	0xbc048749	-0.008088895
7	0xbca0f9a6	-0.019650292
8	0xbced961e	-0.029002246
9	0xbd184783	-0.037177574
10	0xbd2174dc	-0.039418086
11	0xbd9619c6	-0.07329135
12	0x3da5b9d5	0.08092085
13	0x3d826b99	0.06368179
14	0x3db5aa5c	0.08870384
15	0xbd2c47c1	-0.042060617
16	0x3c3a30a4	0.011364136
17	0xbd5000eb	-0.050782125
18	0x3d4f397c	0.05059193
19	0x3d940be9	0.07228834
20	0x3daabb84	0.08336547
21	0x3dab42b9	0.08362336
22	0x3dc879d8	0.09788865
23	0x3da5cbfd	0.08095548
24	0xbca5cd1d	-0.020239407
25	0xbdb9da36	-0.090748236
26	0xbc1d072b	-0.0095842285
27	0x3d57d7ee	0.05269616
28	0x3caee6fe	0.02135038
29	0x3ce95a05	0.028485307
30	0x3d0f488d	0.0349813
31	0x3e0f77c1	0.14010526
32	0x3dab4341	0.08362437
33	0xbd5528ca	-0.052040853
34	0xbda22941	-0.07918025
35	0xbe2caa0c	-0.16861743
36	0x3c479e1a	0.01218369
37	0xbd4481cc	-0.047975346
38	0xbd463bcf	-0.04839688
39	0xbb1864ab	-0.0023253362
40	0x3d98f45b	0.07468482
41	0x3d20eb07	0.03928664
42	0x3c428fc9	0.011875101
43	0xbc9ddb4c	-0.019269608
44	0x3c0eb2a4	0.008709583
45	0x3d463843	0.0483935
46	0x3d2f348e	0.04277473
47	0x3bbd7cde	0.0057827076
48	0xbc5242bc	-0.0128332935
49	0x3ba47804	0.00501919
50	0x3caffcc0	0.021482825
51	0xbbeb9f33	-0.007190609
52	0xbd283bd0	-0.041072667
53	0xbd8aa62e	-0.067699775
54	0x3cbee063	0.023300355
55	0x3cf886b4	0.030337669
56	0xbce1cf9d	-0.027564818
57	0xbd680c11	-0.056652132
58	0xbc986cff	-0.01860666
59	0xbd3cc031	-0.046081726
60	0xba0ebf51	-0.00054453785
61	0xbce415e7	-0.027842475
62	0xbc24933d	-0.01004487
63	0xbc5cc281	-0.013474108
64	0xbaa5254c	-0.0012599616
65	0xbbc6fe27	-0.006072778
66	0xbb5ccc29	-0.0033691025
67	0xbcb2c4a9	-0.02182229
68	0x3d6168a9	0.055031452
69	0xbc94f921	-0.0181852
70	0xbd2aae2a	-0.041670002
71	0x3d622a3d	0.055216063
72	0x3d35795f	0.0443052
73	0xbd19d68e	-0.03755813
74	0x3d27ee78	0.040998906
75	0xbd69c644	-0.057073846
76	0xbcf14354	-0.02945105
77	0xbd34750d	-0.04405694
78	0xbd8d0c42	-0.068871036
79	0xbd6333f3	-0.055469465
80	0xbba86f70	-0.0051402375
81	0x3ca57635	0.020197967
82	0x3c292c4b	0.010325502
83	0xbd1b4e56	-0.037916504
84	0x3e00e005	0.12585457
85	0x3e1c5f1e	0.1527066
86	0x3de0aa76	0.10970013
87	0xbd8504ba	-0.06495042
88	0xbdbc1e2d	-0.09185443
89	0xbe01f28f	-0.12690185
90	0x3cc6d653	0.02427212
91	0x3d12875f	0.03577363
92	0x3ce877d0	0.028377444
93	0xbd2294c4	-0.039692655
94	0xbd844135	-0.0645775
95	0xbd14243a	-0.03616736
96	0xbc61f994	-0.013792414
97	0xbd3b7c19	-0.045772646
98	0x3cf63262	0.030053321
99	0xbdd47323	-0.10373523
100	0xbc9bcb5c	-0.019017868
101	0xbcf330b2	-0.029686306
102	0xbb15d40f	-0.0022861992
103	0xbd2e0590	-0.042485774
104	0xbd21ba9a	-0.039484598
105	0xbc2cab96	-0.010538956
106	0xbd04c905	-0.03241827
107	0xbd69529a	-0.05696354
108	0x3da55a0e	0.08073817
109	0x3cd6ceb4	0.02622161
110	0x3d9ba01d	0.075988986
111	0x3d8c5f4a	0.068541124
112	0x3cfcff16	0.030883353
113	0x3d5ad6e0	0.053427577
114	0xbd1f0276	-0.038820706
115	0xbc413eee	-0.011794789
116	0xbd9b284e	-0.07576047
117	0xbcc09689	-0.02350928
118	0xbc1fba13	-0.009748953
119	0xbd8927b6	-0.066970274
120	0x3dbfe903	0.09370615
121	0x3cbe7217	0.023247762
122	0x3de86008	0.113464415
123	0xbdb99f46	-0.09063582
124	0xbd101261	-0.035173777
125	0xbe013924	-0.12619454
126	0xbce65aa7	-0.028119398
127	0x3be0d595	0.0068613985
128	0x3d8cce83	0.068753265
129	0xbd83d5ea	-0.06437285
130	0xbb5927a7	-0.0033135207
131	0xbcf4d8e1	-0.029888572
132	0xbc6a6cfd	-0.014308211
133	0xbba66fb8	-0.005079236
134	0xbdc85f36	-0.09783785
135	0x3e0de88e	0.13858244
136	0x3e11e466	0.14247283
137	0x3d937323	0.07199695
138	0x3d03a6e5	0.032141585
139	0xbd158290	-0.036501467
140	0xbd024f2b	-0.03181378
141	0xbe0a07fb	-0.13479607
142	0xbe059cf2	-0.13048151
143	0xbdfc4bf0	-0.123191714
144	0x3b912c14	0.0044303034
145	0x3bdd1d39	0.0067478684
146	0x3c8e6c54	0.01738564
147	0xba3ebd04	-0.00072760903
148	0x3cf39d7b	0.029738178
149	0x3d20fea1	0.039305333
150	0xbcc98941	-0.02460158
151	0xbd2ed03c	-0.042679057
152	0xbcf276eb	-0.02959772
153	0xbd386366	-0.04501667
154	0xbd303a96	-0.043024622
155	0xbd11fbb9	-0.035640452
156	0xbd3882aa	-0.045046486
157	0xbce32911	-0.027729543
158	0xbd1ec183	-0.038758766
159	0xbc67b5e1	-0.014142484
160	0xbd248a14	-0.040170744
161	0xbc2453bf	-0.010029732
162	0xbd31025c	-0.04321514
163	0xbcab73e2	-0.02092928
164	0xbcebfca7	-0.028806997
165	0x3c74364a	0.014905522
166	0xbcb3c62b	-0.02194508
167	0xbcc4e887	-0.024036659
168	0x3d6c8162	0.057740577
169	0x3d608a10	0.054819167
170	0x3cb7d29b	0.022439292
171	0x3cd3979a	0.025829125
172	0xbb80a46e	-0.0039258515
173	0x3c8fcd2d	0.01755389
174	0xbd27e348	-0.040988237
175	0xbdacf57c	-0.0844526
176	0xbd1fa92a	-0.038979687
177	0x3ca706f3	0.020389056
178	0xbb9e24db	-0.004826171
179	0x3c9adf11	0.018905194
180	0xbd2af732	-0.04173965
181	0xbcd28d9e	-0.025702294
182	0xbc0ecfb8	-0.008716516
183	0x3aa4d434	0.0012575448
184	0xbcb65261	-0.022256078
185	0x3c12c1b7	0.008957318
186	0x3c687468	0.01418791
187	0x3d23135e	0.039813392
188	0x3c10ed64	0.008845661
189	0x3b0ad2cd	0.0021182776
190	0x3c70d9b6	0.014700344
191	0x3c14cd5e	0.0090821665
192	0x3caa14a1	0.02076179
193	0x3c07f8d0	0.008299068
194	0x3c8e4d89	0.017370956
195	0xbc8c0261	-0.017090978
196	0xbd08dbc1	-0.0334127
197	0xbceea8a9	-0.029133158
198	0x3d07fb93	0.033198904
199	0x3c799f61	0.015235753
200	0x3d2369ba	0.03989575
201	0x3c6087b9	0.013704234
202	0x3ba01daf	0.004886351
203	0x3d13884b	0.03601865
204	0xbca8ffd5	-0.020629803
205	0xbcbed8ae	-0.02329668
206	0xbcd616ea	-0.026133973
207	0xbd6eed2b	-0.05833165
208	0xbcb48c8f	-0.02203968
209	0xbd70c381	-0.058780197
210	0xbd175e22	-0.036955006
211	0xbbc50905	-0.006013038
212	0xbbe50ca7	-0.0069900337
213	0x3b323434	0.002719176
214	0xbd021db5	-0.031766612
215	0xbd02606d	-0.03183024
216	0xbd0e90fe	-0.034806244
217	0xbd14c143	-0.03631712
218	0xbcb6cba4	-0.0223139
219	0x3d31fa4a	0.043451585
220	0x3ca756d2	0.020427141
221	0xbc1f8b75	-0.009737839
222	0xbc94663f	-0.018115161
223	0xbc80f796	-0.015743058
224	0xbc1439a4	-0.009046946
225	0xbd0fad65	-0.03507747
226	0xbd053327	-0.032519486
227	0xbcd06d2f	-0.025442688
228	0xbd5c1920	-0.0537349
229	0xbd7c2a96	-0.06156405
230	0xbd9f2efe	-0.07772635
231	0xbcac59ed	-0.021038974
232	0xbd02fc8e	-0.031979136
233	0xbb7e080e	-0.0038762125
234	0x3d02c305	0.031924266
235	0x3c8b41b5	0.016999105
236	0xba204e74	-0.0006115206
237	0x3d297564	0.041371718
238	0x3cdf9378	0.027291998
239	0xbb93d209	-0.004511122
240	0xbcabec9f	-0.020986853
241	0xbcdb561c	-0.026774459
242	0xbcc931c9	-0.024559872
243	0xbd17ad45	-0.037030477
244	0xbc820737	-0.01587258
245	0xbd06b444	-0.03288676
246	0x399e5daf	0.00030205908
247	0x3ca27978	0.019833311
248	0xbca2eb1a	-0.019887496
249	0xbba398f8	-0.0049926005
250	0x3c98c266	0.018647384
251	0xb8a3b878	-7.806806e-05
252	0x3d03ba9b	0.032160383
253	0x3ca6db42	0.020368222
254	0xbab89d40	-0.001408495
255	0xbc857827	-0.016292645

onnx::Conv_84 f4 [32]
0	0x3db02596	0.08600919
1	0x3efdeee7	0.4959633
2	0x3f5b84a1	0.8574925
3	0x3de4276c	0.111403316
4	0xbeccad2c	-0.3997587
5	0xbee80cb6	-0.45322198
6	0x3ddb9416	0.107216045
7	0xbea95993	-0.33076152
8	0x3e6e8ef7	0.23296724
9	0x3ede0baa	0.43368274
10	0x3f23ddd9	0.6401039
11	0x3eadee76	0.33970994
12	0xbdc2baa2	-0.09508254
13	0xbdb34c02	-0.08754732
14	0xbee3225b	-0.4436215
15	0x3d59f060	0.053207755
16	0x3d0a58ab	0.033775967
17	0x3f1c835c	0.6113794
18	0xbdd87b40	-0.10570383
19	0x3e3a465f	0.18190907
20	0xbde3acfa	-0.11116977
21	0x3d50716e	0.050889425
22	0xbbebeb78	-0.007199701
23	0xbad5ed90	-0.001632141
24	0x3d68d38e	0.05684238
25	0xbe4d1864	-0.20028836
26	0x3ed3c0a0	0.413579
27	0x3eaf3b90	0.3422513
28	0xbeccd5b4	-0.40006793
29	0x3e99e4b3	0.30057296
30	0xbd9818f6	-0.07426636
31	0x3e929f6f	0.28637263

onnx::Conv_86 f4 [32, 32, 3, 3]
0	0x397702d6	0.00023556812
1	0x3989b8e9	0.00026268445
2	0x3961dc3b	0.00021539714
3	0xba0bce90	-0.00053332094
4	0xba123998	-0.000557804
5	0xba265152	-0.0006344515
6	0xb954bdb2	-0.00020288563
7	0xb981a7bd	-0.00024729772
8	0xb982ab3a	-0.00024923106
9	0x3936acf6	0.00017421306
10	0x3967b10f	0.00022095836
11	0x395933d9	0.00020714047
12	0x38faabfe	0.00011952965
13	0x3914d363	0.00014193128
14	0x38fa53dd	0.0001193655
15	0xb917fb06	-0.00014493996
16	0xb91eb217	-0.00015134398
17	0xb94e50f8	-0.00019675854
18	0x39914014	0.00027704297
19	0x399f9a88	0.00030441978
20	0x39a4de53	0.00031446162
21	0x398b072b	0.00026517487
22	0x39738f32	0.0002322763
23	0x39793629	0.00023766667
24	0x39f8f4f1	0.00047484742
25	0x3a075c84	0.0005163627
26	0x3a015b9b	0.000493461
27	0x38c72223	9.495418e-05
28	0x38edc297	0.00011337286
29	0x38f07bd5	0.00011467157
30	0x38e25818	0.000107929285
31	0x38f902de	0.00011873779
32	0x39121602	0.00013931844
33	0x38da4fd0	0.00010409916
34	0x38e7023d	0.00011015355
35	0x38fb0792	0.00011970023
36	0x3943946d	0.00018651942
37	0x39474408	0.00019003463
38	0x3933ef8c	0.00017160008
39	0x3946e0c5	0.00018966485
40	0x395cc400	0.0002105385
41	0x38ec168d	0.00011257557
42	0x390ec3b8	0.00013615086
43	0x3926d430	0.0001591004
44	0x39028458	0.00012447068
45	0xb8e5bdc1	-0.00010954915
46	0xb782dbb0	-1.5599508e-05
47	0x37f72fb5	2.946691e-05
48	0xb9bce91d	-0.00036031837
49	0xb9b786bd	-0.00035004868
50	0xb9c709bf	-0.000379635
51	0xb9327928	-0.00017020537
52	0xb976f68f	-0.00023552238
53	0xb9ab79a9	-0.00032706306
54	0x38e4abc5	0.00010903882
55	0x38e5303d	0.00010928556
56	0x38a9c451	8.095115e-05
57	0xb88ea07f	-6.8009824e-05
58	0xb8b57ce9	-8.654019e-05
59	0xb9193770	-0.00014611869
60	0xb8878998	-6.4629305e-05
61	0xb7edba7b	-2.8339438e-05
62	0xb8a70064	-7.963253e-05
63	0xb904ad36	-0.00012653027
64	0xb8a723c2	-7.969841e-05
65	0xb90a2516	-0.00013174521
66	0xb9170ada	-0.00014404525
67	0xb89d863b	-7.511346e-05
68	0xb8cd514f	-9.790307e-05
69	0x3812f441	3.503659e-05
70	0x38097211	3.2769578e-05
71	0xb81f54aa	-3.7987404e-05
72	0xb968ea40	-0.00022212509
73	0xb95e3029	-0.00021189511
74	0xb9566620	-0.00020446675
75	0x38f4997a	0.00011663414
76	0x3919c1d9	0.00014663431
77	0x3909b159	0.00013131405
78	0x38db6129	0.00010460831
79	0x3912ec45	0.00014011662
80	0x390ac3e6	0.00013233683
81	0x394ba6fb	0.00019421794
82	0x398ca6ca	0.00026827148
83	0x398313ee	0.00025001116
84	0x399e0bfa	0.00030145032
85	0x39e370f4	0.0004338097
86	0x39978e65	0.00028907057
87	0x38863b21	6.4006315e-05
88	0x3996e56f	0.0002878117
89	0x389c0254	7.439093e-05
90	0x398b8f18	0.0002661876
91	0x3998b9df	0.00029130184
92	0x399091fd	0.0002757459
93	0x393f3bc6	0.00018237447
94	0x395d9332	0.00021131037
95	0x3984ae26	0.00025306753
96	0x39aed8df	0.00033349448
97	0x39b01a00	0.00033588707
98	0x39abad89	0.00032744955
99	0x38d5c6c3	0.00010193654
100	0x390d0748	0.0001344952
101	0x3913d0f2	0.0001409685
102	0x3921979e	0.00015410638
103	0x3940783c	0.00018355338
104	0x392f24fc	0.00016703078
105	0x392e60e4	0.00016630028
106	0x39431277	0.00018603528
107	0x3936373c	0.00017377449
108	0xb95e42d2	-0.00021196462
109	0xb9603e00	-0.00021385401
110	0xb9461ba0	-0.00018893043
111	0xb901b75c	-0.00012370705
112	0xb8cf0011	-9.8705415e-05
113	0xb8e424f6	-0.00010878772
114	0xb7920276	-1.7405702e-05
115	0xb7c4e622	-2.3472185e-05
116	0xb7f20140	-2.884923e-05
117	0xba75c09c	-0.00093747093
118	0xba8f8877	-0.0010950704
119	0xba8f2dd2	-0.001092369
120	0xb98cd64c	-0.00026862544
121	0xb97a5ea9	-0.00023877122
122	0xb945f5f2	-0.00018879006
123	0xb919e0fa	-0.00014675027
124	0xb977c399	-0.00023628621
125	0xb99212bb	-0.00027861245
126	0xba40d401	-0.000735581
127	0xba05a815	-0.00050985935
128	0xb9ac8b16	-0.00032910024
129	0xba04cc21	-0.0005065818
130	0xb9afe8c6	-0.0003355203
131	0xb9a6f814	-0.0003184682
132	0xb9e5f758	-0.0004386257
133	0xb9d37617	-0.0004033304
134	0xba09bd35	-0.00052543293
135	0x3704107d	7.871652e-06
136	0x389d3731	7.4966236e-05
137	0x39057cee	0.00012730408
138	0xb8fac9f4	-0.00011958546
139	0xb88c77c8	-6.698031e-05
140	0xb879c152	-5.954627e-05
141	0xba022f03	-0.0004966112
142	0xba00aa2f	-0.0004908172
143	0xba01f224	-0.0004957041
144	0x36fd1477	7.54237e-06
145	0x381edfb1	3.7878464e-05
146	0x37fbb368	3.0005074e-05
147	0xb69e4626	-4.7169333e-06
148	0x37fa6d2a	2.9853156e-05
149	0x37da49dc	2.6022019e-05
150	0x3657d104	3.215916e-06
151	0x381b05e7	3.6960377e-05
152	0x37ed1893	2.8264045e-05
153	0x394adcb9	0.00019346447
154	0x39634c3d	0.00021676808
155	0x3958a8eb	0.00020662292
156	0x391f57e8	0.00015196169
157	0x3932f098	0.00017065031
158	0x393e5a13	0.00018153367
159	0x3962ec0d	0.00021640975
160	0x3971230f	0.00022996611
161	0x3974c3d8	0.00023342611
162	0xb8502c60	-4.9632392e-05
163	0xb91e1c50	-0.00015078601
164	0xb98887ee	-0.00026041217
165	0x38a9c2d9	8.094841e-05
166	0x37e35a05	2.7102427e-05
167	0x366cb345	3.527109e-06
168	0x38a0eb17	7.6731834e-05
169	0x384a1580	4.8180576e-05
170	0x3838f879	4.4100427e-05
171	0x3945b1a9	0.00018853568
172	0x3949dc07	0.0001925082
173	0x39413773	0.00018426571
174	0x3934c9f2	0.00017241368
175	0x3959191b	0.00020704085
176	0x3957d10e	0.00020581877
177	0x383a90af	4.4480603e-05
178	0x388e62bb	6.7894776e-05
179	0x38a40e27	7.8227655e-05
180	0xba683405	-0.0008857849
181	0xba4fb97c	-0.00079240627
182	0xba226953	-0.0006195504
183	0xb994f05f	-0.0002840785
184	0xb989a91e	-0.00026256678
185	0xb9882816	-0.00025969808
186	0xb9ab13c7	-0.00032630397
187	0xb9bb6ef2	-0.0003575008
188	0xb9e2b471	-0.00043240518
189	0xb7a227ee	-1.9330499e-05
190	0x383af6cf	4.4575714e-05
191	0xb7032079	-7.815769e-06
192	0xba4234d0	-0.00074083824
193	0xba61bdd5	-0.0008611356
194	0xba68082d	-0.0008851316
195	0xb9919c57	-0.00027773037
196	0xb960d9bb	-0.00021443416
197	0xb9230dbc	-0.00015550008
198	0x379e7c03	1.8892815e-05
199	0x38219add	3.852962e-05
200	0x38082808	3.246221e-05
201	0xb768102b	-1.3832042e-05
202	0xb84a5f4c	-4.8249305e-05
203	0xb8fa5442	-0.00011936623
204	0xb98c39f4	-0.0002674606
205	0xb99c9a47	-0.00029869584
206	0xb99ada72	-0.00029535923
207	0x36a55f79	4.9284977e-06
208	0x36a868df	5.0189988e-06
209	0x36df136a	6.648178e-06
210	0xb72cb0d6	-1.0293172e-05
211	0xb6ee332a	-7.098909e-06
212	0xb70891d1	-8.140182e-06
213	0x366d5a2e	3.5368244e-06
214	0x3695fc49	4.469916e-06
215	0x36b0cc15	5.268967e-06
216	0xb94fddfd	-0.00019823755
217	0xb9a360ce	-0.00031161908
218	0xb9bb242f	-0.00035694378
219	0x39a10fe2	0.00030720147
220	0x398aadf3	0.00026451013
221	0x3969a340	0.00022281427
222	0x3846bb30	4.738121e-05
223	0xb80d9f67	-3.3765475e-05
224	0xb8c33cd6	-9.309656e-05
225	0xb6481c54	-2.9818812e-06
226	0xb7bff878	-2.2884677e-05
227	0xb7a1655a	-1.9239891e-05
228	0xb8243a32	-3.9154846e-05
229	0xb7742498	-1.45520535e-05
230	0xb77e73a4	-1.5166504e-05
231	0xb8751913	-5.8435904e-05
232	0xb68eb562	-4.2530455e-06
233	0xb71fe81d	-9.531182e-06
234	0x38e7831d	0.0001103936
235	0x391cab2f	0.0001494109
236	0x3908d1bf	0.00013048107
237	0xb982ef52	-0.0002497384
238	0xb973d5f0	-0.00023253984
239	0xb9324d31	-0.00017004159
240	0x391620ec	0.00014317379
241	0x392bcb7e	0.00016383638
242	0x39241126	0.00015646647
243	0x39042826	0.00012603457
244	0x39142a61	0.00014130167
245	0x390f82ac	0.00013686222
246	0x391970f3	0.00014633294
247	0x392aa0af	0.00016272323
248	0x3929478e	0.00016143752
249	0x391d1087	0.00014978844
250	0x3927edb2	0.0001601491
251	0x392531ff	0.00015754251
252	0xba0383a7	-0.0005016871
253	0xba043170	-0.0005042767
254	0xb9ebc671	-0.00044970543
255	0xb9d0548a	-0.00039735838

onnx::Conv_87 f4 [32]
0	0xbb50078c	-0.003174278
1	0x3d714d63	0.058911692
2	0xbdcffc68	-0.101555645
3	0xbe0466c9	-0.12929834
4	0xbcd54e92	-0.026038442
5	0xbe56bff8	-0.20971668
6	0xbb9f42f1	-0.004860275
7	0xbca462fe	-0.020066734
8	0xbb827ba9	-0.0039820266
9	0xbcd2815c	-0.025696449
10	0xbe0243b4	-0.12721139
11	0x3db1792b	0.08665689
12	0x3d717577	0.058949914
13	0x3e828dcf	0.25498816
14	0xbe127e18	-0.14305913
15	0x3da82f6c	0.0821217
16	0xba34f0cd	-0.0006902337
17	0x3ddc2f1e	0.107511744
18	0x3e04e06f	0.1297624
19	0x3d1af33a	0.037829615
20	0xbe1e6c39	-0.15470971
21	0x3eadfa6a	0.33980113
22	0x3e851310	0.25991106
23	0x3df75adf	0.12077879
24	0xbc3139ec	-0.010817032
25	0x3c533575	0.012891163
26	0x3e98c9fd	0.29841605
27	0x3e28be42	0.16478828
28	0xbe1ef4f6	-0.15523133
29	0x3dbd24ba	0.09235521
30	0x3dbc3ab6	0.09190886
31	0xbe6fc7ea	-0.23416105

onnx::Conv_89 f4 [32, 16, 1, 1]
0	0x3aefafbb	0.0018286625
1	0x3b0f3feb	0.0021858166
2	0xbb07dc56	-0.0020730696
3	0x3b0b9f5d	0.0021304705
4	0xba3a272f	-0.0007101176
5	0x39fa0040	0.00047683902
6	0x38da18e1	0.00010399684
7	0x3bc9f3e9	0.0061631096
8	0x3a9ed27b	0.0012117171
9	0x3a4a68c2	0.00077212986
10	0x396bb8fb	0.00022480257
11	0x3b0079b4	0.001960379
12	0x3a1947c5	0.00058471813
13	0x3bffdd59	0.007808369
14	0x3b4702f3	0.0030366748
15	0x3a8cce3b	0.0010742614
16	0x3ca33370	0.019921988
17	0x3dab7078	0.08371061
18	0x3d51e8d4	0.051247433
19	0x3c2d2e6b	0.010570149
20	0x3b12c3d8	0.0022394564
21	0x3ba001de	0.004883035
22	0xbdac6ed7	-0.084195785
23	0x3d6e42c7	0.058169153
24	0x3d9406f8	0.07227892
25	0x3e1c98ad	0.15292616
26	0xbd680d9b	-0.0566536
27	0x3d302804	0.043006912
28	0x3e047c3e	0.1293802
29	0xbd2a438c	-0.041568324
30	0x3d2d730e	0.042346053
31	0x3c0938e7	0.008375383
32	0x3dab0775	0.08351032
33	0xbd4b925b	-0.049700122
34	0x3de66a9e	0.11250804
35	0x3dba0cca	0.090844706
36	0x3ce7913f	0.0282675
37	0xbcb622a8	-0.022233322
38	0x3d979801	0.07402039
39	0xbdb3508b	-0.08755597
40	0xbd51100d	-0.051040698
41	0x3d91aec1	0.0711341
42	0xbcdc8d67	-0.026922895
43	0x3d26e1ec	0.0407428
44	0x3e193f7a	0.1496562
45	0xbe00a6a7	-0.12563573
46	0xbc2ee702	-0.010675194
47	0x3d99c4b4	0.07508221
48	0x3bc16508	0.0059019364
49	0xbc84ad02	-0.016195778
50	0xbcdc048d	-0.026857639
51	0xbd66a33a	-0.05630801
52	0x3c2679fd	0.01016092
53	0x3bc6b252	0.006063738
54	0x3c6a254a	0.014291117
55	0x3d0949b7	0.033517566
56	0x3c1195bf	0.0088858
57	0x3cd3abdd	0.025838787
58	0x3c9df9e1	0.01928419
59	0x3be8df10	0.0071066692
60	0x3bbb07aa	0.0057077007
61	0x3dcc8431	0.09986151
62	0xbc92abb3	-0.017904138
63	0xbc45cf5b	-0.012073363
64	0x3e9697ee	0.29412788
65	0x3e818114	0.2529379
66	0xbd755724	-0.059897557
67	0xbda6c48d	-0.08142958
68	0x3c197ce4	0.009368155
69	0xbe33a49d	-0.17543264
70	0x3e80664a	0.2507804
71	0x3e8985bb	0.2685984
72	0x3db65d58	0.08904523
73	0x3d78cbbb	0.060741168
74	0xbeaad03a	-0.3336199
75	0x3e311fe2	0.17297319
76	0x3edd336c	0.43203294
77	0x3d9115ce	0.07084237
78	0x3d20be0a	0.039243735
79	0xbe950c88	-0.29111123
80	0xbd87cdb4	-0.06631032
81	0x3e04d107	0.12970363
82	0xbb9d451b	-0.004799498
83	0xbe23629b	-0.15955584
84	0xbddacd47	-0.10683685
85	0xbcc8490d	-0.024448896
86	0xbc428ec5	-0.011874859
87	0xbd4aa9cf	-0.04947835
88	0xbdaa7e52	-0.08324875
89	0xbb784c5d	-0.0037887313
90	0x3c783d3a	0.015151316
91	0x3dbc15ba	0.091838315
92	0xbd6e7df4	-0.058225587
93	0x3e0f005d	0.13964982
94	0xbd40f5ae	-0.0471093
95	0xbc209ffd	-0.009803769
96	0x3e025a89	0.12729849
97	0xbcd22c39	-0.025655853
98	0xbd162191	-0.036653105
99	0xbdb8e444	-0.09027913
100	0xbdb6bf49	-0.089232035
101	0x3dae136f	0.084998004
102	0x3dc5d6ae	0.096600875
103	0xbcde01d7	-0.027100487
104	0x3cb16ea7	0.021659208
105	0xbe2c7c63	-0.16844325
106	0xbd92cb90	-0.07167733
107	0x3c6a93c3	0.014317456
108	0x3e06f9b3	0.1318119
109	0xbe1a943a	-0.15095606
110	0xbdfe9762	-0.12431218
111	0xbc8d8771	-0.017276498
112	0x3b2ca6e0	0.0026344582
113	0xbb87356a	-0.0041262405
114	0xba1add1e	-0.0005907583
115	0xbb4f1792	-0.0031599742
116	0xbb368f40	-0.002785638
117	0xbacc569f	-0.001558978
118	0x3a3b474b	0.00071441074
119	0x3a3b3f47	0.0007142913
120	0x3a71a4c0	0.000921797
121	0xbbbfbd91	-0.0058514555
122	0xba6c0402	-0.0009003283
123	0x3b85c71d	0.004082574
124	0x3bf9922d	0.0076163025
125	0xbc114876	-0.008867374
126	0xbbd62da1	-0.006536201
127	0xba090b2a	-0.0005227799
128	0x39b6583f	0.00034779494
129	0x3a041c04	0.0005039575
130	0xb8932621	-7.016608e-05
131	0xbaf1a984	-0.001843736
132	0x358725d7	1.0069297e-06
133	0x38e98b54	0.00011136258
134	0x39c6bdcb	0.0003790691
135	0x39966f9b	0.00028693382
136	0xb95f0db7	-0.00021272046
137	0x39cabd63	0.00038669546
138	0x38c13094	9.2120055e-05
139	0x39556f8a	0.00020354814
140	0x3b69413a	0.0035591857
141	0x3b8a8197	0.004226874
142	0x37014a07	7.706235e-06
143	0xb9e8aab8	-0.00044377684
144	0x3cb7f80e	0.022457149
145	0x3d84cb5e	0.06484102
146	0x3a67756c	0.0008829448
147	0xbcc2267f	-0.023699997
148	0x3a8ea1f5	0.0010882007
149	0xbc15c97e	-0.009142278
150	0xbc0d56b6	-0.0086266305
151	0x3ab67cd3	0.0013922699
152	0x3d7af137	0.061265197
153	0xbd40db71	-0.047084276
154	0x3c16412f	0.009170814
155	0x3d925fd2	0.071471825
156	0x3d95eb1f	0.073202364
157	0xbd6f0d23	-0.058362138
158	0xbbfdc701	-0.0077446704
159	0x3c9843de	0.01858705
160	0x3d1870c6	0.037216924
161	0xbd1f4d6d	-0.0388922
162	0xbcbb13a3	-0.022836512
163	0xbd1bce02	-0.03803826
164	0xbc5dfec8	-0.013549514
165	0x3ca25a39	0.019818412
166	0xbd49e0ea	-0.04928676
167	0x3d53ed98	0.05174026
168	0x3ce850b7	0.0283588
169	0x3c939054	0.018013157
170	0x3d3d9403	0.046283733
171	0xbce3e8c2	-0.027820949
172	0xbd6b37b2	-0.057426162
173	0xbd3df218	-0.046373457
174	0xbcde9d29	-0.02717455
175	0x3c78b219	0.015179181
176	0xbdd8e92f	-0.10591351
177	0x3cf849e5	0.030308673
178	0x3e3bf9eb	0.18357055
179	0xbdbdadfa	-0.09261699
180	0x3d9709d9	0.07374925
181	0xbe0cbf56	-0.13744864
182	0xbe513528	-0.20430434
183	0x3e3652fa	0.1780509
184	0xbd833be4	-0.064079076
185	0xbd93e2d7	-0.07221001
186	0xbe0075cf	-0.1254494
187	0xbdbee185	-0.09320358
188	0xbdb990b3	-0.09060802
189	0x3ea0dce3	0.31418523
190	0x3d9391dd	0.072055556
191	0x3e26ccb0	0.1628902
192	0xbd44f485	-0.048084754
193	0xbdc0beb2	-0.09411372
194	0x3d99ce7f	0.07510089
195	0xbdd04360	-0.10169101
196	0xbc3fdfeb	-0.011711101
197	0x3b748c64	0.0037315125
198	0x3da36b1a	0.079794124
199	0xbd257899	-0.040398214
200	0xbb44b6aa	-0.0030016103
201	0xbdf68b64	-0.120383054
202	0xbd69a09e	-0.057037942
203	0xbdc9b6fd	-0.09849355
204	0x3d24d99b	0.040246587
205	0xbde9ab16	-0.11409585
206	0x3d48441c	0.04889308
207	0x3bef7557	0.007307689
208	0xba5b2986	-0.00083603745
209	0x3e2c5ecc	0.16833037
210	0xbdb62da7	-0.08895426
211	0x3d0fe80f	0.035133418
212	0xbe2b1dcc	-0.16710585
213	0x3e04a238	0.12952507
214	0xbde848c0	-0.11342001
215	0x3b8ed500	0.0043588877
216	0xbd182d7b	-0.03715275
217	0x3e60b42a	0.21943727
218	0x3d15132b	0.036395233
219	0xbd63055a	-0.055425026
220	0xbdc46bc0	-0.09590864
221	0x3d4d85b3	0.050176334
222	0x3df6f2e3	0.12058046
223	0xbe3cb593	-0.1842864
224	0xbe0c7fbc	-0.13720602
225	0xbd82e4d0	-0.06391299
226	0x3caecfc9	0.021339314
227	0x3d7e0dad	0.06202476
228	0xbcf1b1a1	-0.029503645
229	0xbe273b4d	-0.16331215
230	0xbb57fdb4	-0.0032957615
231	0x3e283209	0.16425337
232	0xbdda265b	-0.10651847
233	0xbd9444da	-0.07239695
234	0xbe1af985	-0.15134247
235	0x3dd40562	0.10352589
236	0x3ea7a2d0	0.32741404
237	0x3e3f685b	0.18692152
238	0xbddfb15b	-0.109225
239	0xbcdb2b07	-0.026753915
240	0x3c99f806	0.018795025
241	0x3c9a1975	0.018810967
242	0xbdb2545c	-0.087074965
243	0x3da19216	0.07889192
244	0x3c9e3c24	0.019315787
245	0x3bf246d9	0.0073936996
246	0x3d45e984	0.0483184
247	0x3dd5e752	0.104445115
248	0x3d9e1061	0.07717968
249	0x3dd88fcd	0.10574303
250	0x3d795db9	0.060880397
251	0x3c992843	0.018695956
252	0x3dc6c059	0.09704656
253	0xbca4503d	-0.020057792
254	0x3cb495d1	0.022044094
255	0x3d9801f5	0.07422248

onnx::Conv_90 f4 [32]
0	0xbc8fdd66	-0.017561626
1	0xbe8568c0	-0.2605648
2	0xbe21c87e	-0.15799138
3	0xbd850a3d	-0.064960934
4	0xbf073b2c	-0.52824664
5	0x3dbb1c29	0.091362305
6	0x3e5638a8	0.2092005
7	0x3ba30176	0.0049745394
8	0xbc016a0e	-0.007898821
9	0xbd5e73da	-0.054309703
10	0x3d0da4f6	0.034581147
11	0xbe2a6286	-0.16639146
12	0x3e6b881e	0.23001143
13	0xbdd1d0c2	-0.102448955
14	0xbe53b1be	-0.20673272
15	0xbeab28f3	-0.3342968
16	0xbab1010e	-0.0013504343
17	0x3d9ae103	0.07562449
18	0xbe1d6218	-0.15369451
19	0x3e59426e	0.21216747
20	0xbe2d9002	-0.16949466
21	0xbda6737c	-0.08127496
22	0xbe56420a	-0.2092363
23	0x3f3a1950	0.72694874
24	0xbd0f935e	-0.03505265
25	0xbee2918e	-0.44251674
26	0x3ec1b49b	0.37833104
27	0xbf32832f	-0.6973142
28	0x3e8150c4	0.25256932
29	0xbf032a89	-0.5123678
30	0x3d253309	0.040331874
31	0x3ee33921	0.44379523

onnx::Conv_92 f4 [64, 32, 3, 3]
0	0xb9508810	-0.00019887113
1	0xb97c2ffc	-0.00024050468
2	0xb946ac0f	-0.00018946848
3	0xb8c57f9a	-9.41746e-05
4	0xb87f41a3	-6.0857867e-05
5	0xb89f1ede	-7.58746e-05
6	0xb8001e94	-3.0546056e-05
7	0xb7617ae3	-1.3439657e-05
8	0x370a542f	8.2450415e-06
9	0x3b1b52d1	0.0023700485
10	0x3aa8d486	0.001288072
11	0x3b8cb678	0.004294213
12	0xba619e71	-0.00086066785
13	0xba287e2e	-0.00064274936
14	0x3a817c0a	0.0009878885
15	0xbb93da73	-0.004512125
16	0xbb7e0c31	-0.003876459
17	0xbb1cd1a3	-0.0023928664
18	0xbbdde6eb	-0.0067719123
19	0xbbf0c30c	-0.00734747
20	0xbc1ce979	-0.009577149
21	0xbc1d3729	-0.009595671
22	0xbc0b759d	-0.008511928
23	0xbc089520	-0.008336335
24	0x3aa92e4d	0.0012907475
25	0x3b865986	0.0041000275
26	0x3b7ae31b	0.0038282338
27	0x38620313	5.3885462e-05
28	0x3add5e10	0.0016888995
29	0x3b228482	0.002479822
30	0x3b92a23e	0.004474907
31	0x3bbaeac7	0.005704257
32	0x3bcf6e3f	0.006330281
33	0xb81c211e	-3.722414e-05
34	0x39f5d615	0.00046889545
35	0x3a1376bf	0.00056252995
36	0x3c656e64	0.01400337
37	0x3c6d8b44	0.014498536
38	0x3cb48981	0.022038223
39	0x3a6a08c9	0.00089277007
40	0x3b87e877	0.004147585
41	0x3c314b3a	0.010821158
42	0xbc0a1d60	-0.008429855
43	0x39ea6875	0.00044709785
44	0x3c5c1afd	0.013434169
45	0xbafa9ef3	-0.0019120857
46	0xbb887c04	-0.0041651744
47	0xbbdf9ef9	-0.006824371
48	0x3b1d370b	0.0023989107
49	0x3b625b65	0.0034539339
50	0x39b05a9b	0.00033636842
51	0x3b44b225	0.003001341
52	0x3b1a126e	0.002350952
53	0x3b0e97f8	0.002175806
54	0xbc63dcb7	-0.013907603
55	0xbc6157a0	-0.013753802
56	0xbc5d3aa0	-0.013502747
57	0xbc620000	-0.013793945
58	0xbc6a060e	-0.01428367
59	0xbc3b1ad7	-0.011419973
60	0x3cb618b0	0.022228569
61	0x3cd78937	0.026310546
62	0x3ccd10b7	0.025032384
63	0xb9f2703a	-0.00046241452
64	0xb97c8941	-0.00024083724
65	0xb999c63c	-0.0002933013
66	0x3986b6e2	0.0002569473
67	0x39fd846b	0.0004835458
68	0x3a0db696	0.00054059306
69	0xba3f3f75	-0.00072955276
70	0xb9acc60d	-0.00032953956
71	0xb9bf1418	-0.0003644533
72	0x381b93b8	3.7092454e-05
73	0x33628170	5.2737448e-08
74	0x383f3985	4.5591518e-05
75	0x383d3e9a	4.5119414e-05
76	0x38654d3c	5.4669785e-05
77	0x38aa6eeb	8.126892e-05
78	0x37d4b767	2.5357773e-05
79	0x38db126e	0.000104461666
80	0x38d949ca	0.000103611106
81	0x3b14e936	0.0022722012
82	0x3b53299d	0.0032220848
83	0x3bc4d269	0.006006528
84	0x3adc5473	0.0016809836
85	0x3b019e0d	0.0019778043
86	0x3bb0ca75	0.0053952285
87	0x3ab4bb71	0.0013788772
88	0x3b44bfc7	0.0030021535
89	0x3baf6a51	0.00535325
90	0xbb323a6c	-0.0027195467
91	0xbb1926a2	-0.0023368974
92	0xbb457ec3	-0.003013537
93	0x3c2819ae	0.010260029
94	0x3be3800c	0.0069427546
95	0x3bf142c4	0.0073626954
96	0xbaf7f238	-0.0018916791
97	0xbae74d51	-0.0017646943
98	0xbb581c28	-0.0032975767
99	0x3c328bb6	0.0108975675
100	0x3c4140fc	0.011795279
101	0x3c2f36ef	0.0106942495
102	0xbc5a11d8	-0.013309918
103	0xbc1f1633	-0.009709883
104	0xbc1b7502	-0.009488346
105	0xbb68fbc6	-0.003555046
106	0xbadec5dc	-0.0016996223
107	0xbb593e60	-0.003314875
108	0x3ad9a187	0.0016603925
109	0x37f0ee86	2.87213e-05
110	0xbb01e4e3	-0.0019820265
111	0xbc86071e	-0.016360816
112	0xbcb26b7c	-0.021779768
113	0xbcd7c9e4	-0.026341386
114	0x3c46d36a	0.012135366
115	0x3bec1ef8	0.00720584
116	0x3b79d593	0.0038121685
117	0x39809213	0.00024522896
118	0xb8684776	-5.5379664e-05
119	0x3b542cc3	0.0032375313
120	0x3b1fc0a0	0.0024376288
121	0xb9d69a9e	-0.0004093246
122	0x3b0c3fa9	0.002140025
123	0xbb97c4d6	-0.004631619
124	0xbb927ee6	-0.004470694
125	0x3af2ed95	0.001853394
126	0xbc72009e	-0.014770655
127	0xbbd43fe6	-0.006477344
128	0xba9b3a40	-0.0011842921
129	0xbb9bea9d	-0.0047581927
130	0x3c1c09d0	0.009523824
131	0x3c560da5	0.013064777
132	0x3af2081a	0.0018465549
133	0x3bd6bf72	0.006553584
134	0x3c0ac78a	0.008470425
135	0xba8b529e	-0.001062948
136	0xbafa9b4f	-0.0019119772
137	0x3b11761d	0.0022195645
138	0xbb3a9347	-0.0028469132
139	0xbb853818	-0.004065525
140	0x3a03ddb3	0.0005030289
141	0x3a06a906	0.0005136881
142	0x3b213d51	0.0024603198
143	0x3c10efbd	0.008846221
144	0x3528af22	6.283973e-07
145	0x35432b7c	7.270644e-07
146	0x357e1261	9.464912e-07
147	0xb332a8fe	-4.1597552e-08
148	0x33287c78	3.9228752e-08
149	0xb458d23a	-2.0193048e-07
150	0x31a0abbe	4.6761377e-09
151	0xb3a71dba	-7.781951e-08
152	0xb4099211	-1.2812258e-07
153	0x39d25f33	0.0004012525
154	0x39c0495f	0.0003667576
155	0xb913036d	-0.00014020289
156	0x393bbc9b	0.00017903971
157	0x393bef2c	0.00017922808
158	0x39c4e65e	0.0003755567
159	0xb989cb57	-0.00026282176
160	0x3a2c6432	0.00065762096
161	0x3a58c1c2	0.0008268618
162	0x3b80ca29	0.0039303494
163	0x3b8bd353	0.004267135
164	0x3ae9b152	0.0017829335
165	0xbba39621	-0.004992262
166	0xbb179a79	-0.0023132844
167	0xbafb2ab4	-0.0019162507
168	0xbb8f28a0	-0.0043688565
169	0xbb7a104c	-0.0038156686
170	0xbb310579	-0.0027011319
171	0xbc83ca0f	-0.01608756
172	0xbc4e179c	-0.012578871
173	0xbc7d69fc	-0.015467163
174	0xbbf8e7b9	-0.007595983
175	0xbb7542ed	-0.0037423924
176	0xbba8af33	-0.0051478385
177	0x3b9eedb9	0.004850116
178	0x3bd82b9c	0.0065969955
179	0xbb01875c	-0.0019764518
180	0x3cb87067	0.022514535
181	0x3cc057a7	0.023479296
182	0x3ca16532	0.019701574
183	0x3bb89128	0.0056325383
184	0x3c1f9c19	0.009741806
185	0x3c3055e9	0.01076267
186	0xba585c22	-0.0008253475
187	0xbafc68a8	-0.0019257264
188	0xba651743	-0.0008739123
189	0xba990cbc	-0.0011676769
190	0xbb1b8140	-0.0023728162
191	0x3a5a471f	0.0008326638
192	0xbabda6eb	-0.0014469301
193	0xbaaa16c5	-0.0012976757
194	0xba6cfd96	-0.0009040473
195	0x3bf55f1e	0.0074881455
196	0x3c0833ea	0.0083131585
197	0x3c0fba0b	0.008772383
198	0x3b1e1909	0.0024123809
199	0x3ad6e959	0.0016396447
200	0x3b8e47d6	0.0043420596
201	0x394b81b4	0.00019407907
202	0xba37cf74	-0.0007011809
203	0x3b14298d	0.0022607774
204	0xbb69eb37	-0.0035693177
205	0x3a1b39ca	0.0005921392
206	0x3bc290af	0.005937658
207	0xbb6622ca	-0.003511595
208	0x3b640702	0.0034794216
209	0x3c18c164	0.009323452
210	0xbcb07de9	-0.021544414
211	0xbc9ed634	-0.01938925
212	0xbc314893	-0.010820526
213	0xbb966a5e	-0.0045903167
214	0x3ba2e389	0.004970972
215	0x3c3cec10	0.011530891
216	0x3994fcaa	0.0002841701
217	0x3ad468f3	0.0016205594
218	0x3ac2fb9a	0.0014876008
219	0xbad47be5	-0.001621124
220	0xba802f8d	-0.0009779796
221	0xbaa3a194	-0.0012484067
222	0xbb047cff	-0.0020216105
223	0xbaf5a6e1	-0.001874175
224	0xbadd33a4	-0.0016876352
225	0x3c0f2ac8	0.008738227
226	0x3b9fffb5	0.0048827776
227	0x3bdf6f1e	0.006818666
228	0xbb5c515d	-0.0033617832
229	0xbbc43cca	-0.005988692
230	0xbb91d501	-0.004450441
231	0xbc40e868	-0.01177416
232	0xbbfec0dd	-0.007774456
233	0xbc0e6069	-0.008689978
234	0x3c7c9260	0.015415758
235	0x3c9832af	0.018578855
236	0x3c851115	0.016243497
237	0x3ae369e8	0.0017350288
238	0x3b6f9e45	0.0036562842
239	0x3ba805e9	0.0051276577
240	0xb952b540	-0.00020094682
241	0xba8ac55a	-0.001058738
242	0xb9b5ea99	-0.000346978
243	0xbc5ccc98	-0.013476513
244	0xbc7a6b02	-0.015284302
245	0xbbca1d71	-0.0061680605
246	0xbcde5712	-0.027141128
247	0xbc8c3436	-0.01711474
248	0xbc368a41	-0.011141361
249	0x3b61c7eb	0.0034451436
250	0x3b9e87b5	0.004837955
251	0x3c71145a	0.014714325
252	0xbc25873b	-0.010103042
253	0xbc186f53	-0.0093038855
254	0xbc2e697b	-0.010645266
255	0x3a3a8ff7	0.00071167893

onnx::Conv_93 f4 [64]
0	0xbd560306	-0.052248977
1	0xbcc114ec	-0.023569547
2	0x3c77cccc	0.015124511
3	0x3d5111ef	0.051042493
4	0x3d74ecb4	0.05979605
5	0x384f4200	4.9414113e-05
6	0xbca54479	-0.020174252
7	0xbd78cd6a	-0.060742773
8	0x3d9ca21c	0.076481074
9	0xba386b93	-0.0007035073
10	0x3cf25c77	0.029585106
11	0xbd8051d5	-0.06265608
12	0xba838b20	-0.0010035969
13	0x3d0147c5	0.031562585
14	0x3dd805b1	0.105479605
15	0xbc23763c	-0.00997692
16	0xbc1e888e	-0.009676112
17	0x3df1c3c8	0.118049204
18	0x3c8c618d	0.01713636
19	0xbc33e72f	-0.010980411
20	0xbda1397c	-0.078722924
21	0xbcf89366	-0.030343723
22	0x3cbc13ac	0.022958599
23	0x3d92648b	0.07148083
24	0x3d9541d4	0.07287946
25	0xbe274167	-0.16333543
26	0x3bb69fc0	0.005573243
27	0xbd9de372	-0.077093974
28	0x3ba99a80	0.0051758885
29	0xbd0bf87f	-0.03417253
30	0xb2fadda9	-2.920463e-08
31	0xb31e1a6d	-3.6811276e-08
32	0xbdfbcb59	-0.12294645
33	0xbb9094b8	-0.00441226
34	0xb82b29ba	-4.0808438e-05
35	0xbce43893	-0.027859008
36	0xb5028284	-4.86187e-07
37	0xbc8fcb31	-0.017552944
38	0xb5b539dd	-1.3502391e-06
39	0xbb9981a0	-0.004684642
40	0xbd04a838	-0.03238699
41	0xbbf2f310	-0.007414229
42	0x3d719f49	0.058989797
43	0xbb8aee44	-0.0042398293
44	0xbe507f3f	-0.2036104
45	0x3e6ec809	0.23318495
46	0x3c3955cc	0.0113119595
47	0xba17a8f8	-0.0005785371
48	0xb8c69b95	-9.470355e-05
49	0xbe18dc31	-0.14927746
50	0xbcfd0471	-0.030885907
51	0xbac2820e	-0.0014839785
52	0x3e53c24e	0.2067959
53	0xbd07ddd7	-0.033170547
54	0xbcb70c75	-0.022344807
55	0xbce603e9	-0.028078036
56	0xbcc681ce	-0.024231818
57	0x3d99e523	0.075144075
58	0xbc1e27da	-0.009653056
59	0xbd02810d	-0.031861354
60	0xba56ecc0	-0.00081987306
61	0x3d3df039	0.046371672
62	0xb9854213	-0.00025416966
63	0xb69ba2b0	-4.6382993e-06
