server/model/ourico_na_areia.onnx (onnx, 301496 bytes, 16 tensors)

fc.weight f4 [2, 256]
-0.055635016 -0.0052239834 -0.067542754 -0.03730962 -0.09014718 -0.10229418 -0.035739537 -0.025923094
-0.025165988 -0.02240798 -0.03456706 0.072739996 -0.02551072 0.039821032 -0.098468944 -0.09028976
0.057086058 0.049286958 0.015162348 0.04885923 -0.011462699 0.098420925 0.01954318 0.027434202
0.041611325 0.004639403 -0.004682711 -0.04836515 -0.01258765 -0.06960572 -0.0035045836 0.041280195
0.037290964 0.0012421363 0.079813614 0.06926456 -0.04330128 -0.060997598 0.019350355 0.027783643
-0.033951174 -0.097538106 0.045173403 0.055426385 -0.020951547 -0.022455705 0.04265247 -0.050293468
0.036724146 0.02606545 0.09492031 0.023830958 0.05666039 0.05982769 0.04178722 0.069238394
0.07922943 0.021745259 0.08359177 0.07980889 -0.0330021 -0.012692853 -0.040557723 0.02973358
0.07084411 0.09556473 -0.06288213 -0.03307468 -0.012734644 -0.043774348 0.07159365 0.04339876
0.035513215 0.061099127 -0.0073459526 0.044064865 -0.037595257 -0.07471269 -0.041811474 -0.005201022
0.013864919 0.057918184 -0.038098935 0.019088708 -0.060503256 -0.0011446365 0.06393605 -0.012915288
0.033233896 -0.09339997 0.032770023 -0.026936194 -0.064837694 -0.1084426 -0.0057254694 -0.08965129
0.03969246 -0.02705836 0.035749182 0.019761542 0.058475927 -0.025889419 0.0041035316 0.052984595
-0.0026000342 0.0084826285 -0.019728886 -0.036405955 -0.041314982 0.005948522 0.058456834 -0.045801517
-0.02602334 0.0384871 -0.05988625 -0.04769608 -0.052569896 -0.103851244 -0.016724419 -0.0878687
0.025730925 -0.010051059 0.047043234 -0.016226599 -0.09476016 -0.06775815 0.024584243 0.013321131
0.020925248 -0.054942686 -0.043925773 -0.046613954 -0.029006675 0.05457612 0.07932955 0.09761745
0.05766845 -0.021320907 0.061938167 -0.05833364 0.08047172 0.078498155 -0.050899312 0.05603096
-0.05168646 -0.011985674 -0.0064570154 -0.06894466 0.011695772 0.022115076 -0.0661505 -0.06800023
-0.05569887 0.025270062 -0.0078293 0.053881016 0.037800897 0.061426267 0.066509396 0.05421964
0.028115394 0.04560747 0.0862313 0.06699679 0.0752491 0.041591067 0.06425707 -0.038164034
-0.11005382 -0.1071811 0.0039235023 -0.021143658 0.050636128 -0.0005810131 -0.074880734 -0.020504108
0.08276299 0.009029468 0.08316198 0.09188993 -0.05548385 0.007826233 -0.062116407 0.00825987
-0.0893251 -0.016867321 -0.094592676 -0.036843594 -0.0076148817 -0.04586244 0.0422318 0.08459393
-0.042263433 0.06224847 -0.07650784 -0.03371441 0.027393615 0.06849659 -0.066110924 -0.06401481
0.031146469 -0.005940404 0.07575822 0.086442426 0.06657268 0.05363712 -0.050377466 -0.014113135
-0.037061196 -0.078752436 -0.06582739 0.0053583323 0.03727377 0.0079967715 0.009339033 0.11110219
-0.017495297 -0.091239 -0.08142175 -0.052308332 -0.040449206 -0.025059344 0.05065837 -0.0031846934
0.07464267 -0.016879005 -0.02060383 0.07231351 -0.030711735 0.06433091 -0.06758653 -0.05088254
-0.03662089 -0.047788456 0.09705357 0.028404798 -0.074834764 -0.048895698 -0.019899454 -0.04080114
-0.021281155 0.03057862 0.068591125 0.103581406 0.09370151 0.045147024 0.09509131 0.016978629
-0.012798995 -0.11590829 0.0041080536 -0.07423181 -0.013052347 -0.05468984 -0.081614695 -0.08186243
00000000: 8be1 63bd f32d abbb db53 8abd f9d1 18bd
00000010: 169f b8bd 9c7f d1bd 9f63 12bd ab5c d4bc
00000020: e728 cebc f190 b7bc 3196 0dbd b5f8 943d
00000030: dcfb d0bc 611b 233d 16aa c9bd d6e9 b8bd
00000040: 12d3 693d 1fe1 493d 7f6b 783c 9e20 483d
00000050: 0bce 3bbc e990 c93d 0519 a03c b1bd e03c
00000060: a370 2a3d 2206 983b 6d71 99bb 891a 46bd
00000070: 6e3c 4ebc 728d 8ebd 28ad 65bb 6c15 293d
00000080: 69be 183d 2ecf a23a 5275 a33d 94da 8d3d
00000090: af5c 31bd 9ed8 79bd a384 9e3c 869a e33c
000000a0: 6310 0bbd 0fc2 c7bd bf07 393d c706 633d
000000b0: 94a2 abbc 07f5 b7bc 5bb4 2e3d 8600 4ebd
000000c0: 0f6c 163d 3687 d53c 9465 c23d 2439 c33c
000000d0: ba14 683d e10d 753d 1329 2b3d dccc 8d3d
000000e0: 0a43 a23d 1d23 b23c 2932 ab3d d872 a33d
000000f0: 362d 07bd aff5 4fbc db1f 26bd d693 f33c
00000100: b716 913d 71b7 c33d 59c8 80bd 5179 07bd
00000110: f8a4 50bc bb4c 33bd b19f 923d e6c2 313d
00000120: 4e76 113d 1443 7a3d 51b6 f0bb 5c7d 343d
00000130: 7cfd 19bd f802 99bd 8242 2bbd 566d aabb
00000140: af29 633c 9e3b 6d3d a10d 1cbd ec5f 9c3c
00000150: 43d2 77bd a107 96ba e7f0 823d a59a 53bc
00000160: 4420 083d 7c48 bfbd dc39 063d 4ba9 dcbc
00000170: a0c9 84bd 2717 debd b89c bbbb 189b b7bd
00000180: 9094 223d 7ea9 ddbc bc6d 123d f5e2 a13c
00000190: 7484 6f3d 0c16 d4bc eb76 863b 6006 593d
000001a0: 5665 2abb b9fa 0a3c 799e a1bc 691e 15bd
000001b0: e639 29bd d2eb c23b 6f70 6f3d 5f9a 3bbd
000001c0: e62e d5bc a6a4 1d3d 494b 75bd f75c 43bd
000001d0: 8853 57bd f6af d4bd a601 89bc 81f4 b3bd
000001e0: a9c9 d23c 32ad 24bc 68b0 403d a5ed 84bc
000001f0: 9d11 c2bd c9c4 8abd e564 c93c df40 5a3c
00000200: 6d6b ab3c 950b 61bd 83eb 33bd 46ee 3ebd
00000210: 689f edbc 368b 5f3d 8877 a23d a8eb c73d
00000220: c135 6c3d 2fa9 aebc e0b2 7d3d 41ef 6ebd
00000230: 5bce a43d a4c3 a03d cc7b 50bd b880 653d
00000240: 2eb5 53bd 8f5f 44bc 5f95 d3bb dc32 8dbd
00000250: a09f 3f3c ad2a b53c ea79 87bd b443 8bbd
00000260: 8024 64bd 2903 cf3c 7746 00bc 57b2 5c3d
00000270: 1dd5 1a3d 1c9a 7b3d 1436 883d 6a15 5e3d
00000280: 4152 e63c e6ce 3a3d 099a b03d 9d35 893d
00000290: 331c 9a3d 655b 2a3d 3699 833d e451 1cbd
000002a0: e663 e1bd c481 dbbd b990 803b 7735 adbc
000002b0: d467 4f3d 214f 18ba 125b 99bd 3bf8 a7bc
000002c0: a47f a93d 55f0 133c d450 aa3d ca30 bc3d
000002d0: 0943 63bd 9a39 003c c66d 7ebd 6854 073c
000002e0: 14f0 b6bd 562d 8abc ceb9 c1bd 4fe9 16bd
000002f0: 4286 f9bb 41da 3bbd 40fb 2c3d 953f ad3d
00000300: 6c1c 2dbd 40f8 7e3d 24b0 9cbd 1f18 0abd
00000310: 9368 e03c f147 8c3d 2a65 87bd 321a 83bd
00000320: e126 ff3c b8a7 c2bb 2027 9b3d ba08 b13d
00000330: 4257 883d 99b2 5b3d 9a58 4ebd c73a 67bc
00000340: 7bcd 17bd f548 a1bd 83d0 86bd f394 af3b
00000350: 61ac 183d e404 033c be02 193c 8c89 e33d
00000360: 4c52 8fbc 83db babd 72c0 a6bd 4341 56bd
00000370: 11ae 25bd 4149 cdbc 277f 4f3d 4ab6 50bb
00000380: 42de 983d d745 8abc 5dc9 a8bc 1b19 943d
00000390: 2d97 fbbc edbf 833d cf6a 8abd 366a 50bd
000003a0: c9ff 15bd d4bd 43bd 06c4 c63d 2eb1 e83c
000003b0: f842 99bd db46 48bd 2e04 a3bc 191f 27bd
000003c0: d155 aebc 0480 fa3c 8179 8c3d 7d22 d43d
000003d0: 94e6 bf3d 16ec 383d 3cbf c23d c416 8b3c
000003e0: e0b2 51bc 5361 edbd da9c 863b d906 98bd
000003f0: 83d9 55bc 7402 60bd 9b25 a7bd 7da7 a7bd

fc.bias f4 [2]
0.018673938 0.062161144
00000000: 16fa 983c af9c 7e3d

79 f4 [16, 3, 7, 7]
-0.19711979 -0.35797969 -0.04600061 0.31491932 -0.046141356 0.43312445 -0.084679104 -0.35303608
-0.18784258 0.37843716 0.43500873 0.08254039 -0.028063854 0.14792755 -0.21081856 0.34071663
0.22507644 -0.31123307 0.3836228 0.3787695 0.28165412 0.37672845 0.27253228 0.12093989
-0.12166507 -0.20617764 0.055029698 0.2685929 0.098670006 -0.20313554 0.20186228 -0.30744097
0.18372983 0.19768289 0.18428539 -0.24971797 -0.016273154 0.299656 -0.37081677 -0.32307127
-0.40916044 0.0116693145 -0.13635485 0.3568949 -0.33021665 -0.24708682 -0.33000472 -0.39976293
-0.049975336 -0.27528062 -0.4293382 -0.5072111 -0.02329154 -0.2753388 -0.21399707 -0.504762
-0.61955976 -0.24591203 0.14115576 -0.36469653 0.21034141 -0.21007717 0.17614295 -0.3290216
-0.11379762 -0.40763417 -0.12696967 -0.36129746 -0.30928504 0.04338137 -0.11404598 -0.20832157
0.08029645 -0.19736028 -0.26248452 0.12523486 -0.3130699 0.058193967 0.18308103 -0.17824546
0.38009357 0.43947488 -0.10538552 0.102368586 0.24359336 0.037026398 0.10422245 0.061891224
-0.2044182 -0.17842643 -0.32743263 -0.028196694 0.27381858 0.10214564 0.26302075 0.32770482
0.30004674 0.27406552 -0.55889606 -0.23064932 -0.23486933 0.13992958 -0.08379332 -0.33642682
0.04671118 -0.2798934 -0.010737685 -0.12655021 0.15395284 0.14598085 0.042997792 -0.32344908
-0.30244592 0.014818203 -0.26333094 -0.2925244 0.25147697 0.3424426 -0.17216447 0.0069112247
0.21497253 -0.016332692 0.16167152 0.1004706 0.09318931 0.50544924 -0.028044812 0.27336055
0.18506807 0.19911036 0.24240173 0.34270352 0.37871957 0.19879712 -0.3397048 -0.30171722
0.34577826 -0.15010552 -0.30527812 -0.031411067 -0.09292502 0.23679565 0.114754304 -0.33451706
-0.10270932 0.034882925 0.16925226 0.09043184 0.07941304 0.22452314 -0.026665224 0.0376975
-0.10607319 -0.0107394075 -0.115199275 0.03477094 -0.050513465 -0.02062325 0.08417831 0.13697548
0.11601807 -0.010787834 -0.2513932 -0.032086264 0.08543619 0.1618935 0.111521386 0.14028843
0.11996812 -0.11548241 -0.18510392 -0.20957139 -0.12961437 0.15427724 0.104967296 -0.08038476
-0.016608844 0.023452459 0.12773475 0.058519986 0.11563256 -0.0686158 -0.26831704 -0.26803797
-0.343876 -0.37194508 -0.27900296 -0.22261977 -0.33405158 -0.33312497 -0.23612207 -0.037067037
-0.33129492 -0.22556356 -0.37388545 0.07571676 0.0018146628 0.10412918 0.1066405 -0.19874778
0.07806957 -0.15663226 -0.094968 -0.09624571 0.24466339 0.18199517 0.27819076 0.10640192
0.17651659 0.04079971 -0.12734908 0.052228227 -0.07689806 0.13907646 0.20224316 0.27170494
-0.077654324 -0.14837922 -0.26162705 -0.20304765 0.16731437 0.09336519 0.27385807 0.029568108
-0.004640565 0.06293441 -0.16835178 0.02077843 0.018663133 0.18877488 0.17786391 -0.112685144
0.11636802 0.2053014 0.13898596 -0.21724342 -0.11517653 0.15531138 0.056398254 -0.093197204
-0.25888842 -0.12501928 0.12751846 -0.040509637 -0.22062978 0.026506623 0.28310314 -0.14594434
0.28063253 0.19863108 0.14043982 -0.06244635 -0.06259953 0.24097389 0.20875889 0.115493424
00000000: c5d9 49be 1d49 b7be 236b 3cbd 1b3d a13e
00000010: b8fe 3cbd 7dc2 dd3e 3d6c adbd 25c1 b4be
00000020: ce59 40be 84c2 c13e 77b9 de3e f00a a93d
00000030: 2be6 e5bc 527a 173e d2e0 57be 6972 ae3e
00000040: 707a 663e f159 9fbe 356a c43e 13ee c13e
00000050: f834 903e 8de2 c03e 5a89 8b3e 55af f73d
00000060: 892b f9bd 3b20 53be d266 613d 0285 893e
00000070: 8013 ca3d c302 50be fcb4 4e3e e768 9dbe
00000080: ac23 3c3e 626d 4a3e 4fb5 3c3e 11b6 7fbe
00000090: 474f 85bc 836c 993e b2db bdbe 9969 a5be
000000a0: 7a7d d1be a730 3f3c 9ba0 0bbe eeba b63e
000000b0: 2812 a9be 5404 7dbe 61f6 a8be baad ccbe
000000c0: f0b2 4cbd 95f1 8cbe 37d2 dbbe 96d8 01bf
000000d0: e6cd bebc 35f9 8cbe 0c22 5bbe 1538 01bf
000000e0: 789b 1ebf 5dd0 7bbe 238b 103e 81b9 babe
000000f0: bd63 573e 781e 57be d15e 343e 8575 a8be
00000100: ba0e e9bd 6db5 d0be 5604 02be fbfb b8be
00000110: 9c5a 9ebe aab0 313d f090 e9bd 4052 55be
00000120: 7772 a43d d018 4abe 5f64 86be 913d 003e
00000130: b34a a0be cc5c 6e3d 9879 3b3e fa85 36be
00000140: a09b c23e da02 e13e 5dd4 d7bd 9fa6 d13d
00000150: 8a70 793e fea8 173d 9472 d53d a781 7d3d
00000160: 0153 51be 6bb5 36be 40a5 a7be c1fc e6bc
00000170: f331 8c3e bc31 d13d a8aa 863e edc8 a73e
00000180: ba9f 993e 5152 8c3e d013 0fbf 562f 6cbe
00000190: 9681 70be b349 0f3e d59b abbd 2340 acbe
000001a0: 3954 3f3d 304e 8fbe 1ded 2fbc 6196 01be
000001b0: d0a5 1d3e 017c 153e 741e 303d 1e9b a5be
000001c0: 31da 9abe 0cc8 723c 50d3 86be c2c5 95be
000001d0: 97c1 803e a354 af3e e24b 30be 8e77 e23b
000001e0: c221 5c3e 23cc 85bc 388d 253e 88c3 cd3d
000001f0: 09da be3d 1f65 013f 3cbe e5bc eaf5 8b3e
00000200: 7c82 3d3e 96e3 4b3e 2938 783e d676 af3e
00000210: 88e7 c13e 7991 4b3e caed adbe ae7a 9abe
00000220: d909 b13e 43b5 19be 6a4d 9cbe e4a8 00bd
00000230: 794f bebd 8f7a 723e 4e04 eb3d d245 abbe
00000240: 4459 d2bd 66e1 0e3d 7750 2d3e 5434 b93d
00000250: 4ea3 a23d 65e9 653e 0771 dabc b268 1a3d
00000260: e73c d9bd 57f4 2fbc 99ed ebbd f96b 0e3d
00000270: 35e7 4ebd 17f2 a8bc ae65 ac3d 4d43 0c3e
00000280: e29a ed3d 75bf 30bc 9cb6 80be e36c 03bd
00000290: 2bf9 ae3d 69c7 253e 5365 e43d c5a7 0f3e
000002a0: d8b1 f53d 0b82 ecbd e28b 3dbe e299 56be
000002b0: a1b9 04be dafa 1d3e 18f9 d63d c4a0 a4bd
000002c0: 450f 88bc 5f1f c03c e6cc 023e a7b2 6f3d
000002d0: c3d0 ec3d 7186 8cbd da60 89be 463c 89be
000002e0: 8410 b0be 966f bebe 7ad9 8ebe 70f6 63be
000002f0: cf08 abbe 5b8f aabe fcc9 71be 9bd3 17bd
00000300: 7d9f a9be 22fa 66be ea6d bfbe 6311 9b3d
00000310: fbd9 ed3a ae41 d53d 5666 da3d 8a84 4bbe
00000320: f0e2 9f3d 3564 20be 957e c2bd 791c c5bd
00000330: 0a89 7a3e f15c 3a3e 056f 8e3e 40e9 d93d
00000340: c4c0 343e 991d 273d cc67 02be 44ed 553d
00000350: bb7c 9dbd 0f6a 0e3e d518 4f3e e91c 8b3e
00000360: 3b09 9fbd b9f0 17be fbf3 85be b9eb 4fbe
00000370: 7554 2b3e 4036 bf3d 2037 8c3e d138 f23c
00000380: e10f 98bb c2e3 803d 6964 2cbe 8737 aa3c
00000390: 6de3 983c 344e 413e f521 363e 78c7 e6bd
000003a0: 5b52 ee3d 883a 523e 5652 0e3e 0f75 5ebe
000003b0: ace1 ebbd f209 1f3e db01 673d 2dde bebd
000003c0: 068d 84be 0e05 00be 3394 023e 6fed 25bd
000003d0: c6ec 61be 6b24 d93c e5f2 903e 6f72 15be
000003e0: 11af 8f3e f265 4b3e 75cf 0f3e bec7 7fbd
000003f0: 2f34 80bd dcc1 763e e4c4 553e d187 ec3d

80 f4 [16]
1.0317929 0.23880702 -1.151567 -2.0268133 0.1325303 0.9729627 1.655153 0.15602937
1.1951762 -1.6124027 1.4279815 0.0428153 -0.6080914 0.7641712 0.08305873 1.1005459
00000000: ca11 843f d489 743e 8c66 93bf 4fb7 01c0
00000010: 06b6 073e 1514 793f 0edc d33f 2ac6 1f3e
00000020: 89fb 983f 3663 cebf 19c8 b63f 195f 2f3d
00000030: e1ab 1bbf b9a0 433f b21a aa3d b0de 8c3f

82 f4 [32, 16, 3, 3]
-0.02472112 -0.014263529 -0.03210417 -0.034276847 -0.070375495 -0.09904048 -0.08013466 -0.04068692
-0.0667505 0.13878655 0.101960585 -0.057975408 0.079125896 -0.020990133 0.009044853 -0.09526833
0.0488509 -0.053191148 -0.049462557 0.04101289 -0.07585937 0.030904995 0.027380254 -0.09684663
-0.04513704 0.04057959 0.050926287 -0.1096053 -0.033524763 -0.08280955 -0.14473732 -0.11594772
-0.032310132 -0.10835222 -0.090970404 -0.12427675 -0.040018108 -0.04887926 -0.01319196 0.01169203
0.103718825 -0.016320657 0.031987365 0.03382886 0.13934779 0.12985517 0.13690278 -0.022119079
-0.015646648 0.030773254 -0.0018831225 -0.14830388 -0.057854194 -0.007691703 0.08899824 -0.009985812
0.043619994 -0.046357978 0.08840923 0.057325236 -0.082083285 -0.040517032 0.012004067 -0.026489787
0.080402 -0.060676407 -0.0151986815 0.028793223 -0.029640378 -0.014858994 0.07879441 -0.025880652
-0.0525172 0.12955348 0.062232338 0.021249147 -0.031912338 0.019107452 -0.020040467 0.041808125
0.05521311 0.17295235 0.037521917 0.03763351 0.031354982 -0.04616696 0.11706982 0.028362444
-0.030569654 -0.033611532 -0.010825823 0.043111272 0.034174908 -0.024094332 0.06343619 0.0338996
-0.114407055 0.011292131 -0.045810465 0.010149061 0.05773071 0.018517561 -0.019801987 -0.09493566
0.0028269757 -0.01732597 -0.11807553 -0.08185974 0.0795859 0.13145128 0.13326767 -0.03554184
0.14316155 0.020937193 -0.030363096 0.084681824 -0.015714603 0.028711803 -0.017678306 0.0076584755
0.018439291 0.021883588 -0.050965093 -0.012065337 0.10857046 0.04199393 0.10975076 -0.021947632
-0.02491063 0.039104626 -0.03513672 -0.045518752 -0.0003891192 -0.04169634 -0.0021337187 -0.04768344
0.050625216 0.041534033 0.013982528 -0.013462451 0.040657658 0.038822494 -0.06320804 -0.027308067
-0.019758629 0.09558468 0.04081892 -0.0036971436 -0.089170024 -0.02069853 0.041944403 -0.02810397
-0.028174419 0.061996628 0.05516931 -0.07115346 -0.0033264179 0.043698 0.06694927 -0.0031325815
-0.05497553 -0.022200026 0.044397723 -0.03680005 -0.047983788 -0.098639995 0.036726613 0.043954995
-0.07470687 -0.07499956 0.07389051 -0.032710187 0.063600756 -0.024623286 -0.035772216 -0.016946634
0.054418936 -0.008954909 -0.006093142 -0.04276291 0.0710927 -0.06071055 0.04403105 -0.054484457
0.050023947 -0.032535 0.030103039 0.0047538667 -0.016646907 0.00762614 -0.021608323 0.07283216
0.07085574 -0.015220417 0.11733677 -0.040698238 0.08776008 -0.019605828 -0.0109052425 0.085611634
-0.0073099793 0.06691966 0.04090592 -0.058627207 0.08132714 -0.013581309 -0.0057606976 -0.005240115
-0.059563484 -0.07672374 -0.04697956 -0.0027276785 -0.06813575 0.06660465 0.0023010746 0.020031437
0.06879417 0.019427767 0.040559817 0.04398497 0.051622875 -0.03279504 -0.047587037 -0.05932695
-0.08540684 -0.025945874 -0.056267884 0.07466318 0.017463626 0.017411238 -0.058528315 0.013165506
0.025536625 0.098723434 0.015312505 -0.03715159 0.0533675 0.054718416 -0.0422857 -0.036006242
-0.04763049 -0.059123553 -0.0491847 -0.0143056335 -0.09623581 -0.043691527 -0.08894848 0.03370664
0.05719322 0.048579462 0.06861211 0.038169164 -0.009579104 -0.046440095 -0.038434915 0.050271504
00000000: f283 cabc 94b1 69bc aa7f 03bd e165 0cbd
00000010: 0721 90bd bcd5 cabd a41d a4bd 54a7 26bd
00000020: 7cb4 88bd 101e 0e3e b6d0 d03d 9f77 6dbd
00000030: c20c a23d 80f3 abbc dd30 143c 0b1c c3bd
00000040: e217 483d f6de 59bd 4099 4abd 22fd 273d
00000050: 285c 9bbd 792c fd3c 8e4c e03c 8757 c6bd
00000060: 9ee1 38bd c936 263d 1598 503d be78 e0bd
00000070: 4351 09bd 0e98 a9bd 0536 14be 0076 edbd
00000080: a157 04bd c5e7 ddbd b14e babd cf84 febd
00000090: 07ea 23bd 9e35 48bd 1723 58bc ee8f 3f3c
000000a0: 896a d43d e6b2 85bc 2f05 033d 2190 0a3d
000000b0: 30b1 0e3e c1f8 043e 3e30 0c3e 1233 b5bc
000000c0: 662d 80bc 3118 fc3c 1bd3 f6ba f9dc 17be
000000d0: 85f8 6cbd ae0a fcbb b644 b63d 889b 23bc
000000e0: e1aa 323d dde1 3dbd e60f b53d decd 6a3d
000000f0: 481b a8bd 30f5 25bd b5ac 443c 1c01 d9bc
00000100: cea9 a43d d387 78bd e403 79bc c4df eb3c
00000110: 61d0 f2bc 2373 73bc f75e a13d a903 d4bc
00000120: 471c 57bd aba9 043e 56e7 7e3d b112 ae3c
00000130: 83b6 02bd 3b87 9c3c e82b a4bc ff3e 2b3d
00000140: 2427 623d 6c1a 313e 95b0 193d 9825 1a3d
00000150: 156e 003d 9119 3dbd 4dc2 ef3d 5b58 e83c
00000160: 366d fabc 3fac 09bd cb5e 31bc 7295 303d
00000170: fdfa 0b3d 7a61 c5bc d5ea 813d 4fda 0a3d
00000180: 3f4e eabd a102 393c c1a3 3bbd 3f48 263c
00000190: 0977 6c3d 24b2 973c c737 a2bc a16d c2bd
000001a0: c844 393b 31ef 8dbc 95d1 f1bd 14a6 a7bd
000001b0: effd a23d 2a9b 063e 5277 083e 5294 11bd
000001c0: f198 123e 7a84 ab3c 07bc f8bc aa6d ad3d
000001d0: e9bb 80bc 0435 eb3c 18d2 90bc f3f3 fa3b
000001e0: ff0d 973c 3645 b33c c6c0 50bd b1ad 45bc
000001f0: 305a de3d d401 2c3d 02c5 e03d 85cb b3bc
00000200: 6111 ccbc 2c2c 203d 85eb 0fbd df71 3abd
00000210: b202 ccb9 c8c9 2abd dcd5 0bbb b64f 43bd
00000220: 635c 4f3d 971f 2a3d f916 653c 9d91 5cbc
00000230: a588 263d 5604 1f3d 3873 81bd 2bb5 dfbc
00000240: d9dc a1bc e7c1 c33d bd31 273d c74b 72bb
00000250: c69e b6bd f78f a9bc e5cd 2b3d 4c3a e6bc
00000260: 0ace e6bc 2df0 7d3d 37f9 613d e8b8 91bd
00000270: 0800 5abb adfc 323d b31c 893d ff4b 4dbb
00000280: 052e 61bd d4dc b5bc 63da 353d a6bb 16bd
00000290: a68a 44bd c403 cabd a56e 163d 270a 343d
000002a0: eaff 98bd 5f99 99bd e853 973d 1efb 05bd
000002b0: 1d41 823d c6b6 c9bc e385 12bd abd3 8abc
000002c0: 64e6 5e3d 9cb7 12bc fba8 c7bb 2928 2fbd
000002d0: 0d99 913d a0ab 78bd e759 343d 182b 5fbd
000002e0: e9e5 4c3d 6c43 05bd a69a f63c 53c6 9b3b
000002f0: 185f 88bc b3e4 f93b f003 b1bc 0729 953d
00000300: d01c 913d 0e5f 79bc 434e f03d 32b3 26bd
00000310: 8fbb b33d 679c a0bc e7ab 32bc 2755 af3d
00000320: 8d88 efbb 2d0d 893d f78c 273d 1523 70bd
00000330: d88e a63d 2384 5ebc 3cc4 bcbb 45b5 abbb
00000340: d7f8 73bd 5621 9dbd a46d 40bd dac2 32bb
00000350: c28a 8bbd 0568 883d a0cd 163b f818 a43c
00000360: f5e3 8c3d fb26 9f3c 0d22 263d 9529 343d
00000370: 8272 533d 1854 06bd a0ea 42bd d100 73bd
00000380: c8e9 aebd 718c d4bc 2779 66bd 02e9 983d
00000390: e10f 8f3c 03a2 8e3c 63bb 6fbd 22b4 573c
000003a0: 2f32 d13c 832f ca3d 4de1 7a3c 442c 18bd
000003b0: e197 5a3d 6b20 603d c533 2dbd 487b 13bd
000003c0: 3018 43bd 8a2b 72bd e575 49bd 2d62 6abc
000003d0: 4817 c5bd e3f5 32bd 9f2a b6bd f90f 0a3d
000003e0: 7043 6a3d 42fb 463d 8284 8c3d 4557 1c3d
000003f0: adf1 1cbc f837 3ebd ee6d 1dbd 7ee9 4d3d

83 f4 [32]
-0.0651042 -0.5797318 0.7173772 0.21742393 -0.31364006 0.2220129 -1.0086882 0.5008798
-0.7069326 0.29829568 0.24169536 -0.15734296 -0.2827197 -0.3506734 0.87728786 1.2141298
0.4421467 0.6730233 0.5379057 0.60986495 -0.21824 0.17157488 0.80020297 0.2086131
0.40577757 -0.57965076 -0.49695012 0.29493737 0.640496 0.33925587 0.41603273 -0.77630323
00000000: 5a55 85bd 4e69 14bf 08a6 373f 61a4 5e3e
00000010: 6e95 a0be 5a57 633e b21c 81bf a939 003f
00000020: 89f9 34bf 36ba 983e fd7e 773e 831e 21be
00000030: a3c0 90be 778b b3be f095 603f 9b68 9b3f
00000040: 0d61 e23e 414b 2c3f 30b4 093f 1c20 1c3f
00000050: 4e7a 5fbe 53b1 2f3e 1ada 4c3f ac9e 553e
00000060: 14c2 cf3e fe63 14bf 3f70 febe 0802 973e
00000070: 8cf7 233f f2b2 ad3e 3e02 d53e cfbb 46bf

85 f4 [32, 32, 3, 3]
-0.1345522 -0.039810523 -0.03305488 -0.058724582 -0.024415733 0.007711044 -0.012299445 -0.05009394
-0.013292135 -0.0018149463 -0.095791794 -0.11793405 0.0016269787 -0.14300598 -0.04373986 0.045943473
0.03840145 0.000727552 0.10730476 0.08397376 -0.025746992 -0.037695453 0.0005177866 -0.031686313
-0.030689778 -0.030968519 -0.067862965 -0.027833492 -0.056780793 -0.036010813 -0.04024499 -0.033884894
0.029533198 -0.032905664 -0.035718665 -0.047223963 0.027411459 -0.023768576 0.074495554 -0.08861318
-0.0011743312 -0.06755288 -0.058120802 -0.076046005 0.06750866 -0.093787655 -0.010798065 -0.06075248
0.05564592 -0.05215221 -0.09015051 -0.028646443 -0.021171473 -0.006757667 0.036867455 -0.016627066
0.03545888 -0.0026103205 -0.10343864 -0.027341086 0.060971953 0.0855572 0.05936214 0.0065160845
0.07641732 0.12653191 0.02746788 -0.03380028 -0.027046703 0.09741972 0.032906033 0.08968059
0.059140053 0.042505495 0.05735893 0.063929945 0.046865027 0.050778694 0.025246533 0.089046106
0.06753368 -0.008505653 -0.02984422 -0.00029383632 0.014964169 0.015923796 -0.09930374 -0.020437187
-0.025265511 -0.09369192 0.09083855 0.07953562 0.07217473 0.08037223 0.09679002 0.12562561
-0.017420381 0.011288503 0.12006623 0.04523386 -0.00276334 -0.030867836 0.0634699 0.10919981
0.0745063 -0.07412638 -0.06370188 -0.036817387 0.012798766 -0.045085736 -0.084403045 0.059032477
0.06879213 0.00481262 0.043263566 0.0467595 0.12589352 -0.090280905 -0.13267557 -0.094182275
-0.14564854 -0.06541873 -0.124924794 0.058867626 0.06692605 0.009922219 0.08782743 0.024283882
0.1514781 0.042755157 0.009126697 0.059543833 -0.03223878 0.042883284 0.027695106 0.078523844
0.06019235 0.16922194 0.0069150366 0.03792162 0.012913986 -0.005507388 -0.07864815 -0.055978607
-0.0707266 -0.0059413 -0.03654496 0.05849314 0.06600611 -0.06972725 0.005487685 0.005307023
0.07497998 -0.030517457 -0.043155063 -0.020570952 -0.03124035 -0.048183184 -0.04684237 -0.004740843
-0.09466347 -0.050387308 -0.11787836 -0.0037986485 -0.01528554 0.032197285 0.06381999 -0.031191913
-0.06964161 -0.0055914023 -0.0074283415 0.036543474 0.102563865 0.11823779 -0.031470116 -0.009486235
0.03298894 -0.042692658 -0.08413589 -0.035141572 -0.090284534 -0.009376265 -0.080779985 0.065780714
-0.008513352 0.09090041 -0.025907414 0.053993106 -0.027382072 0.038175993 0.05873811 -0.010768992
-0.09091013 -0.020766277 0.05204727 0.10754746 -0.003336456 0.048703358 -0.081136726 -0.024002345
-0.072045244 -0.027898759 -0.04558718 -0.067717284 -0.031307857 -0.020576764 0.014678278 -0.0098957615
0.012665471 0.08708851 -0.083438836 0.035667848 -0.0011269911 -0.044150237 -0.05727422 -0.011304556
-0.01665163 0.022567797 -0.028943796 -0.036531065 0.008413226 -0.08454101 -0.074212156 -0.08945349
-0.07432007 -0.045526803 -0.025838293 -0.032307692 -0.04538169 -0.07051216 -0.05840412 0.070456386
-0.0022575888 0.109564 0.01343811 -0.04622432 -0.025318952 0.099604465 8.050625e-05 -0.003930167
-0.060912296 0.022156633 -0.05545139 -0.063558646 -0.043822713 -0.01465186 -0.065696105 -0.062325653
-0.033136938 -0.0052653127 0.010341786 -0.021552147 0.04674542 0.03628612 -0.009552566 -0.015545027
00000000: 0dc8 09be 5c10 23bd 8e64 07bd 3089 70bd
00000010: 8103 c8bc edac fc3b 9d83 49bc 4e2f 4dbd
00000020: 41c7 59bc 7ee3 edba 7d2e c4bd 6887 f1bd
00000030: 5940 d53a 2970 12be 9128 33bd 392f 3c3d
00000040: d74a 1d3d 30b9 3e3a 99c2 db3d 6ffa ab3d
00000050: 5beb d2bc 8c66 1abd 12bc 073a 82c9 01bd
00000060: 2169 fbbc b1b1 fdbc bdfb 8abd 1003 e4bc
00000070: fa92 68bd 1380 13bd eed7 24bd e3ca 0abd
00000080: 9bef f13c 17c8 06bd bc4d 12bd ea6d 41bd
00000090: ff8d e03c 51b6 c2bc 2091 983d d47a b5bd
000000a0: 04ec 99ba 2a59 8abd 1410 6ebd 02be 9bbd
000000b0: fb41 8a3d be13 c0bd 5eea 30bc 98d7 78bd
000000c0: faec 633d 8e9d 55bd d5a0 b8bd f2ab eabc
000000d0: cc6f adbc 6b6f ddbb 5402 173d 7c35 88bc
000000e0: 553d 113d e911 2bbb a3d7 d3bd 6afa dfbc
000000f0: babd 793d 9d38 af3d b725 733d e184 d53b
00000100: af80 9c3d 9591 013e 5204 e13c 2a72 0abd
00000110: 0c91 ddbc fd83 c73d 7ac8 063d 75aa b73d
00000120: d73c 723d 3e1a 2e3d 33f1 6a3d b4ed 823d
00000130: 8bf5 3f3d 52fd 4f3d d1d1 ce3c ce5d b63d
00000140: 194f 8a3d 4b5b 0bbc de7b f4bc 0b0e 9ab9
00000150: 462c 753c 9f72 823c c25f cbbd e36b a7bc
00000160: 9ef9 cebc 8de1 bfbd 9009 ba3d 92e3 a23d
00000170: 58d0 933d 329a a43d d939 c63d 00a4 003e
00000180: 30b5 8ebc 6af3 383c 49e5 f53d 2447 393d
00000190: 2719 35bb 8bde fcbc 82fc 813d 26a4 df3d
000001a0: c296 983d 92cf 97bd 2276 82bd d4cd 16bd
000001b0: eab1 513c d2ab 38bd 81db acbd 0acc 713d
000001c0: e3e2 8c3d 2fb3 9d3b 2335 313d e486 3f3d
000001d0: 3bea 003e 32e5 b8bd 1bdc 07be a3e2 c0bd
000001e0: e424 15be 41fa 85bd 92d8 ffbd 2e1f 713d
000001f0: 8610 893d ce90 223c dede b33d feee c63c
00000200: 131d 1b3e 0820 2f3d 2488 153c 3ce4 733d
00000210: d00c 04bd 62a6 2f3d d9e0 e23c 1cd1 a03d
00000220: 418c 763d 8448 2d3e 8897 e23b b353 1b3d
00000230: 2f95 533c 5277 b4bb 4812 a1bd d349 65bd
00000240: 1cd9 90bd 3daf c2bb 2bb0 15bd 8196 6f3d
00000250: 362e 873d 29cd 8ebd 0ad2 b33b 89e6 ad3b
00000260: 1b8f 993d bfff f9bc 5dc3 30bd 6a84 a8bc
00000270: c3eb ffbc bb5b 45bd c9dd 3fbd 1359 9bbb
00000280: ecde c1bd ec62 4ebd 366a f1bd bff2 78bb
00000290: 3470 7abc 4de1 033d 0eb4 823d 2f86 ffbc
000002a0: 43a0 8ebd 1538 b7bb 7269 f3bb 9cae 153d
000002b0: 010d d23d a826 f23d cfe6 00bd 276c 1bbc
000002c0: 691f 073d 7fde 2ebd 704f acbd 9cf0 0fbd
000002d0: 19e7 b8bd e89e 19bc fa6f a5bd 0ab8 863d
000002e0: 967b 0bbc ff29 ba3d c93b d4bc e027 5d3d
000002f0: 5e50 e0bc 6e5e 1c3d 5f97 703d 6d70 30bc
00000300: 172f babd 0a1e aabc 852f 553d d841 dc3d
00000310: 71a8 5abb 2c7d 473d 032b a6bd 91a0 c4bc
00000320: 758c 93bd f08b e4bc 9fb9 3abd 5caf 8abd
00000330: ab3c 00bd 9a90 a8bc 297d 703c d521 22bc
00000340: d682 4f3c 765b b23d fbe1 aabd 7318 123d
00000350: 8cb7 93ba e1d6 34bd 5f98 6abd bf36 39bc
00000360: 0069 88bc 1ae0 b83c 8a1b edbc 99a1 15bd
00000370: a1d7 093c d623 adbd 8bfc 97bd 6433 b7bd
00000380: 1f35 98bd 507a 3abd d4aa d3bc 1255 04bd
00000390: 27e2 39bd ae68 90bd 2939 6fbd 704b 903d
000003a0: 0ef4 13bb 1763 e03d 852b 5c3c b655 3dbd
000003b0: b169 cfbc 6dfd cb3d 77d5 a838 a1c8 80bb
000003c0: 2c7f 79bd d481 b53c ff20 63bd 092b 82bd
000003d0: 727f 33bd 5b0e 70bc ae8b 86bd 2f49 7fbd
000003e0: 99ba 07bd a588 acbb 9870 293c 218e b0bc
000003f0: 2078 3f3d c1a0 143d 5e82 1cbc 92b0 7ebc

86 f4 [32]
0.30830634 0.20093419 -0.18398823 -0.15649338 -0.117799446 -0.29651195 0.32007673 -0.31217164
0.5415719 0.53948414 0.15150535 -0.04037292 0.7106095 -0.52335674 -0.21397725 0.06825029
0.13468383 0.40830946 0.22685343 0.001435399 -0.29207265 0.5800271 -0.14349616 0.27327093
-0.05289739 -0.13048255 -0.066253275 0.56766236 -0.15651087 0.6116207 0.027101088 -0.28993362
00000000: 54da 9d3e b1c1 4d3e 6967 3cbe cd3f 20be
00000010: d640 f1bd 6ad0 97be 19e1 a33e f6d4 9fbe
00000020: 75a4 0a3f a21b 0a3f 3824 1b3e 135e 25bd
00000030: 81ea 353f b5fa 05bf da1c 5bbe cfc6 8b3d
00000040: 8fea 093e f00d d13e 444c 683e 0024 bc3a
00000050: 8c8a 95be a87c 143f a8f0 12be 2bea 8b3e
00000060: efaa 58bd 389d 05be ccaf 87bd 5252 113f
00000070: 6344 20be 2d93 1c3f 1a03 de3c 2e72 94be

88 f4 [32, 16, 1, 1]
0.22830531 0.27577674 -0.16090995 -0.022327244 0.21925044 0.011952209 0.17781119 0.17857088
0.10407819 -0.14013346 0.08331748 -0.107672326 -0.24376462 0.062500656 -0.20860808 0.28104758
-0.36605307 0.500885 -0.15369739 0.17259066 -0.41570005 -0.28748798 0.24592608 0.34669787
0.29927325 0.20611155 -0.17638959 -0.06672286 -0.44661492 0.12611134 -0.39261356 -0.17342462
-0.18082297 0.10683141 -0.07015958 0.07653359 -0.12916331 -0.10973831 0.1939278 -0.16918202
-0.14833808 -0.17300911 -0.19790229 -0.10902254 -0.16557144 0.05244876 -0.04954541 -0.13430454
0.14626071 -0.070057064 -0.3183004 0.09318338 -0.020139817 -0.33012322 -0.27183434 -0.03871336
-0.12260413 -0.17447838 0.1710775 0.023856277 -0.085882604 -0.20716459 -0.032437183 0.01880842
-0.0060381726 0.035361342 0.048007306 0.26579547 0.26065287 -0.064505816 -0.1758641 0.1709429
0.15609126 -0.23950987 -0.07252829 0.17341588 0.04175712 -0.17963219 -0.072531275 0.1942588
0.15669164 -0.19756745 0.0035432845 0.084512025 -0.16966109 -0.017394982 0.005866424 -0.049842577
0.06545071 0.24823493 -0.061249424 0.35193408 0.05938937 0.1916446 0.16688734 0.2308634
0.084840834 0.14494501 0.133123 0.18119381 -0.15250681 0.21269518 0.088337585 -0.13866304
0.110795565 0.3864015 0.062414147 0.17598857 0.07909929 0.12976329 0.12528647 -0.17947464
0.48429623 -0.39615545 0.04261357 -0.11833903 -0.08033055 0.2792613 -0.16574372 -0.4725335
-0.14338143 -0.12816319 -0.27821153 0.009504041 0.005511734 -0.18484397 0.17589174 0.2516828
-0.0769509 -0.12867942 -0.038373787 0.1010228 -0.06292532 -0.1510422 0.13690825 0.01330772
-0.123682976 -0.25307527 0.06911911 0.16783771 0.19522785 0.22870249 -0.20314957 -0.09921342
0.42690092 0.28747582 0.06929604 0.23453005 -0.07602784 0.23666976 0.17947459 0.033375632
-0.12778018 0.081079386 -0.025266653 0.06600322 -0.23214255 0.28656024 -0.31133488 -0.18521382
0.14997093 0.08558885 0.31358266 -0.08822362 -0.17239304 0.16057554 0.11514027 0.25731853
0.19988589 0.22466378 -0.005437883 -0.1392847 0.14160664 0.26821363 -0.23822166 -0.06124593
-0.29647434 0.018740075 -0.30529535 -0.092936076 0.20392847 -0.13065837 0.18460159 0.0019245185
0.023180287 -0.21054503 0.20646375 0.05726445 0.20901491 0.28984544 -0.123752974 0.11346092
0.03150873 0.15160787 0.19756934 0.029097876 -0.07276412 -0.02076507 0.044694863 -0.13160717
0.057925064 0.2433426 0.09770623 0.17640717 0.20741837 0.20852816 0.12552987 0.078487694
0.20909171 0.2902556 -0.15470625 0.29396904 -0.45405418 -0.24024016 -0.10104644 -0.006869938
-0.12527634 -0.044516735 -0.1497491 0.31252483 0.34183148 -0.089586765 0.3826586 -0.2732992
0.13743785 0.026858648 -0.11119794 -0.10307602 -0.1771637 -0.11688724 0.26318362 0.060733832
0.084279895 -0.012805374 0.055072654 0.2653684 -0.029819187 -0.061483238 0.32422385 0.12703678
0.25351098 0.04113883 0.16982947 0.1481992 -0.0012573758 -0.08692286 0.021479145 0.16263975
-0.26235384 0.11737981 -0.038590077 -0.13655522 0.20473538 -0.23916514 0.14649035 -0.043029584
00000000: dec8 693e 9c32 8d3e 94c5 24be a0e7 b6bc
00000010: 3083 603e 33d3 433c 2314 363e 49db 363e
00000020: f226 d53d 257f 0fbe 5ba2 aa3d 4f83 dcbd
00000030: 6f9d 79be 5800 803d 5b9d 55be 78e5 8f3e
00000040: 4f6b bbbe 003a 003f d962 1dbe 9bbb 303e
00000050: a3d6 d4be a031 93be 0cd4 7b3e 6282 b13e
00000060: 583a 993e e80e 533e 799f 34be ffa5 88bd
00000070: b6aa e4be 5523 013e a504 c9be 3996 31be
00000080: a829 39be 6dca da3d d3af 8fbd a5bd 9c3d
00000090: 6343 04be 7bbe e0bd 0295 463e 0d3e 2dbe
000000a0: f0e5 17be 4d29 31be e6a6 4abe 3647 dfbd
000000b0: 8f8b 29be 83d4 563d 21f0 4abd 2187 09be
000000c0: 5ec5 153e 147a 8fbd 45f8 a2be eed6 be3d
000000d0: 42fc a4bc e905 a9be df2d 8bbe e691 1ebd
000000e0: e017 fbbd 76aa 32be f12e 2f3e 3d6e c33c
000000f0: 38e3 afbd f422 54be dadc 04bd 1e14 9a3c
00000100: dddb c5bb 0ed7 103d 4fa3 443d 5816 883e
00000110: 4b74 853e a01b 84bd b815 34be a80b 2f3e
00000120: 63d6 1f3e 1342 75be b689 94bd ef93 313e
00000130: 8409 2b3d 80f1 37be 478b 94bd c7eb 463e
00000140: c673 203e 1f4f 4abe 7336 683b a414 ad3d
00000150: a3bb 2dbe ec7f 8ebc 223b c03b bb27 4cbd
00000160: 060b 863d 4c31 7e3e ade0 7abd b430 b43e
00000170: 4542 733d 7b3e 443e 84e4 2a3e 7567 6c3e
00000180: 08c1 ad3d 776c 143e 6551 083e df8a 393e
00000190: bf2a 1cbe c4cc 593e 56ea b43d affd 0dbe
000001a0: c9e8 e23d 6bd6 c53e faa5 7f3d 5936 343e
000001b0: cffe a13d abe0 043e 194b 003e 33c8 37be
000001c0: adf5 f73e e3d4 cabe 918b 2e3d bc5b f2bd
000001d0: 5884 a4bd 56fb 8e3e b9b8 29be e9ef f1be
000001e0: 95d2 12be 363d 03be be71 8ebe d6b6 1b3c
000001f0: c79b b43b bd47 3dbe f71c 343e 91dc 803e
00000200: 6f98 9dbd 8ac4 03be d52d 1dbd 0be5 ce3d
00000210: fdde 80bd ceaa 1abe ad31 0c3e a008 5a3c
00000220: 804d fdbd 1593 81be 528e 8d3d a6dd 2b3e
00000230: cfe9 473e fc30 6a3e 7106 50be 6830 cbbd
00000240: c292 da3e 0830 933e 15eb 8d3d a528 703e
00000250: 7cb4 9bbd 8f59 723e 30c8 373e e3b4 083d
00000260: cfd8 02be f30c a63d 03fc cebc b22c 873d
00000270: c7b6 6dbe 06b8 923e 4967 9fbe b1a8 3dbe
00000280: fb91 193e 3549 af3d e88d a03e 96ae b4bd
00000290: cd87 30be ea6d 243e a9ce eb3d 41bf 833e
000002a0: e3ae 4c3e 430e 663e 4530 b2bb a6a0 0ebe
000002b0: 5501 113e 4c53 893e 61f0 73be 03dd 7abd
000002c0: 7ccb 97be c984 993c ac4f 9cbe 4555 bebd
000002d0: a0d2 503e 4fcb 05be 3308 3d3e 2040 fc3a
000002e0: 96e4 bd3c 1e99 57be 3c6b 533e 218e 6a3d
000002f0: 0108 563e 9f66 943e 3372 fdbd 335e e83d
00000300: 4c0f 013d 183f 1b3e 9e4f 4a3e ab5e ee3c
00000310: 5b05 95bd 821b aabc f611 373d 08c4 06be
00000320: d542 6d3d cd2e 793e 341a c83d 15a4 343e
00000330: 7b65 543e 6888 553e e78a 003e 28be a03d
00000340: 231c 563e 629c 943e 516b 1ebe 1c83 963e
00000350: ca79 e8be 8401 76be 70f1 cebd 381d e1bb
00000360: 7148 00be 2e57 36bd d457 19be 4103 a03e
00000370: 8904 af3e 4479 b7bd d4eb c33e dfed 8bbe
00000380: 82bc 0c3e ab06 dc3c bfbb e3bd 8519 d3bd
00000390: 676a 35be 9462 efbd 01c0 863e 0ac4 783d
000003a0: f09a ac3d a2cd 51bc dd93 613d 5ede 873e
000003b0: 5e47 f4bc d9d5 7bbd ab00 a63e ee15 023e
000003c0: 31cc 813e 3181 283d c7e7 2d3e 88c1 173e
000003d0: 88ce a4ba 9d04 b2bd 08f5 af3c 098b 263e
000003e0: 3e53 86be d364 f03d a110 1ebd 22d5 0bbe
000003f0: 27a6 513e b5e7 74be 9101 163e ca3f 30bd

89 f4 [32]
-0.3857249 0.4505182 0.7510313 0.7650222 -0.19058605 -0.7173836 -0.98708826 0.25379726
0.25367093 -0.66897684 -0.7587513 0.019110885 -0.8815332 -0.18644571 -0.38054276 -0.26998243
0.88455594 -0.37640873 0.51182187 -0.30695036 -0.53102446 -0.19953142 -0.23539823 -0.17983845
0.5277223 0.30617952 0.05307764 0.5333059 0.07925241 0.0130860135 -0.13693798 0.5031433
00000000: bc7d c5be 52aa e63e 9643 403f 7fd8 433f
00000010: fd28 43be 74a6 37bf d1b1 7cbf b7f1 813e
00000020: 28e1 813e 1142 2bbf 863d 42bf 6e8e 9c3c
00000030: 29ac 61bf a0eb 3ebe 80d6 c2be 233b 8abe
00000040: 4272 623f a5b8 c0be c206 033f 9928 9dbe
00000050: 38f1 07bf f751 4cbe 3c0c 71be 9227 38be
00000060: cf18 073f 90c3 9c3e f067 593d bc86 083f
00000070: 164f a23d b866 563c 7839 0cbe 00ce 003f

91 f4 [64, 32, 3, 3]
0.023800667 0.020119904 0.01145848 0.024874333 -0.020551888 -0.0150090605 0.014755426 0.07163927
0.048465975 -0.0005482718 -0.007733349 -0.0036980822 -0.036581215 -0.034568585 -0.02549878 -0.0031766398
0.0089087235 -0.013038687 -0.009553183 -0.025429208 -0.029288627 0.020096209 -0.0065160627 -0.03883754
-0.013285833 -0.0037614787 -0.021198547 -0.0077394415 0.011608774 -0.012323666 -0.014649241 0.01954531
0.015932815 0.011206527 -0.017376551 -0.024870573 0.0010567441 -0.016825758 0.007929031 -0.044963278
-0.037152007 -0.038328964 -0.0064162416 0.014271058 0.00032032732 -0.0040903753 -0.0037927027 -0.011849982
0.008370059 0.005750715 -0.0078601185 -0.026792381 -0.0155982105 -0.0043084845 -0.022893203 0.017961161
0.017682428 0.046509877 0.044772048 0.03765534 -0.010837598 0.0025110203 0.007247571 0.008351096
0.016376626 -0.010297458 0.013490146 0.041795935 0.036729924 0.04536826 0.018174296 0.0025988773
-0.022240683 -0.014184275 -0.0074355104 -0.039561193 -0.026498763 -0.015578345 -0.009205813 -0.020697458
-0.020653598 0.009032153 0.008332804 -0.0036421353 -0.016853651 0.015211085 0.055938214 -0.0034603355
-0.0015782907 -0.0037028384 0.018818367 -0.004527038 -0.009571436 0.011456231 0.037300054 0.001115645
0.020629697 -0.018810844 -0.00031901532 -0.022178045 -0.014002746 -0.0004289928 0.007389478 0.018643254
0.009814408 0.010913827 -0.020763662 -0.022799745 0.012468897 -0.0067421603 -0.0009176258 0.028287636
-0.0025013876 0.011896652 0.017489256 -0.005714559 0.04432328 0.015308845 0.016822819 -0.028794592
0.025428513 -0.05281699 0.026924733 -0.01835419 -0.016941275 -0.013125558 -0.0031818382 0.016825756
0.0031521143 0.021147974 -0.0014890673 0.010858689 -6.5729575e-05 0.019801248 0.010486682 0.017003447
0.02149472 0.0035792652 0.0039744815 0.007992381 -0.008872606 0.001114099 0.00975291 0.012598939
-0.017920397 -0.019035744 -0.02764684 -0.009237438 -0.018093603 -0.023871776 -0.010461624 -0.02618298
-0.032693226 -0.007879577 0.00096360553 0.008636036 -0.017911723 0.018687619 -0.026483381 0.001354949
0.02575918 0.03745798 0.025604285 -0.03145039 -0.03659081 0.016501835 -0.028741565 -0.0071039274
0.019487888 -0.008576271 0.028139783 -0.007978867 -0.02016197 -0.02707827 -0.0045389943 -0.005656956
-0.009799673 0.01188825 -0.009797915 -0.032883495 -0.02272708 -0.01501592 0.010898298 -0.0015660332
0.06489985 -0.033855725 0.039193988 0.030361196 0.00014150223 0.0025771265 -0.0040298784 0.01180832
0.0036545915 -0.002860009 0.013681341 0.018269505 0.0035233966 0.036952168 0.014038727 -0.005541006
0.0030957104 -0.003455196 0.009855604 0.009368083 0.000929238 -0.002217055 0.00826683 -0.011136221
0.006857956 -0.010120833 0.009696375 -0.022525307 -0.017170187 -0.010567018 -0.006895201 -0.054446533
0.0025150136 -0.0004570803 0.0030876952 0.0061183907 0.0019247902 -0.003707127 -0.0057235193 0.013973917
0.0071178656 -0.0088623585 -0.011220141 -0.0013986325 -0.01198016 -0.0073595983 -0.0009240602 -0.003207792
0.011612197 -0.0069576954 -0.0037307143 -0.008784769 -0.016608994 -0.033060562 -0.014057384 -0.045242704
-0.013010331 -0.008750806 0.007913566 -0.0362432 -0.0011367418 -0.014146018 -0.03783477 0.010310863
0.0051072324 -0.013318653 -0.023546292 -0.017245375 -0.017596014 0.01739067 -0.015091392 -0.012736398
00000000: 9ef9 c23c 7fd2 a43c 59bc 3b3c 42c5 cb3c
00000010: 6f5c a8bc 90e8 75bc bec0 713c 9cb7 923d
00000020: 4284 463d e6b9 0fba 0968 fdbb 865b 72bb
00000030: 2fd6 15bd ca97 0dbd d1e2 d0bc 2c2f 50bb
00000040: e5f5 113c 38a0 55bc f484 1cbc ea50 d0bc
00000050: b4ee efbc cea0 a43c b284 d5bb 1d14 1fbd
00000060: d3ac 59bc 2483 76bb 93a8 adbc 249b fdbb
00000070: ba32 3e3c 34e9 49bc 5f03 70bc 7c1d a03c
00000080: 8985 823c 959b 373c 4559 8ebc 5fbd cbbc
00000090: 7382 8a3a 2cd6 89bc c4e8 013c 6a2b 38bd
000000a0: b42c 18bd d5fe 1cbd 563f d2bb 28d1 693c
000000b0: 9bf1 a739 8e08 86bb fe8e 78bb 6d26 42bc
000000c0: 9222 093c 7e70 bc3b bac7 00bc b27b dbbc
000000d0: a38f 7fbc 302e 8dbb 878a bbbc 4923 933c
000000e0: bdda 903c 2481 3e3d e562 373d 7c3c 1a3d
000000f0: 2e90 31bc ee8f 243b 087d ed3b 09d3 083c
00000100: 4628 863c abb6 28bc c605 5d3c 3732 2b3d
00000110: 1e72 163d 12d4 393d 43e2 943c ed51 2a3b
00000120: 1832 b6bc 2965 68bc 95a5 f3bb eb0a 22bd
00000130: ef13 d9bc 513c 7fbc fad3 16bc b78d a9bc
00000140: bc31 a9bc 98fb 133c 5086 083c e4b0 6ebb
00000150: ab10 8abc ea37 793c 781f 653d ccc6 62bb
00000160: a6de ceba 52ab 72bb fa28 9a3c 8c57 94bb
00000170: 83d1 1cbc eab2 3b3c f1c7 183d d63a 923a
00000180: 9cff a83c 3319 9abc 8341 a7b9 bbae b5bc
00000190: c66b 65bc 70ea e0b9 6f23 f23b bdb9 983c
000001a0: 9ccc 203c e9cf 323c 8e18 aabc 88c6 babc
000001b0: 584a 4c3c 57ed dcbb d38c 70ba 79bb e73c
000001c0: 52ee 23bb 2dea 423c a145 8f3c 3241 bbbb
000001d0: 548c 353d f3d1 7a3c 02d0 893c a3e2 ebbc
000001e0: 754f d03c a156 58bd 4291 dc3c 875b 96bc
000001f0: 6ec8 8abc 950c 57bc 6386 50bb 2bd6 893c
00000200: b493 4e3b 843e ad3c cf2c c3ba a5e8 313c
00000210: 4cd8 89b8 3a36 a23c 55d0 2b3c d04a 8b3c
00000220: b215 b03c 1b92 6a3b 5e3c 823b 7af2 023c
00000230: 685e 11bc f606 923a abca 1f3c c86b 4e3c
00000240: cccd 92bc d9f0 9bbc a07b e2bc a058 17bc
00000250: 0939 94bc be8e c3bc 3b67 2bbc b07d d6bc
00000260: 55e9 05bd 5719 01bc 799a 7c3a 297e 0d3c
00000270: 9bbb 92bc c716 993c adf3 d8bc 8b98 b13a
00000280: ea04 d33c 8a6d 193d 14c0 d13c 20d2 00bd
00000290: 3fe0 15bd db2e 873c 6e73 ebbc 10c8 e8bb
000002a0: 10a5 9f3c 7d83 0cbc 6785 e63c cbb9 02bc
000002b0: b72a a5bc 40d3 ddbc d8bb 94bb fd5d b9bb
000002c0: cf8e 20bc efc6 423c 6f87 20bc d8b0 06bd
000002d0: 242e babc 5505 76bc c68e 323c 5b43 cdba
000002e0: 36ea 843d 4dac 0abd e089 203d 0bb8 f83c
000002f0: 3760 1439 02e5 283b 120d 84bb af77 413c
00000300: df81 6f3b fd6e 3bbb b427 603c eea9 953c
00000310: c9e8 663b 285b 173d b002 663c 5491 b5bb
00000320: 67e1 4a3b 9270 62bb 6679 213c 977c 193c
00000330: 1b98 733a 034c 11bb 9971 073c b274 36bc
00000340: b4b8 e03b dad1 25bc 8bdd 1e3c fe86 b8bc
00000350: 7ea8 8cbc 4921 2dbc 23f1 e1bb 5403 5fbd
00000360: edd2 243b 48a4 efb9 ee5a 4a3b c87c c83b
00000370: 3e49 fc3a 45f3 72bb 5c8c bbbb dbf2 643c
00000380: fc3c e93b 6d33 11bc afd4 37bc 5252 b7ba
00000390: 6f48 44bc c928 f1bb a13c 72ba d239 52bb
000003a0: 1641 3e3c 61fd e3bb 007f 74bb feed 0fbc
000003b0: 960f 88bc 836a 07bd f150 66bc 6a50 39bd
000003c0: 4929 55bc 8a5f 0fbc e7a7 013c c073 14bd
000003d0: bafe 94ba b3c4 67bc a2f8 1abd e5ee 283c
000003e0: 925a a73b 7b36 5abc 27e4 c0bc 2c46 8dbc
000003f0: 8425 90bc e176 8e3c e341 77bc 53ac 50bc

92 f4 [64]
0.07931229 -0.12109685 0.14972958 0.69947296 0.34680313 -0.08800647 0.19051243 0.19595101
0.04097531 0.3222708 -0.20619011 -0.06718048 0.04234785 0.3157765 -0.33021656 -0.2586631
0.052773695 -0.10791371 0.105226114 -0.030403877 -0.3487584 -0.28098628 -0.1559989 0.07915895
0.015832257 -0.05681453 -0.30024624 -0.08467932 -0.09645144 0.13843319 -0.07865399 -0.039505675
0.0369046 0.08564466 0.2941144 0.3769363 0.09203614 0.17923772 0.37765878 -0.20658329
-0.092040546 -0.11535779 0.043272227 -0.009642466 0.13903835 -0.12611969 -0.101330385 -0.30329263
0.23662275 0.3204557 -0.08585285 0.16673018 -0.12876627 0.07806685 -0.17114481 0.04666064
-0.20850956 0.22166382 -0.076947585 0.1087788 0.060834974 -0.06755273 -0.432158 0.17637722
00000000: 7b6e a23d a001 f8bd b652 193e a910 333f
00000010: 2e90 b13e bc3c b4bd b115 433e 62a7 483e
00000020: bad5 273d ae00 a53e 8023 53be eb95 89bd
00000030: f074 2d3d 75ad a13e 2512 a9be 7d6f 84be
00000040: 3b29 583d dd01 ddbd ca80 d73d 8d11 f9bc
00000050: 7690 b2be 6fdd 8fbe 2dbe 1fbe 161e a23d
00000060: a6b2 813c 5ab6 68bd e0b9 99be 5a6c adbd
00000070: 5588 c5bd 6ec1 0d3e 5815 a1bd b4d0 21bd
00000080: 4729 173d 7866 af3d 2a96 963e cbfd c03e
00000090: 727d bc3d 188a 373e 7e5c c13e 928a 53be
000000a0: c17f bcbd b440 ecbd 383e 313d 6ffb 1dbc
000000b0: 1260 0e3e 8525 01be 4e86 cfbd 2c49 9bbe
000000c0: 3c4d 723e c512 a43e 9ed3 afbd 51bb 2a3e
000000d0: 4edb 03be 83e1 9f3d 9640 2fbe 3a1f 3f3d
000000e0: 8883 55be d7fb 623e b296 9dbd 6bc7 de3d
000000f0: 182e 793d 1659 8abd d043 ddbe 3b9c 343e

94 f4 [64, 64, 3, 3]
0.011645551 -0.03523808 0.080519736 0.040783256 0.020580923 -0.05929973 -0.031838443 -0.036553714
-0.031463336 0.042300954 0.07516733 0.14538527 0.057146534 0.09409015 -0.014885138 -0.013358905
-0.027314737 -0.049062364 0.011264677 0.022824854 0.06573466 0.052029476 0.04325194 -0.012159713
-0.038241167 -0.050656963 -0.029426012 -0.03731672 0.052895423 0.02546375 0.003782623 -0.05664407
-0.066386886 -0.05658513 -0.076859355 -0.1373218 -0.0277821 -0.0039742845 0.004929929 -0.04776211
-0.008964751 -0.09100871 -0.022171667 -0.05711515 -0.036064126 0.04639114 -0.014770726 -0.013816006
0.079512864 0.028822888 0.10965953 0.036451895 -0.101612866 -0.04608761 0.033559203 -0.03007931
0.10595407 -0.028303573 -0.09925579 0.03647222 -0.032514274 -0.045029514 -0.051887766 -0.05532433
-0.018546471 -0.021509137 0.040729314 -0.07353021 0.054513328 0.1459594 0.09511165 0.077529214
0.0055784094 0.02478048 -0.054582525 0.0023941854 -0.04063892 -0.07294988 0.031199694 0.089086615
0.075544275 -0.0029267229 0.012637485 -0.11078719 -0.010212633 0.01257733 -0.13794515 -0.054697484
0.03484948 -0.09143785 -0.0029229824 0.05652027 -0.076120205 -0.077396 -0.037038736 -0.043243043
0.025490317 -0.030537767 0.024283962 0.035011794 -0.029184658 -0.03985183 -0.015217952 -0.03989789
-0.033828937 -0.022412755 -0.009581378 -0.030178996 0.058496468 0.03984344 -0.008237288 0.072271794
0.059839215 0.037988286 0.009393776 -0.009417707 -0.016365016 -0.08921534 -0.026317783 -0.014132282
0.00087698374 0.063829005 -0.05365221 0.05643369 0.06494816 0.09821152 0.09116099 0.10240438
0.03477539 -0.017497098 -0.07665126 -0.12750949 -0.005761971 0.054858923 -0.018568354 0.019302549
0.0010812862 -0.017895406 0.0008326969 0.018434167 -0.046756417 -0.0006722987 -0.039522316 -0.022088395
0.045734968 0.0024283458 0.018773781 0.06653297 0.0074402434 -0.023543017 -0.008176278 0.07012261
0.0785761 0.011594491 -0.017208293 0.074344814 -0.116307 -0.09069524 0.08292624 -0.019712422
-0.007939805 -0.020378247 0.10035995 0.1490781 0.19214767 0.00929297 0.019243686 -0.032252014
-0.053336013 -0.10381898 0.044042658 -0.0044256523 -0.0058065793 0.07002187 -0.061766677 -0.08995142
0.05397959 -0.069556005 0.028611377 -0.007668955 0.022013212 -0.03315 -0.020285135 -0.044552308
-0.086159065 -0.07919547 0.056581657 -0.022073748 0.035303313 -0.041985035 -0.0058139227 -0.017198646
0.0009847583 -0.0125774145 0.043055315 -0.04075693 -0.019945376 -0.087894425 0.016090617 0.09714211
0.0558071 -0.040254112 0.017917389 -0.026095353 0.008310382 0.048752397 -0.007914099 0.02185988
-0.044343095 0.10252146 -0.075187586 0.042083118 0.1405816 -0.027273297 0.03584262 0.017636076
0.023628335 0.0067488635 0.06931354 0.028643163 0.032048132 0.02078781 -0.021585299 -0.053854994
-0.074734576 0.036453005 0.012673821 0.066691376 0.017890831 -0.05082096 0.058319 0.034545664
-0.020178992 -0.042333324 0.011112502 0.112770244 0.11723875 0.04159691 0.03739375 -0.065621875
-0.08543317 -0.030957215 -0.09786575 -0.04066134 -0.021665828 -0.0045415177 0.0060472563 0.022562945
-0.056657292 0.021293743 0.005899925 -0.057919882 0.012211915 -0.0019079901 0.07428673 0.004751828
00000000: fbcc 3e3c ce55 10bd 88e7 a43d 580c 273d
00000010: 5399 a83c 46e4 72bd 0769 02bd 59b9 15bd
00000020: b3df 00bd c443 2d3d 54f1 993d e0df 143e
00000030: 7c12 6a3d 56b2 c03d cbe0 73bc 4fdf 5abc
00000040: 28c3 dfbc 9ef5 48bd 7b8f 383c 30fb ba3c
00000050: e59f 863d dc1c 553d f228 313d 8839 47bc
00000060: c5a2 1cbd ad7d 4fbd d20e f1bc 6bd9 18bd
00000070: dfa8 583d 5b99 d03c e2e5 773b 9d03 68bd
00000080: d9f5 87bd cfc5 67bd 7068 9dbd 169e 0cbe
00000090: 4997 e3bc b73a 82bb 3e8b a13b 34a2 43bd
000000a0: e4e0 12bc c662 babd 5ba1 b5bc 93f1 69bd
000000b0: fab7 13bd a304 3e3d ea00 72bc 875c 62bc
000000c0: a4d7 a23d fa1d ec3c 2d95 e03d 954e 153d
000000d0: 681a d0bd 5dc6 3cbd 6075 093d e368 f6bc
000000e0: 73fe d83d e5dc e7bc 9f46 cbbd e563 153d
000000f0: b02d 05bd de70 38bd 4488 54bd c49b 62bd
00000100: c5ee 97bc ee33 b0bc c8d3 263d 0297 96bd
00000110: 5e49 5f3d 6276 153e e6c9 c23d a3c7 9e3d
00000120: 17cb b63b 6f00 cb3c ed91 5fbd c4e7 1c3b
00000130: ff74 26bd bf66 95bd 8096 ff3c 0b73 b63d
00000140: f5b6 9a3d 43ce 3fbb 740d 4f3c 65e4 e2bd
00000150: e352 27bc 2511 4e3c 7e41 0dbe 780a 60bd
00000160: 54be 0e3d c443 bbbd 828f 3fbb cc81 673d
00000170: e9e4 9bbd cb81 9ebd eeb5 17bd 9e1f 31bd
00000180: 12d1 d03c 572a fabc 29ef c63c 8768 0f3d
00000190: aa14 efbc ac3b 23bd b854 79bc f86b 23bd
000001a0: 3690 0abd f49a b7bc 36fb 1cbc f139 f7bc
000001b0: fe99 6f3d e032 233d b1f5 06bc 3c03 943d
000001c0: f719 753d 9b99 1b3d 5ae8 193c ba4c 1abc
000001d0: ed0f 86bc 88b6 b6bd 6498 d7bc 168b 67bc
000001e0: 62e5 653a c8b8 823d 6bc2 5bbd 0327 673d
000001f0: 8a03 853d 1f23 c93d 9db2 ba3d 63b9 d13d
00000200: a470 0e3d 1356 8fbc 56fb 9cbd d991 02be
00000210: ebce bcbb c0b3 603d a91c 98bc 6120 9e3c
00000220: f2b9 8d3a 6399 92bc 5849 5a3a 4003 973c
00000230: a883 3fbd 343d 30ba 27e2 21bd b9f2 b4bc
00000240: 9754 3b3d e224 1f3b 79cb 993c 7042 883d
00000250: 49cd f33b 49dd c0bc ccf5 05bc 719c 8f3d
00000260: 82ec a03d d2f6 3d3c 68f8 8cbc 1842 983d
00000270: 5d32 eebd 6dbe b9bd 3cd5 a93d f27b a1bc
00000280: f515 02bc 48f0 a6bc 8489 cd3d eea7 183e
00000290: 5cc2 443e 8b41 183c efa4 9d3c b01a 04bd
000002a0: dd76 5abd 0c9f d4bd 1366 343d 1005 91bb
000002b0: 1e45 bebb a067 8f3d 0eff 7cbd 7338 b8bd
000002c0: b419 5d3d 6173 8ebd 6862 ea3c db4b fbbb
000002d0: 0d55 b43c 4bc8 07bd 032d a6bc 7b7c 36bd
000002e0: 2a74 b0bd 3c31 a2bd 2bc2 673d 01d4 b4bc
000002f0: 359a 103d 80f8 2bbd b882 bebb 2de4 8cbc
00000300: 0113 813a 8011 4ebc c55a 303d bdf0 26bd
00000310: 7c64 a3bc fe01 b4bd 78d0 833c 71f2 c63d
00000320: fc95 643d 7fe1 24bd 7dc7 923c ecc5 d5bc
00000330: 4528 083c 98b0 473d 23aa 01bc 7e13 b33c
00000340: 1ba1 35bd c5f6 d13d f3fb 99bd 595f 2c3d
00000350: 9ff4 0f3e 406c dfbc b6cf 123d 8879 903c
00000360: 3690 c13c 9225 dd3b 42f4 8d3d 11a5 ea3c
00000370: e744 033d 334b aa3c a7d3 b0bc 0e97 5cbd
00000380: 710e 99bd bf4f 153d dca5 4f3c 7d95 883d
00000390: cb8f 923c a429 50bd e7df 6e3d c17f 0d3d
000003a0: 6a4e a5bc b565 2dbd 3611 363c 16f4 e63d
000003b0: df1a f03d 8661 2a3d 302a 193d c364 86bd
000003c0: 96f7 aebd fc99 fdbc d76d c8bd 818c 26bd
000003d0: 897c b1bc 03d1 94bb 1028 c63b edd5 b83c
000003e0: 7a11 68bd 3770 ae3c 2854 c13b 663d 6dbd
000003f0: 7c14 483c 8615 faba a423 983d 39b5 9b3b

95 f4 [64]
-0.33504325 -0.4472939 0.010410633 0.014339087 -0.29657602 -0.024070146 0.001476686 -0.06771045
-0.5528303 -0.09878057 -0.2081191 0.0011311092 -0.1793074 -0.4383856 -0.26986992 -0.015245834
-0.084870264 -0.0700956 -0.13127868 -0.06751 -0.2240197 -0.04439547 -0.4678605 -0.5160552
-0.12361376 -0.32818747 -0.037577238 -0.06749324 -0.13769032 -0.10095051 -0.11059501 -0.18451107
-0.07986353 -0.11186234 -0.15114188 -0.16660544 -0.026361981 0.02180035 -0.02431168 -0.35943103
-0.61674947 -0.10459612 -0.491772 -0.0142013 -0.2404019 0.13482678 -0.40526563 -0.13609684
0.03152529 0.015438892 -0.58649343 -0.008938373 -0.60275733 -0.47761902 -0.48433033 -0.14601874
-0.2967635 0.51727235 -0.221421 -0.011033503 -0.40107042 -0.33355924 -0.21301559 0.07802025
00000000: ca8a abbe b503 e5be 5c91 2a3c 7dee 6a3c
00000010: d0d8 97be c12e c5bc 5c8d c13a c7ab 8abd
00000020: 4986 0dbf 784d cabd 2c1d 55be ba41 943a
00000030: 5c9c 37be 1474 e0be 642c 8abe aac9 79bc
00000040: 76d0 adbd 488e 8fbd eb6d 06be af42 8abd
00000050: 6c65 65be 06d8 35bd 698b efbe 321c 04bf
00000060: 3629 fdbd 3008 a8be 97ea 19bd e539 8abd
00000070: b1fe 0cbe 24bf cebd a37f e2bd 78f0 3cbe
00000080: 7e8f a3bd 1518 e5bd f0c4 1abe 9e9a 2abe
00000090: 15f5 d7bc a696 b23c 4a29 c7bc 5807 b8be
000000a0: 4be3 1dbf 7e36 d6bd 8ac9 fbbe 92ac 68bc
000000b0: ea2b 76be 0810 0a3e fa7e cfbe f85c 0bbe
000000c0: aa20 013d 68f3 7c3c 6f24 16bf 4172 12bc
000000d0: 4e4e 1abf 7b8a f4be 25fa f7be f085 15be
000000e0: 63f1 97be f66b 043f 30bc 62be dec5 34bc
000000f0: 1a59 cdbe 47c8 aabe c220 5abe 15c9 9f3d
