server/model/pato_atras_das_rochas.onnx (onnx, 302121 bytes, 16 tensors)

fc.weight f4 [2, 256]
000000 ea e3 4a 3d 00 aa 91 bc a9 cd a6 bb e6 da 74 3d
       0.049533762 -0.017781258 -0.0050904346 0.05977907
000010 8b c6 68 bd 5f 1f f9 3c 2b 10 61 bd 99 c4 ea bb
       -0.05682997 0.030410467 -0.05494706 -0.0071645495
000020 a4 1b 63 3d 19 e8 9d 3d eb 2a 96 3c 54 c2 52 bc
       0.055446282 0.07710285 0.018331012 -0.012863714
000030 4d 64 d9 3c 31 3c d6 bc d5 ac 2b bc 35 02 ea 3c
       0.026537085 -0.026151748 -0.010478218 0.028565506
000040 9a 19 85 bd cc 60 f2 bb 21 08 35 bd 9a e2 55 3d
       -0.06499024 -0.007396793 -0.044197205 0.052218057
000050 be 94 dd bc 58 4d 29 bd aa 8b 9a bd 7c 23 99 bd
       -0.027048465 -0.041333526 -0.0754617 -0.07477471
000060 40 6b 74 3c 42 d0 92 3c 29 92 bb 3c 21 88 bf 3c
       0.0149181485 0.01792157 0.022896843 0.023380341
000070 58 5b c1 bc c4 4c 8d 3d ba fd ea bb e9 d7 d4 3c
       -0.023603126 0.068994075 -0.00717136 0.02598186
000080 7a 95 98 3d 82 4c 4f 3d 00 ed 6c 3d 02 49 1e bd
       0.074503854 0.050610073 0.05784321 -0.038643844
000090 b7 8e 8c bd 60 63 f5 3b fe ac 21 3d e0 d1 8b bd
       -0.06863158 0.007488653 0.03947162 -0.0682714
0000a0 e3 ce ad 3c d2 5f 92 3d 40 8f 4e 3d ed 78 68 bd
       0.021216815 0.071471825 0.050429583 -0.05675595
0000b0 30 4c de 3b be bc 14 bd d4 a0 39 3d 16 ea 56 3d
       0.0067839846 -0.03631281 0.045319393 0.052469335
0000c0 f8 00 8a bc 76 da 5c 3d f6 a0 d9 3c 79 b5 64 3c
       -0.016846165 0.053919278 0.02656601 0.013959282
0000d0 39 1d 1a bd 76 45 4d 3d e3 b2 10 bd 36 41 85 bd
       -0.037625525 0.05011507 -0.03532685 -0.065065786
0000e0 fd 66 89 bd 3e 6d 61 bd dd db c6 bc e6 4f 96 bc
       -0.067090966 -0.055035822 -0.02427476 -0.018348645
0000f0 0d 88 a6 bc 44 0d 3e 3b 86 11 c7 bc a7 dd 3b 3d
       -0.020328546 0.0028999606 -0.024300348 0.04586568
000100 2a 3c 64 bc 95 3f 8b ba 61 a1 72 3d b8 a9 8b 3d
       -0.01393036 -0.0010623807 0.059235934 0.06819481
000110 ac 0c f9 3c cc 16 a5 3d 05 4d 31 3d 99 23 21 bd
       0.03040155 0.08060989 0.043286342 -0.03934059
000120 2e 32 99 bd 33 c9 27 bd 83 03 de 3c 95 80 7e 3c
       -0.07480274 -0.040963363 0.027101284 0.015533586
000130 9d fc ef 3c 16 c8 b2 3c a0 0e 76 bd 8c fa 36 3d
       0.02929526 0.021823924 -0.06007254 0.044672534
000140 e7 c9 a1 3c e9 71 77 bb 44 77 15 bd 25 cc 5c 3d
       0.019749595 -0.0037757105 -0.036490694 0.053905625
000150 1b ee 86 bb 98 e1 13 3d 9b fe 2e 3d d0 b6 82 bd
       -0.00411774 0.036103815 0.04272328 -0.06382525
000160 9f b9 4d bd de 1d 71 3b 4b e9 a4 3c 62 12 32 3d
       -0.05022585 0.0036791484 0.020130774 0.043474562
000170 ae d2 ec bc 97 8b 23 3d c9 d1 5b 3d 30 72 0e 3c
       -0.028909054 0.039928045 0.053666864 0.008694217
000180 90 da ca bc 0c e8 e7 ba 43 93 60 3d 4b f9 c2 3a
       -0.024762422 -0.0017693057 0.05482794 0.001487532
000190 81 c2 f9 bb 5c 1c 61 bd 0e 55 0e bd 93 15 e5 3c
       -0.0076220636 -0.054958686 -0.034749083 0.027964389
0001a0 fb 52 44 bd e7 8c 61 bd 6f 03 b7 bb 5e 9d 3b 3c
       -0.0479307 -0.055066016 -0.005585126 0.0114510935
0001b0 b1 36 59 3d 01 e2 f6 3b 13 86 61 bd 9b d0 09 3d
       0.053030673 0.007534266 -0.055059504 0.033646207
0001c0 85 7f 94 3c 87 34 1c 3d ea cc cc 3a ad c7 67 bd
       0.018127212 0.03813603 0.0015625034 -0.05658691
0001d0 d3 ab 28 3d 4b 53 1d 3d fe 12 23 bc e9 16 33 3d
       0.04117949 0.038409512 -0.009953259 0.04372302
0001e0 0e 92 55 bb 7a d9 60 bd 13 40 7c 3d 74 5c 21 bd
       -0.0032588276 -0.0548949 0.061584543 -0.03939481
0001f0 a6 bf 18 3c ce 3d 6f 3d 1d 4a 69 3d 14 40 0e 3d
       0.009323036 0.05840855 0.056955446 0.03472908
000200 d6 91 33 3d 4a e7 a3 3d b7 32 6c 3d c1 80 13 3c
       0.043840252 0.08003099 0.057665553 0.009002865
000210 dd d8 64 bd f0 1f 6f 3c 3a 7e 87 bd 8e b9 eb 3a
       -0.05587088 0.014595017 -0.06615873 0.0017984377
000220 94 ed 7f 3b ae 0e 45 bd 6c 60 11 3d 81 01 ac 3d
       0.003905152 -0.048109703 0.035492346 0.08398724
000230 5e 84 06 bd 42 d1 4c 3c 21 45 9a bd 97 bd 72 3b
       -0.03284108 0.012501063 -0.075327165 0.0037039274
000240 e4 fc fa bb db b4 88 bd c8 e8 29 3d c6 8c 21 3d
       -0.0076595414 -0.066751204 0.041481763 0.039440893
000250 58 88 68 bd b9 a0 6e 3b ed 0d 7f bd 98 21 c9 bc
       -0.056770653 0.0036411716 -0.06226914 -0.024552152
000260 d2 6e 6d bd ad 8e a4 bd b4 5a 4c bd ca 11 58 bd
       -0.057967015 -0.08035026 -0.04989119 -0.05275134
000270 0a 24 db 3c 58 35 37 3c 35 7b 02 bd 6d 33 11 3c
       0.026750583 0.011182152 -0.03185578 0.0088623585
000280 dc ca b4 bc 25 b2 eb 3c 0e 85 6d bc 21 60 27 bd
       -0.022069387 0.02877147 -0.014497055 -0.04086316
000290 16 3b 58 bd c6 46 06 bd 22 55 07 bc e5 fc 60 3c
       -0.052790724 -0.03278234 -0.008260043 0.01373217
0002a0 5a aa 3e bd 60 54 9d bd 2d 03 aa 3b 76 9a d1 3c
       -0.04654918 -0.07682109 0.005188367 0.025586348
0002b0 15 53 61 3d e9 f7 76 bd 52 d8 ee bc c1 71 97 bc
       0.055010874 -0.06029502 -0.029155884 -0.01848686
0002c0 ec 9b a7 3d 0f 51 d1 bc 84 87 93 3c 83 4d 35 bd
       0.081840366 -0.025551347 0.018008955 -0.044263374
0002d0 45 22 23 bd 9d 3d e5 3a 96 34 0d bd 3e a3 55 bd
       -0.039827604 0.0017489676 -0.034473978 -0.052157633
0002e0 ee 10 c0 3c d5 66 c2 bc e2 85 0d bd 9f 8e 42 3d
       0.023445573 -0.023730675 -0.03455151 0.047499295
0002f0 f4 90 8d bd 71 2a bd bc e1 3e 3b 3d e9 1d 28 3d
       -0.06912413 -0.023091527 0.045714263 0.04104415
000300 32 2d 2e 3d aa 88 57 bd 6d 69 04 3d 2f 1d af bc
       0.04252357 -0.052620567 0.032327104 -0.02137622
000310 51 12 a0 3a 24 8e 9a bd 56 3c 22 bd c0 2a 7a 3d
       0.001221249 -0.075466424 -0.039608322 0.061075926
000320 ed c6 23 bd 4d b0 26 bd ac 64 ea 3c 21 0c 59 3b
       -0.039984632 -0.040695477 0.028612457 0.0033118802
000330 0d 09 3e bd 75 e7 81 3d bf 2b e2 bb d6 59 17 3d
       -0.04639535 0.06342975 -0.0069021876 0.03695091
000340 e8 a1 59 3d 44 37 43 3d 31 2c a5 bc 40 41 85 bc
       0.05313292 0.047660127 -0.020162674 -0.016266465
000350 9e 83 66 bd 89 c3 53 3c 4b 97 0a 3d 44 c4 89 3d
       -0.056277864 0.012925037 0.03383569 0.06726888
000360 e6 df 6e 3d 35 ec 1c 3d c0 f6 38 3d 30 f2 70 bd
       0.058318995 0.038311202 0.045157194 -0.058824718
000370 04 33 a8 3c eb dd 79 3d 39 8a 69 3d 19 0f 1d bd
       0.020532139 0.061002653 0.057016585 -0.038344476
000380 5a be 99 bb 81 12 ed bc 62 84 67 bd de 60 a6 bd
       -0.004691881 -0.028939487 -0.056522734 -0.08123945
000390 75 bc f3 3b 0b ed 36 3d 61 4b 40 3d c8 ba 3f 3c
       0.0074382373 0.044659656 0.046946887 0.011702247
0003a0 24 a7 f0 3c f6 d0 aa 3d 2d 73 b6 3b 74 1c 0b bd
       0.029376574 0.083406374 0.0055679292 -0.033962682
0003b0 c3 b3 67 bc ab 35 92 bd f2 ce 28 3d c9 cb 8e bd
       -0.01414198 -0.071391426 0.041212983 -0.06972463
0003c0 9d f3 82 bd 8a 33 79 bd a7 7d c9 3c b2 e7 72 bd
       -0.06394122 -0.060840167 0.024596049 -0.059302993
0003d0 11 5f 2a 3d 96 3b fc ba 18 62 63 3d 66 9b 96 3d
       0.04159457 -0.0019243832 0.05551347 0.07353859
0003e0 fe e3 5a 3d 66 20 1f bd 65 b8 59 3d a1 74 1e bd
       0.053440087 -0.038849257 0.053154368 -0.038685445
0003f0 53 29 75 3c 6b 65 82 bd 30 bb 0e bd b5 45 30 3c
       0.014963466 -0.06367 -0.034846485 0.010758807

fc.bias f4 [2]
000000 e8 18 d1 bc 08 65 95 3c
       -0.025524572 0.018236652

onnx::Conv_80 f4 [16, 3, 7, 7]
000000 c5 22 aa 3d a2 ae 92 3e 0a f7 aa 3d b7 76 1b 3e
       0.08307413 0.2864886 0.083479 0.15182005
000010 96 42 2d bd 44 65 81 3d 77 94 1b 3e c0 e2 d7 3d
       -0.04229983 0.06318143 0.15193354 0.10541296
000020 a3 3d 3f be 4d 85 ae be 41 ad d4 3d 7d 07 c7 bc
       -0.18675856 -0.34086075 0.10384608 -0.024295563
000030 64 8d 76 be e7 10 d2 bd 1a fd 98 be fb fd e8 bd
       -0.24077374 -0.1025713 -0.298806 -0.11376568
000040 86 82 09 be 9e 85 69 be 69 76 95 3e fa 8d d1 3d
       -0.13428697 -0.22804877 0.29191902 0.10232158
000050 24 e1 16 3e f5 7c 89 be ec c2 7a 3e d3 73 80 be
       0.14734322 -0.26853147 0.2448842 -0.25088367
000060 f9 92 ba 3d 43 35 57 3e 12 33 8c be 80 85 96 be
       0.09110064 0.21016411 -0.27382714 -0.29398727
000070 24 fd 85 be 9f 0b 93 3e b8 86 22 3d 22 13 2b be
       -0.26169693 0.28719804 0.03967926 -0.16706517
000080 54 14 b0 3e 6d cf 24 be 07 14 08 be e3 ec 61 3e
       0.3439051 -0.16094752 -0.1328889 0.22063021
000090 b5 3b dc bd d5 f3 80 3e 45 27 8e 3c f1 3f bd 3e
       -0.10753576 0.2518603 0.01735271 0.36962846
0000a0 cc 9d 38 be 00 b0 77 3d 03 ff 80 be c6 0e ac 3e
       -0.18028945 0.06047058 -0.25194559 0.3360502
0000b0 42 d2 45 3d 0a 22 af 3e 06 71 cc bc 5c 91 a7 3e
       0.04829622 0.34205657 -0.024956238 0.32728088
0000c0 0a 65 b7 3e f9 1b bc be d1 71 b9 be 1f 7e 21 be
       0.35819274 -0.3674009 -0.36219648 -0.15770768
0000d0 28 7a b2 be b0 d6 b6 be a9 df 8a 3e b4 69 07 3e
       -0.34858823 -0.3571067 0.27123764 0.13223916
0000e0 2d e1 c8 bb 16 17 1f 3e fd 50 3e 3e 7a 0a 5b 3a
       -0.0061303587 0.1553615 0.18585582 0.0008355748
0000f0 53 3d b2 bc dd 90 6a be 04 3c 6b be d1 11 ef 3d
       -0.021757757 -0.22906823 -0.22972113 0.1167332
000100 d9 36 ab 3d e4 0b c3 bc 06 70 5c be fb f1 01 3e
       0.08360071 -0.02380938 -0.21527109 0.12689964
000110 85 08 07 3e e9 ce 87 bd 31 d7 c6 be ad 95 31 be
       0.13186844 -0.06631262 -0.38836053 -0.17342253
000120 06 52 57 bd fb 1d c4 be 75 39 5b be 16 78 ce bd
       -0.052568458 -0.38304123 -0.21408637 -0.10081498
000130 a4 cb c8 be 54 9b ab be 82 40 fd 3d 6c f3 9d 3e
       -0.39217865 -0.33516943 0.123658195 0.3084978
000140 55 98 41 3e 2b 85 0e 3e ae 39 8f bc 97 89 b5 be
       0.18905766 0.13917987 -0.017483559 -0.35456535
000150 35 20 07 3e ef da b1 3e a3 02 40 3e 1c 66 ab 3e
       0.1319588 0.34737346 0.18751006 0.3347634
000160 c6 eb 4c 3e ea 00 16 be e0 9e 23 bd 1e 28 ba 3e
       0.20011815 -0.14648786 -0.039946437 0.36358732
000170 c4 f9 4e 3d 4f 0c b5 3e 1a cc 5b bd 79 c1 99 3e
       0.050531164 0.35360953 -0.053661443 0.3003042
000180 d1 84 1a bd b0 2e 40 be bb 3b 4f 3e fb f6 87 be
       -0.03772432 -0.1876781 0.20237629 -0.2655562
000190 f4 19 21 3d 81 14 3f be aa f6 e7 bd c4 2a 98 be
       0.03933139 -0.18660165 -0.11326344 -0.29720128
0001a0 c1 a4 59 3e af 59 bb be d1 41 8e bd 92 4c 77 3e
       0.21254255 -0.3659186 -0.06946147 0.24150303
0001b0 08 9b 72 be 7d 94 bf bd 42 64 86 be e1 10 5a bd
       -0.23691952 -0.09354494 -0.26248366 -0.053238753
0001c0 f3 24 21 3d 21 1c a3 be 61 89 d0 be b1 21 9f be
       0.03934188 -0.31857398 -0.40729812 -0.31080392
0001d0 8c b4 9a be 71 6e 15 3d cf 12 99 be fb 93 8d be
       -0.3021587 0.03648228 -0.29897162 -0.27651963
0001e0 df 20 97 3e ba ce 2c be 75 71 bd 3c 27 87 b9 3c
       0.29517266 -0.16875735 0.02312539 0.022647453
0001f0 fc fa ef 3d ff 87 c2 be 90 33 09 bb a0 87 43 3e
       0.11717793 -0.37994382 -0.0020935275 0.19094706
000200 7b ee 29 3e 59 18 c3 3e 6a 10 bb 3d 5b 00 84 3e
       0.1659488 0.38104513 0.0913399 0.2578152
000210 a4 67 e1 bc 02 b1 a7 3d cb 37 b5 3e 06 42 ac 3c
       -0.02751524 0.081880584 0.3539413 0.021027576
000220 d5 de 09 be 67 33 ef bd 4c 1d 7a be b5 c3 e1 ba
       -0.1346391 -0.11679726 -0.24425238 -0.0017224463
000230 27 0d 7f 3d f8 ee 05 bd 89 c8 93 be 25 09 1e be
       0.062268402 -0.0326986 -0.28863934 -0.15433176
000240 15 20 b0 bd 9a 55 c0 3e 25 32 18 bd 1e d4 e4 be
       -0.08599869 0.3756531 -0.037157197 -0.44693083
000250 54 c2 ab bd 84 a8 bf 3e ac 15 8a 3e 4e 7b c6 bd
       -0.083866745 0.37433255 0.2696966 -0.09691487
000260 dd 7e 86 3e 7b 6d 1a ba ff 9c 3d bd 4c af 8a bd
       0.26268664 -0.00058909477 -0.0462923 -0.067717165
000270 ab ed 8e bc 7f 4e dd 3d a5 d9 6e 3e 27 07 e0 be
       -0.017447313 0.108059876 0.23325212 -0.43755457
000280 7a 3f 90 3d a0 15 ab 3e fe b2 8e be 7f 43 0c 3e
       0.07043357 0.33414936 -0.27870935 0.13697623
000290 e3 84 83 3e 20 9b 4c bc cd a8 ca be a6 26 a2 be
       0.25687322 -0.012488157 -0.3958191 -0.3167011
0002a0 e7 37 89 3d b3 e2 aa 3e 4d d5 92 bb 75 9e b3 bd
       0.06700116 0.33376083 -0.004480994 -0.08770458
0002b0 ae 44 1d 3d ba 5a 2f bb b1 6e 09 be f0 d6 66 3e
       0.038395576 -0.0026756958 -0.13421132 0.2254293
0002c0 e8 c1 8b 3e 47 e5 25 be 55 b7 22 3e b9 14 d3 3e
       0.27296376 -0.16200744 0.15890248 0.41226748
0002d0 b7 9b de bd 3e 16 77 bc 24 66 d2 be 81 7c b8 3e
       -0.10869544 -0.015080987 -0.41093552 0.3603249
0002e0 d1 d2 d2 3e ba a6 29 be 70 d1 d3 3e 6a 3b 0a be
       0.41176465 -0.16567507 0.41370726 -0.13499227
0002f0 5f d4 a4 be 4b 9f 9e be 55 cb f0 3e 97 70 15 3e
       -0.32193276 -0.30980906 0.4703013 0.14593731
000300 d1 c3 cb 3e f5 da e8 3e e4 95 81 be 3b 3f 89 3e
       0.39797834 0.4547955 -0.2530967 0.26806054
000310 b3 32 85 be ad ad a7 be ad 2e 4a 3e 44 4f 62 be
       -0.26015243 -0.32749692 0.19744368 -0.2210055
000320 f0 cd b7 3c 2c 23 8a be b5 a3 c2 be fa 19 8b be
       0.022437066 -0.2697996 -0.38015524 -0.27168256
000330 ab 95 bd 3e 95 80 0d 3d 8e 18 72 be c5 00 ae 3e
       0.3702825 0.034546454 -0.2364218 0.33984962
000340 c4 9e 67 be 99 b1 cf be e3 b3 aa be 6e 36 a4 3e
       -0.22619158 -0.40565184 -0.33340368 0.32072777
000350 36 2e 73 3c f4 cb a8 bd b8 06 ae 3d c4 10 49 3e
       0.0148425605 -0.08242026 0.08497375 0.19635302
000360 f4 8a ec be 7f 21 6b 3d 9a 39 34 3e c6 63 06 3e
       -0.46199763 0.05740499 0.17600098 0.13123998
000370 33 9a 34 3e 7d 1d 65 be b2 c1 2f 3d a6 92 47 3e
       0.17636947 -0.2237453 0.04290933 0.19489536
000380 57 88 6b be d6 9b 94 3e 0d 89 2c 3d 45 f2 e6 3d
       -0.23001228 0.29025143 0.04212289 0.11276678
000390 b7 76 ad bd c2 2b 2a 3e 1e bc 57 be de a1 c8 bc
       -0.08469909 0.16618255 -0.21067855 -0.024491247
0003a0 33 f9 91 3e 94 a5 7f bd 1c bc a0 be 3e 96 8c 3e
       0.28510436 -0.062413767 -0.31393516 0.27458376
0003b0 80 5b 80 be bb 18 72 be c5 eb 64 be 55 06 2c 3e
       -0.2506981 -0.23642246 -0.22355564 0.1679929
0003c0 00 75 56 bd f9 cb 7e 3c f5 07 65 3e 4b d3 98 3e
       -0.052357674 0.015551561 0.22366317 0.29848704
0003d0 59 70 5f 3e a4 e0 e4 be 84 8f c5 3e c0 af 44 3d
       0.21820201 -0.44702637 0.38586056 0.04801917
0003e0 1f 27 2c 3e 50 40 2d be 6b 47 a4 bd 5e 53 b5 3e
       0.16811799 -0.16919065 -0.080214344 0.35415167
0003f0 3e 69 8b 3d 67 1a e7 3e 48 13 e4 3e 82 67 2a bd
       0.06807183 0.4513733 0.4454596 -0.04160262

onnx::Conv_81 f4 [16]
000000 b0 a7 45 3f 92 d7 98 bf 99 5b a8 bf 4d 2d c2 3f
       0.77208996 -1.1940787 -1.3152953 1.5170075
000010 f7 c2 26 bf 55 69 8a 3f 0d 2c bb 3f b2 3a 7a 3f
       -0.6514124 1.0813395 1.4622818 0.9774581
000020 b5 42 3a 3f 57 8a ff 3e 11 8e c5 bf 3f ef dc 3e
       0.72758037 0.49910232 -1.543398 0.4315128
000030 42 6b ff bd 31 85 6b 3e 0c 48 c7 3f 1d a6 ec bf
       -0.1247163 0.23000027 1.5568862 -1.8488194

onnx::Conv_83 f4 [32, 16, 3, 3]
000000 be 70 35 bd 4f 91 5c bd d2 56 15 bd 97 67 a8 3d
       -0.044296972 -0.053849515 -0.03645975 0.08222883
000010 28 8d c5 bd 89 99 1e 3d e9 99 9d 3b d5 91 82 ba
       -0.09646064 0.03872064 0.0048096073 -0.0009961674
000020 66 14 f9 bc f3 11 bf 3c 09 49 80 bb d6 90 83 bd
       -0.030405235 0.023323989 -0.0039149565 -0.0642411
000030 da 84 91 3d 36 1e 18 3c 03 7b b1 3d ec 0e 9c bd
       0.071054175 0.009284547 0.08666041 -0.076200336
000040 15 63 08 3c 3d 19 e7 bd e7 3f de 3c 3d 7b 94 3d
       0.008324404 -0.11284111 0.02713008 0.07250068
000050 6b a3 05 3e 13 6b 4f 3d 79 ee ec 3c 4b 5b 2e 3d
       0.1305062 0.050639223 0.028922306 0.042567533
000060 52 47 9e 3d 9a 0c a9 bd 15 a5 8d 3d 70 64 a9 3d
       0.07728447 -0.08254357 0.069162525 0.0827111
000070 b5 6e bb 3c f9 13 9d 3c ff 81 64 bd 59 56 be 3d
       0.022879938 0.019174563 -0.055788036 0.09293813
000080 37 30 7e ba ad 66 44 3d db c6 c9 3d 23 3f 1e bc
       -0.00096965156 0.04794948 0.09852382 -0.009658608
000090 fc 5f 8b 3d 5c 14 aa bd 30 84 9e bd d6 b6 73 bd
       0.06805417 -0.083046645 -0.077400565 -0.059500538
0000a0 e2 fb 9f 3d ba a3 9c bc ce 41 8e 3c b6 c1 a3 bc
       0.07811715 -0.01912104 0.017365362 -0.01998983
0000b0 9a 61 3f 3d ba 5a da 3d 02 30 d5 3d ad ab ce 3c
       0.04672394 0.10661836 0.104095474 0.025228346
0000c0 87 fd 49 bd db 1b 8a 3c 2b cd 3c 3d 57 4d 7c bc
       -0.04931405 0.016858986 0.0460941 -0.015399299
0000d0 54 4f 39 bd 85 ba ad bd 5a f0 94 3c eb 36 81 3d
       -0.04524167 -0.084828414 0.018181015 0.06309303
0000e0 11 c6 5d bc a6 74 a5 bd 65 3b cc 3c 5b 50 e4 bb
       -0.013535992 -0.080788895 0.024930665 -0.006967587
0000f0 ee f3 7d 3d 15 f6 c1 3c 78 b9 93 3d 39 a5 b0 bd
       0.062000208 0.023676911 0.0721311 -0.08625264
000100 55 c6 7f bd d5 c0 ae bd f4 fd 52 bd f6 8b 37 bd
       -0.062445004 -0.085328735 -0.05151172 -0.04481121
000110 c7 9a aa 3d 98 04 34 bd a7 b6 15 bd e7 aa cf 3d
       0.08330303 -0.043949693 -0.036551144 0.10140019
000120 ff 14 de 3d 0a 79 62 bd 16 cb 70 3d 30 10 6e bd
       0.108438484 -0.055291213 0.058787428 -0.058120906
000130 7c f9 95 bc 66 d7 8d bd 6c 45 d5 bd b4 b2 5b bd
       -0.01830744 -0.069258496 -0.10413632 -0.05363722
000140 2e ed d1 3c 84 e3 ca 3b f9 1b 0e 3d 21 98 00 3d
       0.025625791 0.0061916728 0.034694646 0.03139508
000150 46 7e 86 bc b7 75 ca 3d 9e 1b 95 3d f2 08 14 bd
       -0.016417634 0.098857336 0.07280658 -0.036141343
000160 6d 30 11 bd fc 9f 85 bd be 03 1d 3d 7b a5 b9 3d
       -0.035446573 -0.06524655 0.038333647 0.09064766
000170 d4 af a6 3d c9 50 bd bd 85 8c a7 bd ad 27 fd bb
       0.08139005 -0.09243924 -0.08181099 -0.007725677
000180 ea 80 02 bd 17 00 85 bd 31 58 91 3d 1b 30 42 bd
       -0.031861223 -0.06494158 0.07096899 -0.04740916
000190 40 4b 03 3e fc 34 fa 3d 9b f3 56 3c 70 9e cf bd
       0.12821674 0.12217137 0.0131196035 -0.101376414
0001a0 24 51 f2 bd 73 3a 34 bd 71 26 87 bd 15 dd e1 bd
       -0.118318826 -0.044001054 -0.06599129 -0.11028496
0001b0 ca a1 13 3d 96 c5 db bc c3 91 fe 3d 01 40 83 3d
       0.036042966 -0.026827615 0.124301456 0.06408692
0001c0 49 dc 6d bc 91 5e ee 3d b6 5e ed 3a 62 a2 0d 3d
       -0.014517852 0.11639131 0.0018109891 0.03457869
0001d0 63 cb 2d bd 15 5c a3 3c f9 c8 e8 3c 47 7f 31 bd
       -0.042430293 0.01994137 0.028416144 -0.04333427
0001e0 85 6a 88 3c 7c fb 8e bd 62 c5 28 3d 67 8b 04 be
       0.016652355 -0.069815606 0.041203864 -0.12943803
0001f0 a7 ad f5 bb 9d 08 33 be 9e fe 9e bc 91 b2 9f 3b
       -0.0074975076 -0.17483754 -0.01940852 0.0048735817
000200 26 7e 90 3d 5a 27 85 bd 79 c9 dc 3c 0b e4 a6 bd
       0.07055311 -0.06501646 0.026951538 -0.081489645
000210 10 75 3a 3c 35 69 dd 3d 75 ba 4e bd 46 db 4b 3d
       0.011380449 0.10811082 -0.050470788 0.049769662
000220 fd 7f 3a 3d 6e 94 0e bd 1b bd bf 3d 73 fe 84 bd
       0.045532215 -0.034809522 0.09362241 -0.06493845
000230 3d 65 d1 bc be c4 b7 bd 01 8a a9 bd a2 bd 92 bd
       -0.02556097 -0.089730725 -0.08278275 -0.07165076
000240 b4 4c 64 bd b7 d1 a9 bc a7 ec 21 bc 3e ec c1 bd
       -0.055737212 -0.020729883 -0.0098830825 -0.09468888
000250 19 00 89 3d eb 44 b4 3d 5f 10 3c 3d cd 07 39 bd
       0.06689472 0.088022076 0.04591405 -0.045173455
000260 fb aa 04 bc 81 67 d1 bc fb d5 62 bd 5d 7f 93 bd
       -0.008097406 -0.02556205 -0.05537985 -0.07202027
000270 1e 5b bc bc 22 e4 88 3c af d9 8c bd 79 36 6d 3d
       -0.022992667 0.016710345 -0.06877457 0.057913277
000280 47 ec fd bd ee c0 09 3d ec e9 a3 bd 2c af d8 39
       -0.12398582 0.033631258 -0.080036014 0.00041329244
000290 60 fe 32 bd f5 89 94 3d 0a 18 79 bd 17 33 98 bd
       -0.043699622 0.07252876 -0.06081394 -0.074316196
0002a0 0f 2f 53 3d ca fd a8 3c 40 49 f5 bd 76 3d 70 3d
       0.05155855 0.020628829 -0.11976862 0.058652364
0002b0 fa 04 9f 3c 86 db a5 3d 52 1a 7d 3c 03 8d c3 bd
       0.019411553 0.080985114 0.01544817 -0.0954838
0002c0 72 57 07 3d 43 c1 45 3d f1 e4 32 bd 32 97 e0 bb
       0.03304238 0.04828001 -0.043675367 -0.0068539614
0002d0 2d 98 6e bd f3 8b b8 3c 31 95 8b 3d 06 5d 80 3d
       -0.058250595 0.02252767 0.068155654 0.06267743
0002e0 22 70 87 bd 4d bb 11 3d d8 21 9c bc 34 b6 4f 3d
       -0.066131845 0.035579015 -0.019059107 0.05071087
0002f0 14 f1 a4 bd 56 97 22 bd da 8c 51 3d 12 62 fd 3c
       -0.080537945 -0.039695106 0.051159717 0.030930553
000300 ed 60 8b 3c 8c 67 fa b8 82 49 56 3d b3 84 e3 3d
       0.017013991 -0.00011940216 0.052316196 0.11109295
000310 96 36 13 bd e0 cd 93 bc 47 10 55 bc 9e c1 97 bd
       -0.03594073 -0.018042505 -0.013004369 -0.074099764
000320 42 d8 87 3d 51 01 3e bd 0b 96 38 bd 56 a7 8a 3d
       0.06633045 -0.046387974 -0.045064967 0.06770198
000330 9e 39 5f bd 0e 76 69 bc f8 b4 3d bd f9 36 3c bd
       -0.054498307 -0.014249338 -0.046315163 -0.045950864
000340 25 4a 9a 3d 1d e3 85 bd 5e 68 c6 3b 2b d4 92 3d
       0.07533673 -0.06537459 0.006054922 0.07169374
000350 62 10 5e 3d 54 87 14 3e 9e b7 0e bc 77 50 09 bd
       0.054214843 0.14504749 -0.00871077 -0.033524003
000360 d7 59 61 bd 6e 65 74 bd 8d 39 06 bd 55 2e ca 3d
       -0.05501732 -0.059667043 -0.03276973 0.098721184
000370 c1 95 8c 3c 65 14 c5 bd fc 78 50 bd b9 76 3b 3b
       0.017161252 -0.096230306 -0.05089663 0.00286047
000380 30 7a 93 3c d9 74 23 bd a6 2a 16 bd 31 ea 11 3b
       0.0180026 -0.039906356 -0.036661766 0.0022264833
000390 3d ce c1 bc 8c b6 29 bd ef e7 ab bd 55 89 b9 bd
       -0.023657912 -0.041433856 -0.08393847 -0.09059397
0003a0 51 e5 88 bd 7a 02 2c 3d b5 71 0e 3e 7d 1a b6 3d
       -0.06684364 0.04199455 0.13910563 0.08891771
0003b0 a4 df b3 3c e9 48 5e 3d db 52 c7 3c 89 6b ad bd
       0.021957226 0.05426875 0.0243315 -0.08467776
0003c0 52 b2 fa bd 4a 59 62 bd ca a0 a7 bc a5 e1 5b bd
       -0.12241043 -0.055260934 -0.020462412 -0.05368199
0003d0 bd 9a 4a 3d bd e9 50 bd 55 3f 4d 3d 18 51 e0 3d
       0.049463976 -0.05100416 0.050109226 0.109529674
0003e0 bd 04 93 bd 7c 0b a7 bd ac 20 b7 bc 30 0d be bd
       -0.07178638 -0.08156487 -0.022354446 -0.09279859
0003f0 64 c7 03 3d 15 13 b6 39 e8 64 9e bd 72 1d a6 bd
       0.032172576 0.00034727962 -0.0773409 -0.08111085

onnx::Conv_84 f4 [32]
000000 ce de 45 3d 15 2e 9d 3f be 8d 80 3f 7b 49 23 3f
       0.048308186 1.2279688 1.0043256 0.63784
000010 d2 cc b8 3e a2 18 e5 be 7d e8 1f 3f 7e 23 c5 bf
       0.36093765 -0.44745356 0.62464124 -1.5401456
000020 79 f7 36 3f 25 0d 74 3e 10 f6 c9 3e 5f 5e 71 3f
       0.71471363 0.23833139 0.39445543 0.94284624
000030 33 d2 32 3f 48 3b dc bc 72 92 e1 be f8 31 4a 3e
       0.6985199 -0.026883736 -0.4405704 0.19745624
000040 3a ef 6d bf 1a 9c 75 3e 6b 68 86 3f 52 ee 90 3e
       -0.92943156 0.2398533 1.0500616 0.28306824
000050 19 7d 28 be 82 8e 11 3f 51 b1 d9 3e c8 9c 93 3e
       -0.16453971 0.56858075 0.42518094 0.28830552
000060 5a 73 9f 3f df 04 24 3f 3b ad ab be a0 f5 bd 3d
       1.2457078 0.6406993 -0.33530602 0.09275365
000070 8f 64 24 3e d6 96 7a 3f 55 c8 0d be ac ad ec 3e
       0.16053985 0.9788641 -0.13845952 0.4622625

onnx::Conv_86 f4 [32, 32, 3, 3]
000000 b7 05 11 bc f4 84 16 be b7 22 48 bd ee 74 d6 bd
       -0.00885146 -0.14699155 -0.04886123 -0.10471521
000010 e7 5f af 3b 12 6c f1 3c 20 82 63 3d e3 50 c6 3d
       0.0053520086 0.029470477 0.05554402 0.09683397
000020 f7 71 f4 bc 3d 13 89 3d 10 cd 60 3d 0a be 09 bd
       -0.029839499 0.066931225 0.054883063 -0.0336285
000030 4e 3a 13 3c 1a 1e 7f 3c 6c 20 18 3d 6b 98 18 3d
       0.008986069 0.015571142 0.037140295 0.037254732
000040 28 f0 ae 3d 60 5a df 3d a6 be 80 bd 04 77 3b bc
       0.085419 0.109059095 -0.06286363 -0.01144195
000050 74 b9 6f bd 51 e7 77 3d d2 8b 89 bd 67 0c 8d 3d
       -0.05852647 0.060523335 -0.06716122 0.06887131
000060 28 2b 5a bc fb 35 18 bc 67 cd 84 3d df 97 8d bd
       -0.013315953 -0.009290214 0.0648449 -0.06913733
000070 dd 0e 79 3d ca 82 f5 bd 97 c0 d4 3d 50 fe f3 3c
       0.06080519 -0.11987837 0.10388296 0.029784352
000080 cf 8a fe 3d 4f e1 83 bc f8 1a 12 bd 16 ef 93 bd
       0.124288194 -0.016098646 -0.03567025 -0.072233364
000090 0b 3e 10 3e 76 29 98 bd 03 04 64 bd c6 9f c9 3d
       0.14086168 -0.07429783 -0.05566789 0.098449275
0000a0 c6 9e 3f bc a0 3c ba 3d c1 99 19 3d 34 11 57 bb
       -0.011695569 0.090935946 0.037500147 -0.003281665
0000b0 e4 93 c7 bc 56 a1 6a 3d c8 f8 2b 3e 63 af 85 3d
       -0.024362512 0.05728277 0.16794121 0.06527593
0000c0 fa 43 b4 bd f5 17 c7 3d e1 70 0d 3e a0 fd 91 bc
       -0.08802028 0.09721366 0.13812591 -0.017821133
0000d0 e7 07 d9 3d 58 00 e4 3d 33 92 9b 3d 40 bc f2 3d
       0.105972104 0.11132878 0.07596245 0.11852312
0000e0 68 a5 9a 3c 69 28 9b 3d 48 29 00 3e f3 ec 43 3d
       0.0188777 0.07576067 0.12515748 0.047833394
0000f0 45 cc 09 3d ed a2 95 bd e2 31 aa bc 27 f0 68 3d
       0.033642072 -0.07306466 -0.02077574 0.056869652
000100 da 6a c3 bd fd 4b f4 bc 7b 56 9e 3d b9 69 98 bd
       -0.09541865 -0.02982139 0.077313386 -0.0744204
000110 4c b3 be 3b 42 c4 f1 bd 84 3b 24 be e5 50 43 bc
       0.0058197137 -0.11805011 -0.16038328 -0.011921142
000120 b4 15 ed bd bf 3a ac bd 66 23 a9 3d 56 af 28 bd
       -0.11576405 -0.084096424 0.08258705 -0.04118284
000130 7d 34 b2 bd 29 fa 56 3d a7 97 02 be c3 ac 9b bc
       -0.087014176 0.052484665 -0.12753163 -0.019003278
000140 89 22 93 bd 6f 37 db 3d 20 76 a5 3d 3f 95 13 3d
       -0.071843214 0.107039325 0.08079171 0.036031004
000150 7a a9 37 3e 4d 07 21 3e 71 d1 36 3d 2f 95 0c bd
       0.17935744 0.15725441 0.044633333 -0.03432196
000160 01 a1 12 3e 2a 80 97 3d d6 43 15 3e b7 6f 1b 3e
       0.1431923 0.07397492 0.14576659 0.15179335
000170 ea fd 9e 3d ca 5b 9a 3c 90 ed 93 3c ec 65 ef 3c
       0.07763274 0.018842597 0.018057615 0.029223405
000180 ac ca 6d 3d b1 c5 60 ba d3 5c 9d 3d 65 ca 77 bd
       0.05805461 -0.000857438 0.076837204 -0.060495753
000190 99 82 88 bd 30 a7 48 3d 32 6f 76 3d ab f2 03 bb
       -0.066655345 0.048987567 0.060164638 -0.0020133655
0001a0 f3 37 03 be a0 19 9f 3d dc 34 81 3d 3f fb b5 3c
       -0.12814312 0.077685595 0.0630891 0.02221453
0001b0 4d bc 0d bd db a1 5b bb a6 1e 02 3e 51 e1 23 bd
       -0.034603406 -0.0033513221 0.12707004 -0.0400098
0001c0 34 31 af 3d bc f3 14 be fa 75 bd bd 0f 0b 02 be
       0.085543066 -0.14546102 -0.09251018 -0.12699531
0001d0 61 52 9a 3d 72 20 5e 3d ba f4 02 3e e3 8a 96 3b
       0.07535244 0.05423016 0.12788668 0.0045941933
0001e0 5c 44 38 bd 8a 1a ac 3d 57 6e af bb d3 24 0c 3d
       -0.044987068 0.084034994 -0.0053537297 0.034214806
0001f0 97 6b 16 bd 4f 38 ef bd e7 15 03 3a 94 c6 a0 bd
       -0.0367237 -0.11680662 0.0005000517 -0.07850376
000200 82 84 c1 3d 75 39 c3 bd a1 3c 9d bd 6b f2 88 3d
       0.09449102 -0.095324434 -0.0767758 0.066868626
000210 9b 0b a8 3d 69 97 b2 3d 5b c3 c9 3d a3 52 16 bd
       0.082053386 0.087202854 0.09851714 -0.036699902
000220 32 29 4e 3d 23 3b f4 bd 3d c2 f1 bc fe 3e ad 3c
       0.050332256 -0.11925342 -0.029511565 0.021148201
000230 e7 08 1d bc 0c 4a ab bd 0f 58 b9 bd 06 90 d0 3d
       -0.009584642 -0.08363733 -0.09049999 0.1018372
000240 c4 95 c0 bc 69 dc f2 bb 65 3e b7 3d 8c 31 a2 bd
       -0.023508914 -0.007411529 0.08947448 -0.079196066
000250 2a 1e 80 bc f2 2d d1 3d e5 89 0b be fe ea 9c 3d
       -0.015639383 0.102138415 -0.13626821 0.07662009
000260 e2 1f 66 3d 58 0a ed bd 64 1a d1 3d bd fc 74 bd
       0.05618275 -0.115742385 0.10210112 -0.059811343
000270 01 2a c5 3a b1 f1 3b 3d 2b 1e 35 be 2a f4 33 bc
       0.0015042425 0.04588479 -0.1768729 -0.010983506
000280 da 13 e6 bd b7 dd 1f be 38 b1 59 3d d1 dd 9f 3d
       -0.11234255 -0.15611921 0.053147525 0.0780598
000290 11 1c 80 3d 3d 17 9a bd 34 bc 57 3d b8 39 5d bd
       0.06255353 -0.075239636 0.05266972 -0.054010123
0002a0 aa 36 00 bd 94 04 5c 3d 78 c8 67 3d de f9 cb bd
       -0.03130213 0.053715304 0.056587666 -0.09959768
0002b0 44 c2 a1 3d 80 08 4d 3d d1 4c a4 3d 85 78 5b 3d
       0.07898381 0.050056934 0.08022464 0.053581733
0002c0 a3 04 ad 3c 5b 07 8a 3d d8 d1 90 3d d2 47 03 be
       0.021120375 0.06739684 0.070712745 -0.12820366
0002d0 88 ce 34 3e 12 f7 d1 bc e8 0a f2 3d 18 4f 80 3d
       0.1765691 -0.025630508 0.118184865 0.06265086
0002e0 e4 4a bc bd 9c 5c 55 bd 49 d8 14 3a 62 76 1c bc
       -0.09193972 -0.052090272 0.0005677981 -0.009549709
0002f0 98 df ab bd 3f 56 8f 3c f2 be 28 ba e2 a4 05 3d
       -0.083922565 0.01749718 -0.00064371445 0.032627948
000300 52 2e 20 3d ac 82 fe 3d 21 96 29 3d 44 80 15 3d
       0.039106674 0.124272674 0.04140294 0.036499277
000310 e9 0b 95 3c 1b f1 d2 3d 17 33 92 bd c7 55 81 bd
       0.018194156 0.102998935 -0.07138651 -0.06315189
000320 11 1b 68 bd 50 2c 01 3c f4 ce e1 bd 45 4f e9 bc
       -0.056666438 0.0078841 -0.11025801 -0.028480181
000330 39 a6 8c bd c3 01 01 3d 3d 56 e8 3d c4 e5 9b bd
       -0.06867642 0.03149582 0.11344574 -0.07612184
000340 c8 3b 95 bd 09 7e ce 3d de db bc bd b0 b7 d7 bb
       -0.07286793 0.10082633 -0.09221624 -0.0065831766
000350 04 8b 1d be 61 fc cb 3d b1 08 63 3d f5 b8 90 bc
       -0.15385062 0.09960247 0.05542821 -0.01766632
000360 66 d8 01 3d 05 b7 45 bd a4 18 bb 3d 14 da f5 bc
       0.031700514 -0.048270244 0.09135559 -0.030011214
000370 aa 4d 1b 3e 8f 50 21 3e 8d 53 07 3e 15 50 b2 3c
       0.15166345 0.15753387 0.13215466 0.021766702
000380 a0 90 96 bd 17 17 92 bd 84 d1 37 3d 44 39 de 3d
       -0.07351804 -0.0713331 0.044877544 0.10850766
000390 25 c8 6d bd 4c 03 88 3d 78 0e de bc b9 74 4e bd
       -0.0580522 0.06641254 -0.027106509 -0.050404284
0003a0 17 aa 99 bd 1b 7f d7 3c de 86 a0 3d 58 cc 99 bd
       -0.07503145 0.026305726 0.07838224 -0.075096786
0003b0 8d 44 48 bc 55 6b e6 3c 4b cb 09 3c 54 ea 0d be
       -0.012223375 0.028127352 0.008410285 -0.1385892
0003c0 07 78 0a 3d 3b e0 11 bd 2d 9a 8f 3c 0c 73 c1 bb
       0.033805873 -0.035614233 0.017529571 -0.0059036072
0003d0 59 0a 8b 3d 45 98 f5 bc cc 40 95 bd aa cd fe bb
       0.06789083 -0.029979834 -0.0728775 -0.007775982
0003e0 00 e3 0d bc 91 cb ad bd e0 b6 94 3d 7c d6 e6 bd
       -0.008660078 -0.08486093 0.07261443 -0.112713784
0003f0 45 40 e6 3d 01 00 8a bd a9 39 a4 bd 05 55 f8 bb
       0.11242727 -0.06738282 -0.0801881 -0.0075784945

onnx::Conv_87 f4 [32]
000000 86 af 4d bf 9b 7b 33 bd 9c 6c 17 3f ce ff dd 3e
       -0.8034595 -0.04381905 0.591501 0.43359226
000010 6a 04 af 3e f3 6f 39 bf 54 ea 38 bf 1e f9 a1 3e
       0.34183055 -0.72436446 -0.72232556 0.31635374
000020 16 98 39 bd ea fb f7 3c 9c 25 cb 3d ed 33 4c bf
       -0.045311056 0.03027149 0.09919283 -0.7976673
000030 26 1e db be a8 e7 81 bf 16 ff 0c bd 55 b6 7f 3c
       -0.4279644 -1.0148821 -0.034422956 0.015607436
000040 4a 10 10 3f 22 45 4b 3f 88 62 c2 3d db 68 2e bf
       0.56274855 0.79402363 0.094914496 -0.68128747
000050 2f 15 32 3f d8 e4 72 3f d6 91 a5 3f f4 ad 50 be
       0.69563574 0.9488044 1.2935131 -0.20378858
000060 99 d7 1f bf d6 38 3e 3f bf bf b0 3f 6a 87 94 3e
       -0.6243835 0.74305475 1.3808516 0.29009563
000070 e3 cc 56 be 5c 52 ea be 40 d5 1e 3f 2f 5b ca 3d
       -0.20976596 -0.4576596 0.62044144 0.09880673

onnx::Conv_89 f4 [32, 16, 1, 1]
000000 15 e1 bc 3e b0 2e 2e 3e 27 5d 8b be 4e b1 bb bc
       0.36890474 0.17009997 -0.27219507 -0.022911694
000010 5d 22 93 be 8c f6 7f 3e 3f 2f 72 3e cd ea 0c 3e
       -0.28737155 0.24996394 0.23650835 0.13761444
000020 b0 20 97 3e 54 c7 e5 3a 3b bf ed 3d bd c3 6e 3e
       0.29517126 0.0017530718 0.1160874 0.23316856
000030 74 ea 2c bd c5 2a be 3d b8 32 6e 3e ff 46 a8 3e
       -0.04221578 0.092855014 0.23261535 0.32866666
000040 c0 5c f7 3d 4b 5b 78 3e d6 ef f9 3d 95 a7 03 3e
       0.120782375 0.24253576 0.12203948 0.12856896
000050 6f eb b4 bd eb f5 c4 3d 09 91 1b be af a9 4f 3e
       -0.08833968 0.09617218 -0.15192045 0.20279573
000060 ea 51 d7 3d f4 37 5e 3e 22 63 90 be 06 20 a2 3e
       0.10513671 0.21701032 -0.28200632 0.31665057
000070 58 6e e1 3e df 2d aa bd 79 3b af 3e 01 4c d4 bd
       0.44029498 -0.083095305 0.34225062 -0.10366059
000080 c9 a5 a8 3e 5a 09 f5 be e3 b0 82 3e 22 1b ac 3e
       0.32938984 -0.47858697 0.2552558 0.3361445
000090 ae 52 90 3e 06 00 f0 3c 79 d2 49 3e e9 7a 9f be
       0.2818808 0.029296886 0.19709195 -0.3114846
0000a0 08 18 e1 be a9 8e 6e 3c 6b 9d 28 be 57 b7 b6 3e
       -0.43963647 0.01456038 -0.164663 0.35686752
0000b0 bf 3a b9 3e 0e f7 d6 be b9 41 1b 3b 12 f6 7d 3d
       0.36177632 -0.41985363 0.0023690297 0.06200225
0000c0 89 c9 86 3d ef 1e 4f be bb 12 e2 be 1e e8 d6 be
       0.065814085 -0.20226644 -0.44154915 -0.41973966
0000d0 70 6c 37 3e 6d 34 46 be 2e 9f ac 3e 4b 65 e6 3e
       0.1791246 -0.19355936 0.33715194 0.44999155
0000e0 e3 71 20 3e 98 14 7d 3e b4 f7 47 3e 73 cf 75 3e
       0.15668444 0.24714887 0.19528085 0.24004917
0000f0 0a 46 90 3e 9e b4 98 3e 6e 3b 28 be c5 93 1b bc
       0.28178436 0.298253 -0.1642892 -0.00949568
000100 2f 80 d2 3e 87 f7 11 3e cf a8 07 be 9b fa c9 bd
       0.4111342 0.1425458 -0.13247989 -0.09862252
000110 20 c4 b2 bc 8c 46 9b bd f2 b9 4e 3e 3a 12 16 3e
       -0.021822035 -0.07581815 0.2018812 0.1465539
000120 11 de 45 3e 1c e3 8c 3b 28 48 92 be 3d 0f 07 3e
       0.19322993 0.0042995345 -0.28570676 0.13189407
000130 2a 89 a1 3e ab 35 83 3d 9c dc a0 bc 16 ce d7 be
       0.3154996 0.06406721 -0.019636445 -0.4214942
000140 d7 eb 62 be 27 13 89 3e 4e 4e 55 bd 79 40 91 be
       -0.22160278 0.26772425 -0.05207663 -0.283695
000150 2a 66 b8 be 06 b9 01 be d3 35 ec bd ab a9 90 be
       -0.36015445 -0.12668237 -0.11533704 -0.28254446
000160 0e e5 da bc 2d 0e 73 be 2b d8 d2 3e a6 f2 ca 3e
       -0.02672055 -0.23735876 0.41180548 0.3963825
000170 5b aa 04 bd 4d ef 84 3e 62 72 8c bd 1c 41 aa 3d
       -0.032389026 0.25963822 -0.06857754 0.083132
000180 67 b5 84 3e a2 37 70 bd e6 10 2c bd a6 f4 2f be
       0.2591965 -0.058646806 -0.042008303 -0.1718317
000190 1c e3 82 be 80 0a e8 3d 07 7f 5c 3e 4c 0f ac bc
       -0.25563896 0.11330128 0.21532832 -0.021003388
0001a0 ac a9 15 bd 30 eb ef be fd 27 97 be bf 88 0e 3d
       -0.036538765 -0.4685912 -0.29522696 0.03479838
0001b0 51 d1 dc 3e 53 41 06 bf ea dc b3 be e0 19 62 3d
       0.43128446 -0.52443427 -0.35129482 0.055200458
0001c0 2a 72 cd 3e bb a8 79 be f8 fe fe 3e f1 85 29 bd
       0.40126163 -0.24380772 0.498039 -0.041387502
0001d0 13 7e ad bd 46 5a 1d bf b7 a0 05 3e df 82 bc 3d
       -0.084713124 -0.6146587 0.13049589 0.09204649
0001e0 59 3f 8a 3e 58 b5 88 be d2 b9 95 3d 56 b1 19 3f
       0.27001455 -0.26700854 0.07310833 0.6003622
0001f0 2f af 11 3f e3 09 c3 be 44 bc fe be b9 fe 89 3e
       0.56907934 -0.3809348 -0.4975301 0.2695215
000200 c8 0d 9f be 97 18 9c be 81 2b cc 3e 1b 1c 92 be
       -0.31065202 -0.3048751 0.3987694 -0.28537068
000210 5b e1 c2 3e 66 6e bb 3e d3 7c 98 be 45 b2 ff bd
       0.38062558 0.36607665 -0.29782733 -0.12485174
000220 b7 9d a0 be aa 6f ca bc 97 33 64 be a3 c6 02 3f
       -0.31370327 -0.024711449 -0.22285305 0.51084346
000230 88 d5 09 3f f0 7d ef 3d 9e f2 7f be 4f d3 d1 be
       0.5384145 0.116939425 -0.24994895 -0.40981528
000240 5b cd 99 3d 85 89 f1 3e 34 eb 92 be da b4 a1 be
       0.075098716 0.47175232 -0.2869507 -0.3158329
000250 af d7 15 3e 0a e6 01 bf 72 28 af be e1 91 01 3e
       0.14633058 -0.50741637 -0.34210545 0.12653305
000260 01 93 9b 3d 16 1b 9d be 40 80 30 bd 3b f4 ad 3e
       0.07596398 -0.30684727 -0.04309106 0.33975396
000270 2d 3d 2d 3d 7d c4 a7 be 25 9b 22 be db 13 e4 3c
       0.04229467 -0.32767096 -0.15879495 0.0278415
000280 b6 c1 22 3e 67 b8 c7 be f3 d4 57 bd 35 76 20 be
       0.15894207 -0.39007875 -0.05269332 -0.15670092
000290 21 0b c3 be b0 f6 bb 3d f0 e9 b2 be 81 23 0a 3e
       -0.38094428 0.09177911 -0.34944105 0.13490106
0002a0 e6 98 5f 3d 71 43 1e 3e 7c 07 c8 3e 3a 5c b6 be
       0.054589175 0.15455414 0.3906821 -0.35617238
0002b0 9a 08 9c be 4b 82 81 be d2 ef e7 bd 39 82 ac 3e
       -0.30475312 -0.25294718 -0.11325039 0.33693102
0002c0 86 c6 fa bc 2b 75 22 3e 23 bb 8b 3e 8e 60 4c be
       -0.030612241 0.15865009 0.2729121 -0.19958708
0002d0 b1 10 24 3e 40 67 5c be 6b 82 b1 be 59 77 9f 3e
       0.16021992 -0.21523762 -0.34669814 0.31145743
0002e0 7d fa 81 be cc 75 95 be 6e b4 a4 be c9 ed f8 bd
       -0.2538642 -0.29191434 -0.32168907 -0.12154729
0002f0 e6 b1 89 be 05 5a 96 3e 55 8a 3a 3e 91 23 f0 3d
       -0.26893538 0.29365554 0.18216832 0.11725534
000300 92 21 24 be d9 59 9e be 08 67 c6 3e ed 8e ad be
       -0.16028431 -0.30927923 0.38750482 -0.33898106
000310 46 a0 bd 3c 35 0c 90 3d 29 5b e3 3e d9 6d 3d 3e
       0.023147713 0.07033578 0.44405487 0.18498935
000320 97 cb 93 3e fd 5a 5e be b5 b0 b6 be 9b d3 9e be
       0.28866264 -0.21714397 -0.35681692 -0.31020817
000330 21 f0 95 3e b2 61 d0 be 95 2e a0 3e a4 4b f2 3d
       0.29284766 -0.40699536 0.3128554 0.118308336
000340 bc 4d 35 3e b6 a1 cc 3e 08 54 6a be 63 ac fa 3b
       0.17705435 0.39967126 -0.22883618 0.0076499446
000350 fd 6d a1 be 75 7a 79 3e 4c ee b1 bd 31 c2 19 bd
       -0.31529227 0.2436312 -0.0868803 -0.03753871
000360 b0 ac f5 bc 61 dd 9f 3e 01 b4 d1 bd 20 29 71 bd
       -0.02998957 0.31223586 -0.10239411 -0.05887711
000370 f4 67 8c be 8c 82 0c bd e8 6d 92 3e 16 8a e4 be
       -0.2742306 -0.034304187 0.28599477 -0.446366
000380 4a 88 9f be a6 1f a7 be 93 3d 4e bd 91 49 1e 3e
       -0.31158668 -0.32641333 -0.05035169 0.15457751
000390 9e 53 86 be 0a 6f 02 bf 79 77 69 bd c7 37 76 3e
       -0.2623567 -0.5095068 -0.056998704 0.24044715
0003a0 7d cf b6 be a7 ae 7f be 27 95 db be 9f 8b 35 3e
       -0.35705176 -0.24968968 -0.42887232 0.17729042
0003b0 0c 14 cf 3e f1 cc a2 3e 28 ec 56 be 20 b1 2c be
       0.40444982 0.31796983 -0.20988524 -0.16864443
0003c0 7f 0e 7b 3e 7a 98 90 3d b3 a5 91 be 6e 89 41 3e
       0.24517249 0.070603326 -0.2844673 0.18900082
0003d0 7c 66 db 3d a9 9b 02 3e ac 95 84 3e 0a 67 27 3e
       0.10712907 0.12754692 0.2589544 0.163479
0003e0 a9 bd eb 3d b9 39 83 3e 2e f4 87 3e 21 58 f2 3d
       0.11510784 0.25629976 0.26553482 0.118332155
0003f0 75 08 43 3e 05 15 1c be ea 16 78 bc 2b 21 11 3e
       0.19046195 -0.15242393 -0.015142182 0.14172809

onnx::Conv_90 f4 [32]
000000 b6 3d a4 bf 5b d2 9f bf 82 b1 ab be 11 42 6e bf
       -1.2831333 -1.248607 -0.33533865 -0.9306956
000010 3a 34 05 bf 47 c9 6f 3e b8 e7 50 3f 7e b4 20 bf
       -0.52032816 0.23416625 0.81603575 -0.6277541
000020 66 a7 03 be 9e a7 1f 3f 30 6b 61 3f fa 2c a7 3e
       -0.12856826 0.6236514 0.8805418 0.32651502
000030 6d ea 01 3e ef 28 e7 3d 2c cb 86 3f e4 e1 a2 bf
       0.12687083 0.11287104 1.0530753 -1.2725186
000040 64 8b 37 bf ec 15 ab 3f 10 36 3a be f4 61 7e 3f
       -0.7169707 1.3366065 -0.18184686 0.99368215
000050 b7 70 68 bf bd c2 9b bf 9e 6c 1a be c2 44 cb be
       -0.9079699 -1.2168804 -0.15080497 -0.39700896
000060 76 61 46 bf 69 78 0f bf a0 b3 97 3f fc 5d 8a bf
       -0.77492464 -0.56043106 1.1851692 -1.0809932
000070 06 53 c0 3e b5 9f 90 be 14 a8 e8 bd 4e 48 23 bf
       0.37563342 -0.28246847 -0.11360183 -0.63782203

onnx::Conv_92 f4 [64, 32, 3, 3]
000000 b9 49 11 bd da ed 0a 3c e3 2b 39 bd f4 d3 cc 3c
       -0.035470698 0.00847956 -0.04520787 0.02500341
000010 4c de 42 3c 05 c5 8b bc c4 4c 53 bd dd 7d 3d 3d
       0.01189382 -0.01706172 -0.05158688 0.04626261
000020 53 64 48 3d 02 65 81 bd 52 d1 9f bd 37 66 fc 3c
       0.0489238 -0.06318094 -0.078035966 0.030810459
000030 fe 60 ec b8 ae 2e 36 bc 1d d4 4b bd 7c ca 73 3d
       -0.00011271423 -0.011119528 -0.049762834 0.059519276
000040 c3 90 3b bd 92 06 3d 3d 0e b8 85 bc 16 fa bc bc
       -0.045792352 0.046148844 -0.016323116 -0.023068469
000050 91 d7 16 3c 7d 2c 9c bc 9f 13 ef 3c 7e 04 22 3d
       0.0092066685 -0.019064182 0.02918416 0.039555065
000060 8a 7b c3 3a 22 75 16 3d 00 4a 22 3d 29 cc 7d bd
       0.0014914137 0.0367328 0.039621353 -0.06196228
000070 2e 42 0f 3c 69 e2 dd bc ed 34 89 bd 37 30 e7 bc
       0.008743806 -0.0270855 -0.06699548 -0.028221233
000080 fd c3 b2 3c 91 f6 3d 3d 19 57 b3 bc 4e 23 1d 3d
       0.02182197 0.046377722 -0.021892117 0.038363747
000090 0a 0e e6 bc 94 c1 bc bb 86 fb 67 bd 14 14 9c 3b
       -0.028082866 -0.005760381 -0.056636356 0.0047631357
0000a0 21 da 47 3a fd d3 2f bd dd 2d 0b 3d 8b ab 8e 3c
       0.00076237513 -0.042926777 0.033979286 0.017415782
0000b0 76 e4 9a 3b 1a 2a 34 3d 9b c8 0d bc 77 4d 24 3a
       0.0047269417 0.043985464 -0.008653785 0.00062676467
0000c0 27 b9 0b 3d 69 fb 07 bd b6 ff 28 ba 0f 80 54 3d
       0.034112122 -0.033198748 -0.00064467953 0.05187994
0000d0 5c 27 f9 bc 24 e8 da 3b 3b d4 15 bc 9d b9 09 ba
       -0.030414276 0.0066805054 -0.009144838 -0.0005253794
0000e0 6b ba 98 bb 69 23 fa bc 7a 56 ba bc 37 f1 d8 3b
       -0.0046608946 -0.030534463 -0.022746313 0.006620552
0000f0 e2 85 3a bb b8 b5 98 bc 76 10 39 bd 34 f5 1c 3c
       -0.0028461148 -0.018641338 -0.045181714 0.009579945
000100 7d a2 57 3d 1a 25 59 3c 21 6d 08 3d c6 89 a4 3d
       0.052645195 0.013253475 0.0333072 0.08034091
000110 9d 9d 15 bc 01 72 0c 3c e7 e3 54 3c f3 c2 9b 3d
       -0.009131816 0.0085721025 0.012993789 0.07605543
000120 9e 0c 42 bd 4d 58 76 3c 4d 43 45 3c 96 a3 e6 3c
       -0.047375314 0.015035701 0.012039972 0.028154176
000130 82 a6 97 3b 5f 4a 99 bc 35 3c 64 3d 8a bd ee 3c
       0.0046280036 -0.01871222 0.05572148 0.029143114
000140 76 48 bf ba ad f8 6e 3c 01 f3 6a bc 35 41 ff 3c
       -0.0014593739 0.014585656 -0.014340163 0.031159023
000150 d4 9f 36 bd a0 e8 87 3d 3c 3c d2 3c 2d 5c a1 bc
       -0.044586018 0.066361666 0.025663488 -0.019697273
000160 4b 6c 67 bb ed d0 26 bc 6e 2f 00 3d 41 31 8c bc
       -0.003531235 -0.010181648 0.031295232 -0.01711333
000170 3e dd d0 3c f4 f4 89 3c 19 2b 66 bb 10 4a 3a bd
       0.025496121 0.016840436 -0.0035120903 -0.045480788
000180 2c 69 39 3d fc 10 4f bd 39 7b 0c bd 70 31 60 bd
       0.045266315 -0.050553307 -0.0342972 -0.054734647
000190 05 cd c2 bc 4b b6 30 bd b7 9c c7 bc 25 3b 42 3c
       -0.023779402 -0.043142598 -0.02436672 0.0118549215
0001a0 4f e5 25 bd fa 65 cc bc b5 bd c1 3a f2 e8 91 bd
       -0.04050189 -0.02495097 0.0014781269 -0.07124509
0001b0 58 a7 6a bd e4 df 78 bd a6 2d d9 bc 9c 4c 48 3c
       -0.057288498 -0.060760394 -0.026511025 0.012225296
0001c0 86 a2 55 bd d0 8a df bc 15 8f dc bc ab 70 94 bc
       -0.052156948 -0.02728787 -0.026923696 -0.01812013
0001d0 52 81 15 3d 39 f9 31 3c 70 02 3e 3b fe e9 2f bc
       0.036500283 0.010862642 0.0028993152 -0.01073694
0001e0 d9 0c 5a bb 71 c2 b5 bc 3a 87 0a 3c 29 24 c8 3c
       -0.0033271818 -0.022187443 0.008455092 0.024431305
0001f0 3a 20 ee bc 67 de 80 bc 2a 04 ce bb a7 74 5a 3c
       -0.029068101 -0.01573105 -0.0062871175 0.013333476
000200 eb 1e 5d bd a7 f8 59 bd df 17 01 bb 39 68 0f bb
       -0.053984564 -0.05321565 -0.0019698066 -0.002188219
000210 30 88 16 3d ab 1e c3 39 00 d4 66 bd 9d 14 fc bc
       0.036750972 0.00037216148 -0.056354523 -0.030771548
000220 c2 97 f0 bb b2 a3 ce 3c ca 6f 8f bb d6 ea 16 3b
       -0.0073423097 0.02522454 -0.00437734 0.0023028157
000230 af 93 2a 3c ba c3 f6 3b 2f 15 36 3d f4 4c 43 bd
       0.010411187 0.0075306566 0.044453796 -0.04768081
000240 51 ee 21 bc cc ae c4 3c 67 c7 55 bd 40 34 2d bd
       -0.009883479 0.02400913 -0.052192118 -0.042286158
000250 16 3d 31 3b fb 42 a2 bc fd 61 58 3d 02 7b 55 3d
       0.0027044467 -0.01980733 0.052827824 0.052119263
000260 77 60 49 bd 84 11 17 bd 07 92 95 3d 6e 48 94 3c
       -0.04916426 -0.03688194 0.07303243 0.018100943
000270 70 21 96 bc ec 13 be 3c 2b 15 76 bd b7 c2 f2 3b
       -0.018326491 0.023202859 -0.06007878 0.0074084657
000280 35 af 43 3c ff 55 6e 3d 4f cc 31 3b 04 33 9d 3c
       0.011943628 0.05818748 0.0027129834 0.019189365
000290 e3 d4 ae bc b9 55 88 bc 57 f4 3a bd 25 c2 9c 3c
       -0.021341747 -0.016642438 -0.045643177 0.019135544
0002a0 3b 68 17 3c 1a f1 f7 bc e4 0e 5b bd 54 0c 9f bd
       0.009241159 -0.030266333 -0.053480998 -0.07766023
0002b0 91 bd 0d bc 0b ec a3 3c 49 49 88 bd 49 59 39 bd
       -0.008651153 0.020010015 -0.06654603 -0.045251165
0002c0 21 8c 16 bd 3a 92 ce bd 83 94 fc bb a2 7f 61 bd
       -0.03675473 -0.10086484 -0.0077081337 -0.05505336
0002d0 20 9c 79 3d 0e 67 d6 3c db 0c cc bb ed f5 19 3d
       0.060939908 0.026172187 -0.0062271184 0.03758805
0002e0 d3 ac d6 3c e6 a2 c2 bb f4 78 70 3d 80 4d 34 3d
       0.026205456 -0.005939829 0.0587091 0.044019222
0002f0 be cb 12 3d 6e d3 95 bd 7c b7 b0 bc e8 d7 13 3c
       0.035838835 -0.07315718 -0.021571867 0.009023644
000300 0c 3e de ba c6 77 f1 bc ef 44 eb bb 51 73 2f bd
       -0.0016955747 -0.029476058 -0.0071798484 -0.042834584
000310 a1 23 39 bc 9e 03 03 3d 83 84 68 3c 82 76 3d 3d
       -0.0112999985 0.03198587 0.0141917495 0.046255596
000320 04 06 8b bd c5 a0 43 bc 5c 69 13 bd 15 96 13 bd
       -0.06788257 -0.011940186 -0.03598915 -0.0360318
000330 ea 07 3f 3d df 14 92 bc 90 9f 1b 3c bb e9 1c 3d
       0.046638407 -0.017832218 0.009498492 0.03830884
000340 94 60 a6 3c cb d9 33 3d 93 34 12 3c ba cb a6 bc
       0.020309724 0.043908875 0.0089236675 -0.020360816
000350 f8 0e 5b 3b 25 06 13 bd 4a 5d ea bb 42 70 ac 3c
       0.003342567 -0.03589453 -0.007152234 0.021049622
000360 4c 3f bd bc 4d c2 92 bd 60 ec 53 bd ae b9 0c bd
       -0.023101471 -0.07165966 -0.051739097 -0.034356765
000370 12 4c 8b bd ce 4f 22 bd e3 82 44 bd d1 0a 89 bd
       -0.06801619 -0.03962689 -0.047976386 -0.06691516
000380 35 7f 3f bd 0c 79 dd 3c 69 3d 25 3d c8 2f 86 3c
       -0.046752173 0.027035259 0.04034177 0.016380206
000390 2e 31 24 3d b9 a3 0d 3d 2a cc 55 bc 7a 15 0c bd
       0.040085964 0.034579966 -0.013049165 -0.03420017
0003a0 56 8b 22 3d 4f 10 08 3a 8c 5e 64 3d 99 77 a2 3d
       0.039683662 0.00051904185 0.05575423 0.07932968
0003b0 55 81 4e 3d 8d 57 3b bb 52 31 80 bc b9 68 0b bd
       0.05041631 -0.002858612 -0.015648518 -0.03403542
0003c0 3f 6b 58 3c 81 cf 8d bb f6 18 fc bc 43 42 03 3d
       0.013209163 -0.004327715 -0.030773621 0.032045614
0003d0 f6 9b 3d 3d 81 1a 0a 3d 0a 67 4a 3d 9f 41 1c 3c
       0.046291314 0.033716682 0.049414672 0.00953713
0003e0 11 7e 2b bc 6e f5 c7 b9 ee 37 80 3d 67 ee 4d bc
       -0.010467068 -0.00038139097 0.06260668 -0.012569047
0003f0 fb 13 a9 bc 7b 34 d0 bc 70 03 a6 bd 63 79 ec 3c
       -0.02063941 -0.02541565 -0.081061244 0.028866475

onnx::Conv_93 f4 [64]
000000 18 29 94 3e 81 27 ff be 2d 37 c4 be 43 07 e4 be
       0.28937602 -0.49834827 -0.38323346 -0.4453679
000010 86 f6 17 bf ed 27 c5 be 8c 44 f0 3d 16 fd 2a bf
       -0.5936054 -0.38507023 0.11731824 -0.6679243
000020 e9 ad a3 3e 66 6a a0 3e 7b db 81 3c eb da ad be
       0.3196862 0.31331176 0.015851727 -0.33956084
000030 3f a4 89 3e a6 34 7e 3e b5 7c 05 3f e6 ee ce bc
       0.26883122 0.24824771 0.5214341 -0.0252604
000040 8a 60 17 3f 66 bb 0c 3e 7b 8f 27 bf c7 02 2f bf
       0.5913168 0.13743362 -0.6545331 -0.6836361
000050 8c 10 31 3e 4b de bd 3e 35 9e 88 3e 61 78 97 be
       0.17291468 0.3708366 0.26683202 -0.2958403
000060 23 cf c2 bd ba bb 89 be 69 57 83 be 0f 03 10 3e
       -0.095121644 -0.26901037 -0.25652626 0.14063667
000070 bb d6 33 be 5c 41 22 be 64 50 d7 be 9c a1 08 3f
       -0.17562382 -0.15845245 -0.4205352 0.53371596
000080 d8 97 4b 3c 33 b1 df be 39 10 8e be a6 30 a6 3e
       0.012426339 -0.4368988 -0.27746752 0.3245899
000090 87 bd ed bc 1f 5c 5a be d5 80 87 be 82 d8 db 3e
       -0.029021038 -0.21324204 -0.2646548 0.4293862
0000a0 ab 3e bd be d0 33 99 be 67 69 25 3f 99 cf 44 bf
       -0.36961874 -0.29922342 0.64613956 -0.7687927
0000b0 78 7a 28 bf be be 9b 3e df 3a 11 bf 7c a0 da 3e
       -0.6581187 0.30418962 -0.56730455 0.42700565
0000c0 db 32 be 3e e2 77 8c bd 31 19 10 bf 92 20 65 3f
       0.37148175 -0.06858803 -0.5628844 0.89502823
0000d0 07 21 6c 3e 89 20 8d be a7 4d ed 3d e4 bc 67 3e
       0.23059474 -0.27563885 0.11587077 0.2263065
0000e0 76 16 e9 be dc e0 50 3e 40 f9 82 be 7b 6a 4e 3e
       -0.4552495 0.20398277 -0.25580788 0.20157807
0000f0 c3 f0 ba 3e a5 f2 c0 be df 91 08 bf 06 8a 93 be
       0.36511812 -0.37685123 -0.5334758 -0.2881624
